models/kl0.2 y02vae_D32_layers(128, 128, 128, 128)__banana_dim32_b0.02_sigma5.0.pt (torch, 541214 bytes, 54 tensors)

encoder.0.weight f4 [128, 32]
00000000: 88b8 89be d553 f03a 0a20 d9bc daa1 e03c
00000010: a8e6 3a3c 75b0 123f c44c 08bc b890 39bd
00000020: 178c efba 90d9 79bf c1fb d63b df46 2d3c
00000030: e2a9 b2bb 0794 22bd f573 333a 9d8d 40bb
00000040: 4929 6abe e866 373d 69c4 b2bb af84 693c
00000050: c606 933e a84d df3c 0d09 963e f604 cf3b
00000060: c8ef aabb 9182 bd3c 5ca8 64be 96ff 073d
00000070: 6105 18bc e60b 8abc ab7c d53d 1291 173c
00000080: d2ca 9b3e 2403 99bb 4c29 99be 587f 143d
00000090: 97ef ec3a 87bb b73d bccc d5bb 5ed4 06bd
000000a0: 28f3 93bb 5e81 583d 7b15 4a3b f4d7 84bd
000000b0: c730 cfbc dc41 1f3d 5566 4dbb 07f5 2e3c
000000c0: 5044 8d3e afc1 543d 3dd0 44bc cf31 ad3b
000000d0: a9a6 82be a5a8 e3bc 3d65 8c3e 15d6 b73c
000000e0: 3bf8 35be 2ac6 c5bd 1f9d a13e 5a58 ae3b
000000f0: 4e1a 0d3a 3744 f43c 36dc f53d 49e1 56bc
00000100: 4ae7 873d 90f8 a73c e584 90bd 4672 a43c
00000110: 6d3a 2dbc 5014 f83e 2647 c03b 414d fcbc
00000120: 1f40 f9ba 32d2 4c3f ae0c 133a 5fa7 8bbc
00000130: dce4 713b 2606 fa3c e280 acbc c113 1dbd
00000140: 1e36 1bbe 3c43 a4bc 9199 a0b9 b2ee 8b3d
00000150: 7623 e9be c0b0 6bbc cd64 8e3e 8ae4 c0bc
00000160: b9bc 51be 6038 2b3d 5548 95bc 82fd 493d
00000170: 1b13 a9bb 0774 103c c2aa 9a3e 0285 d83c
00000180: e1e5 d2be 1a3b 363d 278b 90be 0371 8abd
00000190: 59df 683c e8b7 96be 4afb e43b dc53 f8bb
000001a0: 3a31 d53c c02f 1a3f 9e6f 2e3c cef5 44bd
000001b0: 306b d9ba c51a 16bc ad4b f0bb 811b 373c
000001c0: a0e4 583e 0a46 783c 6b62 97ba b01f 3e3c
000001d0: 49ae 243e b61e 163d 195b dbbd eaf8 633d
000001e0: 34f5 e73d 9c78 28bd 4811 8a3e a04b 31bc
000001f0: 8c3f 473c 4d92 5dbd 42dc 8d3e 8d82 39bd
00000200: f879 0fbd b6e5 0a3a 3cf6 283e e2bb 1f3c
00000210: 55a0 8dba 313f 40be 07aa 3f3c b519 813c
00000220: e66b 3d3c 5296 7ebd c9b0 05bc 9c90 57bc
00000230: 201c dd3b af75 dd3a 1e89 c3ba cfd3 49bd
00000240: 903a 80be cfe1 31bc 2468 ec3b fd10 313c
00000250: da80 2f3e a566 0ebd 8af5 76be c235 493d
00000260: fa18 0dbe 6179 833c 2236 a83e f7a4 103c
00000270: 523c 8e3a eeae ff3b 66c2 083f d7e5 053d
00000280: 2f72 f3be 0a85 123d 63de 8e3e 0785 3bbb
00000290: 96fb 4abc cf3d 95be 8ac7 f9b8 c48b 8b3c
000002a0: a5fb c43a b0bd 0cbf eee5 be3b 1bbe 1ebd
000002b0: fc9f ea3b 55ed 393d 7b54 a3ba 5e24 053d
000002c0: cd02 8bbe f863 debc 803f 523b 8f7b 673c
000002d0: 5943 65be 90f2 15bc 2e92 ec3d 813a a4bc
000002e0: 89d9 3a3e ce0b 04bb 5fb6 bcba d481 27bc
000002f0: f9c6 213c 05b5 273d 90c2 76bd 1b86 b8bc
00000300: b509 c03e 026f 3fbd e537 50be 982b 3c3d
00000310: 3b36 b73b 6dd3 85be e24e 053c ac3e 733c
00000320: db37 23bc fac8 d1be dbc7 b23b 6550 93bc
00000330: 6494 0c3b a81d 60bd 43e4 d2bb 5956 45bc
00000340: c46b bfbe 0b79 c93b cd03 02bb 60fb ffbb
00000350: ac3c 76bd 0568 d6bc cd10 823d fc85 553d
00000360: e1d8 6c3d 042c a83c f670 fc3e c76c 5bbd
00000370: a750 0fbb 9709 c23a 29c9 8d3e c7fd 163d
00000380: d899 cdbd 216b d7bc 43b3 ac3c e790 9abc
00000390: 2c40 0dbc 922c f4be df7d 8f3b e343 a93c
000003a0: 2c41 30bb 0878 8c3e 996a c13a 3339 23bc
000003b0: 1094 b139 7d8a 123d 52e6 e93b 513f 433d
000003c0: b201 80be 8c3d a1bc c752 8dbc 495b 323c
000003d0: ddd9 e43d 2a7e bb3c 883a 5a3e 0130 18bc
000003e0: 0ede cd3e 9b9f 8b3b 3b84 89be 2ec0 343c
000003f0: fe8c f8ba cf93 5d3d 83eb 983e 2637 393c
-0.268986 0.0018335531 -0.026504535 0.027420927 0.011407532 0.573005 -0.008319084 -0.04530403
-0.0018276003 -0.975976 0.006560773 0.010575979 -0.0054523805 -0.03969195 0.0006845587 -0.0029381283
-0.22867312 0.044775873 -0.005455543 0.014252826 0.28716105 0.02725871 0.2930378 0.00631773
-0.0052165724 0.023133548 -0.22329849 0.03320273 -0.009278626 -0.016851377 0.10424169 0.009250896
0.30428177 -0.004669564 -0.2991432 0.036254257 0.0018076774 0.08971315 -0.0065246504 -0.032917373
-0.0045150705 0.05285775 0.0030835557 -0.06486502 -0.025291814 0.038881168 -0.0031341512 0.010678536
0.2759118 0.051942524 -0.0120125385 0.0052854787 -0.25517777 -0.027790377 0.2742099 0.02244095
-0.17770474 -0.096569374 0.31565186 0.005320591 0.0005382643 0.029817684 0.120048925 -0.013115236
0.06635912 0.020504266 -0.070565976 0.020074021 -0.010573012 0.48452997 0.0058678566 -0.030798556
-0.0019016302 0.8000823 0.00056094944 -0.017047582 0.0036910092 0.03052051 -0.02105755 -0.038348917
-0.15157363 -0.020051591 -0.00030631994 0.06832637 -0.45534867 -0.014385402 0.2781128 -0.023546476
-0.20482148 0.04180181 -0.018222967 0.04931403 -0.0051597483 0.008816726 0.30208403 0.02643061
-0.4119101 0.044489957 -0.28231165 -0.067598365 0.0142134065 -0.29437184 0.006987964 -0.007578356
0.02602445 0.6022911 0.010646729 -0.04808598 -0.001658773 -0.009161656 -0.00733324 0.011175991
0.21180964 0.015153417 -0.0011549717 0.011604235 0.1608211 0.036650382 -0.10710735 0.055657305
0.11326066 -0.041130647 0.2696631 -0.010821253 0.012161147 -0.0540946 0.27707106 -0.04529052
-0.035028428 0.0005298512 0.16500181 0.009749385 -0.0010805229 -0.18774106 0.0116982525 0.015759328
0.0115613695 -0.062155075 -0.008159825 -0.013157036 0.0067477375 0.0016896034 -0.0014918183 -0.049274262
-0.2504468 -0.01085706 0.007214563 0.010807273 0.17138997 -0.03476586 -0.24117103 0.049123533
-0.13779059 0.016049089 0.328538 0.008828393 0.0010851717 0.0078028357 0.5342163 0.032689895
-0.47548053 0.035771407 0.27904043 -0.0028613226 -0.012389084 -0.2914872 -0.00011910412 0.017034419
0.0015028609 -0.5497694 0.0058257496 -0.038755517 0.007160185 0.045392353 -0.001246109 0.032505386
-0.27150574 -0.027147278 0.0032081306 0.01412858 -0.22388972 -0.00915207 0.11551319 -0.020047428
0.18247046 -0.0020148638 -0.0014397613 -0.0102238245 0.009874099 0.040944118 -0.060244143 -0.022524884
0.37507406 -0.046736725 -0.20333822 0.04594001 0.0055911816 -0.26137868 0.008136483 0.014846485
-0.009962047 -0.40973645 0.0054559535 -0.017982671 0.0021450752 -0.054715782 -0.0064359023 -0.012044513
-0.37386906 0.0061484626 -0.0019838691 -0.0078119487 -0.060116455 -0.026172647 0.06350861 0.05212973
0.05782402 0.0205288 0.49304932 -0.053570535 -0.002186814 0.0014803883 0.27692536 0.036863115
-0.10039109 -0.0262962 0.021081572 -0.018867923 -0.008621257 -0.47690254 0.0043790187 0.020662254
-0.0026894314 0.27435327 0.00147565 -0.009962368 0.00033870386 0.035776604 0.007138052 0.047667805
-0.25001293 -0.019682668 -0.017251385 0.010886022 0.111743666 0.022887308 0.2131139 -0.009288789
0.40208477 0.00426097 -0.26858696 0.011032147 -0.0018962917 0.05409604 0.2986718 0.011304652

encoder.0.bias f4 [128]
00000000: 0430 b73d 891a 523e 43e8 9e3d 62a0 4f3d
00000010: 294e 333e 7cec 963d 8b94 353d 689c 0d3e
00000020: adc6 6a3e 4751 133e bcf7 723e 931e 903e
00000030: 48ad 873e d20c 113e dd9d 213e fd8b d33d
00000040: 0925 273e c988 af3d 85b4 413d 94a8 84bc
00000050: 8e69 d03d 94b6 b13d 06e8 1e3e 1825 173e
00000060: ce78 5c3e 1ba9 013e d1d0 493e b30d b43d
00000070: 26f9 113e 6369 5ebc a8b1 443e e380 d73d
00000080: 3a47 353e b023 c43d 350c 533e a8ce 563d
00000090: c5b5 0b3d 2471 2a3e f78f d93d 6055 933d
000000a0: 4366 943d 3891 d13d 9036 713d d5b0 d33d
000000b0: 2d74 5a3c f7f7 1c3e d117 4c3e 6476 263e
000000c0: 4dc7 593d ffe1 ce3d fdac 513e 1172 8c3e
000000d0: cd7c 133e a374 1f3e e7d6 213e d67d d93d
000000e0: 3b34 c73d 57ef 763d 9648 423e 4a90 da3d
000000f0: 06a8 3c3d 6b40 1b3e b415 043e a522 4e3e
00000100: cc99 313e 6488 213d 2dc4 df3d d9b3 5a3e
00000110: 6bb1 1f3e 82d5 033e 46b7 1a3e 9156 493e
00000120: 9bb0 2c3e 674a 583e 6b0d 7d3d 90d4 ad3d
00000130: c10c 8f3d 2bb5 503e 3f1b 0d3e 9ac4 063d
00000140: d71a 663e 7a24 9b3d 8867 6a3e 96d3 153e
00000150: dd9f 4e3d c91f 5f3e 9fcb 933e e14a ff3d
00000160: 4ba2 fa3d aa23 02ba e454 063e 65fa 323d
00000170: 290a 343e eeb3 d23d 5a33 3f3e 95af 383e
00000180: ba71 f33d afb8 ee3d 4a05 853e 6f02 d43d
00000190: 610d 7f3e 7011 3d3d d1a5 de3d 2c54 613d
000001a0: 2e3a e63d f887 ca3d 18de 073e 159e 0d3e
000001b0: ed6e ca3d a7a4 ef3d ab17 023d e100 343e
000001c0: 1f19 233e b0d4 4c3e c2cf 143e 8f54 773e
000001d0: aeea 073d 0492 5d3e 2f1e 4b3e af64 0e3d
000001e0: 6637 f53d ddfb a63e 1ac9 143e ab9f 883d
000001f0: 1383 2a3d 9dd9 873d de61 cc3d d251 933d
0.08944705 0.20517935 0.07759144 0.050690062 0.17510284 0.073693246 0.044331115 0.13829195
0.22927351 0.14386474 0.23727316 0.28148326 0.2649939 0.14165047 0.15782876 0.10329435
0.16322722 0.085710116 0.047291297 -0.016193666 0.10176383 0.08677402 0.15518197 0.14760244
0.21530458 0.12662165 0.19708563 0.087916754 0.14255199 -0.013574931 0.19208395 0.1052263
0.17702952 0.09577119 0.20610125 0.052443177 0.034108896 0.16644722 0.10623162 0.07194018
0.072460674 0.102327764 0.058889925 0.103364624 0.0133333625 0.15328966 0.1993096 0.162561
0.053168584 0.10101699 0.20476146 0.27430776 0.14403076 0.15571837 0.15804635 0.106197044
0.09726759 0.060286846 0.18973002 0.10672052 0.046058677 0.15161292 0.12898904 0.20130403
0.17343825 0.039436713 0.109260894 0.21357669 0.15595023 0.12874416 0.15108976 0.19661929
0.16864245 0.21122132 0.061780374 0.08487809 0.069848545 0.2038161 0.13779925 0.032902338
0.22471176 0.07575317 0.22891057 0.14631495 0.050445426 0.21789469 0.28866288 0.12465454
0.12237986 -0.0004964421 0.1311832 0.043695826 0.17582001 0.10288225 0.18671933 0.18035729
0.11886926 0.11656319 0.25980598 0.10352027 0.24907447 0.046159208 0.10871471 0.055011913
0.11241566 0.09889215 0.13268316 0.13829835 0.09884439 0.11701327 0.031760853 0.1757846
0.15927552 0.20003009 0.14532378 0.2415335 0.033182792 0.21637732 0.19835733 0.034763988
0.11973457 0.3261403 0.14529839 0.06671079 0.04162891 0.06633303 0.09979604 0.0719334

encoder.2.weight f4 [128]
00000000: fee2 983f 2495 603f 11cc 943f 6a22 8e3f
00000010: f3d2 6c3f b118 8b3f 68e1 903f aa02 753f
00000020: 8b77 583f 2ac7 453f c8f6 583f 3b53 7f3f
00000030: f4fd 333f 6dc3 873f 4e51 5c3f 58a5 7d3f
00000040: 67df 573f 14de 613f 74ab 893f 633f 7b3f
00000050: b800 8f3f c5e8 3c3f 4e5b 853f 7817 523f
00000060: 1350 513f b896 993f 89d0 463f b6b6 8b3f
00000070: 7849 353f 5e1b 9a3f f0e9 4a3f 17a4 393f
00000080: fd05 623f 3014 903f 9dba 643f 5e9c 823f
00000090: b193 773f 776c 4e3f e504 853f 774b 853f
000000a0: 3888 283f 23b5 963f b708 3a3f 90c0 6f3f
000000b0: b933 883f 4505 623f c057 383f 5dc2 5b3f
000000c0: e572 723f 3250 493f 91d5 8c3f 5889 823f
000000d0: 280c 913f d4c1 923f c7c1 473f 40dc 3f3f
000000e0: 8586 923f d925 9e3f cec6 553f 8a0a 4c3f
000000f0: 29b0 863f 0496 713f 446b 483f db3a 5e3f
00000100: ee96 603f 277b 973f 237a 583f 61d1 5e3f
00000110: 8354 573f f0ef 5f3f 807b 7d3f 1aa0 793f
00000120: fe92 1a3f 6375 583f c988 943f edec 843f
00000130: f8f7 5f3f 1c2d 783f abe3 523f 4649 743f
00000140: 77e9 843f e409 9d3f 238f 813f 4d63 7d3f
00000150: cdf2 a33f 13f7 613f 3490 673f 1753 853f
00000160: b116 4b3f f09f 933f 14ce 4e3f dac9 933f
00000170: 24bd 693f 3b8d 473f cc57 713f 70af 7d3f
00000180: e275 6d3f 4813 6b3f a9d6 543f cc23 5f3f
00000190: a6cd 6e3f 9f03 983f c85c 6f3f bb29 883f
000001a0: 4d26 663f d6a7 453f 3dd0 623f 32f6 5d3f
000001b0: 0314 773f 29fc 7f3f 5906 8a3f 15ad 833f
000001c0: 9986 843f 3994 673f 65fa 463f 4571 513f
000001d0: 62b6 533f 5a03 2c3f ee7d 573f f7d5 5f3f
000001e0: d83b 8b3f 06dc 773f b65a 773f 8113 823f
000001f0: 811f 8f3f b60e 6d3f cdfb 523f 334c 843f
1.1944273 0.8772757 1.1624776 1.1104252 0.9250938 1.086691 1.1318789 0.9570719
0.8455741 0.77257025 0.8475156 0.99736375 0.70309377 1.0606514 0.8606156 0.9908042
0.8432526 0.8822949 1.0755448 0.98143595 1.1172094 0.7379268 1.0418489 0.8206706
0.8176281 1.1999121 0.7766195 1.0915134 0.7081523 1.2039602 0.7926321 0.72516006
0.8829039 1.1256161 0.8934725 1.020397 0.96709734 0.80634254 1.0392119 1.0413655
0.65832853 1.1774029 0.7266955 0.936532 1.0640785 0.8828929 0.72008896 0.8584345
0.94706565 0.78637993 1.1002675 1.0198164 1.1331835 1.1465402 0.78030056 0.7494545
1.1447302 1.23553 0.83506477 0.7970358 1.052251 0.9436953 0.78288674 0.86808556
0.877303 1.1834458 0.84561366 0.87038237 0.8411333 0.8747549 0.9901657 0.9750992
0.6038054 0.8455412 1.1604244 1.0384804 0.87487745 0.9694383 0.82378644 0.95424306
1.0383748 1.2268643 1.0121807 0.98979646 1.2808472 0.8826763 0.9045441 1.0415982
0.793315 1.1533184 0.807832 1.1545975 0.9130423 0.77949876 0.9427459 0.9909582
0.92758 0.91826296 0.83140045 0.87163997 0.93282545 1.1876105 0.9350095 1.0637735
0.8990219 0.7720922 0.88598996 0.8670379 0.9651491 0.9999414 1.0783187 1.0287195
1.0353576 0.90460545 0.7772582 0.8181346 0.8270017 0.67192614 0.8417653 0.8743586
1.0877638 0.96820104 0.9662279 1.0162202 1.1181489 0.9260057 0.8241547 1.0335754

encoder.2.bias f4 [128]
00000000: c5d5 c63e e446 c7bd 4b6f b23e 3304 323e
00000010: 8f10 5b3e 79f4 943e 43ce 1f3c e561 353c
00000020: b5cb 0ebd 3c8b 013d e103 8a3e 86ab 223e
00000030: 2138 ed3c 0377 923e 64e1 603e 5373 c9bd
00000040: b663 b43e 6591 c5bd 8f39 043c 4756 f63d
00000050: 817f a93e 7fa9 593e c4ab 8b3c 59e4 bc3d
00000060: 893a 93be be54 b4b8 d568 273e 20e3 9e3d
00000070: 1a0c d23d bf6b 4abe e9a9 c03e 39f0 1f3d
00000080: ab79 b9bd 1036 babd 8062 a5bd 49d5 24bd
00000090: 2fa7 e7bd 5a97 933e f2e8 9a3c 8ea1 ba3e
000000a0: 7379 2c3e 5dbd 683e 05fe 253e a0e9 6f3e
000000b0: cc60 c23d 8cfe 653d 73ac ec3e e773 c73e
000000c0: 9073 3b3e b20a 533e a8b0 ecbd 4e4e c03e
000000d0: 0799 6f3e 4102 093e 5daf 063f c253 4fbe
000000e0: 6345 6abe 9346 9cbe 05c5 c03d 8978 adbe
000000f0: c82a 723e 24d3 b3bd cc0e 0abd e816 6a3e
00000100: 8b00 f63e 36d2 473e 84c8 1d3e 1ca5 903e
00000110: 1116 f43d fade bd3d 664b 833b a1bf b33e
00000120: f889 813e e57b 263e 278c 483e 47fe 073e
00000130: 234f c63e 66ed 6ebd ffba 7abd 2419 99be
00000140: 7c8d 85b9 a74a e13d 9436 f0bd b399 f1bd
00000150: dfc8 923e 4cf1 063f 2aec 593e 2aa1 223e
00000160: 360b d4bc 4d13 293f 124a 653e b630 5cbe
00000170: c6ac b13e 8355 4ebe a763 a7be b77c 523e
00000180: d6a0 933d bbb6 b4ba 9ec0 233f 4723 973a
00000190: 31dd 983e e32d 0bbe 0627 02be 9f9f 3f3c
000001a0: 96e4 1a3e ca90 14be cc55 b83d 5677 85bd
000001b0: a4f3 febb 0906 653e 464a 753d 1ecb 1f3d
000001c0: 740f e5ba 70a7 06bd 3c96 633d fd51 1dbd
000001d0: ee43 0c3e e1c0 033e bad1 8fbe cc77 fd3e
000001e0: 9366 e6bd 4124 bc3e c157 f83e 1696 153f
000001f0: 0c0b efbd e667 3e3e 83fc 71be 9369 243c
0.38834968 -0.09730318 0.34850535 0.17384414 0.21393035 0.29092768 0.0097537665 0.011070703
-0.03486224 0.031626925 0.26956084 0.15885743 0.028957428 0.28606424 0.2196098 -0.098364495
0.35232323 -0.096468724 0.008070364 0.12028175 0.3310509 0.21256064 0.017049678 0.09223241
-0.28755596 -8.598853e-05 0.16348584 0.077581644 0.102562144 -0.19767664 0.3762963 0.039047454
-0.090564094 -0.09092343 -0.08075428 -0.040242467 -0.113111846 0.2882641 0.018909905 0.3645138
0.16843204 0.22728486 0.16210182 0.23428965 0.09491119 0.056150958 0.46225318 0.38955614
0.18305802 0.20609549 -0.11557132 0.37559742 0.23398219 0.13379766 0.52611333 -0.20246795
-0.22878031 -0.30522594 0.094125785 -0.33881024 0.23649132 -0.08780506 -0.033705518 0.228603
0.4804729 0.19513783 0.15408522 0.28250968 0.11918271 0.09271045 0.004006791 0.3510714
0.25300574 0.162582 0.19584714 0.13280593 0.38732252 -0.05833187 -0.06121349 -0.29901993
-0.0002547315 0.11000567 -0.1172916 -0.11796894 0.28668877 0.5271194 0.21281496 0.15881792
-0.025884252 0.66045076 0.22391537 -0.21502957 0.34702128 -0.20149808 -0.32693216 0.20555387
0.072084114 -0.0013787368 0.63965786 0.0011530899 0.29856256 -0.13591723 -0.12710199 0.0116957715
0.15126261 -0.14508358 0.090007395 -0.06516902 -0.007780509 0.22365583 0.059885286 0.039012067
-0.0017475919 -0.032874525 0.055563197 -0.03840827 0.13697788 0.12866546 -0.28089696 0.4950546
-0.11250033 0.3674641 0.4850445 0.5843214 -0.11672029 0.18594322 -0.23631482 0.0100349365

encoder.2.running_mean f4 [128]
00000000: 2c80 ae3f 4375 c93f 34f3 bc3f d4d8 bc3f
00000010: f17d d23f 73e6 b93f 47e9 d63f acfc b73f
00000020: 226e c83f 2333 be3f c443 a73f a03d b63f
00000030: 1d19 8e3f defa c03f 6ba4 ba3f 2291 933f
00000040: be2c bd3f 68a0 a63f 05b0 ba3f 4982 613f
00000050: 30d6 f13f 7f61 a83f 3349 df3f 03b4 8d3f
00000060: 8978 b93f 34a6 bb3f fc6f a13f 47e5 c73f
00000070: d38a 923f bc3b b03f 9248 a73f 717b ba3f
00000080: 798a c43f db7f e63f e64e a13f 218d 983f
00000090: fe82 ba3f caed b33f a2ea bb3f d541 ae3f
000000a0: fe00 6e3f 0815 f93f 7f9e a63f fac0 b83f
000000b0: ad14 c43f 4144 aa3f 656f c03f aa36 8f3f
000000c0: b432 aa3f 3873 b63f 08a6 cf3f f11f c13f
000000d0: 3737 ce3f 2ff9 ce3f b3f4 ba3f 5d33 b93f
000000e0: 6703 d53f 474c 913f 16db bc3f ca06 bb3f
000000f0: 9787 ca3f 0416 b43f f146 a73f 2b4a ae3f
00000100: 4925 b23f 1cca af3f 733d a43f 19fa b43f
00000110: 2a51 9b3f b658 b93f f81d c83f 01b3 bd3f
00000120: 1d50 563f 0d42 aa3f b0b5 d93f b4a5 af3f
00000130: d75f ca3f dd43 c73f 570e ac3f 32e7 a43f
00000140: dbed a03f 6749 e13f 8278 af3f 2a8f 7c3f
00000150: 1812 ca3f 875f ce3f fa06 c73f f0f1 d63f
00000160: c8c1 a23f 0849 8d3f 644a b73f 4bba db3f
00000170: 248d d53f fb6b ba3f 91d9 8a3f 3bd1 d23f
00000180: c45d be3f 6ce3 933f 3d19 c43f 572f c03f
00000190: 7aaa b03f cb4a 9b3f f8ca b33f ffbf d33f
000001a0: 61a9 c63f 762b b83f 67be b63f e837 c43f
000001b0: d671 c23f 87ca c53f ae07 de3f caed c43f
000001c0: 2619 d03f 22c4 ca3f e174 5f3f e35e b43f
000001d0: 8977 633f ab1b 6c3f 6ad1 823f 249b a53f
000001e0: 386a c73f 3733 a03f d1d1 d03f 9f27 bb3f
000001f0: a89b cb3f e9a8 b63f d65d c13f dd7e a53f
1.3632865 1.573891 1.476172 1.4753671 1.6444684 1.4523453 1.678994 1.4373984
1.565861 1.4859356 1.3067555 1.4237556 1.1101414 1.5076559 1.4581426 1.1528666
1.4779279 1.3017702 1.4584967 0.88089424 1.889349 1.3154753 1.7444214 1.107056
1.448991 1.4660096 1.26123 1.5616845 1.1448616 1.376823 1.3069022 1.4568921
1.5354759 1.8007768 1.2602203 1.1918069 1.4571226 1.4056942 1.4680979 1.361384
0.92970264 1.9459543 1.3017119 1.4433892 1.531881 1.330208 1.5033995 1.1188557
1.3296723 1.4253912 1.6222544 1.5087873 1.61106 1.6169795 1.4605926 1.44688
1.6641663 1.1351403 1.475436 1.4611447 1.5822629 1.4069219 1.3068525 1.3616384
1.3917629 1.3733554 1.2831253 1.4138824 1.2134144 1.4480197 1.5634146 1.4820253
0.83715993 1.3301407 1.7008572 1.3722444 1.5810498 1.5567585 1.3441876 1.2883055
1.2572588 1.7600526 1.3708651 0.9865595 1.5786772 1.6122903 1.5549004 1.6792583
1.2715387 1.1037912 1.4319577 1.7166227 1.6683698 1.4564203 1.0847646 1.6470102
1.4872365 1.1553779 1.5320202 1.5014447 1.3802025 1.21322 1.4046316 1.6542968
1.552044 1.4388263 1.4276856 1.5329561 1.519099 1.5452431 1.7346094 1.5385067
1.6257675 1.5841105 0.8728772 1.4091457 0.8885427 0.9222972 1.0220158 1.293797
1.557929 1.251563 1.6314031 1.4621466 1.5906878 1.4270297 1.5106761 1.2929341

encoder.2.running_var f4 [128]
00000000: cab0 7340 fae1 9b40 bad8 8f40 099f 9140
00000010: 7349 ac40 e25c 8d40 e1d0 ba40 fcc6 8540
00000020: fce5 9740 2de4 8e40 725e 4f40 4d33 7840
00000030: a392 1440 ea6f 9640 e247 8a40 887d 2e40
00000040: b91f 8a40 2512 6640 634f 9040 88b9 d43f
00000050: 023b ee40 f957 6640 0cb9 c540 97ce 1d40
00000060: ef4d 8540 5684 8d40 0c0f 4540 0a4f a240
00000070: 42b9 2940 8c56 8240 92f9 5f40 27d3 8c40
00000080: e0c7 9440 1ef0 d440 c6dd 4140 bdea 3d40
00000090: 2a45 8f40 5279 7e40 c184 8c40 f259 7640
000000a0: c10c eb3f 1670 fd40 d2f8 6040 2784 8740
000000b0: 7ac5 9f40 b2d4 6540 bedf 9240 a3c5 1c40
000000c0: d784 6f40 a010 8940 f5ae a740 7d03 8f40
000000d0: 9bfb a640 d62f a840 5014 8640 a033 8d40
000000e0: 05b9 ba40 c570 2940 f724 8b40 545c 8a40
000000f0: 0850 a540 6fe5 8040 7e92 5f40 4910 6b40
00000100: 3fb1 7740 12b1 8140 a315 5940 d104 8040
00000110: 79e6 3a40 6609 8a40 b83f 9d40 e064 8a40
00000120: b3cf aa3f 9190 5a40 9521 bd40 b192 7b40
00000130: 307e aa40 7a1d 9a40 37a4 6a40 37c1 6140
00000140: 5f92 4840 4ec7 d340 40b1 6b40 688d fa3f
00000150: cf66 a840 3f3f a640 1e84 9640 438a b640
00000160: 2cfd 5240 c5c7 2c40 d6e8 8c40 0519 c840
00000170: 3075 b140 7794 8c40 a307 0d40 82de b040
00000180: 3b3e 9340 9a85 2d40 17ca 9140 f2b7 9440
00000190: cf1d 6e40 3d81 4740 d245 8340 f328 b840
000001a0: 74a7 9d40 bd14 8940 b234 8540 6208 9940
000001b0: ba00 9b40 dbd6 9c40 a8cb cf40 e21e 9940
000001c0: 7194 aa40 4acf a240 aa49 c53f 6017 7740
000001d0: a49b d53f e119 cf3f 0067 0040 d2f5 6540
000001e0: ef6c a040 752f 3740 ba2e af40 6555 8d40
000001f0: a5d9 aa40 dd68 8940 4927 9840 59a6 5e40
3.8076653 4.871335 4.495206 4.5506635 5.383966 4.417588 5.837998 4.18054
4.7468243 4.4653535 3.2401395 3.8781312 2.32145 4.7011614 4.3212748 2.7264118
4.3163724 3.5948575 4.5096908 1.661912 7.444703 3.5991194 6.1788387 2.4657342
4.1657634 4.4224043 3.0790434 5.0721483 2.6519322 4.073065 3.4996076 4.4007754
4.649399 6.654311 3.029161 2.9674523 4.477193 3.9761548 4.3912053 3.8492398
1.8363267 7.9199324 3.5151868 4.234882 4.992856 3.591107 4.5898123 2.4495628
3.742483 4.2832794 5.240107 4.469176 5.2182136 5.2558393 4.1899796 4.412552
5.8350854 2.647508 4.3482623 4.3237705 5.1660194 4.028007 3.4933162 3.672869
3.8701932 4.052865 3.3919456 4.000588 2.920317 4.3136473 4.914028 4.324814
1.3344635 3.4150736 5.9103494 3.9308283 5.3279037 4.816098 3.6662729 3.527418
3.1339338 6.618079 3.6826935 1.9574404 5.26255 5.1952205 4.7036276 5.7043777
3.2967024 2.699693 4.4034224 6.253054 5.545555 4.393123 2.203591 5.5271616
4.6013465 2.7112794 4.555919 4.6474543 3.7205694 3.117263 4.102273 5.7549987
4.926691 4.2837815 4.1626825 4.7822733 4.8438387 4.9012275 6.4936104 4.78502
5.3306203 5.087804 1.5413105 3.8608017 1.6688123 1.6179773 2.0062866 3.5931287
5.0132976 2.8622715 5.474454 4.416674 5.339068 4.2940507 4.7547956 3.478903

encoder.3.weight f4 [128, 128]
00000000: b211 e63b 47a2 44bd 0989 863e 4ee6 ae3d
00000010: a3a2 223e 3fdb 1a3e 6a84 983c 03ba 063e
00000020: e83a 1a3e 3486 cbbd 9b2a 243e d9a7 16be
00000030: 4e98 fd3b dd58 f0bd ebd2 8ebc 2702 40bd
00000040: 1994 e2ba ed5b 2e3d 4aed 4ebd 88ef 55bc
00000050: 9214 8fbd 6b84 4cbd 6d15 3d3e aca0 33bd
00000060: 5078 e03c 338f 70bd 34b2 e63d b8b2 833d
00000070: 1752 173e 95e9 493e 75c0 9c3c 72ae 603d
00000080: 0846 e0bd 0793 54be 9cba b93c c3d6 d6bd
00000090: 0d6f 4c3e 7716 0a3e 12c8 5fbd dd07 c63b
000000a0: b7e6 f73d 30fb 6d3d 90eb c63d c39d d13d
000000b0: db6a 133e 4671 003d 850f a8bd d0b8 ebbc
000000c0: dac9 a3bd 5357 643d c068 17bd d5a6 06be
000000d0: 63a2 5ebd 5fa2 52bd 1e7a 913d a766 2bbe
000000e0: abf2 1dbe 298f d6bd 6c08 03be f851 1d3d
000000f0: 0765 a2bd baf6 da3c 685a 8fbc 9fd5 04bd
00000100: 7e49 b53d ba16 18be 6c6a 043b e6a6 7b3d
00000110: 27fd 133e aa5a b2bc cb1d f43d fae9 d43d
00000120: fdb8 c03d b379 623d a4ba f4bd 4f8d 1e3e
00000130: 6307 0dbe f044 2d3d 4997 813d 3ced 803d
00000140: a280 62bc 0ad4 82bc f5cc febd eea1 39bd
00000150: 164f 67bd 9862 893d 83ee 50be 9870 cf3d
00000160: 9f8e bc3d a8b9 0d3e 38f0 08bc af34 5bbc
00000170: a19f 9639 47cd adba fff4 7c3a f401 0cbd
00000180: 1205 2d3d 64d7 263d 3fba 96bd cc96 12be
00000190: 1cb9 9abd a38b febd c931 6cbc d3ee 11be
000001a0: d5e3 f23d 894f dbbd 6870 033e 5fbd 6f3d
000001b0: 668c aabd 23a4 193c fd01 37be 8dea 82bd
000001c0: 9aca 543d c5d2 2a3e af6b c43b 58d1 9a3c
000001d0: 63d2 853b f6c6 de3c 02a7 7b3d b27a 8b3d
000001e0: e824 bd3d 5787 9a3e 8d5e 7f3b 29d3 e83b
000001f0: 14a9 cb3a 6a19 30bd ce47 823d 2f9a b9bd
00000200: e117 d0bd f699 db3c 0f45 193e 700b 2f3d
00000210: dd81 acbd ae56 09bd 09dd e2bd 5477 40bd
00000220: 2333 3ebc c55d 69bd 048c 903c 6266 8e3d
00000230: c43e d43d b834 64bd 14a7 2abd d7cd 5dbd
00000240: 95f4 173e bb80 87bd 58cb 7a3e c736 19be
00000250: 7960 553e 5c33 14bd f41a b7bd 76ae c7bd
00000260: 695a 8dbc 7513 0bbe 1d6b 3b3d 4532 d2bd
00000270: 9f53 37bc ea3b 783e 0630 6d3d d252 153e
00000280: d2f5 eebd 38e1 32be 427f 01bc c1c5 dcbd
00000290: 0d88 663c 851c 87bc e95c 003e 8474 fd3d
000002a0: 04a7 ac3c fe16 8a3d 704a 9f3d fc00 01bd
000002b0: 457f a7bd 8b74 0fbe bbfd 05be 27b1 b23d
000002c0: f509 4fbd 50e8 803d 31ee ccbc 7124 a6bc
000002d0: ab39 64bd 8953 fdba 3a7a 193c 8dae 6f3c
000002e0: a981 9cbb c416 473c c25a 0c3e e344 113c
000002f0: d87b c73d f8b0 683d ec43 3c3e a352 b8bc
00000300: d369 cebd d2e8 bb3b 0d53 3c3e 5e33 8c3d
00000310: 0703 3abd 861d 80bd 50ec febd 545d 833d
00000320: 2f12 4e3d 73aa 66bd e82a b7bd d5e5 15be
00000330: 33fd bcbd a66a cc3c 42b0 06be 633f 473e
00000340: 49ff 113d b7d7 bb3b f9b9 e8bd ea0f 3c3e
00000350: de97 1fbd 0887 303d 3731 dd3d 0bf4 96b9
00000360: 0e82 87bd e56d 253e d39d 523c 7370 923d
00000370: d2ca 8bbd cf1c a33d 4050 b0bc 914e 89bd
00000380: 3e6a 0c3d fb8b b0bd bd72 4cbd 4ffc 14bd
00000390: ec61 ba3d aa57 c93d 05b3 0abd f69d 433d
000003a0: ae73 1a3d c032 133e 3efb e1bc 5a56 5dbc
000003b0: 1695 073e 2c04 99bd 2353 c0bd 39ff b63d
000003c0: b67c e0bd 52a3 10bd 55aa 1e3d 05fc a93c
000003d0: 29bf 05bc 0c7a 58bd cc39 5dbd 820a d23d
000003e0: 165a 3e3e ab27 c7bd 00fc 773d 0a27 513e
000003f0: 1fce d63d 1093 853d a57c a33c 5fa1 e8bd
0.0070211524 -0.048006322 0.26276425 0.08540021 0.15882353 0.15122698 0.018617827 0.13156895
0.15061533 -0.099377066 0.16031878 -0.14712466 0.0077391034 -0.11735699 -0.017434558 -0.046877053
-0.0017286568 0.042568136 -0.050519265 -0.013057597 -0.06986345 -0.04993097 0.18465205 -0.0438544
0.02740112 -0.058730315 0.11264458 0.06430572 0.14777409 0.1971801 0.01913474 0.054853864
-0.109508574 -0.20759211 0.02267199 -0.10490181 0.19964238 0.13485132 -0.05463416 0.006043418
0.12104552 0.05810088 0.09712899 0.10235169 0.14396231 0.031358026 -0.08206085 -0.028774649
-0.079974845 0.05574734 -0.03696513 -0.13149579 -0.054354083 -0.05142438 0.0710337 -0.16738378
-0.15424602 -0.104765244 -0.12796181 0.03840825 -0.07929426 0.026728977 -0.017499164 -0.032430287
0.08851908 -0.1485242 0.0020205034 0.061438464 0.14452039 -0.021771748 0.11919745 0.1039619
0.09410284 0.055291843 -0.119496614 0.15483592 -0.13772349 0.042302072 0.063276835 0.06295249
-0.013824614 -0.015970249 -0.12441436 -0.045320444 -0.056471907 0.067082584 -0.20403485 0.101288974
0.0920689 0.13840353 -0.008358054 -0.01337926 0.00028729162 -0.001326003 0.00096495444 -0.03418155
0.042241164 0.040732756 -0.073597424 -0.14315337 -0.07554838 -0.12428977 -0.014416167 -0.1425126
0.11859862 -0.107085295 0.12835848 0.058530208 -0.0832756 0.009377512 -0.17871852 -0.06392393
0.05195103 0.16681965 0.005994282 0.018898651 0.004083918 0.027194481 0.061438568 0.06810512
0.09235555 0.3018138 0.0038966269 0.0071052504 0.001553806 -0.042992987 0.06361352 -0.09062611
-0.101608045 0.026806813 0.1496775 0.042735517 -0.08423207 -0.03352993 -0.11077315 -0.0469888
-0.011608872 -0.05697419 0.01764489 0.06953122 0.10363534 -0.05571434 -0.041663244 -0.054151382
0.14839394 -0.0661635 0.24491632 -0.14962302 0.20837583 -0.036181793 -0.08940688 -0.09750073
-0.017255025 -0.13581641 0.045756448 -0.102634944 -0.01118937 0.24241605 0.057907127 0.14582375
-0.1166798 -0.17468727 -0.007903876 -0.10779906 0.014070523 -0.016493091 0.12535442 0.12375739
0.021075733 0.06742667 0.0777787 -0.03149508 -0.081785716 -0.14009301 -0.13085072 0.087251954
-0.050546605 0.0629431 -0.025015922 -0.020281048 -0.05571906 -0.0019327264 0.00936752 0.0146290185
-0.004776199 0.012151424 0.13706496 0.0088665215 0.09740418 0.056809396 0.18385285 -0.022500342
-0.10078778 0.0057345415 0.18391056 0.06845735 -0.045413043 -0.06255631 -0.12447417 0.06414285
0.05031031 -0.056314897 -0.089437306 -0.14638455 -0.092279814 0.024953198 -0.13153175 0.19457774
0.03564385 0.0057325023 -0.113635965 0.18365446 -0.03896319 0.043097526 0.108004026 -0.00028792056
-0.06616603 0.16155203 0.012855011 0.07150354 -0.06825794 0.07964479 -0.021522641 -0.067044385
0.034281008 -0.08620449 -0.04991411 -0.036373433 0.09100708 0.09831174 -0.033862133 0.047758065
0.037707977 0.14374828 -0.027585622 -0.013509357 0.13240466 -0.07471499 -0.09390857 0.089353986
-0.10961287 -0.035312004 0.03873666 0.020750055 -0.008163252 -0.052850768 -0.054010198 0.102559105
0.18589053 -0.09724363 0.06054306 0.20425048 0.10488533 0.065221906 0.019956896 -0.11358904

encoder.3.bias f4 [128]
00000000: ba28 5c3e e083 083e 244f 383e 8613 283e
00000010: fe59 593e 9658 963e 06c1 0e3e 9bd2 6b3e
00000020: 4de7 763e 9915 6d3e 65a7 873e 48f0 463e
00000030: c4ed 183e bc03 523e 4f4d 893e 5dff 5e3e
00000040: 5dfd 7c3e a410 3c3e 9a2e 333e 8e60 003e
00000050: a77f 803e 8528 483e 4bef 523e 56a5 503e
00000060: 8b59 5c3e a556 203e b237 0b3e ec9b 043e
00000070: 81b0 413e ea46 823e d89a 163e aef9 9c3e
00000080: 254d 193e 1b11 963e b671 2b3e 880f 883e
00000090: 3af0 223e 58e0 8c3e f4dd 763e ebde 8d3e
000000a0: 7388 473e e8df 383e 2450 873e 704b 503e
000000b0: 3727 203e ddb8 653e 5710 053e 792d b03d
000000c0: e963 623e 5083 4b3e b985 ed3d 9e4b 6b3e
000000d0: 93b1 303e e47f 4a3e a4b3 3c3e 99ad 4f3e
000000e0: 81ba 803e f5c1 823e 9999 613e 64b0 a43d
000000f0: 51d1 793e 577a 153e baa4 663e 6fb8 6b3e
00000100: 0beb 283e 9225 253e 2650 1c3e 98f3 1e3e
00000110: a28c bc3e 00bd 9a3e 1671 853e 35f0 8a3e
00000120: 2d00 a33e 53fb 0d3e b762 143e 820e 923e
00000130: cacb 5b3e 6565 483e 1ef4 283e c164 563e
00000140: 342d eb3d 94c9 693e 26b3 7b3e bacd 683e
00000150: ca78 8f3e 6621 853e 80ab 1e3e 2985 3b3e
00000160: a64a e93d bc02 513e 5b3b 213e 1e31 613e
00000170: d45a 433e 42b7 863e 7280 e93d b29c 1d3e
00000180: 74d6 8e3e 8e1c 103e 464a 0c3e 8a0e 553e
00000190: b426 5a3e 2078 853e e69f 3f3e ead6 4a3e
000001a0: 4eeb d03d 2b90 303e 6c90 813e 2158 313e
000001b0: 637d ee3d 51ef 4c3e c933 503e 07fd 4f3e
000001c0: ce2d 163e 0c00 3e3e 275e b93d 5757 b13d
000001d0: 4d8c 503e ced3 603e 3671 673e 8f3e 8e3e
000001e0: 5da6 993e bd50 6e3e 49cd 743e 453a ee3d
000001f0: 801a 343e a4b9 393e 6801 783e 2a25 d83d
0.21499911 0.13331556 0.1799894 0.16413698 0.21225736 0.2936446 0.1394082 0.23029558
0.24111672 0.2315277 0.264949 0.19427598 0.1493445 0.20509237 0.26816794 0.21777101
0.24706025 0.18365723 0.17498246 0.12536833 0.2509739 0.19546707 0.20599096 0.2037557
0.21518533 0.15658052 0.13595465 0.12950104 0.18914987 0.25444728 0.14707506 0.3065924
0.14970835 0.29309925 0.16742596 0.2657435 0.15911952 0.2751491 0.24108106 0.27709135
0.19485645 0.18054163 0.2642833 0.20341277 0.1563996 0.22433801 0.12994514 0.08602423
0.22108425 0.1987431 0.11597771 0.22978064 0.17255239 0.19775349 0.18427902 0.20281066
0.2514229 0.25538602 0.22031249 0.08041456 0.24396254 0.1459745 0.22523776 0.23019575
0.16495912 0.16127613 0.15264949 0.15522611 0.36826044 0.3022232 0.2606284 0.27136388
0.31836072 0.13865404 0.14490782 0.28526694 0.21464458 0.19569929 0.16499373 0.20936872
0.11483231 0.22830802 0.24580058 0.22734728 0.28021842 0.26002043 0.1549511 0.18312515
0.11391191 0.204112 0.15745299 0.21991393 0.19077617 0.2631169 0.11401452 0.15391806
0.2789799 0.14073393 0.13700208 0.20806327 0.21303827 0.2606821 0.1871334 0.19808546
0.10201131 0.17242496 0.25305498 0.17318775 0.11645009 0.20013167 0.20332254 0.20311366
0.1466591 0.18554705 0.09051161 0.08659237 0.2036602 0.21955797 0.2260178 0.27782103
0.30009738 0.23272987 0.23906435 0.11632208 0.17588234 0.18137223 0.24219286 0.105539635

encoder.5.weight f4 [128]
00000000: df83 683f 8e7f 4c3f 487d 7d3f 216a 6c3f
00000010: 4b63 643f fea3 703f 5041 743f 0583 723f
00000020: 2d98 693f e6b0 873f 7f63 883f 310a 7b3f
00000030: 044b 9a3f 7412 6a3f 9eac 6f3f 16a8 593f
00000040: 1f04 743f dd08 7d3f 4bec 843f c866 843f
00000050: 982f 573f 6bda 673f a832 4b3f fd9d 713f
00000060: f0a9 8e3f 0e62 7c3f c4b8 743f 80ba 653f
00000070: 8665 783f 903f 823f 398f 5c3f 9c65 6c3f
00000080: acd2 773f eebb 693f 8480 723f d668 713f
00000090: f1ef 553f ae48 673f bcda 743f 8d05 833f
000000a0: a018 7c3f ab61 823f 5b3b 833f cfff 793f
000000b0: ffe2 673f 20b7 683f dff4 7e3f 728d 803f
000000c0: 60fe 643f de49 493f 1de7 893f d8d9 643f
000000d0: 7ea5 6e3f 254f 763f 9872 633f 18e3 773f
000000e0: 10c0 4c3f 4081 713f 4511 763f dedc 613f
000000f0: bc9d 7e3f 05f4 6d3f be0a 713f e56b 5f3f
00000100: 7010 833f b318 743f 785e 923f b18e 663f
00000110: d5e7 673f 0be2 8c3f 120a 7d3f 9a0b 853f
00000120: 58b7 553f 2613 7d3f 60af 613f 507f 6b3f
00000130: 8d87 6b3f 3d0e 753f 6702 743f 8c60 813f
00000140: f6d0 753f bb17 5a3f b1f9 633f 28b7 703f
00000150: bc97 683f 6ae5 783f 4f65 833f d52e 7f3f
00000160: 3a43 743f 7439 7d3f 26ac 813f 31fa 5a3f
00000170: c54a 903f 2c00 783f 9163 5c3f 1d4a 6c3f
00000180: da3a 813f 0159 763f 97eb 7f3f 85c2 8d3f
00000190: 7ca3 663f 5d85 783f 2561 863f 90cd 643f
000001a0: 8d42 793f da27 713f d2ac 863f b293 913f
000001b0: 0a5c 673f 40f9 863f b0b7 6d3f dbfb 813f
000001c0: b40d 753f 1f8b 803f ddff 453f 2352 653f
000001d0: 24c9 6c3f c040 623f e701 8f3f 3b22 823f
000001e0: c69c 623f 9e0b 7e3f f074 813f 4767 5e3f
000001f0: 629b 623f 6d07 753f 2479 703f 1dc1 833f
0.9082622 0.79882133 0.9901929 0.9234944 0.8921401 0.9400023 0.9541216 0.9473117
0.91247827 1.060086 1.0655364 0.98062426 1.2054143 0.9143441 0.9362277 0.85022104
0.9531879 0.9884165 1.0384611 1.0343866 0.84057 0.90567654 0.7937417 0.94381696
1.1145611 0.9858712 0.9559443 0.897377 0.9702991 1.0175648 0.8615604 0.92342544
0.96805835 0.9130238 0.9472735 0.9430059 0.83569247 0.90345275 0.9564626 1.0236069
0.98475075 1.0186056 1.0252489 0.9765596 0.90580744 0.90904427 0.99592394 1.0043166
0.89450645 0.7862834 1.0773655 0.89394903 0.9322127 0.96214515 0.8884673 0.9683089
0.79980564 0.94337845 0.961201 0.8822764 0.99459434 0.9295047 0.94157016 0.8727401
1.0239391 0.9535019 1.143508 0.9006148 0.9058812 1.1006483 0.9884349 1.0394166
0.83482885 0.98857343 0.88158226 0.9199114 0.9200371 0.9572485 0.95316166 1.0107589
0.96021974 0.8519246 0.89052874 0.94029474 0.9085653 0.9722506 1.0265292 0.99680835
0.9541508 0.9891579 1.013066 0.8553801 1.1272818 0.9687526 0.86089426 0.9230059
1.0096085 0.9622956 0.99968857 1.1074988 0.9009321 0.97078496 1.0498396 0.89376163
0.97367173 0.94201434 1.052149 1.1373198 0.90374815 1.0544815 0.9285841 1.0154985
0.95724034 1.0042456 0.7734354 0.89578456 0.92494416 0.8838005 1.1172456 1.0166696
0.8852047 0.99236476 1.0113811 0.8687634 0.88518345 0.95714456 0.93934846 1.0293308

encoder.5.bias f4 [128]
00000000: a598 ce3d c794 803b df9b 4b3e ee34 a9bd
00000010: 3956 393e c6b8 e63e 1874 5f3e d8ae 0d3e
00000020: 4901 303e b4bc 1f3e 8202 41bb 96db 343e
00000030: 86f3 48be 4150 b73c 702f 9c3e 758e 813e
00000040: 0437 db3e 88aa 943e d671 2a3e 3e74 94bc
00000050: 647c c03e 91f2 c5bd f782 ab3c b1f9 953e
00000060: a9d8 e53c 443c 3e3c 836c e53d a326 6b3e
00000070: c4ba 37be 5622 c33d ced4 c7be ee90 0e3f
00000080: 7291 07be f897 803e 4ff6 7b3d 81c2 b13d
00000090: 7854 553d 3e65 d13e 7948 0bbe 43b0 c03d
000000a0: 874f adbd 3f44 0fbe 5063 833d 1325 423c
000000b0: e5a7 1e3e 10e8 6b3e 1d3b b63e 6aaf a8be
000000c0: 8b7d 8b3e ed17 d53e 3aa0 8abe 946c 183d
000000d0: ad70 bebd a230 953e 4192 f43d 5d4e ae3d
000000e0: 1628 d83e 7e18 633e 1c77 e4bd 4d73 b3bc
000000f0: c4cb 303d d805 14be 28d7 f23c a76e 833e
00000100: f53b 5ebe 9841 673e 9c66 ac3d dcf6 41be
00000110: 3a0f 19bd 085d b13d 2f66 b33d a748 c83d
00000120: b507 263f 1d7d 6abd 9fab 86bd 7226 0f3f
00000130: 9b14 083d 255e cd3e df77 01bd 1525 963e
00000140: 9a76 26be 9d66 243d 9df8 9bbe 8ad4 d3bd
00000150: 6be2 103f bfc0 033e 175a 9c3e a77d 013e
00000160: 63d1 1dbe 6053 c83d 323d f9bd 6fd3 af3d
00000170: 3350 3d3e 0033 953d 2c74 01be 1e8a 09bd
00000180: 78f7 e73d 1f24 85be ef5b 9cbe 19d8 1abd
00000190: c988 833e c387 883d f048 cc3d 0bd2 0cbe
000001a0: e356 b23b fb16 04bd 8e33 bf3e 74c8 043e
000001b0: 87e8 5fbe ee57 253e c6d3 99be aa84 f7bc
000001c0: 5b30 913e a3fc 883c d23d 05bf 7ef5 6cbe
000001d0: 1b73 543e 9970 883e 4024 ab3e 8b45 3f3e
000001e0: b493 983e 84fe c93e 3997 b8bd 6541 85be
000001f0: 47cd 953b 7c53 6f3e badb f53e 454f 153d
0.100877084 0.0039239856 0.19883679 -0.08262049 0.18099298 0.45062846 0.2182163 0.13836229
0.1718799 0.15599328 -0.0029450958 0.1766189 -0.19624147 0.022377135 0.30504942 0.25304
0.4281541 0.29036355 0.16644987 -0.018121835 0.37594903 -0.096654065 0.020936472 0.29292062
0.028057413 0.011611048 0.112023376 0.22963957 -0.17942339 0.095280334 -0.39029545 0.55689895
-0.13239077 0.25115943 0.061514195 0.08679677 0.05208251 0.40897554 -0.13601865 0.09408619
-0.08462434 -0.13990878 0.06415427 0.0118496595 0.15493734 0.23037744 0.35591975 -0.3294633
0.2724422 0.41619816 -0.27075368 0.037212923 -0.09298835 0.29138666 0.11941958 0.0851104
0.42218083 0.22177312 -0.11155531 -0.021905566 0.043163076 -0.14455354 0.02964361 0.2567036
-0.2170256 0.22583616 0.08418009 -0.18941826 -0.037368037 0.086603224 0.08759724 0.09779482
0.6485551 -0.057248224 -0.06575703 0.5591804 0.033222776 0.4011089 -0.03160846 0.29325166
-0.1625618 0.040136922 -0.30463114 -0.10343273 0.56595486 0.12866496 0.30537483 0.12645589
-0.15411906 0.097815275 -0.12169875 0.0858525 0.18487625 0.07285118 -0.12641972 -0.033578984
0.11326498 -0.2600412 -0.3053889 -0.037803743 0.25690296 0.066665195 0.09974849 -0.13752
0.0054424866 -0.03224848 0.3734402 0.12967092 -0.21866046 0.16146824 -0.30044383 -0.030214626
0.28357205 0.01672203 -0.52047455 -0.23140523 0.20747034 0.26648405 0.33426094 0.18678872
0.2980019 0.39451993 -0.090132184 -0.26026455 0.00457159 0.2337169 0.480192 0.03645255

encoder.5.running_mean f4 [128]
00000000: 0612 9d3f 84ad 523f d194 943f dcfd 693f
00000010: 012f 973f 07ba ab3f 4006 b33f 1255 933f
00000020: 3077 9a3f 38a3 8f3f f0d6 903f 2043 623f
00000030: 4323 ba3f 787e 783f e433 a23f 42f5 6f3f
00000040: a4a7 b43f a2c8 9c3f bc4e c93f c06e 9f3f
00000050: 0cda 803f 2e30 8a3f 8842 803f ef4e 823f
00000060: 3e2b 9b3f 9f4c a73f 43bd 8a3f e800 913f
00000070: 2021 a13f 8d81 b53f abb4 7b3f df56 a13f
00000080: 4ba2 b13f 0d0e a03f 3943 853f a92b 883f
00000090: f93e 913f 5922 803f 189f 9b3f f29a b13f
000000a0: 2fc0 a63f 017a 983f dcb8 a83f 21e7 8e3f
000000b0: 0817 8f3f 7aa4 aa3f f499 753f a73c aa3f
000000c0: 75e4 993f 78b8 6b3f 09eb a03f bc58 933f
000000d0: 825c 923f b6dd b53f 7ec6 8c3f 7e30 a03f
000000e0: e188 833f 90e1 8d3f d2c4 b93f f5f5 513f
000000f0: da42 983f 3fb4 9d3f 55bb af3f 2e1b 703f
00000100: ae00 a83f db2b 973f ff5e a73f a671 a13f
00000110: 182f 9e3f 5f7f b33f c9a0 7e3f 7f33 c43f
00000120: b036 8a3f 82cf 8b3f fd2e 9c3f 223a 993f
00000130: 460c 9c3f 6a86 983f 7e0f 943f a502 8e3f
00000140: f6ef 923f 4b8a 993f a83e ac3f 1e29 b03f
00000150: 431d 9e3f 1875 b33f 90ee 8b3f 27f0 923f
00000160: bbd0 a93f 9304 a53f b66f 993f 4b12 933f
00000170: 8d63 7b3f e844 953f 73b8 9b3f e337 9e3f
00000180: cb83 be3f cda3 a73f 5572 a63f 8357 a43f
00000190: 87ce 593f 33d8 663f a067 923f 2854 a03f
000001a0: 46c0 a23f e5f9 903f eba6 933f cedd 9a3f
000001b0: cd32 993f 2ff3 963f e5cb 683f 524c a43f
000001c0: 41c3 993f 82d2 b33f 8664 8b3f d5bb 983f
000001d0: e84e 903f ff73 893f 49e7 b23f 34b7 af3f
000001e0: ae37 a43f 5906 9d3f 51a1 b83f 05f8 903f
000001f0: b42e 7c3f eb62 963f 5522 9b3f 4796 963f
1.2271125 0.82296014 1.1607915 0.91402984 1.181122 1.3416146 1.3986282 1.1510336
1.2067623 1.1221685 1.1315594 0.88383675 1.4542011 0.97067976 1.2672086 0.9373361
1.411366 1.2248728 1.5727153 1.2455673 1.0066543 1.0795953 1.0020304 1.0180339
1.2122571 1.3070258 1.0839008 1.1328402 1.2588234 1.4180161 0.9832255 1.2604636
1.3877653 1.2504288 1.041114 1.0638324 1.1347343 1.0010482 1.2157927 1.387541
1.30274 1.1912233 1.3181415 1.1164285 1.1178904 1.3331444 0.9593804 1.329976
1.2022845 0.9207835 1.2571727 1.1511455 1.1434481 1.4208286 1.0998075 1.2514799
1.0276147 1.1084461 1.451319 0.82015926 1.1895401 1.2320632 1.3729044 0.9379147
1.3125207 1.1810259 1.3075866 1.2612808 1.2358122 1.4023246 0.9946409 1.5328215
1.0797939 1.0922701 1.220184 1.1970866 1.2191246 1.191602 1.1567228 1.1094557
1.147948 1.1995329 1.3456621 1.3762548 1.235268 1.4020109 1.0932178 1.1479539
1.3266824 1.2892021 1.1987216 1.1489958 0.9819878 1.1661654 1.2165664 1.2360805
1.488397 1.3096863 1.3003641 1.2839206 0.8508076 0.90173644 1.1437874 1.2525682
1.2714927 1.1326262 1.1535314 1.209894 1.1968628 1.1792964 0.9093612 1.2835791
1.2012712 1.4048617 1.0890052 1.1932322 1.127408 1.0738524 1.3976833 1.3727784
1.2829492 1.2267562 1.442423 1.132569 0.98508763 1.1748937 1.2119852 1.1764611

encoder.5.running_var f4 [128]
00000000: 8620 1e40 65de aa3f 4127 0b40 1a7d d03f
00000010: f601 0740 4279 2640 0e3e 5140 a62a 2740
00000020: 47e1 1940 aa06 4140 6fa0 2940 2239 e53f
00000030: 1812 7940 ca50 a13f b07f 0640 b027 e43f
00000040: 7ae6 3940 7795 4740 436b 6f40 0cf3 4540
00000050: 5ba2 0240 1a7a 0240 5353 bb3f 73b5 1140
00000060: d6cc 3c40 100a 3140 d3cb 1a40 bee1 1140
00000070: d7cb 2b40 3036 3e40 e8ea 0640 d89c 3c40
00000080: 9348 3640 3395 fc3f 5337 fb3f 3ea3 f33f
00000090: 2c38 1e40 d5fe fd3f c4e4 0f40 243c 3e40
000000a0: 58d8 3b40 f602 1b40 684f 4440 4c87 2c40
000000b0: 2a69 f73f 8ae9 1f40 8692 1040 bec8 3a40
000000c0: 6172 1d40 cf1c df3f 84fb 3e40 1f7d fb3f
000000d0: f273 f43f 5ef4 4940 39ed 1140 0b59 1e40
000000e0: 74bf 0240 c2cd ee3f 6c32 3840 1b6c c83f
000000f0: 3afa 0540 bb51 2b40 5d43 2540 15f6 d13f
00000100: 579f 3a40 b459 1c40 99da 4440 7c6b ed3f
00000110: 8dd8 df3f e500 6a40 a23b e03f 613e 2a40
00000120: 31f3 0240 a0ea 2040 4bef 0740 1ab7 2040
00000130: 2a8b 2240 f2f0 3640 f9b1 df3f 36f2 2a40
00000140: 31d9 1e40 d57f 2040 3a17 3140 0e10 1e40
00000150: 82ea 2d40 ebab 4440 562b 3440 6f58 3940
00000160: 4523 3740 a073 1a40 eb0d 3040 03ee f03f
00000170: 7617 1840 b6de 0840 5858 1d40 9574 db3f
00000180: d4db 3e40 4f73 1d40 978c 4240 862f 4940
00000190: a3ef e23f b60e fc3f ccb4 2340 0868 1540
000001a0: 395d 2a40 d92b 2240 6ce3 3a40 cdd8 3040
000001b0: cff4 0840 1bc2 2f40 9ad9 f43f a9b8 3940
000001c0: 1a36 3440 6985 2d40 402f 0540 f80c 1b40
000001d0: 6e6a 0e40 8092 f73f ae96 4640 3971 5940
000001e0: 3c26 1540 9ac8 4740 7177 4b40 9942 1940
000001f0: 1b63 ce3f 53ce 1c40 9c92 1740 f0da 3040
2.470735 1.334912 2.1742709 1.6288178 2.1094947 2.601151 3.2694125 2.611978
2.4043748 3.0160317 2.650417 1.790806 3.8917294 1.260278 2.1015434 1.7824612
2.9046922 3.1184976 3.7409217 3.0929594 2.0411594 2.0387025 1.4634804 2.2766998
2.9500022 2.7662392 2.4186904 2.2794032 2.6843164 2.9720573 2.1080875 2.947073
2.8481796 1.9733032 1.9626259 1.9034193 2.4721785 1.9843394 2.2483377 2.9724207
2.9350796 2.4220557 3.0673466 2.6957579 1.9328969 2.498629 2.258943 2.9185023
2.4601061 1.7430667 2.9841013 1.9647559 1.9097884 3.15554 2.280104 2.4741848
2.0429354 1.8656542 2.8780775 1.5657991 2.0933976 2.6768634 2.5822365 1.6403223
2.9159753 2.442975 3.0758421 1.8548427 1.7487961 3.6563046 1.7518198 2.6600573
2.0460932 2.5143204 2.1239803 2.5111756 2.539744 2.8584561 1.7476188 2.6710334
2.4820063 2.5078022 2.7670426 2.46973 2.7174382 3.072993 2.815145 2.8960226
2.8615277 2.4133072 2.7508495 1.8822635 2.376432 2.1385932 2.458517 1.7144953
2.9821672 2.4601629 3.039831 3.1435256 1.7729381 1.969199 2.55791 2.3344746
2.6619399 2.5339262 2.9201307 2.7632325 2.139942 2.7462223 1.9128907 2.9018958
2.815802 2.7112677 2.081009 2.4226665 2.225246 1.9341583 3.1029468 3.3975356
2.3304586 3.1216187 3.1791651 2.3946898 1.6123995 2.450093 2.3683233 2.763363

encoder.6.weight f4 [128, 128]
00000000: 556b 183e 28e1 073e ea4c 2e3d c30c 2cbd
00000010: 8fd7 3bbc adfd f5bd f708 a03a 458c be3d
00000020: 0990 523d ecc7 ee3d 8c59 1d3e 959b 07bd
00000030: 3b0f 83be a2b3 d8bd 3801 043d 6ccd 7f3e
00000040: 68eb 423d 81ec 233e a37c d6bd 611f 48bd
00000050: eecd a6bd d09f f83d 3e53 963d 118b 623d
00000060: 588e 40bc 47c0 2b3e 6b10 52be 70ce febd
00000070: 261c 41be aab9 8b3d 14e0 733d 091f 543e
00000080: 3a5a 0ebe 5063 473e db5f 12be 0cc2 b13b
00000090: 6e27 483d d1fc 50bd a14d f73d 35b5 b33c
000000a0: 8351 d9bc b580 26be 7f42 6dbd 6484 f83d
000000b0: 9327 473d 0215 1cbe d198 a73d 5b3a 563d
000000c0: 9598 163e d65d d5bd b148 e9bd 5d15 12ba
000000d0: e709 873e 7eb3 f8bd a6cc 6ebc 1139 c1bc
000000e0: 7f94 323e 9395 c4bc 69b8 88bd ac51 8f35
000000f0: 51ac 28bd 0047 b53d 23d1 8c3b 18f5 1ebd
00000100: a956 83bd 00c5 63bc c111 d73d a89b a5bd
00000110: 79ee 3b3e 0581 003e 87bb 32bd 8d9d 57bd
00000120: 91d2 463d 6039 af3d 3b8a 5a3d c2ec fabc
00000130: bbfd 8bbd 7103 f63d 253f 1ebe 135e 123c
00000140: 8b2e 84bd b7d4 cebd 526c 37bc 8ef5 c23d
00000150: 3ca6 0b3e f562 8a3b 31b5 f0bd c37c 8a3e
00000160: 58c2 433b f22f ebbd 4b77 443d c68f 3ebb
00000170: 8e2d 62bd 1b94 77bd 7c02 253d 911f 24be
00000180: 61b2 a73d 93db bdbd 8928 8abc 0929 b8bd
00000190: 42bb 3f3e a645 933c b731 d93d a992 083e
000001a0: b189 6dbd fcfd 29be ac73 06bd 64f5 1c3e
000001b0: 3e91 853c 8eae 303e e4c2 233e b966 edbd
000001c0: 9b81 263b 56b4 2c3d 82fe 253d 0249 83bc
000001d0: d537 c53c caf0 82bd cd93 7bbd 798e a13d
000001e0: 7f91 3a3c c806 0c3e c014 90bd 5aea 2dbd
000001f0: 63ea 39be abe8 59bd 5f6e b8bd ca4e ebbd
00000200: 0843 8bbd 11f1 853b 6fda 883c 4039 b73c
00000210: 24da 2fbe e65f 8abd 77d2 3cbc ba05 643d
00000220: ec11 2ebd 5570 553e aa79 1c3e c1b1 ca3d
00000230: 92b1 5fbe 5550 d6bd ce2c 773d 4432 f13d
00000240: 1d72 15be 05bc dfbd dfd1 99bd d907 40bd
00000250: a5a0 153e b877 bc3d 289f 17bd 0026 813d
00000260: 3e93 093b c425 d8bd cd04 973c 0627 d03b
00000270: fca9 bf3d 60de 173d 2d7d ad3d 74e8 2a3d
00000280: 65bf fbbd d7c4 f7bb 7261 85bd f897 5bbc
00000290: bc1a c33d a5b6 01bc 3a7b 733e 3ae2 603d
000002a0: 2ec4 013d 3c19 f3bd 77e4 183e d209 133b
000002b0: 287c 7ebd 485a 8abc 8d4b e23d 44ff 8c3d
000002c0: 2b6d 42bc 8c5b 18bc 0981 df3c 99fe d2bc
000002d0: 7427 973d 4293 b33d a155 2cbd b864 423e
000002e0: db31 463e 60e9 ab3c e996 81be 2462 04be
000002f0: 8835 54bd c517 81bd ac5a 0cbd c1a4 ba3d
00000300: ed1f 193e fe5e 093e 2035 2b3e a6ce 4b3d
00000310: 1a50 e1bd 3958 79bd a044 0f3e 825f 26be
00000320: 52a4 f9bc e6f4 b53d c797 d43c 22b8 013e
00000330: 3549 ac3c b66c 173e 5357 c73d ed03 03be
00000340: 9c88 723d 7a38 8ebd 5363 0fbd 133c cebd
00000350: b7c8 8ebb 4601 5a3e 7073 5fbd 20c3 1fbd
00000360: e3de ebbb 7ab1 43bc a898 b1bd c4a6 30bd
00000370: 0895 483d 87bc 3bbd 3005 e6bd f212 90bc
00000380: 14b2 04be 3289 dcbc bbaa 77bd 4b46 053d
00000390: 6531 0c3e 53b6 81bc c051 9c3c 44fc 23bd
000003a0: 027f 9cbd 7b9c b63d c663 22bd 8f14 5dbe
000003b0: 883a b1bd 9a9f b7bc 0a31 353e f57d 063c
000003c0: 5e5a eebd 7144 023e 4b71 2ebe ff4f cdbd
000003d0: 7a01 91bd 29c0 54be 4299 94bd de8c 7dbd
000003e0: 390e 5fbd 5fa2 eb3d 8345 243e 00ef ea3c
000003f0: 2f2f 84bd d832 ddbd 9c7c 393e 8e28 80bd
0.14884694 0.13269484 0.04255382 -0.042004358 -0.011464967 -0.120112754 0.0012209703 0.09304098
0.051406894 0.11659226 0.1536619 -0.03310736 -0.25597557 -0.10581137 0.032227725 0.24980706
0.047587782 0.16008188 -0.10472991 -0.04885805 -0.08144747 0.12139857 0.07340096 0.055308405
-0.011752687 0.16772567 -0.20514075 -0.124417186 -0.18858394 0.06822522 0.05953987 0.20714964
-0.13901606 0.19471478 -0.14294378 0.0054247435 0.048865728 -0.051022355 0.120753534 0.021936992
-0.026528126 -0.16260035 -0.057924744 0.121346265 0.048621725 -0.15242389 0.08183444 0.052301746
0.14706643 -0.104182884 -0.11390818 -0.00055726414 0.26374742 -0.121436104 -0.014575159 -0.023586782
0.1743946 -0.023997104 -0.066757984 1.06781e-06 -0.04117996 0.08851433 0.004297392 -0.03880796
-0.064130135 -0.013901949 0.10501433 -0.0808633 0.18352689 0.12549217 -0.04363587 -0.052640487
0.048540656 0.08555865 0.053354483 -0.030630473 -0.068355046 0.12012375 -0.15453775 0.008933562
-0.0645419 -0.10099166 -0.011195259 0.09519492 0.13637632 0.0042232224 -0.117533095 0.2704831
0.0029870477 -0.11483754 0.04796533 -0.0029077395 -0.055219226 -0.06044398 0.040285572 -0.16027667
0.0818832 -0.09270396 -0.016865032 -0.08992202 0.18723777 0.017977547 0.106051855 0.13337196
-0.05799264 -0.16600794 -0.032825157 0.15327984 0.016304608 0.17254087 0.15992314 -0.115918584
0.002540684 0.04216417 0.04052592 -0.016026024 0.024074474 -0.06393583 -0.06142025 0.07888503
0.011387228 0.13674462 -0.07035208 -0.042459823 -0.18155818 -0.053200405 -0.090054266 -0.11489637
-0.067998946 0.0040875752 0.01670572 0.022366166 -0.17173058 -0.067565724 -0.011524788 0.055669524
-0.04249756 0.20843633 0.15280786 0.09897185 -0.21845081 -0.10464541 0.060345463 0.117771655
-0.14594312 -0.10924534 -0.07510733 -0.046882484 0.14612062 0.09202522 -0.037017018 0.06306076
0.0020992304 -0.10554078 0.018434906 0.006352308 0.09358594 0.037077308 0.08471141 0.04172559
-0.12292365 -0.007561307 -0.06512727 -0.013402931 0.095265836 -0.007917081 0.23777476 0.054903246
0.031681232 -0.118700475 0.14930902 0.0022436273 -0.062130123 -0.016888753 0.110495664 0.068846256
-0.011866848 -0.00929917 0.027283208 -0.025756167 0.07380572 0.087683216 -0.04207385 0.18983734
0.19354956 0.020985305 -0.25310448 -0.12928063 -0.051808864 -0.06303362 -0.03426616 0.091134556
0.14953585 0.13415143 0.16719484 0.049757622 -0.11001606 -0.06087515 0.13991022 -0.16247371
-0.030473862 0.08884601 0.02595128 0.12667897 0.021031002 0.14787564 0.09733453 -0.12794466
0.059212312 -0.06944366 -0.035006832 -0.10070052 -0.004357423 0.21289548 -0.05455345 -0.039004445
-0.007198201 -0.011944169 -0.08671695 -0.04312779 0.048970252 -0.04583409 -0.11231458 -0.017587159
-0.12958556 -0.026920889 -0.060465556 0.03253774 0.13690718 -0.01583401 0.01908195 -0.0400355
-0.07641412 0.08916565 -0.039645933 -0.21589874 -0.08653742 -0.022414971 0.17694488 0.008208741
-0.1163833 0.12721421 -0.17035405 -0.10025024 -0.0708036 -0.20776428 -0.07255794 -0.06190192
-0.054456923 0.11505579 0.16042142 0.028678417 -0.06454312 -0.10800713 0.18113941 -0.06257735
