models/y01vae_dim_2_banana.pt (torch, 410252 bytes, 22 tensors)

encoder.0.weight f4 [128, 2]
0	0xbca212c2	-0.019784335
1	0x3dfc68df	0.1232469
2	0x3d9d6dad	0.076869346
3	0x3dcb2436	0.09919016
4	0x3dad2ae7	0.084554486
5	0x3e29ff7f	0.1660137
6	0xbe26192a	-0.16220537
7	0x3dad1e2a	0.08453019
8	0x3dc6cfbb	0.0970759
9	0x3d85e268	0.06537324
10	0x3d98e9f7	0.074665
11	0xbdb1fb22	-0.08690478
12	0xbe0c4816	-0.13699374
13	0xbe2f5a6c	-0.17124337
14	0x3cb2db6d	0.021833146
15	0x3e0e7d73	0.13915043
16	0x3e1d69bb	0.15372364
17	0xbe32249f	-0.17396782
18	0xbcf7c58f	-0.03024557
19	0xbda658b3	-0.08122387
20	0x3cc64e3d	0.024207229
21	0x3def5872	0.116867915
22	0x3dfa2481	0.12213994
23	0xbe61c8d2	-0.22049263
24	0x3d866ef7	0.065641336
25	0xbe327dd8	-0.17430818
26	0xbda348a6	-0.07972841
27	0xbd9b7e14	-0.07592407
28	0x3e1f39c4	0.1554938
29	0xbe290d60	-0.16509008
30	0x3b69eb92	0.003569339
31	0x3dde5a18	0.10857028
32	0x3c8bbf19	0.017058896
33	0xbe16d32a	-0.1472899
34	0xbe296bae	-0.16544983
35	0xbdc56527	-0.09638434
36	0xbde7949e	-0.11307643
37	0xbd5a501a	-0.053299047
38	0x3e205480	0.15657234
39	0xbdad297d	-0.08455179
40	0xbc504cd6	-0.012713632
41	0xbd073ce7	-0.033017065
42	0xbddd9611	-0.108196385
43	0xbdab0b77	-0.08351796
44	0x3e086ee4	0.13323551
45	0xbdabd860	-0.0839088
46	0xbdce8cca	-0.10085447
47	0xbd2ed7d0	-0.042686284
48	0xbdc83f16	-0.09777658
49	0xbe6fa39f	-0.2340226
50	0x3cc200c5	0.023682008
51	0xbd0a9111	-0.033829752
52	0xbc090a2e	-0.008364243
53	0x3db9a87b	0.09065338
54	0x3dc76270	0.09735572
55	0xbd806ef6	-0.06271164
56	0xbe1ba2bb	-0.15198795
57	0xbe2bccbb	-0.16777317
58	0xbc8b0c91	-0.016973766
59	0x3e280adc	0.16410393
60	0x3decacae	0.115563735
61	0xbe37d77a	-0.17953292
62	0x3c0e8cdf	0.0087005785
63	0x3df57735	0.119856276
64	0xbe20eb9d	-0.1571488
65	0xbde1abf2	-0.11019124
66	0x3d86d3de	0.06583379
67	0x3dca6dcc	0.09884223
68	0xbdd5325d	-0.10409997
69	0x3db2d2ea	0.08731635
70	0xbc271e12	-0.01020004
71	0x3e1c343f	0.15254305
72	0x3ca08755	0.019595781
73	0xbdf20311	-0.11816991
74	0x3e24e00d	0.16101094
75	0x3cb30139	0.021851169
76	0xbae54ec0	-0.0017494783
77	0xbd8e4c29	-0.0694812
78	0xbdc27c66	-0.09496383
79	0xbd3723c9	-0.04471186
80	0x3e276c1b	0.16349833
81	0xbe856160	-0.26050854
82	0x3ba640e8	0.0050736554
83	0x3dde72cf	0.10861742
84	0x3e281046	0.16412458
85	0xbc4f0cf1	-0.012637363
86	0xbdc90116	-0.0981466
87	0x3e57467c	0.21022981
88	0x3c9ecb96	0.019384187
89	0xbcaa37a5	-0.020778487
90	0xbc07cfc0	-0.008289278
91	0xbdd42a8b	-0.10359677
92	0x3e33f970	0.17575622
93	0x3d0a6354	0.033786133
94	0xbd03cb8a	-0.03217653
95	0x3ce43bec	0.027860604
96	0x3b11bb80	0.0022237003
97	0xbe432fd1	-0.1906121
98	0x3d97de9c	0.07415506
99	0x3e22bd9d	0.15892644
100	0xbe2cc950	-0.1687367
101	0xbe151019	-0.14556922
102	0xbe18fc76	-0.14940056
103	0xbc3c36c0	-0.011487663
104	0x3e281d0b	0.16417329
105	0x3e17b0c9	0.14813532
106	0x3de3d27b	0.1112413
107	0x3e586f81	0.21136285
108	0xbdd6863c	-0.10474822
109	0x3dbfb573	0.093607806
110	0x3ccd8c7a	0.025091399
111	0xbda665bb	-0.08124872
112	0xbe25a8d8	-0.1617769
113	0x3d81ebbc	0.06343791
114	0x3a4b53f3	0.0007756345
115	0xbc479180	-0.012180686
116	0xbc76b065	-0.015056704
117	0xbd9c4270	-0.076298594
118	0xbdf86412	-0.12128462
119	0x3d93b78d	0.07212744
120	0x3dbc6f50	0.09200919
121	0xbd84c57f	-0.06482982
122	0xbcf38154	-0.029724754
123	0x3dedfb32	0.11620177
124	0xbe436403	-0.1908112
125	0x3e2a73b3	0.16645698
126	0x3d7ccb93	0.06171758
127	0xbd300c22	-0.04298032
128	0x3b80c2d4	0.0039294753
129	0xbdd0d035	-0.10195962
130	0xbc9d7128	-0.019218996
131	0xbc41a1bb	-0.011818345
132	0x3cd15a85	0.025555858
133	0xbc8e67af	-0.017383425
134	0xbe375318	-0.17902792
135	0x3e1f9e25	0.15587671
136	0x3e2bbb45	0.16770656
137	0x3e26a75a	0.16274777
138	0x3dcac53f	0.09900903
139	0xbc5e5305	-0.013569598
140	0xbd3960db	-0.045258384
141	0x3db7716a	0.08957179
142	0xbdaabf76	-0.083372995
143	0xbe1b365e	-0.15157458
144	0x3e321c8f	0.17393707
145	0xbd837b32	-0.06419982
146	0xbd374b0b	-0.0447493
147	0xbe2caf2a	-0.16863695
148	0x3e2b8290	0.16749024
149	0xbe1287e2	-0.14309648
150	0x3e2f3aa3	0.17112212
151	0x3d71d83b	0.059044104
152	0xbd99bc48	-0.07506615
153	0xbd8841ff	-0.06653213
154	0xbe1d96a9	-0.15389504
155	0x3dc846e8	0.09779149
156	0xbd0c3786	-0.03423264
157	0xbc628b80	-0.013827205
158	0x3dfc98a5	0.12333802
159	0xbe256a82	-0.16153911
160	0xbdd3607f	-0.103211395
161	0xbe22369c	-0.15841144
162	0xbd0be0d2	-0.034149952
163	0x3d626913	0.055275988
164	0xbe0db133	-0.13837127
165	0x3e168932	0.14700773
166	0x3d136c36	0.03599187
167	0x3e2397cf	0.15975879
168	0xbe20b138	-0.15692604
169	0x3d965e3e	0.07342194
170	0xbc8b76e4	-0.017024465
171	0x3d9761a2	0.07391669
172	0xbe3a9356	-0.18220267
173	0xbd971926	-0.073778436
174	0x3e04cc4d	0.1296856
175	0x3e0eb9f6	0.13938126
176	0xbdfaab45	-0.12239698
177	0xbd964d17	-0.073389225
178	0x3bb3919d	0.005480005
179	0x3db922d4	0.09039846
180	0xbd9fa849	-0.0779577
181	0xbd8cd6a7	-0.06876879
182	0x3e17ca36	0.14823231
183	0x3e46a9b3	0.19400673
184	0xbd8912a7	-0.06693011
185	0xbe23c807	-0.15994273
186	0x3c02d9e2	0.007986518
187	0x3d0e1fd2	0.034698315
188	0xbd908051	-0.070557244
189	0x3e19061e	0.1494374
190	0x3d92bfa5	0.071654595
191	0xbca24408	-0.01980783
192	0xbe112c3f	-0.14177035
193	0x3d496a5f	0.04917371
194	0xbc2f0723	-0.010682854
195	0xbd954635	-0.072887816
196	0x3c1c2a5f	0.009531586
197	0xbdee9463	-0.11649396
198	0x3e405b86	0.18784913
199	0x3e03cac9	0.12870325
200	0x3d68ac5a	0.056804992
201	0xbe0029fa	-0.12516013
202	0xbcf55c38	-0.0299512
203	0xbdbc3235	-0.09189264
204	0x3dec53e8	0.11539441
205	0x3d0dbadc	0.03460203
206	0xbe37da74	-0.17954427
207	0x3e27cea4	0.16387421
208	0xbc8addf6	-0.016951542
209	0x3d947ba0	0.07250142
210	0xbe1127c4	-0.14175326
211	0xbd7e08df	-0.06202018
212	0x3dd84bc3	0.105613254
213	0x3c8f8027	0.017517162
214	0xbdc723c0	-0.09723616
215	0x3e0d12c1	0.13776685
216	0xbdbc62a1	-0.091984995
217	0xbe334aa1	-0.17508937
218	0xbd3864c9	-0.04501799
219	0xbd9f24b5	-0.07770673
220	0x3d95fd56	0.073237106
221	0x3d6051b2	0.05476541
222	0x3d2f5906	0.04280951
223	0xbd34ca45	-0.04413821
224	0xbddc2af9	-0.10750384
225	0x3da2f3b9	0.07956643
226	0xbcfa4fe1	-0.030555667
227	0xbdeb9aa7	-0.11504107
228	0xbcaef7e4	-0.021358438
229	0xbd9103a0	-0.070807695
230	0x3dec1659	0.115277
231	0xbe16e415	-0.14735444
232	0xbc97e391	-0.01854113
233	0x3de744d0	0.11292422
234	0xbdef570e	-0.11686526
235	0x3e3880ea	0.18017927
236	0xbdc4ef62	-0.09615971
237	0xbe0dade4	-0.13835865
238	0xbe1f12d3	-0.15534525
239	0x3e329aa7	0.17441808
240	0xbdf17de5	-0.117915906
241	0xbdc31a06	-0.09526448
242	0x3d140899	0.036141012
243	0xbe423f0c	-0.18969363
244	0xbe468fa2	-0.19390729
245	0x3d8ca79d	0.06867907
246	0xbd456f51	-0.048201863
247	0x3b2c2abf	0.0026270596
248	0xbe377cd5	-0.17918713
249	0xbe6fae2c	-0.23406285
250	0x3d8085c4	0.06275514
251	0x3d2ed79f	0.0426861
252	0xbe04a5e9	-0.12953915
253	0xbd644bc5	-0.055736322
254	0xbe08566e	-0.1331422
255	0x3e5b9e22	0.21447042

encoder.0.bias f4 [128]
0	0x3d2fee75	0.04295202
1	0x3b7a7366	0.0038215755
2	0xbd0dc198	-0.034608454
3	0xba8705df	-0.0010301432
4	0x3c5b0232	0.013367223
5	0xbd18d013	-0.03730781
6	0xbd1e1fbc	-0.038604483
7	0xbbaff9d6	-0.005370359
8	0xba65834f	-0.0008755223
9	0xbc4a69d2	-0.012354331
10	0xbc3ebc2f	-0.011641546
11	0xbd38a3c5	-0.045078058
12	0xbd4b311c	-0.04960738
13	0xbdf270cb	-0.1183792
14	0xbcdc1b89	-0.026868599
15	0x3d3c095b	0.04590736
16	0xbc079d67	-0.008277274
17	0xbd39ce3b	-0.045362692
18	0xbd089722	-0.033347256
19	0xbcc0169e	-0.023448285
20	0xbc992b6d	-0.018697465
21	0xbd7cfb06	-0.061762832
22	0xbc5e4148	-0.013565369
23	0xbc22f13f	-0.009945213
24	0xbdfd29d1	-0.123614915
25	0x3a859866	0.0010192513
26	0xbe00cd21	-0.1257825
27	0xbc4ca9bb	-0.012491639
28	0xbca6a06b	-0.020340165
29	0xbd2c7657	-0.042105045
30	0xbd12e542	-0.03586317
31	0xbc167c99	-0.00918498
32	0xbc29996c	-0.01035152
33	0xbd318694	-0.043341234
34	0xbc4da6ac	-0.012551945
35	0xbc3b0c1e	-0.011416463
36	0xbcbe4306	-0.023225319
37	0xbc5ad3fa	-0.013356203
38	0xbd0b46d8	-0.03400311
39	0xbc4bf38a	-0.012448201
40	0xbcc8f7b8	-0.024532184
41	0xbe22349e	-0.15840384
42	0xbcd1a3d1	-0.025590809
43	0x3bd36fbc	0.0064525288
44	0xbc01feff	-0.007934331
45	0xbd803b1b	-0.062612735
46	0xbcd69f01	-0.026198866
47	0xbe15cef4	-0.14629728
48	0xbd10a970	-0.03531784
49	0x3cfe4567	0.031038953
50	0xbbcc5e77	-0.006236847
51	0xbd1c8529	-0.03821293
52	0x3b8afb5f	0.0042413916
53	0x3b905f0b	0.0044058613
54	0x3c49d48c	0.0123187415
55	0xbdaa6331	-0.083197005
56	0x3c0fd05b	0.008777703
57	0x3dd05006	0.10171513
58	0xbd209176	-0.039201222
59	0xbbbcd13c	-0.0057622474
60	0xbb8c1da8	-0.0042759962
61	0x3ca49f71	0.020095559
62	0x3a9fcdf9	0.0012192122
63	0xbcf67839	-0.030086624
64	0xbd8f9117	-0.070100956
65	0xbe02e11f	-0.1278119
66	0xbe06e25c	-0.13172287
67	0x3bc859d9	0.0061142263
68	0xbc0dc1af	-0.008652135
69	0xbd4c365b	-0.049856525
70	0xbca261d6	-0.019822042
71	0x3bc60ba6	0.006043869
72	0xbca4befa	-0.020110596
73	0xbd9f4696	-0.07777135
74	0xbcc2ab92	-0.023763452
75	0x3ad915ef	0.0016562323
76	0x3c73f29d	0.0148893865
77	0x3cb3eaaf	0.021962492
78	0xbd147bc3	-0.03625084
79	0xbd98bfbc	-0.074584454
80	0xbb03dca6	-0.002012053
81	0xbc78712d	-0.015163702
82	0xbc3150ef	-0.010822519
83	0x3d0dfc49	0.034664426
84	0x3aabacda	0.0013097778
85	0xbddd7add	-0.1081445
86	0xbd054140	-0.03253293
87	0x3ab53628	0.0013825344
88	0xbc93a8a6	-0.018024754
89	0x3cd7b8c1	0.026333215
90	0x3b79cdfb	0.0038117159
91	0x3caae649	0.020861762
92	0xbbe75ef8	-0.0070608817
93	0x3e2b3e38	0.16722953
94	0x3cb99093	0.022651946
95	0xbd23a1b4	-0.039949134
96	0xbc310e01	-0.010806561
97	0xbc4e32ab	-0.012585322
98	0xbd1bb5b9	-0.0380151
99	0xb857ff22	-5.1497605e-05
100	0xbda4ded4	-0.080503136
101	0x3d11f10c	0.03563027
102	0xbc05e0c3	-0.008171263
103	0xba870c32	-0.0010303317
104	0x3ccaff03	0.024779802
105	0xbc661490	-0.014042988
106	0xbd252c25	-0.040325303
107	0x3c613df8	0.013747685
108	0x3a5d9b48	0.00084536197
109	0xbd7afd82	-0.06127692
110	0xbc814455	-0.015779654
111	0xbdc3f74d	-0.09568653
112	0xbc7d5d96	-0.015464207
113	0xbd352d1c	-0.044232473
114	0xbc65085f	-0.013979047
115	0xbc8b5811	-0.017009767
116	0xbbb20f1b	-0.0054339296
117	0x3c95f0ca	0.018303294
118	0xbdb98c4c	-0.09059963
119	0xbba4c2ea	-0.0050281184
120	0xbc4da32b	-0.012551109
121	0xbc9886ed	-0.018619025
122	0xbbb8f542	-0.0056444714
123	0xbced60a0	-0.028976738
124	0xbcad69a7	-0.021168543
125	0xbd13a7bb	-0.036048632
126	0xbca4bf74	-0.020110823
127	0x3c48a6a1	0.012246759

encoder.2.weight f4 [128, 128]
0	0xbdc853d6	-0.097816154
1	0x3d31365f	0.043264743
2	0x3e02ab5f	0.12760685
3	0xbd959f1f	-0.073057406
4	0x3d8beb1a	0.068319514
5	0x3decab72	0.11556138
6	0xbdce98da	-0.10087748
7	0x3d9d3075	0.07675258
8	0x3daa6369	0.08319742
9	0x3d8a5042	0.06753589
10	0xbdc011eb	-0.093784176
11	0x3deee49d	0.11664698
12	0x3d0e99ea	0.034814753
13	0xbd919ec9	-0.07110364
14	0xbcae5737	-0.021281822
15	0xbe05aea7	-0.13054906
16	0x3db64b62	0.08901097
17	0xbcbc00d6	-0.022949617
18	0x3de96c23	0.113975786
19	0x3e02cc35	0.12773211
20	0xbdd21c54	-0.102593094
21	0xbdb18898	-0.08668631
22	0xbcab196e	-0.02088615
23	0x3d9c4921	0.07631136
24	0xbd8e6b0a	-0.0695401
25	0xbe0aa1c9	-0.13538279
26	0x3dbefcb6	0.093255445
27	0xbd11797b	-0.035516243
28	0xbd457d7e	-0.04821538
29	0xbd82704b	-0.063690744
30	0x3c54b286	0.012982016
31	0x3d0b4fc8	0.034011632
32	0xbd84f248	-0.06491524
33	0xbe050a51	-0.12992217
34	0x3d6b84e6	0.05749979
35	0x3db74644	0.08948949
36	0xbd81fecc	-0.06347427
37	0xbd68ad55	-0.056805927
38	0xbd750429	-0.05981842
39	0xbd98d5a0	-0.07462621
40	0x3d85fa24	0.06541851
41	0x3d82b92d	0.06382976
42	0x3d4dd4da	0.05025182
43	0x3d83728b	0.06418332
44	0xbd547f91	-0.05187947
45	0xbd47fe0b	-0.04882626
46	0x3ddc34a4	0.10752228
47	0xbd966b83	-0.07344725
48	0x3de93dc4	0.11388734
49	0xbdd21818	-0.10258502
50	0x3c4531e1	0.012035818
51	0xbc312f76	-0.010814538
52	0x3d589c27	0.052883293
53	0xbaa23476	-0.0012375254
54	0x3d93ec0b	0.07222756
55	0xbda11428	-0.078651726
56	0x3bc17ffb	0.005905149
57	0x3df90486	0.12159066
58	0x3d023385	0.031787414
59	0xbd2202e8	-0.039553553
60	0x3d591586	0.052999042
61	0x3cc27a2c	0.023739897
62	0xbe1c15c7	-0.15242682
63	0xbd161f85	-0.036651153
64	0x3e18bb17	0.14915119
65	0xbdfbacf7	-0.1228885
66	0xbdb3f2b7	-0.087865286
67	0x3c973db7	0.018462045
68	0xbcd8b624	-0.026454039
69	0xbdb8dee9	-0.09026892
70	0x3cdaccff	0.026709078
71	0xbbca4eb5	-0.0061739334
72	0x3c4bfe44	0.012450758
73	0xbd2e6e9e	-0.04258596
74	0xbe0be2d3	-0.13660745
75	0xbda7d91f	-0.081957094
76	0x3de17c32	0.110100165
77	0xbd890887	-0.066910796
78	0xbdd485db	-0.103770934
79	0x3de72bae	0.11287628
80	0xbbd0746f	-0.006361536
81	0x3d4e8f0f	0.0504294
82	0x3ca8ce92	0.020606313
83	0xbe03b965	-0.12863691
84	0xbe03d32f	-0.12873529
85	0x3ade60d9	0.0016966119
86	0x3db76dce	0.089564905
87	0x3d80a234	0.06280938
88	0x3dd83b52	0.105581895
89	0x3d17a856	0.037025772
90	0x3d8ad09c	0.0677807
91	0xbac8c201	-0.0015316607
92	0x3df68855	0.12037722
93	0x3d6cd494	0.057819918
94	0x3dbf5151	0.09341682
95	0xbd58042a	-0.052738346
96	0xbe02612c	-0.1273238
97	0xbd511a0f	-0.051050242
98	0x3c1a16cf	0.009404852
99	0x3d3c839f	0.04602396
100	0x3c7fc71f	0.015611439
101	0x3d0399ca	0.032129087
102	0xbd21ddea	-0.039518274
103	0x3d851bba	0.06499429
104	0x3c805d57	0.015669508
105	0xbe18c969	-0.14920582
106	0xbe118816	-0.14212069
107	0xbdc10540	-0.094248295
108	0x3df99681	0.121869095
109	0x3e056d46	0.13029966
110	0xb9db11f5	-0.00041784314
111	0x3dd10fb5	0.10208074
112	0x3dbe5b92	0.092948094
113	0xbe021eaf	-0.12707017
114	0xbd91b688	-0.07114893
115	0x3c00f94a	0.007871935
116	0xbe1246d6	-0.14284834
117	0xbdcb029f	-0.09912609
118	0xbdc47235	-0.09592096
119	0x3cd9f83b	0.026607623
120	0x3d875b2a	0.06609185
121	0x3d8159ff	0.063159935
122	0xbe15760c	-0.14595813
123	0xbde7b293	-0.11313357
124	0xbd909562	-0.070597425
125	0x3e02a49b	0.12758105
126	0xbd8a6218	-0.06756991
127	0x3bb3574f	0.0054730545
128	0x3dcb6ec8	0.09933239
129	0xbe0ebc6f	-0.13939069
130	0xbc081dc9	-0.008307883
131	0xbac1c3e2	-0.0014783109
132	0x3d2c2cd6	0.042034946
133	0x3da0265f	0.07819819
134	0x3e329e4c	0.17443198
135	0x3c866a07	0.01640798
136	0x3df61b52	0.1201693
137	0x3df41d33	0.11919632
138	0x3cf4b685	0.029872188
139	0x3d0487da	0.03235612
140	0xbdadb754	-0.08482233
141	0xbd56c968	-0.05243817
142	0xbd801c23	-0.06255367
143	0xbdb79d76	-0.0896558
144	0x3d8a6d8f	0.06759178
145	0xbd8e8401	-0.069587715
146	0x3e14d180	0.14533043
147	0x3d2c345e	0.04204213
148	0x3b93696d	0.0044986517
149	0xbd495c8d	-0.04916053
150	0xbe00b4ba	-0.12568942
151	0xbdbd584b	-0.09245356
152	0x3e078dc7	0.13237678
153	0x3c2fc84b	0.010728906
154	0x3b08d56c	0.0020879162
155	0x3df52555	0.11970011
156	0x3a996515	0.0011703098
157	0xbd39c579	-0.04535434
158	0xbdad5537	-0.08463519
159	0x3d817f6e	0.063231334
160	0x3e1cd69a	0.15316239
161	0x3e00a78c	0.12563914
162	0xbd0456e0	-0.032309413
163	0xbe133303	-0.14374928
164	0x3d8d04f8	0.06885713
165	0xbe06da78	-0.13169277
166	0xbd19a005	-0.037506122
167	0x3e154cc2	0.14580062
168	0xbcc292c2	-0.02375162
169	0xbde2f90f	-0.110826604
170	0x3d75c8f9	0.060006116
171	0x3d34bcd2	0.044125386
172	0xbd7e8156	-0.062135063
173	0xbd3b74e6	-0.04576578
174	0x3de31635	0.1108822
175	0xbd2b4507	-0.041813876
176	0x3de06fc0	0.109588146
177	0xbd1af8e0	-0.037835002
178	0xbd274f79	-0.040847275
179	0x3cc0a7f1	0.02351758
180	0x3e045700	0.12923813
181	0xbd9cdac7	-0.07658916
182	0x3de18cf9	0.110132165
183	0xbd2112d1	-0.039324585
184	0xbdbbd31e	-0.09171127
185	0x3d18a6f9	0.037268613
186	0x3e28dec9	0.16491236
187	0x3deffffd	0.11718748
188	0xbd9c34da	-0.07627268
189	0x3d88020a	0.06641014
190	0xbc8c3b16	-0.017118018
191	0xbcdefc49	-0.027219908
192	0x3c3dc65d	0.011582938
193	0xbce548a1	-0.027988734
194	0xbdbe5eb8	-0.0929541
195	0xbdf3e509	-0.11908919
196	0xbc9cacce	-0.019125368
197	0xbcaf4387	-0.021394504
198	0xbde2ef6b	-0.110808216
199	0x3e03859b	0.12843935
200	0xbdd47d94	-0.103755146
201	0x39e9b180	0.0004457347
202	0xbd8630cf	-0.06552278
203	0xbdf9ced9	-0.12197656
204	0x3d818301	0.06323815
205	0xbd7dd008	-0.061965972
206	0xbd94d90c	-0.07267961
207	0x3d03eaec	0.03220646
208	0x3e0ebf07	0.13940059
209	0x3d2b6a14	0.04184921
210	0xbc140814	-0.009035129
211	0xbd9f704d	-0.077850915
212	0x3d636116	0.05551251
213	0xbd9fc119	-0.07800502
214	0x3e3cae1f	0.18425797
215	0xbd66c03a	-0.056335665
216	0x3ce648e9	0.028110938
217	0xbdddb983	-0.10826399
218	0x3d05ee9d	0.032698262
219	0x3c069284	0.008213643
220	0x3c8082e8	0.015687421
221	0x3e18278c	0.14858836
222	0xbcc0f217	-0.023552937
223	0xbe0b5d37	-0.13609777
224	0xbc8fb712	-0.01754335
225	0x3e035724	0.1282621
226	0xbd14f47e	-0.03636598
227	0x3d1d8177	0.038453545
228	0x3c84908d	0.016182208
229	0xbcf664d4	-0.030077375
230	0xbdcfeee2	-0.10152985
231	0xbd53900f	-0.051651057
232	0xbd9c0b3e	-0.07619332
233	0x3db320a9	0.08746464
234	0x3dfb3570	0.12266052
235	0xbe07a9c7	-0.13248359
236	0x3e24088a	0.16018882
237	0x3d909d0f	0.070612065
238	0x3db4f003	0.08834841
239	0x3dd8ea8b	0.105916105
240	0xbd9fb627	-0.07798415
241	0xbc1ac6a0	-0.00944677
242	0x3da9996a	0.082812145
243	0xbe1042ea	-0.14088026
244	0xbd30602f	-0.043060478
245	0xbdbb8678	-0.09156507
246	0x3d64a096	0.05581721
247	0xbd9edd3b	-0.0775704
248	0x3e02b895	0.12765725
249	0x3de0e278	0.109806955
250	0x3de0c39a	0.10974808
251	0xbbe93c5f	-0.0071177925
252	0x3e408779	0.18801679
253	0xbd823b7d	-0.06359003
254	0x3e31ea2d	0.17374487
255	0xbdfd7e60	-0.1237762

encoder.2.bias f4 [128]
0	0xbbf4573c	-0.007456688
1	0x3c6defa5	0.014522468
2	0x3e8ec2bb	0.27882943
3	0xbc25727a	-0.010098094
4	0xbb5447fa	-0.0032391534
5	0xbc82844f	-0.01593223
6	0x3c4da144	0.012550656
7	0xbc57f552	-0.0131810475
8	0x3d1ee2eb	0.038790625
9	0xbccc71fd	-0.024956698
10	0x3cebe1ef	0.028794257
11	0xbc8ad3a5	-0.016946623
12	0x3aa13beb	0.0012301182
13	0xbc895c30	-0.016767591
14	0xbba14f6d	-0.0049227984
15	0x3ce0c278	0.02743648
16	0x3c198207	0.00936938
17	0x3c9ebd0f	0.01937726
18	0xbcd389ed	-0.025822604
19	0xbaa1ce5a	-0.0012344823
20	0xbc89063b	-0.016726604
21	0xbd2adfb3	-0.041717242
22	0x3d17ea41	0.037088636
23	0xbc7ebd7b	-0.015548105
24	0x3b62ccf3	0.0034607023
25	0xbc08e727	-0.008355892
26	0xbc854f3d	-0.016273135
27	0x3c28c4c6	0.010300821
28	0xbc8c9763	-0.01716203
29	0xbc9dccbd	-0.019262666
30	0x3c883ad2	0.01662961
31	0xbcd44632	-0.025912378
32	0xbc9ebf73	-0.0193784
33	0xbba47076	-0.005018289
34	0xbc61bac6	-0.01377744
35	0x3ad3104d	0.001610288
36	0xbc1db58d	-0.009625805
37	0x3bb25ca6	0.0054431735
38	0x3ca9885d	0.020694906
39	0xbc6abcc3	-0.014327231
40	0xbd43353b	-0.047658186
41	0x3ba8c3cd	0.0051502944
42	0x3ed54bce	0.41659397
43	0x3c9a7b18	0.018857524
44	0x3b208323	0.0024492226
45	0xbc617132	-0.013759898
46	0xbc4ae955	-0.012384732
47	0x3d238f52	0.039931603
48	0xbc748e43	-0.014926496
49	0xbc022d1d	-0.007945326
50	0xbc5f6f7a	-0.013637418
51	0x3dfb464a	0.12269266
52	0xbba6d8e9	-0.0050917757
53	0x3c372f63	0.0111807315
54	0x3b3c7226	0.0028754561
55	0xbc4918ea	-0.012274006
56	0xbcab6857	-0.020923777
57	0x3cae84e0	0.021303594
58	0xbca9ac34	-0.020711996
59	0x3cad0b0b	0.02112343
60	0x3cae03c6	0.021242034
61	0xbd0ad8ec	-0.03389828
62	0x3c7610f4	0.01501869
63	0x3ca788ef	0.020451037
64	0xbbc8a0ba	-0.0061226757
65	0x3c178593	0.009248155
66	0xba39f8eb	-0.00070942816
67	0xbba7da87	-0.005122486
68	0x3c6791be	0.014133869
69	0x3d6d32ca	0.057909764
70	0x3c6bec11	0.014399544
71	0x3bb68374	0.0055698697
72	0xbc96fb6a	-0.01843043
73	0x3b641d9b	0.0034807685
74	0xbc31f7e9	-0.010862329
75	0x3d15c29b	0.036562543
76	0x3cf929d5	0.030415455
77	0x3b4c57d3	0.0031180277
78	0x3d2fcac9	0.042918
79	0xbc34202b	-0.010993998
80	0xbc019bd8	-0.007910691
81	0x3ab7c08f	0.0014019179
82	0x3a0f9a32	0.0005477994
83	0xbca511cf	-0.020150093
84	0xbd2082b8	-0.039187163
85	0xbc3e4b91	-0.011614696
86	0xbc324e46	-0.01088292
87	0xbd02a1cc	-0.031892583
88	0xbcd0755e	-0.02544659
89	0x3bb07472	0.005384975
90	0x3e8262ec	0.25466096
91	0x3d3f8177	0.046754327
92	0x3c0d9b1e	0.00864294
93	0xbc84bcc0	-0.016203284
94	0x3d871f3b	0.065977536
95	0xbc7103bd	-0.014710364
96	0xbc1fb899	-0.009748601
97	0xbc9345e6	-0.017977666
98	0xba63823c	-0.0008678769
99	0xbbf3935d	-0.0074333386
100	0xbcd41f53	-0.025893843
101	0xbd2396bc	-0.039938673
102	0x3ae7996b	0.0017669623
103	0xbc871557	-0.016489668
104	0xbd328293	-0.043581557
105	0xbbda3955	-0.0066596665
106	0xbc2b00a4	-0.010437164
107	0x3b44be6b	0.0030020725
108	0xbb96ddcc	-0.004604077
109	0xbd3cff23	-0.046141755
110	0x00000000	0.0
111	0xbd8665a2	-0.06562354
112	0xbc20c49e	-0.009812502
113	0x3d9cbbc5	0.07653002
114	0xbd0ea80a	-0.034828223
115	0x3c5ad9f0	0.013357624
116	0xbd42ae02	-0.047529228
117	0xbb126c3d	-0.0022342347
118	0x3bf7d62d	0.0075633735
119	0x3ca0e940	0.019642472
120	0x3d5e3e88	0.054258853
121	0xbdaca416	-0.084297344
122	0xbd1343a0	-0.035953164
123	0xbc9965dd	-0.01872533
124	0xbb80447f	-0.0039144154
125	0x3c2db68f	0.010602607
126	0x3b05931a	0.0020381869
127	0x3bb5600e	0.0055351323

encoder.4.weight f4 [128, 128]
0	0xbdbc277e	-0.0918722
1	0xbdc14dc3	-0.0943866
2	0xbd8c7921	-0.06859041
3	0x3e04ff4c	0.12988013
4	0xbdc68f1c	-0.09695265
5	0x3c3f2ea6	0.011668837
6	0x3bae3c8a	0.0053172754
7	0x3d505904	0.050866142
8	0xbe0c03a5	-0.13673265
9	0xbcdc6db7	-0.026907785
10	0xbda250c8	-0.07925564
11	0x3dc6c4e8	0.09705526
12	0xbd3694ea	-0.04457561
13	0x3d8b3764	0.06797674
14	0xbbaaf279	-0.0052168933
15	0x3cf0d79f	0.029399691
16	0x3da6c839	0.08143658
17	0x3e0a1b11	0.13486888
18	0xbc31e072	-0.010856735
19	0xbe1776fe	-0.14791486
20	0x3dc60c76	0.096703455
21	0xbb529d5a	-0.0032137246
22	0xbd71c099	-0.059021566
23	0xbd955799	-0.072920986
24	0xbd12258e	-0.035680346
25	0x3d9ff482	0.07810308
26	0xbd8b8845	-0.06813101
27	0x3d4ee477	0.05051085
28	0x3dc70f9e	0.097197756
29	0x3c75a8a6	0.014993822
30	0x3c9939ba	0.018704284
31	0xbd1a4751	-0.03766567
32	0xbd7efa56	-0.062250458
33	0xbda9a995	-0.08284298
34	0xbe1ea170	-0.15491271
35	0xbd010380	-0.03149748
36	0x3d103970	0.035211027
37	0x3de60391	0.11231149
38	0xbdc84146	-0.09778075
39	0x3d51b65a	0.051199295
40	0x3e0780f6	0.13232788
41	0xbdb301c9	-0.08740575
42	0x3d4c54aa	0.04988543
43	0x3c032c92	0.008006232
44	0xbd2e39c2	-0.04253555
45	0xbc3f5a5d	-0.011679259
46	0x3dcaafde	0.09896825
47	0xbde6aebd	-0.112637974
48	0xbdb00775	-0.08595172
49	0xbd965dd7	-0.07342117
50	0x3d195aca	0.0374401
51	0x3cc34763	0.02383775
52	0xbdac2d5f	-0.08407091
53	0xbddcd53e	-0.1078286
54	0xbdfbe69f	-0.12299847
55	0x3d29693e	0.041360132
56	0x3be2ad49	0.00691763
57	0x3d633aba	0.055475928
58	0xbd554ae4	-0.052073374
59	0x3db28220	0.087162256
60	0x3dcd5a7d	0.10027025
61	0x3e05200a	0.13000503
62	0xbd5ccb83	-0.05390502
63	0x3ca71088	0.020393625
64	0xbdd79d2b	-0.10528024
65	0x3dd5af36	0.104338095
66	0x3c6fd8db	0.014639105
67	0x3d9bb4f2	0.07602872
68	0xbccc3f4e	-0.02493253
69	0xbd3d3205	-0.04619028
70	0x3de83676	0.113385126
71	0xbe0987a4	-0.13430649
72	0xbbad291a	-0.0052844407
73	0xbe124e08	-0.14287579
74	0x3e0216aa	0.12703958
75	0xbc0d7f18	-0.008636259
76	0xbd96ea75	-0.07368938
77	0x3dd1e58a	0.10248859
78	0xbd8d86bd	-0.06910465
79	0x3de20e75	0.11037914
80	0x3d0f5519	0.034993265
81	0xbd060fb5	-0.032729823
82	0x3d7e154f	0.06203204
83	0xbde85375	-0.11344043
84	0xbd8d8dde	-0.06911825
85	0x3d4bf754	0.049796417
86	0xbc62336f	-0.013806208
87	0x3de112fa	0.109899476
88	0x3dbbccb7	0.09169906
89	0xbdd4bcf1	-0.103876
90	0xbdc1da1b	-0.094654284
91	0x3c2f5a02	0.010702612
92	0xbd57e0ec	-0.052704737
93	0xbda5086f	-0.08058249
94	0xbdf34960	-0.118792295
95	0xbd8002d8	-0.062505424
96	0x3e083ccd	0.13304444
97	0xbc45ce5e	-0.012073128
98	0x3da0bda2	0.078486696
99	0xbe123e97	-0.14281689
100	0x3e06a795	0.13149865
101	0x3d5afda7	0.053464558
102	0x3d8f13d9	0.069862075
103	0xbe1000e1	-0.14062835
104	0xbd628eda	-0.055312015
105	0x3d0b9451	0.034076992
106	0xbd16e955	-0.036843617
107	0xbc5dc409	-0.013535508
108	0x3ded44a7	0.1158536
109	0x3d2b924e	0.041887574
110	0x3c522a70	0.012827501
111	0x3de24aa6	0.11049394
112	0xbd92950a	-0.07157333
113	0xbe0905d9	-0.13381137
114	0xbd79e516	-0.06100949
115	0x3d154e00	0.03645134
116	0xbce169da	-0.027516294
117	0xbe1e0e52	-0.1543515
118	0xbd763d9a	-0.06011734
119	0xbd4a9a3c	-0.049463496
120	0xbd9bb394	-0.07602611
121	0xbd1c9b64	-0.03823413
122	0xbd92eece	-0.07174455
123	0xbd1b47d9	-0.037910316
124	0xbe06e39d	-0.13172765
125	0x3ca4d148	0.020119324
126	0x3dd4708c	0.10373029
127	0xbd8309af	-0.063983314
128	0x3bf1b760	0.0073765963
129	0xbc8d55b8	-0.017252788
130	0x3e0bf781	0.13668634
131	0x3dabd100	0.08389473
132	0x3cbe3e69	0.023223119
133	0x3d5453c8	0.051837713
134	0x3d8aaf05	0.067716636
135	0x3d42ddac	0.047574684
136	0xbc2d4a3d	-0.010576782
137	0x3dd43ac8	0.10362774
138	0x3d5da21c	0.054109678
139	0x3dd8a5c9	0.10578496
140	0x3d8ffdd1	0.070308335
141	0xbcc1088a	-0.023563642
142	0x3cb763be	0.022386428
143	0xbde5725d	-0.11203454
144	0x3e095fd9	0.13415469
145	0x3d5cea17	0.053934183
146	0xbd87038b	-0.06592473
147	0x3d9e013f	0.077150814
148	0xbd88db42	-0.06682445
149	0xbe0226a9	-0.1271006
150	0xbc877ada	-0.016538072
151	0xbd4e7319	-0.050402734
152	0xbbe2cb7a	-0.006921229
153	0x39ebc8f1	0.00044972406
154	0x3dd3905e	0.1033027
155	0xbbd5d811	-0.0065260013
156	0xbbbc6c0b	-0.0057501844
157	0xbda1e23f	-0.07904481
158	0x3d41f10d	0.047349025
159	0xbdd403f5	-0.10352317
160	0xbd643971	-0.055718843
161	0xbb3db3e1	-0.0028946328
162	0x3d802865	0.06257705
163	0xbe123403	-0.14277653
164	0xbd2b7c6e	-0.041866712
165	0xbcc27167	-0.023735715
166	0xbd4567c8	-0.048194677
167	0xbc602587	-0.013680822
168	0x3db75a9a	0.08952828
169	0x3d994ed6	0.0748574
170	0x3e8fd53a	0.28092366
171	0xbdbe0fbd	-0.092803456
172	0xbe17f4f6	-0.14839539
173	0x3dc11f42	0.0942979
174	0x3ce2e728	0.027698115
175	0x3c360924	0.011110578
176	0x3d8e1701	0.069379814
177	0x3ddaf46e	0.106911525
178	0x3e020716	0.12698016
179	0x3de59d21	0.112116106
180	0xbc420ed9	-0.01184436
181	0xbde25eca	-0.11053236
182	0x3d51366b	0.051077288
183	0xbde88c0e	-0.11354838
184	0x3dc79695	0.09745518
185	0x3dfb7140	0.1227746
186	0x3d1e2163	0.03860606
187	0x3ce7f91c	0.028317027
188	0x3dab522e	0.08365284
189	0x3df0aa75	0.11751262
190	0x3b3ac234	0.0028497102
191	0x3c98f9dc	0.01867383
192	0x3db92d34	0.09041825
193	0xbce3ec0a	-0.027822513
194	0xbd6def23	-0.058089387
195	0x3c36be2d	0.01115374
196	0x3bb96197	0.0056573856
197	0x3d775820	0.060386777
198	0x3dfab1ca	0.12240942
199	0xbd615e00	-0.055021286
200	0xbd08ea24	-0.03342642
201	0x3d9c375c	0.076277465
202	0xbd8c43fa	-0.06848903
203	0x3d9a9997	0.07548826
204	0x3e19c316	0.15015826
205	0xbda0b418	-0.0784685
206	0x3ddea34c	0.1087099
207	0x3e0373c3	0.12837128
208	0x3e03c9cd	0.1286995
209	0xbcefa165	-0.029251764
210	0x3a9e0e86	0.0012058772
211	0xbd159910	-0.036522925
212	0x3d70bf8e	0.05877643
213	0x3cee74ae	0.029108372
214	0x3d9c3067	0.076264195
215	0xbd6e9153	-0.05824406
216	0x3b945217	0.0045263874
217	0x3d9e9636	0.07743494
218	0xbc35ad48	-0.011088677
219	0x3a42783f	0.0007418431
220	0x3db74314	0.08948341
221	0xbbeb057a	-0.0071722837
222	0x3b2f9b0f	0.0026795303
223	0x3d4857d5	0.04891189
224	0xbe02dbc5	-0.12779148
225	0x3d650aa2	0.055918343
226	0xbe196cac	-0.14982861
227	0xbdc7bc79	-0.09752745
228	0xbcbb327d	-0.022851223
229	0x3de0bb3a	0.10973211
230	0xbd4a075f	-0.049323436
231	0xbdf08dcd	-0.11745796
232	0xbd30a9bc	-0.04313062
233	0x39258716	0.0001578595
234	0x3d0f1d8a	0.03494028
235	0x3e0fad32	0.14030913
236	0x3e04fb90	0.12986588
237	0x3d86f7c1	0.06590224
238	0x3c189984	0.009313945
239	0xbca5d4fb	-0.020243159
240	0xbe0a6184	-0.13513762
241	0x3d1a85ff	0.037725445
242	0x3d6153ba	0.05501149
243	0x3c56462a	0.013078252
244	0xbd1fb02c	-0.03898637
245	0xbdf328cb	-0.11873015
246	0xbcdc894b	-0.026920935
247	0x3d9b9f88	0.075987875
248	0xbcafca8f	-0.021458892
249	0x3d59ddff	0.053190228
250	0x3ce4b65b	0.027918985
251	0x3da27c3c	0.07933852
252	0xbdd8e112	-0.10589804
253	0x3e140a54	0.14457065
254	0xbd5e78b3	-0.054314326
255	0x3dbd1b1c	0.09233686

encoder.4.bias f4 [128]
0	0xbad89420	-0.0016523637
1	0x3da7ef3a	0.08199926
2	0xbb9f1c55	-0.0048556724
3	0x3c1ad72f	0.009450718
4	0x3be22709	0.006901626
5	0xbc8e1004	-0.017341621
6	0x3c15e789	0.009149441
7	0x3c848baa	0.016179878
8	0xbc197a35	-0.009367515
9	0xbc2cb92a	-0.010542193
10	0xbc6a8385	-0.014313583
11	0xbd2768d3	-0.040871453
12	0x3c8ceb31	0.017201992
13	0xbc221ffb	-0.00989532
14	0x3e90939e	0.28237623
15	0x3dd8cca5	0.10585908
16	0xbc23c4e9	-0.0099956775
17	0x3c0ccb18	0.008593343
18	0xbbd990b4	-0.0066395644
19	0x3afa113c	0.0019078623
20	0xbc61be5e	-0.013778297
21	0x3c4b0c09	0.012393006
22	0xbc639f09	-0.013892897
23	0xbc21680f	-0.00985147
24	0xbd711e6c	-0.058866903
25	0xbc966de4	-0.018362947
26	0xbb969c88	-0.0045962967
27	0xbc888720	-0.016665995
28	0xbcbbb94b	-0.022915503
29	0xbc37f889	-0.011228689
30	0xbd7c136b	-0.061541956
31	0x3bc9165a	0.0061366977
32	0x3c46dda6	0.012137806
33	0xbc0510a4	-0.008121643
34	0xbc9ba7e9	-0.019000964
35	0xbd6d7997	-0.057977285
36	0xbbdab6b2	-0.006674611
37	0xbc706d44	-0.014674488
38	0xbce3457a	-0.02774309
39	0x3d678f7a	0.056533314
40	0xbb949c57	-0.0045352387
41	0xbb736f2d	-0.0037145123
42	0xbcdbad71	-0.026816102
43	0xbcae5aa6	-0.021283459
44	0x3c711616	0.014714738
45	0xbca86e56	-0.020560425
46	0xbc89b216	-0.01680855
47	0x3c4ca924	0.012491498
48	0x3c069e20	0.008216411
49	0x3cb1385a	0.021633316
50	0xb816a2c5	-3.5914378e-05
51	0x3d22f21d	0.03978168
52	0xbd019cd8	-0.03164372
53	0xbc8bc253	-0.017060434
54	0xba4da7e6	-0.0007845148
55	0xbcdc5503	-0.026896005
56	0xbc85f1c0	-0.016350627
57	0xbd00c252	-0.03143532
58	0xbcad86cd	-0.021182442
59	0xbdfaf892	-0.12254442
60	0x3caca3d6	0.021074217
61	0xbc24ca6c	-0.010058027
62	0xbcbc47ec	-0.022983514
63	0x3c513f25	0.0127714025
64	0xbc0da587	-0.008645422
65	0x3bc92f78	0.006139692
66	0xbbdb9de0	-0.00670217
67	0x3c35fced	0.0111076655
68	0xbcd747d1	-0.026279362
69	0xbb202255	-0.0024434526
70	0xbcef33ca	-0.0291995
71	0x3d05e4d5	0.032688934
72	0x3ca82cbb	0.020529142
73	0x3b323be0	0.0027196333
74	0x3ccfdb96	0.025373261
75	0xbd2060a8	-0.03915468
76	0xbc629b1d	-0.013830927
77	0x3b1b2876	0.002367524
78	0x3de44221	0.111454256
79	0xbcaea31d	-0.021318013
80	0xbc8fb69a	-0.017543126
81	0x3ce07d16	0.027403396
82	0xbceade69	-0.028670507
83	0xbcbeecde	-0.023306306
84	0x3cd45037	0.025917156
85	0x3cad76fc	0.0211749
86	0xbcddbf0f	-0.027068643
87	0xbc86a1b4	-0.016434528
88	0xbbb5f0cb	-0.0055523864
89	0x3c8ed28b	0.01743438
90	0xbcbc4db7	-0.022986276
91	0x3b8a1668	0.004214097
92	0xbc8ab1db	-0.016930511
93	0x3c96d147	0.018410338
94	0xbcfd176e	-0.030894961
95	0xbca235d3	-0.019801056
96	0x3c1b0b4a	0.009463141
97	0xbc84d394	-0.01621417
98	0x3e0638a1	0.1310754
99	0x3e6d41e7	0.23169671
100	0xbd0e394c	-0.03472261
101	0xbb61cff7	-0.0034456232
102	0x3d0be6e5	0.034155745
103	0x3a91bc7d	0.0011118796
104	0x3cf59ff2	0.029983494
105	0x3d3a6492	0.045506068
106	0xbc0a47de	-0.008439986
107	0xbc4bc073	-0.01243602
108	0x3bc5009e	0.0060120365
109	0xbbb04ddc	-0.0053803753
110	0xbc1f3739	-0.009717756
111	0x3b9c8db0	0.0047776327
112	0x3ccd45a4	0.025057621
113	0x3d3e4279	0.046450112
114	0xbbeec516	-0.007286678
115	0xbb16285b	-0.0022912237
116	0xb984bf37	-0.00025319468
117	0xbcea2999	-0.028584288
118	0xbb963b83	-0.004584731
119	0x383bc90d	4.4771517e-05
120	0x3b8a4df8	0.0042207204
121	0xbc37b2bc	-0.011212047
122	0xbcae9255	-0.02131001
123	0xbac54cbb	-0.0015052775
124	0xbc7dfff2	-0.015502917
125	0xbd7c0c4a	-0.061535157
126	0xbcd63720	-0.026149333
127	0xbc6da0d5	-0.014503677

encoder.6.weight f4 [128, 128]
0	0xbcb98489	-0.022646205
1	0xbdbb4a63	-0.091450475
2	0x3e0d29b8	0.13785446
3	0x3d1b3484	0.03789188
4	0xbc96a1bd	-0.01838767
5	0xbd1d2d96	-0.038373552
6	0xbde7bb87	-0.11315065
7	0xbdd6538f	-0.10465156
8	0x3ddf01f0	0.108890414
9	0xbb9d517b	-0.004800973
10	0xbe08c231	-0.13355328
11	0x3d809300	0.06278038
12	0x3d3c64cb	0.04599456
13	0xbc3744fb	-0.01118588
14	0xbde1ea8f	-0.110310666
15	0x3ca28315	0.019837895
16	0xbda378da	-0.07982035
17	0xbcdc0b1a	-0.026860762
18	0xbc38648b	-0.01125444
19	0xbbba422e	-0.0056841588
20	0xbcc9153d	-0.02454626
21	0xbd90343a	-0.070412114
22	0xbd678fed	-0.056533743
23	0x3c4222ff	0.011849164
24	0x3da40313	0.08008399
25	0xbdeeaef0	-0.116544604
26	0x3de78e04	0.11306384
27	0xbd96bfcb	-0.073608
28	0xbd2357af	-0.039878543
29	0xbe0934ef	-0.13399099
30	0x3e15924d	0.1460659
31	0xbe036fa2	-0.12835553
32	0x3e0d71c6	0.13812932
33	0x3d970306	0.073736235
34	0xbdae3162	-0.08505513
35	0x3c800a11	0.0156298
36	0x3c690b9b	0.014223958
37	0xbcc2fb8e	-0.023801591
38	0x3dca14b6	0.098672315
39	0x3c71348e	0.014722003
40	0xbe00d2b6	-0.1258038
41	0xbc2e10a7	-0.010624087
42	0x3e109b95	0.1412185
43	0xbd9e4c97	-0.07729452
44	0xbdb509a9	-0.08839733
45	0xbb16e8c4	-0.0023026923
46	0xbd8548f6	-0.06508057
47	0x3de7f8d6	0.113267586
48	0xbd95589a	-0.0729229
49	0x3da7ff7c	0.08203027
50	0xbc29be47	-0.010360307
51	0x3bfeafe0	0.007772431
52	0x3d5ea272	0.05435414
53	0xbc6a6bf3	-0.014307964
54	0x3dfa51e4	0.12222651
55	0xbccbaba0	-0.02486211
56	0xbd7f3d4e	-0.062314324
57	0x3de4335d	0.11142609
58	0xbc875cbd	-0.016523713
59	0x3d695737	0.05696794
60	0xbd3f34d7	-0.04668125
61	0x3dcfbb1d	0.10143111
62	0xbdd641d5	-0.10461775
63	0x3d9a7824	0.07542446
64	0xbbe215c9	-0.0068995696
65	0x3d2b0b45	0.041758794
66	0xbdb4b4c2	-0.08823539
67	0xbd8e0631	-0.06934775
68	0x3dc0189f	0.09379696
69	0xbd1da85b	-0.038490634
70	0x3dbb1a65	0.09135894
71	0xbde92731	-0.11384428
72	0xbde52c5b	-0.11190101
73	0x3cd97592	0.02654532
74	0x3ded6970	0.11592376
75	0x3d6df15c	0.058091506
76	0x3d9b9568	0.07596856
77	0xbd352d79	-0.04423282
78	0x3cac0566	0.020998668
79	0xbdaf6921	-0.085649736
80	0x3d8a12f6	0.06741898
81	0x3d91d69c	0.071210116
82	0xbe020a3b	-0.12699215
83	0xbdeba90d	-0.11506853
84	0xbd41e8dc	-0.047341213
85	0x3d161b9b	0.03664742
86	0xbd677711	-0.056510035
87	0xbacbb6f9	-0.0015542201
88	0xbe152e2a	-0.14568391
89	0x3d4d9a5d	0.05019604
90	0x3d28a626	0.041174076
91	0xbe544881	-0.20730783
92	0xbd0b5c6e	-0.034023695
93	0x3dce63f9	0.10077662
94	0xbde01496	-0.109414265
95	0x3d22703d	0.03965782
96	0xbdb2145d	-0.0869529
97	0x3b6bd909	0.0035987517
98	0xbc85eec0	-0.016349196
99	0xbd3b1f48	-0.04568413
100	0x386e193f	5.6767134e-05
101	0xbd37a0e7	-0.044831183
102	0x3d02a47c	0.031895146
103	0x3dcfd370	0.101477504
104	0xbdf23a88	-0.1182757
105	0xbd9863e6	-0.07440929
106	0xbe14a1ad	-0.145148
107	0xbcb55fe2	-0.022140447
108	0x3d7e4289	0.06207517
109	0xbdc1fafe	-0.09471701
110	0xbe059519	-0.13045157
111	0x3dd83e77	0.10558789
112	0xbe149d2e	-0.14513084
113	0xbd1597a2	-0.03652156
114	0xbde004c1	-0.10938407
115	0xbda9cd08	-0.0829106
116	0x3d5f79aa	0.054559387
117	0x3cb3b1e4	0.02193541
118	0xbccdf6a7	-0.025142027
119	0xbb04409a	-0.0020180107
120	0x3dae673c	0.08515784
121	0xbc5639dd	-0.013075319
122	0xbdaf4f9a	-0.08560105
123	0xbdcb8067	-0.099366
124	0x3d442cb9	0.047894213
125	0xbcf227fa	-0.029560078
126	0xbe184bb4	-0.14872628
127	0xbbfe3afb	-0.007758496
128	0x3d202f12	0.03910739
129	0xbd8ad04e	-0.06778012
130	0xbbf31660	-0.007418439
131	0x3d2378ff	0.039910313
132	0xbddaa4d9	-0.106759734
133	0x3d9c98b4	0.07646313
134	0x3dac633c	0.08417365
135	0xbda5779c	-0.08079454
136	0xbcce6e4c	-0.025199078
137	0x3d9de5d1	0.077098496
138	0xbdc8d259	-0.09805746
139	0x3df02ddc	0.11727497
140	0xbc9e3073	-0.019310212
141	0x3cd5a557	0.026079817
142	0x3dd10ad9	0.10207147
143	0x3c39af66	0.011333322
144	0xbdb63535	-0.08896867
145	0x3d52a9b9	0.05143139
146	0xbdd3c791	-0.10340799
147	0x3c47866a	0.012178043
148	0x3a93e0bd	0.0011282187
149	0x3d9551da	0.072910026
150	0x3da156f7	0.07877915
151	0xbe2448e8	-0.16043437
152	0x3dcce615	0.10004822
153	0x3c759cf0	0.01499103
154	0xbdb46449	-0.088081904
155	0x3db2568c	0.08707914
156	0xbda41a18	-0.080127895
157	0x3de8ca9d	0.113667704
158	0x3d8ed1e7	0.069736294
159	0xbdbf8a1b	-0.093525134
160	0xbdf7916d	-0.12088285
161	0xbde928f8	-0.11384767
162	0x3d2fe0d7	0.042939033
163	0x3da85b7c	0.08220574
164	0xbdcd350f	-0.10019886
165	0xbc255f81	-0.010093571
166	0xbd7687d5	-0.060188133
167	0xbd8d2fab	-0.068938576
168	0xbde2b2b4	-0.11069241
169	0xbddffc5a	-0.10936804
170	0x3c894332	0.016755674
171	0x3c19ce3c	0.009387549
172	0x3bcd228d	0.0062602223
173	0xbe185895	-0.14877541
174	0xbcd1efcb	-0.025627038
175	0x3c74af03	0.014934304
176	0xbe0a6cd9	-0.13518085
177	0x3d9fd7ee	0.07804857
178	0xbd35c461	-0.044376735
179	0xbdd21ba2	-0.10259177
180	0x3d708044	0.058716074
181	0xbd339061	-0.043838862
182	0x3db7024b	0.08935984
183	0xbd92d0da	-0.071687415
184	0xbd3fa757	-0.046790447
185	0xbdf3166e	-0.118695125
186	0xbe16f0cf	-0.14740299
187	0xbe2a54f2	-0.16633967
188	0x3d948554	0.07251993
189	0x3c89daed	0.016828025
190	0xbe83f5d2	-0.25773484
191	0xbdd71dcd	-0.10503731
192	0xbdce8773	-0.10084429
193	0x3b64a1c2	0.0034886454
194	0x3db7079f	0.089370005
195	0x3dacb863	0.084336065
196	0x3d3a8899	0.045540426
197	0xbdd2821d	-0.102787234
198	0x3d7113ea	0.058856882
199	0x3de4638f	0.11151802
200	0xbd5b036c	-0.05347006
201	0xbd5d6b5a	-0.054057457
202	0x3aa7fd5b	0.0012816595
203	0xbd990ed2	-0.0747353
204	0x3dc26ecc	0.09493789
205	0xbd8f9dff	-0.07012557
206	0x3df00d6c	0.1172131
207	0xbd934db3	-0.07192554
208	0xbd3a37c4	-0.04546334
209	0x3d840ce3	0.064477704
210	0xbe0bf09b	-0.13666002
211	0xbd937c64	-0.0720146
212	0xbd424f6e	-0.04743903
213	0xbc2c0216	-0.010498544
214	0x3db70c77	0.08937924
215	0x3d295850	0.041343987
216	0x3d2b1616	0.04176911
217	0x3de330b1	0.110932715
218	0x3d563921	0.052300576
219	0x3c17b618	0.009259723
220	0x3d9aba4b	0.07555064
221	0x3e0617e9	0.13095059
222	0xbde36743	-0.1110368
223	0x3a8031e6	0.0009780496
224	0x3e016d64	0.12639385
225	0x3e001739	0.12508859
226	0xbddc5c02	-0.107597366
227	0xbe18f541	-0.14937307
228	0x3cd68d2c	0.026190363
229	0xbdfb51c2	-0.122714534
230	0x3de0072b	0.10938867
231	0x3db0a99f	0.08626103
232	0xbe0bcd64	-0.13652569
233	0x3c819748	0.015819207
234	0xbd53431d	-0.051577676
235	0xbd40a0fb	-0.047028523
236	0xbd753477	-0.059864487
237	0x3d5e76dc	0.054312572
238	0xbd263693	-0.04057939
239	0xbd81cb63	-0.06337621
240	0xbe1f3b91	-0.15550067
241	0x3ddf990e	0.10917865
242	0xbce14d32	-0.02750263
243	0x3d01731d	0.03160392
244	0x3d6d6638	0.05795881
245	0xbd861445	-0.06546835
246	0x3c97ef1d	0.018546635
247	0xbd292c25	-0.041301865
248	0x3d5b7bb9	0.053584788
249	0xbd18f10e	-0.037339263
250	0xbde23314	-0.11044899
251	0x3d760c4a	0.060070314
252	0x3d452edc	0.04814039
253	0x3d9498bb	0.072556935
254	0xbd4c783d	-0.049919356
255	0xbdf9ba13	-0.12193694

encoder.6.bias f4 [128]
0	0xbc122c2f	-0.008921667
1	0xbc4ce6a2	-0.012506159
2	0xbcb8c919	-0.022556828
3	0x3e01b2b7	0.1266583
4	0x3d0a0986	0.03370049
5	0xbcb1a109	-0.021683233
6	0x3c16889a	0.009187842
7	0x00000000	0.0
8	0xbc878a5d	-0.016545469
9	0x3c2b32e1	0.010449142
10	0x3ad18ada	0.0015986816
11	0x3d0d5522	0.034505017
12	0x3dabfe7b	0.08398148
13	0x3d13a9aa	0.036050476
14	0xbc834c56	-0.01602761
15	0x3c9c9400	0.01911354
16	0xbc16c7ee	-0.00920294
17	0x3ded0f64	0.11575201
18	0x3ce9c1f1	0.028534861
19	0x3d151ba0	0.0364033
20	0xbc15c0dc	-0.00914022
21	0x3aeec03c	0.0018215249
22	0xbd745bfd	-0.05965804
23	0xbb8a1e52	-0.0042150402
24	0x3d31191d	0.04323684
25	0x3aac40e9	0.0013141903
26	0xbc074ef2	-0.008258568
27	0xbd474f04	-0.04865934
28	0xbd102762	-0.03519381
29	0xbcb6cd2f	-0.022314636
30	0x3e6f5a1f	0.23374222
31	0xbd975847	-0.073898844
32	0xbc0e636e	-0.008690698
33	0x3c3fd876	0.011709323
34	0xbd812899	-0.063065715
35	0x3db403b0	0.08789766
36	0xbc86aa6c	-0.016438685
37	0xbcf1c6a4	-0.029513665
38	0xbd3ee648	-0.046606332
39	0xbca2115a	-0.019783664
40	0xbbfd0a3f	-0.0077221687
41	0xbd7f5272	-0.062334485
42	0xbc5afceb	-0.013365964
43	0xbc1fbf75	-0.009750237
44	0x3b9fa10c	0.004871493
45	0xbcc5e4b0	-0.024156898
46	0x3b820684	0.003968062
47	0x00000000	0.0
48	0xbc37e627	-0.011224306
49	0xbcf0a6cb	-0.029376408
50	0xbc1af26f	-0.009457215
51	0xbc4b344b	-0.012402604
52	0xbb163442	-0.0022919332
53	0xbcafa28d	-0.021439815
54	0xbc49a26c	-0.012306791
55	0xbbeb9792	-0.0071896994
56	0x3cff8272	0.03119013
57	0xbc6ace86	-0.014331466
58	0xbd1b05cd	-0.03784733
59	0xbc8a9a64	-0.016919322
60	0xbcbbccdf	-0.022924839
61	0x3dd5e6df	0.10444426
62	0x00000000	0.0
63	0xbbfad472	-0.00765472
64	0xbca6901e	-0.020332392
65	0xbb3f515f	-0.0029192788
66	0xbc371886	-0.01117528
67	0x3c00f336	0.007870486
68	0x3c7c2df2	0.015391814
69	0xbc878a17	-0.016545339
70	0x3be1cad8	0.006890636
71	0x3bc68093	0.0060578077
72	0x3cadba06	0.021206867
73	0x3d008b29	0.031382713
74	0xbce63a01	-0.02810383
75	0xbd36b370	-0.04460472
76	0xbcc2ba58	-0.023770496
77	0x3d0b752a	0.034047283
78	0x3d4f40dc	0.050598964
79	0xbc1e1281	-0.009647966
80	0xbc2c5d8f	-0.010520353
81	0xbc36cd68	-0.011157371
82	0x3ca8a888	0.020588174
83	0x3c3ebd16	0.011641761
84	0xbbf8d06a	-0.0075932043
85	0xbc723335	-0.0147827165
86	0xbc73126a	-0.014835933
87	0x3d23ea0f	0.040018138
88	0xbbdc1945	-0.0067168796
89	0x3cdcf2a6	0.026971173
90	0x3c0156b8	0.0078942105
91	0x3c016cdf	0.007899492
92	0x3cc14542	0.023592595
93	0x3d9717e9	0.073776074
94	0x3b946669	0.00452881
95	0x3baaf01f	0.005216613
96	0xbccbd0d9	-0.02487986
97	0xbc82cdd4	-0.015967287
98	0xbc8fc6a8	-0.017550781
99	0x3d1ce0a6	0.03830018
100	0xbd8938ac	-0.067002624
101	0x3d5cbb24	0.05388941
102	0xbbeba5c4	-0.0071913917
103	0x3c053983	0.008131388
104	0xbbf7d573	-0.007563287
105	0xbc9b06cf	-0.018924145
106	0xbcb6ad0f	-0.022299318
107	0x3b0e5547	0.002171831
108	0xbc563464	-0.013074014
109	0x3c327e24	0.010894332
110	0x3bd570bf	0.0065136845
111	0xbcb9d18f	-0.022682933
112	0x3db3660b	0.087596975
113	0xbcc5f425	-0.024164269
114	0x3d21af18	0.039473623
115	0xbd25afde	-0.040450923
116	0xbc9363ec	-0.017991982
117	0xbcc5988a	-0.024120588
118	0xba6e5502	-0.00090916466
119	0xbd4c8b46	-0.04993751
120	0xbc246af7	-0.010035268
121	0xbc6462aa	-0.013939539
122	0x3bf4516b	0.007455995
123	0xbce3bf2c	-0.027801119
124	0xbc968850	-0.018375546
125	0xbd2a56dd	-0.041586746
126	0xbcfccb80	-0.030858755
127	0x3d2d7f50	0.042357743

encoder.8.weight f4 [4, 128]
0	0xbe267b87	-0.1625806
1	0xbdeaa02e	-0.11456333
2	0xbb3a8f62	-0.002846681
3	0xba91314e	-0.0011077316
4	0x3df1890b	0.11793717
5	0x3db606be	0.08888005
6	0xbd738287	-0.059450652
7	0x3dbee228	0.0932048
8	0x3d45f89d	0.0483328
9	0xbd02edc6	-0.03196504
10	0xbd846740	-0.06465006
11	0x3da13424	0.07871273
12	0xbd1a86b3	-0.037726115
13	0x3e236bcc	0.1595909
14	0x39f22a53	0.0004618937
15	0x3da9e85e	0.08296274
16	0x3dd3582f	0.10319554
17	0x3bcb5d40	0.0062061846
18	0xbe0d674f	-0.1380894
19	0x3cd74ac7	0.026280774
20	0xbe082ec1	-0.13299085
21	0x3c3b5ae1	0.011435241
22	0xbe078dbb	-0.1323766
23	0xbdfcba1a	-0.123401836
24	0xbd8f65b7	-0.070018224
25	0x3e450836	0.19241413
26	0xbe2cbfd4	-0.16870052
27	0x3cf4128e	0.029794004
28	0x3dcdaf25	0.10043172
29	0x3d6ce495	0.05783518
30	0xbde53f02	-0.111936584
31	0xbd211cea	-0.039334215
32	0xbe32ba6a	-0.17453924
33	0x3e34806c	0.17627114
34	0x3c58934a	0.01321871
35	0xbbcc6ef0	-0.0062388107
36	0xbd55b6cc	-0.05217628
37	0x3bab181f	0.0052213813
38	0xbdb48e04	-0.0881615
39	0x3dfc8f7a	0.123320535
40	0xbe29cea7	-0.16582738
41	0x3c9a457d	0.018831963
42	0xbd8b04f4	-0.06788054
43	0x3e16f7c8	0.14742959
44	0x3e34f1ca	0.1767036
45	0x3e379fbe	0.1793203
46	0xbe0cf56f	-0.137655
47	0x3e09b364	0.13447338
48	0xbcbc6fe2	-0.023002569
49	0x3dd01cde	0.10161756
50	0xbd8a7338	-0.067602575
51	0x3e3f1458	0.18660104
52	0xbd9f12cd	-0.07767258
53	0x3d8e5fb6	0.06951849
54	0x3e345a4d	0.17612572
55	0x3b637600	0.0034707785
56	0xbe2ce6b7	-0.16884886
57	0x3e1c14db	0.1524233
58	0x3dd57cb4	0.10424176
59	0x3e004728	0.12527144
60	0x3dcd9912	0.100389615
61	0xbd221e1e	-0.039579503
62	0x3d104f79	0.03523204
63	0xbe116c4d	-0.1420147
64	0x3db1ff10	0.086912274
65	0xbd40e683	-0.047094833
66	0xbe30af95	-0.17254479
67	0x3e42682b	0.1898505
68	0xbdce1778	-0.1006307
69	0x3c9d6d77	0.019217236
70	0xbb16d91a	-0.0023017586
71	0xbe39c59e	-0.18141791
72	0xbe220992	-0.15823963
73	0xbd1bd309	-0.038043056
74	0xbce38a65	-0.027775953
75	0x3c801c2f	0.015638439
76	0x3e074109	0.13208403
77	0x3d7fe888	0.06247762
78	0xbd03ab6d	-0.032145906
79	0x3982a928	0.00024921563
80	0x3e32e95d	0.17471834
81	0x3e2045b6	0.15651593
82	0xbdbfa927	-0.09358435
83	0xbe0720ed	-0.13196154
84	0xbd1aed6d	-0.037824083
85	0x3e11476c	0.14187402
86	0x3c29a0f2	0.010353314
87	0xbdb1bdf5	-0.086788096
88	0x3e0f74b5	0.14009364
89	0xbd80d98b	-0.06291493
90	0xbe2e0415	-0.16993745
91	0x3d3eb861	0.046562556
92	0x3d5bebe1	0.05369175
93	0xbde1194e	-0.109911546
94	0x3de8778d	0.113509275
95	0xbdafdd0c	-0.08587083
96	0xbe0ad144	-0.13556391
97	0xbded239d	-0.11579058
98	0xbd6dd14b	-0.058060925
99	0x3da95773	0.08268633
100	0x3b991b0b	0.004672413
101	0x3d52f932	0.051507182
102	0x3cffafb4	0.031211711
103	0xbe293344	-0.16523463
104	0xbd020b87	-0.031749275
105	0x3d8b6f71	0.06808365
106	0xbd8d8353	-0.06909814
107	0xbd948f52	-0.07253899
108	0xbbef8545	-0.007309588
109	0xbdd0d70d	-0.10197268
110	0xbcd2a592	-0.025713716
111	0x3e246916	0.16055712
112	0x3cec120a	0.028817195
113	0x3c14285e	0.009042827
114	0xbe28470d	-0.16433354
115	0x3c5f68ff	0.013635873
116	0xbe4cf77c	-0.20016283
117	0xbe1dbc0c	-0.15403765
118	0xbe30309c	-0.17206043
119	0x3c30a73a	0.010782057
120	0x3d6f608c	0.058441684
121	0xbd8ca792	-0.06867899
122	0xba7a706f	-0.0009553497
123	0x3d91dc14	0.07122055
124	0x3ce11a88	0.027478471
125	0xbdd286e1	-0.10279632
126	0x3e111526	0.14168224
127	0xbd56c52b	-0.052434128
128	0x3e35d906	0.17758569
129	0xbd83a320	-0.06427598
130	0xbe13d9fe	-0.14438626
131	0x3c7bc4f4	0.0153667815
132	0xbe0435a6	-0.1291109
133	0x3ddf2da6	0.108973786
134	0x3e51a922	0.20474675
135	0x3e281569	0.16414417
136	0xbcfbf673	-0.030757165
137	0x3e0f9f49	0.14025606
138	0x3e2a442f	0.16627572
139	0xbdbd43e5	-0.092414655
140	0xbd8629e7	-0.06550961
141	0x3db699c2	0.08916046
142	0x3cf65aef	0.030072657
143	0xbb7eaa59	-0.003885886
144	0xbde2db5a	-0.11076994
145	0xbd8aa35d	-0.0676944
146	0xbc902e8d	-0.017600322
147	0x3e1fa342	0.15589622
148	0xbd7ead11	-0.062176768
149	0xbc33cbf1	-0.010973916
150	0xbb14f2b8	-0.002272768
151	0x3e545a94	0.20737678
152	0x3c52d321	0.01286772
153	0xbd8d10df	-0.068879835
154	0x3e524992	0.20535877
155	0x3d95934f	0.073034875
156	0x3e1046dc	0.1408953
157	0xbe067b7f	-0.13133048
158	0xbe644b4e	-0.22294351
159	0x3e48f62d	0.19625159
160	0x3db720c4	0.089417964
161	0xbe151d84	-0.1456204
162	0x3d9a721a	0.075412944
163	0xbd10377f	-0.035209175
164	0xbd5e66f0	-0.054297388
165	0xbc482b08	-0.012217291
166	0x3dc3495e	0.09535478
167	0xbcdb18eb	-0.02674528
168	0x3deefc4c	0.116692156
169	0xbd826249	-0.06366403
170	0x3e384d28	0.17998183
171	0x3d19a866	0.037514113
172	0x3d62d728	0.05538097
173	0x3e10005e	0.1406264
174	0x3e00c6b3	0.12575798
175	0x3dc22dc1	0.09481383
176	0x3d9df34b	0.0771242
177	0x3db8057a	0.089854196
178	0x3d87b243	0.066257976
179	0xbd7e080f	-0.062019404
180	0xbe4026d6	-0.18764815
181	0x3cdc72eb	0.026910266
182	0x3e350816	0.17678866
183	0x3e4c7f0d	0.19970341
184	0xbdb38e4e	-0.08767377
185	0xbd1d6828	-0.03842941
186	0xbd08f28a	-0.03343443
187	0x3e04e720	0.12978792
188	0xbdf6b991	-0.12047113
189	0xbe0beda6	-0.13664874
190	0xbd5b0c19	-0.053478334
191	0xbe37ac4b	-0.17936818
192	0xbdc0d783	-0.094161056
193	0x3d7a44e3	0.06110085
194	0xbe2c3161	-0.16815712
195	0x3d8eb0ad	0.06967292
196	0xbd01a5a1	-0.031652097
197	0xbe94aab2	-0.2903648
198	0x3e47a7ad	0.19497557
199	0xbda7ba56	-0.08189838
200	0xbe549200	-0.2075882
201	0xbe3c88be	-0.18411538
202	0x3e0a54f3	0.13508968
203	0x3e23ecc2	0.16008285
204	0x3e088600	0.13332367
205	0xbe00b804	-0.12570196
206	0x3c0f3254	0.0087400265
207	0xbdcc9876	-0.09990017
208	0x3e26a7f9	0.16275014
209	0x3d10ec68	0.035381705
210	0xbbf89443	-0.0075860335
211	0xbd449e3f	-0.048002478
212	0x3ddf68ee	0.109086856
213	0xbd29db1d	-0.04146873
214	0xbd02483f	-0.03180718
215	0xbd8531be	-0.06503628
216	0x3ddacfbf	0.10684156
217	0xbe67e518	-0.22645986
218	0x3df524f6	0.1196994
219	0x3e06ee3c	0.13176817
220	0xbbe351e3	-0.006937252
221	0xbe6cca0e	-0.23123953
222	0xbe39e140	-0.18152332
223	0x3e61ec10	0.22062707
224	0xbd850723	-0.06495502
225	0xbd61d583	-0.05513526
226	0x3c74fc84	0.014952783
227	0x3bde8840	0.0067911446
228	0x3c37d670	0.0112205595
229	0x3d88c08a	0.06677349
230	0xbdd0f4dd	-0.10202954
231	0xbd6c99f6	-0.057764016
232	0xbcdff49f	-0.027338324
233	0x3d8873cf	0.06662714
234	0xbe1e7e3c	-0.15477842
235	0x3e538e40	0.20659733
236	0xbe043bbd	-0.12913413
237	0xbe00679e	-0.12539527
238	0x3c27c444	0.010239664
239	0xbe43bd09	-0.1911508
240	0xbdf43da8	-0.119258225
241	0xbe08b125	-0.13348825
242	0xbe07d0d0	-0.1326325
243	0x3d374c89	0.044750724
244	0xbe1bb31c	-0.15205044
245	0x3dc56d3e	0.09639977
246	0x3dfe0935	0.124041
247	0xbd3f8b6f	-0.046763834
248	0xbd55f4c7	-0.05223539
249	0xbe383f30	-0.17992854
250	0x3e46d720	0.19418001
251	0x3dae1662	0.08500363
252	0x3e0a2343	0.13490014
253	0xbcae1cee	-0.02125403
254	0x3dcd563e	0.10026215
255	0xbc6c942f	-0.014439627

encoder.8.bias f4 [4]
0	0xbb705838	-0.0036673676
1	0xbcec3dc5	-0.028838048
2	0xbd9f33b0	-0.077735305
3	0xbdd091dc	-0.101840705
