models/y01vae_dim_24_banana.pt (torch, 466982 bytes, 22 tensors)

encoder.0.weight f4 [128, 24]
-0.008051637 0.06360828 -0.056309156 -0.14283435 0.008600232 -0.24320515 0.12101615 0.07957773
-0.10090043 0.04453852 0.04282922 0.21056734 -0.0082835825 -0.113050826 -0.081082284 -0.123920396
-0.054283347 0.030445222 -0.081748076 0.016960705 -0.050161503 0.16298693 -0.04593559 0.010978612
0.041283295 -0.018607449 0.03591848 -0.13208172 -0.028388407 -0.11849555 -0.116592936 -0.1452302
0.015539944 0.06274864 -0.044749565 0.04046184 0.0014217924 -0.02828797 0.019947136 -0.06378607
-0.03500599 -0.083031446 -0.0833313 0.16414979 0.080055185 0.034140408 0.013724573 0.061425585
-0.02941976 -0.13871077 -0.028494617 0.09089395 0.035082247 0.09840078 -0.012463445 -0.006836666
-0.045231197 -0.018659145 0.0054734144 -0.074637495 -0.014366916 0.04500285 -0.02619037 0.008821984
0.03396439 -0.07501209 -0.0902559 -0.14750138 -0.036655754 0.03074605 -0.013214055 -0.06657192
-0.00035046993 -0.019274749 0.061530404 0.03993406 0.038504597 0.070901394 0.03765324 0.064834125
-0.03476106 -0.102417156 0.02801894 0.016051143 0.0018661699 0.067294404 0.017230257 -0.08296545
0.021524014 0.12818885 0.013047504 0.013299767 -0.03475467 -0.010154078 0.012235131 0.014043467
0.043654952 0.061874554 -0.08978937 -0.013906866 -0.1444618 -0.1634797 0.011804815 -0.065836795
0.067512736 -0.06275028 -0.015898805 -0.10937213 -0.016845345 0.28651163 -0.096228935 -0.17171189
-0.003036024 -0.02075001 0.03187774 -0.009428431 0.051618196 0.005628233 0.06982576 0.08500818
-0.10059254 -0.043668088 0.05503992 0.20501588 0.012866965 -0.054979865 -0.038986124 0.07301033
-0.04383559 0.23435219 -0.13623181 0.0026272275 0.0041549797 -0.111286186 -0.024019714 -0.16223809
0.05229393 0.12987229 -0.066740446 0.14071724 0.058230173 0.12396782 -0.032207508 -0.25130916
-0.013685981 0.03545587 -0.0028993036 0.039684642 0.016413065 -0.18394883 -0.09377029 0.0136403935
-0.036909636 0.0038074479 0.012296999 0.013274411 0.09264969 -0.07773657 0.097307265 -0.15906617
0.011005946 -0.060738645 0.01583648 0.06865552 -0.0702831 -0.01492864 -0.070474006 0.10286195
-0.082651414 -0.08008799 0.009945351 -0.03953056 -0.049615066 0.08725783 0.0014293164 -0.035862267
0.048741367 0.01869546 0.016993303 0.086972445 -0.091494426 -0.16096757 -0.06889309 0.06328375
0.023397744 0.039854366 0.015887188 0.0432288 -0.079585955 -0.10321498 0.012505936 0.034826946
0.08573276 0.006415368 0.05196925 0.049271125 0.055502392 0.100517176 -0.015618804 0.05098078
0.01990051 -0.18212484 -0.03191953 -0.044427738 -0.078831665 -0.2295947 0.030470092 -0.19454974
-0.10078958 0.32501772 0.026177358 -0.14394596 0.017504679 -0.10861631 -0.04541656 0.07374034
0.008230203 -0.0077187205 0.0055122646 0.009383208 -0.0012553288 -0.019928314 0.0011387783 0.032935824
-0.02831717 -0.03808986 0.02109285 0.031764124 0.0025631671 0.029892083 -0.24702056 0.11632819
0.00484923 -0.0073074787 -0.010464065 0.0047198203 -0.0014664263 0.0043430086 -0.002232132 0.0032304262
-0.005848039 -0.013708978 -0.008761806 -0.005784552 -0.0018041414 -0.014327256 -0.024978802 0.033298917
-0.012157019 -0.022656238 0.03332859 0.021664454 0.0051654964 0.008665826 -0.0017443991 0.0046995487
00000000: 03eb 03bc 0f45 823d 6ea4 66bd 2b43 12be
00000010: fde7 0c3c c50a 79be 51d7 f73d a6f9 a23d
00000020: e2a4 cebd 066e 363d b16d 2f3d f79e 573e
00000030: ddb7 07bc 3187 e7bd 780e a6bd fac9 fdbd
00000040: 3758 5ebd 4268 f93c 896b a7bd 2df1 8a3c
00000050: 2676 4dbd 0ce6 263e f526 3cbd a3df 333c
00000060: ac18 293d a66e 98bc 421f 133d 6e40 07be
00000070: ce8e e8bc cbad f2bd 47c8 eebd 3ab7 14be
00000080: 409b 7e3c 5c82 803d 524b 37bd 50bb 253d
00000090: 705b ba3a 2cbc e7bc 2d68 a33c 45a2 82bd
000000a0: 7162 0fbd 640c aabd 9aa9 aabd e216 283e
000000b0: f9f3 a33d d0d6 0b3d 08dd 603c 6599 7b3d
000000c0: b501 f1bc 320a 0ebe 8b6d e9bc 9b26 ba3d
000000d0: 67b2 0f3d 5986 c93d 7a33 4cbc 1c06 e0bb
000000e0: 5944 39bd 10db 98bc 545a b33b 8bdb 98bd
000000f0: 3763 6bbc e954 383d 308d d6bc 158a 103c
00000100: 3f1e 0b3d f09f 99bd 16d8 b8bd 9a0a 17be
00000110: 5824 16bd 24df fb3c c47f 58bc dc56 88bd
00000120: 47bf b7b9 14e6 9dbc 4e07 7c3d e691 233d
00000130: ffb6 1d3d c034 913d 493a 1a3d c1c7 843d
00000140: 9d61 0ebd 16c0 d1bd fa87 e53c b07d 833c
00000150: 459a f43a a6d1 893d 7826 8d3c cae9 a9bd
00000160: 2153 b03c f043 033e 33c5 553c 44e7 593c
00000170: ea5a 0ebd 4a5d 26bc dc75 483c 9216 663c
00000180: 89cf 323d 2c70 7d3d 7de3 b7bd a0d9 63bc
00000190: cbed 13be 3967 27be fc68 413c 71d5 86bd
000001a0: 1e44 8a3d 3883 80bd 363e 82bc 7ffe dfbd
000001b0: 40ff 89bc a7b1 923e ad13 c5bd 3ed5 2fbe
000001c0: 08f8 46bb edfb a9bc 3c92 023d b579 1abc
000001d0: 9a6d 533d 0a6d b83b cf00 8f3d c518 ae3d
000001e0: 7603 cebd 4fdd 32bd 8a71 613d afef 513e
000001f0: f6cf 523c 9132 61bd eaaf 1fbd 7186 953d
00000200: f38c 33bd 05fa 6f3e 5a80 0bbe 902d 2c3b
00000210: 7f26 883b 03ea e3bd fec4 c4bc be21 26be
00000220: 2932 563d 3efd 043e 37af 88bd 2e18 103e
00000230: c382 6e3d d7e2 fd3d 05ec 03bd 98ab 80be
00000240: 2a3b 60bc 2d3a 113d 3e02 3ebb 5d8c 223d
00000250: b174 863c 155d 3cbe a30a c0bd f57b 5f3c
00000260: 8f2e 17bd 6086 793b 5a79 493c ea7c 593c
00000270: 1fbf bd3d 5a34 9fbd 0849 c73d 3ee2 22be
00000280: 4952 343c 16c9 78bd 81bb 813c 449b 8c3d
00000290: 96f0 8fbd 4197 74bc ad54 90bd 49a9 d23d
000002a0: 2545 a9bd 2c05 a4bd d3f1 223c ccea 21bd
000002b0: 2b39 4bbd 3cb4 b23d e657 bb3a 50e4 12bd
000002c0: 07a5 473d 3927 993c 8a35 8b3c 9c1e b23d
000002d0: 6e61 bbbd afd4 24be d217 8dbd e99a 813d
000002e0: a0ac bf3c 553e 233d d925 823c af10 313d
000002f0: f6fd a2bd 6062 d3bd b3e5 4c3c b3a6 0e3d
00000300: a894 af3d 0238 d23b b5dd 543d 85d0 493d
00000310: 7a56 633d f3db cd3d 03e6 7fbc 39d1 503d
00000320: 6506 a33c ef7e 3abe 0ebe 02bd dcf9 35bd
00000330: 7f72 a1bd df1a 6bbe 6a9c f93c 0c38 47be
00000340: c46a cebd b968 a63e e671 d63c 9266 13be
00000350: f965 8f3c 3a72 debd b706 3abd 2d05 973d
00000360: f9d7 063c 52ed fcbb 3aa0 b43b 07bc 193c
00000370: d889 a4ba b440 a3bc 0f43 953a b7e7 063d
00000380: 69f9 e7bc 1d04 1cbd eaca ac3c 191b 023d
00000390: cffa 273b 3ee0 f43c f5f2 7cbe 793d ee3d
000003a0: 4ae6 9e3b 9373 efbb 7871 2bbc b9a8 9a3b
000003b0: 1a35 c0ba cc4f 8e3b f648 12bb 8fb5 533b
000003c0: e8a0 bfbb 9f9b 60bc ae8d 0fbc 578c bdbb
000003d0: f178 ecba debc 6abc 58a0 ccbc 7264 083d
000003e0: 3c2e 47bc 9399 b9bc 8f83 083d a779 b13c
000003f0: 5343 a93b 1cfb 0d3c 52a4 e4ba acfe 993b

encoder.0.bias f4 [128]
0.045866698 0.0063371044 0.020108242 -0.00020965385 0.05972346 0.007652156 0.031893075 0.05598603
-0.0025139614 -0.07362131 -0.04465717 -0.08091479 0.031073017 0.081537895 -0.032752473 0.0011639076
0.07873015 0.13440228 -0.08878847 0.021686515 -0.038868543 -0.009605124 -0.013004091 -0.068951115
-0.066626556 -0.057101276 0.020980474 -0.054823816 0.006912525 -0.00049341924 0.00024023854 -0.048557717
0.04701962 -0.026604958 -0.012861892 -0.05353815 0.039162666 -0.028145438 0.00011755455 0.01541878
-0.0319511 0.0037137107 -0.061980452 0.11627014 0.04694409 0.03478302 -0.008057699 -0.0049404064
0.048483107 0.021976443 -0.024596665 0.06275687 -0.006003262 -0.041621372 0.02068589 -0.030725844
0.046208985 -0.020355005 -0.01745368 -0.007796229 0.019745454 -0.064281665 0.025005987 0.04263868
-0.016208654 -0.034216713 -0.00019985906 -0.030651888 0.075842865 0.030832192 -0.04771142 -0.018899916
-0.06326958 0.33582973 0.06469341 0.039402552 0.03564495 0.0061005834 0.3605485 0.06953432
-0.007875498 -0.0031748528 -0.017369587 -0.008555529 0.002382757 0.03513396 0.07257494 -0.019770673
0.057109244 0.25900626 0.02350289 -0.012434129 -0.027524296 -0.0600397 0.005248693 0.0019061078
-0.03131723 0.051422447 0.009506728 0.0027013666 0.0074388674 -0.03113033 0.04992357 0.05780203
0.060912333 0.049222797 -0.012393348 -0.037117537 0.04837562 0.03471311 -0.084542006 -0.008197813
0.25675926 0.015627082 -0.0070569892 0.025680032 -0.02938004 0.021140857 -0.013921851 0.15805551
0.2994267 -0.03701265 -0.01958404 0.02904713 0.03228973 0.042563908 0.008490607 0.018176341
00000000: b8de 3b3d 7ca7 cf3b 0aba a43c 87d6 5bb9
00000010: 96a0 743d f0be fa3b 50a2 023d 9b51 653d
00000020: 46c1 24bb c5c6 96bd 70ea 36bd a7b6 a5bd
00000030: d78c fe3c 57fd a63d 7527 06bd 428e 983a
00000040: 463d a13d c0a0 093e bbd6 b5bd eba7 b13c
00000050: 9f34 1fbd cf5e 1dbc 1c0f 55bc 3e36 8dbd
00000060: 8173 88bd 07e3 69bd 3edf ab3c f08e 60bd
00000070: 7682 e23b ce58 01ba 8be8 7b39 75e4 46bd
00000080: a597 403d a4f2 d9bc afba 52bc d24a 5bbd
00000090: 0869 203d 4391 e6bc 9e87 f638 0d9f 7c3c
000000a0: 28df 02bd ba61 733b 37df 7dbd 0a1f ee3d
000000b0: 7248 403d a478 0e3d 7004 04bc 22e3 a1bb
000000c0: 3996 463d f107 b43c f27e c9bc ad86 803d
000000d0: 03b7 c4bb 2c7b 2abd 7575 a93c c4b4 fbbc
000000e0: a245 3d3d 8abf a6bc 05fb 8ebc 8277 ffbb
000000f0: 38c1 a13c 1ba6 83bd 5bd9 cc3c e6a5 2e3d
00000100: 03c8 84bc d326 0cbd 4291 51b9 ab19 fbbc
00000110: 8153 9b3d cb93 fc3c 0d6d 43bd ffd3 9abc
00000120: 7b93 81bd e0f1 ab3e fb7d 843d 9264 213d
00000130: 7000 123d 67e7 c73b d099 b83e 0268 8e3d
00000140: 3c08 01bc 3111 50bb aa4a 8ebc 7d2c 0cbc
00000150: 0728 1c3b a1e8 0f3d 2ca2 943d 1bf6 a1bc
00000160: 62eb 693d 789c 843e 2289 c03c 84b8 4bbc
00000170: a27a e1bc 30ec 75bd 3afd ab3b 5dd6 f93a
00000180: 7f46 00bd 58a0 523d 1bc2 1b3c 6909 313b
00000190: bec1 f33b 0905 ffbc a87c 4c3d d2c1 6c3d
000001a0: 367f 793d d89d 493d 780d 4bbc 8f08 18bd
000001b0: 8425 463d 562f 0e3d 5c24 adbd 1f50 06bc
000001c0: f375 833e 5e04 803c 513e e7bb ee5e d23c
000001d0: 69ae f0bc 972f ad3c 7a18 64bc 4ed9 213e
000001e0: 754e 993e 949a 17bd b56e a0bc 3ff4 ed3c
000001f0: 3c42 043d 7e57 2e3d 301c 0b3c 8de6 943c

encoder.2.weight f4 [128, 128]
-0.064995214 0.015572929 -0.10065762 0.083425716 0.029634723 0.10914123 0.09930156 0.09953265
0.034240313 0.08297379 0.1445375 -0.028905405 -0.020992776 -0.025417339 0.13014106 0.067533635
0.11634854 -0.08679692 0.0066347 -0.04441166 -0.05131042 -0.08603291 -0.09940154 0.032302026
-0.0111138895 -0.018554037 0.11851428 0.043117717 0.010852362 0.08139767 -0.032417383 0.036094937
0.06301053 0.049931224 -0.042883135 -0.0659377 -0.08316105 0.013710361 0.0641285 0.07371089
0.0917054 0.00940474 0.15117745 -0.040460166 -0.07405909 0.023134928 -0.019524623 -0.05733315
-0.043623067 0.09510916 -0.06646472 -0.08299682 -0.006207908 -0.005334255 0.22289257 -0.11439691
0.082365535 -0.05210119 -0.120607354 -0.018008647 0.1039046 -0.09930827 0.09096027 -0.019521654
0.0002198623 -0.084598824 0.054026883 -0.03826435 0.073168725 -0.0006307732 -0.047364626 -0.003923771
-0.027153919 0.08166219 0.03810011 -0.07339496 0.036835026 0.03170505 0.08603917 0.0013257265
-0.0065966435 0.081441425 0.098524004 -0.010754687 0.06337921 0.029613087 0.117604196 0.07700231
-0.043329194 0.07186637 0.12150272 -0.018984064 0.03869153 0.081586085 -0.022206608 0.1237468
-0.12080736 -0.07315772 -0.0058095427 0.013850393 0.082889095 0.010489488 0.07238953 0.084236704
0.06673563 0.042981435 0.029217964 -0.036505833 0.1051966 -0.015131006 -0.09418394 -0.062292945
0.0727876 0.1372424 0.0075770775 -0.12254235 0.07814003 0.07158175 -0.045763873 0.017053528
0.09344011 0.01728576 -0.02332375 -0.07696116 0.017955197 0.011787338 0.12137189 0.06449286
-0.092985004 -0.10700589 0.09754472 0.14947914 -0.21412261 0.019877657 -0.05155034 -0.16755295
0.060561188 0.0314797 0.026053853 -0.10340416 -0.031841274 -0.08665674 0.09935292 0.14459574
0.024355873 -0.08606185 0.066578336 0.008795212 -0.07264575 -0.017599331 0.10557673 0.19338067
-0.05737796 0.18926102 -0.006765776 0.09607463 -0.17147388 0.11335597 -0.023551213 -0.067676544
-0.020935304 -0.10418737 0.19078122 0.11137732 -0.004851833 -0.091675155 0.014767723 -0.06189661
-0.021398164 0.088188484 -0.0018279685 0.010986995 -0.05406912 0.10951675 -0.00045888498 -0.1055872
0.039517608 0.051750187 0.18759131 0.039637882 0.097747006 0.038839843 -0.06729465 -0.13113336
0.044129945 0.059782326 -0.06706475 0.00049471395 0.06915603 0.10759145 0.09402554 -0.030560326
0.12247224 -0.12571676 0.012140789 -0.041993946 0.026511379 0.13906614 0.08318858 -0.0067393114
0.1347874 0.0046798512 -0.013023244 -0.09996781 0.03763806 0.05605966 0.011328755 -0.1348299
0.047613535 0.07424894 -0.0037241976 -0.14049093 0.010573056 -0.046456926 0.11143638 -0.009758428
-0.19851387 -0.058171123 -0.18660046 0.11700332 0.023932341 -0.081474915 -0.07717146 -0.062069066
0.17745492 0.06866067 -0.10688598 -0.024110658 -0.18535398 -0.113896646 -0.11861893 -0.12791869
0.037795607 -0.060339976 -0.021587204 0.017504863 -0.09356039 0.0014163489 0.061905395 0.124589585
-0.02410857 -0.060026135 -0.12182124 0.04569257 -0.124555364 0.15741357 -0.06013264 -0.0141241215
0.07267256 0.10364466 -0.012664547 -0.022918351 0.033961985 0.121816084 0.023319712 -0.12468787
00000000: 361c 85bd 9925 7f3c 9525 cebd 1adb aa3d
00000010: 85c4 f23c 7085 df3d 9e5e cb3d c6d7 cb3d
00000020: 923f 0c3d 2aee a93d a301 143e 07cb ecbc
00000030: 0bf9 abbc 0638 d0bc b343 053e 134f 8a3d
00000040: 2548 ee3d 95c2 b1bd e667 d93b 00e9 35bd
00000050: e02a 52bd 0632 b0bd 0993 cbbd 214f 043d
00000060: 0817 36bc a3fe 97bc 9db7 f23d 349c 303d
00000070: 1bce 313c d2b3 a63d 17c8 04bd 49d8 133d
00000080: aa0b 813d af84 4c3d 3aa6 2fbd 580a 87bd
00000090: 5750 aabd 6ca1 603c ce55 833d bcf5 963d
000000a0: 0ad0 bb3d 5716 1a3c 43ce 1a3e 8fb9 25bd
000000b0: 4bac 97bd 7685 bd3c 1af2 9fbc 2ad6 6abd
000000c0: 1aae 32bd 97c8 c23d a81e 88bd 3dfa a9bd
000000d0: b56b cbbb f9ca aebb f33d 643e ed48 eabd
000000e0: 43af a83d 0f68 55bd fd00 f7bd df86 93bc
000000f0: efcb d43d 2262 cbbd 6149 ba3d e0eb 9fbc
00000100: d68a 6639 2642 adbd 4b4b 5d3d 14bb 1cbd
00000110: 7cd9 953d 795a 25ba 6901 42bd fa92 80bb
00000120: e571 debc 823e a73d dc0e 1c3d 1950 96bd
00000130: 53e0 163d 28dd 013d 4e35 b03d 00c4 ad3a
00000140: a828 d8bb c3ca a63d f4c6 c93d 6d34 30bc
00000150: f6cc 813d 2597 f23c 78da f03d 63b3 9d3d
00000160: f479 31bd ad2e 933d 6bd6 f83d 7884 9bbc
00000170: 027b 1e3d 9b16 a73d a2ea b5bc f66e fd3d
00000180: d969 f7bd b7d3 95bd fa5d bebb c2ec 623c
00000190: c2c1 a93d 1adc 2b3c f640 943d 4b84 ac3d
000001a0: b1ac 883d 4d0d 303d 835a ef3c 2487 15bd
000001b0: 5171 d73d 0ae8 77bc 82e3 c0bd e326 7fbd
000001c0: aa11 953d 4689 0c3e 2249 f83b 7cf7 fabd
000001d0: e107 a03d 7499 923d e672 3bbd d7b3 8b3c
000001e0: 875d bf3d de9a 8d3c 7311 bfbc d09d 9dbd
000001f0: c716 933c ae1f 413c d391 f83d d514 843d
00000200: ec6e bebd e725 dbbd 87c5 c73d 0f11 193e
00000210: f542 5bbe 78d6 a23c 7326 53bd 0093 2bbe
00000220: 020f 783d dcf0 003d e46e d53c 8fc5 d3bd
00000230: ff6b 02bd 1779 b1bd 8b79 cb3d e810 143e
00000240: f885 c73c 3241 b0bd 395a 883d cb19 103c
00000250: 4cc7 94bd 792c 90bc 9d38 d83d 9505 463e
00000260: 2705 6bbd a4cd 413e 71b3 ddbb c7c2 c43d
00000270: d996 2fbe 2d27 e83d 79ee c0bc 009a 8abd
00000280: 8480 abbc 3060 d5bd 275c 433e cb19 e43d
00000290: 20fc 9ebb 2fc0 bbbd 52f4 713c 4d87 7dbd
000002a0: 344b afbc 2a9c b43d 7298 efba cc02 343c
000002b0: 9577 5dbd 514a e03d 8096 f0b9 1a3e d8bd
000002c0: 37dd 213d 01f8 533d f017 403e 555b 223d
000002d0: 952f c83d 8716 1f3d c7d1 89bd d347 06be
000002e0: 9ac1 343d 50de 743d 3e59 89bd b1af 013a
000002f0: ada1 8d3d e858 dc3d 7690 c03d a659 fabc
00000300: bad2 fa3d e5bb 00be 29ea 463c d801 2cbd
00000310: 642e d93c 5b67 0e3e c65e aa3d 71d5 dcbb
00000320: b505 0a3e 7059 993b 725f 55bc ecbb ccbd
00000330: 5e2a 1a3d d09e 653d 3e9c 393c d910 0abe
00000340: 6906 433d d40f 983d ab11 74bb dbdc 0fbe
00000350: 9c3a 2d3c 9e49 3ebd c238 e43d d0e1 1fbc
00000360: 3847 4bbe d844 6ebd 3114 3fbe 709f ef3d
00000370: c20d c43c 52dc a6bd 120c 9ebd 223c 7ebd
00000380: beb6 353e f79d 8c3d 09e7 dabd b783 c5bc
00000390: 6fcd 3dbe a542 e9bd 7bee f2bd 1efd 02be
000003a0: 91cf 1a3d 0d27 77bd a6d7 b0bc 5c66 8f3c
000003b0: 979c bfbd c8a4 b93a 8390 7d3d d328 ff3d
000003c0: 567f c5bc f7dd 75bd 6a7d f9bd 2228 3b3d
000003d0: e216 ffbd 0631 213e a54d 76bd dc68 67bc
000003e0: 5ad5 943d a743 d43d f67e 4fbc 44bf bbbc
000003f0: b91b 0b3d b67a f93d fb08 bf3c 5b5c ffbd

encoder.2.bias f4 [128]
0.09165092 -0.08343595 0.044523608 0.011244706 0.079125 0.059993654 0.0506104 0.06638948
0.08176459 0.024966506 0.050076183 0.07021412 0.059529535 -0.09939915 0.06928913 0.062001083
0.05431674 0.51042277 -0.006822983 0.013350847 0.035932254 0.013946855 0.027478747 0.03196561
0.08600034 0.0066161286 0.048132453 0.048525717 0.037163947 -0.03232501 0.084215745 0.018515468
-0.16075878 0.046413403 0.059298147 0.0072259936 0.053739745 0.079326786 -0.16264291 0.035575062
0.040915713 0.069185086 -0.065289125 0.08493383 0.0122286305 0.07144307 -0.016287021 0.055440754
0.02227939 -0.17082866 -0.023575205 0.103743576 0.03880896 0.10592144 0.076591216 -0.13338535
0.029413495 -0.1799514 0.06262415 0.03413525 0.040069662 0.03390427 -0.05614944 0.016585425
0.108889714 0.005142563 -0.06575367 0.06273816 -0.036494248 -0.040277306 0.015859606 0.059900887
0.045217227 -0.01999189 0.053973764 0.055432107 -0.01826849 -0.13678828 0.10194137 -0.027382135
-0.09161315 0.011034525 -0.03921454 0.063603126 0.26489076 0.056084193 0.04368924 0.068076424
0.03107133 0.07410362 0.06582105 0.098619275 -0.07292244 -0.047474075 0.004503533 0.04713875
0.1471776 -0.040612277 0.033211708 -0.03339241 0.017791184 -0.064156346 0.034666877 0.068611056
0.110856906 0.21808153 -0.022795528 0.0720981 0.08003243 0.77506703 0.041301783 -0.10159004
0.09999729 -0.016685506 0.060428847 -0.04747091 0.034037784 0.10963181 0.03105211 -0.1109468
0.09549177 0.03189273 0.050124876 0.008851852 0.052046724 0.046730023 0.038556777 0.01633523
00000000: 7ab3 bb3d 78e0 aabd 635e 363d b73b 383c
00000010: 4a0c a23d e8bb 753d da4c 4f3d 35f7 873d
00000020: 3274 a73d 8f86 cc3c af1c 4d3d 6ccc 8f3d
00000030: 3ed5 733d c891 cbbd 76e7 8d3d d9f4 7d3d
00000040: 3b7b 5e3d 11ab 023f 5493 dfbb 83bd 5a3c
00000050: b32d 133d 5a81 643c 1c1b e13c 5fee 023d
00000060: f220 b03d 1ccc d83b 8926 453d e7c2 463d
00000070: 3939 183d 3b67 04bd 4e79 ac3d c0ad 973c
00000080: f39d 24be fb1b 3e3d 9de2 723d 07c8 ec3b
00000090: 351e 5c3d 1576 a23d dd8b 26be 28b7 113d
000000a0: 3c97 273d e9b0 8d3d 4eb6 85bd caf1 ad3d
000000b0: 985a 483c bf50 923d 5c6c 85bc d815 633d
000000c0: 4483 b63c b5ed 2ebe ca20 c1bc 8377 d43d
000000d0: 25f6 1e3d 57ed d83d dbdb 9c3d 2b96 08be
000000e0: 92f4 f03c 2e45 38be 1741 803d 67d1 0b3d
000000f0: 1620 243d 34df 0a3d f5fc 65bd 28de 873c
00000100: 9201 df3d f282 a83b dca9 86bd dd7c 803d
00000110: fe7a 15bd d1f9 24bd 01ec 813c a25a 753d
00000120: b335 393d 08c6 a3bc 9813 5d3d c70c 633d
00000130: cda7 95bc 3a12 0cbe a3c6 d03d 8050 e0bc
00000140: ad9f bbbd 27ca 343c 6d9f 20bd 5b42 823d
00000150: c39f 873e 8ab8 653d 7df3 323d a76b 8b3d
00000160: 4d89 fe3c a4c3 973d 30cd 863d e7f8 c93d
00000170: 5c58 95bd 2d74 42bd 5f92 933b 9014 413d
00000180: bab5 163e 0f59 26bd 0009 083d 7bc6 08bd
00000190: d1be 913c 6764 83bd dbfe 0d3d f483 8c3d
000001a0: f208 e33d c450 5f3e b0bd babc 2ba8 933d
000001b0: 0be8 a33d cb6a 463f 0f2c 293d 700e d0bd
000001c0: 61cb cc3d 0bb0 88bc 3d84 773d db70 42bd
000001d0: 346b 0b3d a486 e03d ff60 fe3c 1338 e3bd
000001e0: 3091 c33d f4a1 023d be4f 4d3d 5c07 113c
000001f0: f22e 553d fb67 3f3d b6ed 1d3d 76d1 853c

encoder.4.weight f4 [128, 128]
-0.057215054 0.044483438 -0.06835349 0.010325604 -0.040186763 -0.111114785 -0.030761972 -0.07779695
0.023813907 0.10265436 0.028864684 -0.032178205 -0.15325855 0.07992412 0.1363568 0.02211177
0.09024457 0.13202152 -0.07999119 -0.068180464 0.00812231 -0.087293975 -0.10031754 -0.06893395
0.11063415 -0.013232957 0.03538545 0.10853811 -0.106347986 -0.017482908 0.08480748 -0.047004785
-0.0077710385 -0.06785094 -0.030130813 -0.022921994 -0.08568073 -0.0045125373 0.015066675 0.13628955
0.025465418 -0.072885744 0.078703254 0.06359145 -0.07722489 0.11546269 -0.08468019 -0.041252743
0.12065535 -0.017734708 -0.039787106 -0.038603097 0.03347038 0.10222064 0.008928252 0.0044957036
-0.013987144 0.10894219 -0.027644334 -0.042983055 0.15067683 -0.031642005 -0.049309224 0.08227145
0.08464053 0.13258347 0.076603204 -0.11424892 -0.08917152 0.12733953 0.037765224 0.061341908
-0.0008368619 0.13171843 0.08797635 0.011036968 0.024969418 0.019369856 0.10703661 0.063878044
-0.0023267195 -0.03335315 -0.081749864 -0.087215714 0.10592171 0.071109585 0.04461024 0.020864842
-0.10669792 0.12291456 -0.046992924 0.013607778 0.014635831 -0.05634478 -0.058016498 -0.096193224
0.04960841 0.012232699 0.10284291 0.075473875 0.09206161 0.020992372 0.10937032 0.020183928
0.0457517 0.031365845 -0.043133974 0.020535707 0.04450519 0.1369847 0.037586395 0.06529511
-0.056318477 -0.039596744 -0.09699177 0.19008991 0.02581632 -0.11529622 -0.008868387 0.13904445
-0.04060298 0.06843953 0.03728489 0.10816529 -0.008933927 0.046438742 0.042355713 -0.12526183
0.08066174 0.09177115 -0.04935944 -0.1511969 0.0050030914 -0.038084384 0.15372582 -0.13552955
-0.021220988 0.0946032 0.09559851 0.10218237 0.122595124 -0.12923124 0.11746876 -0.035128333
0.014160763 0.006546565 0.1348228 0.11123546 -0.1426156 -0.054664522 0.10239366 0.026559988
-0.008805707 0.12608221 -0.07382941 -0.058928423 -0.013438749 0.09863849 -0.0008754114 0.0035607694
0.058233812 -0.0007661966 0.10330276 -0.07922257 -0.02728123 -0.13534819 0.02511875 -0.08134708
-0.039947044 0.13434756 0.124492556 -0.13813393 -0.03155822 0.025377436 -0.032057617 0.122209
-0.042582005 0.047458474 -0.10314484 -0.14113069 0.050407123 -0.024915582 -0.0035473115 -0.09876648
0.070157595 -0.03334418 -0.06740174 0.07910552 -0.12246899 -0.026110537 -0.013074263 -0.0451872
0.095504634 -0.042063404 -0.01823229 -0.051318888 -0.012101991 -0.054918088 0.11303792 -0.08916175
-0.029470725 -0.06733365 -0.07101596 0.12856692 -0.05162168 -0.03865137 -0.038086645 0.024768583
0.08131635 -0.122579165 -0.044390272 0.11388031 0.06888338 -0.056113448 0.09330132 -0.016827159
0.10006526 0.10572038 0.06275607 -0.021279402 0.1112664 0.09672461 -0.05996087 0.020857548
0.034218576 0.027858982 0.077449985 0.08318069 0.019920463 -0.11932359 -0.049089573 0.14026348
-0.050787516 0.0040414943 -0.02648433 0.08806945 0.0049885395 0.111202054 0.07328198 0.10480744
0.028264303 0.04619006 0.11233635 -0.1400643 -0.02760311 -0.03129742 -0.030946003 0.008857278
0.11895192 0.002980353 0.13455096 0.05663334 0.04455498 -0.010087001 -0.17734739 0.037542865
00000000: 555a 6abd 4434 363d eafc 8bbd b92c 293c
00000010: e09a 24bd 2690 e3bd 8800 fcbc 0254 9fbd
00000020: 6215 c33c 733c d23d a175 ec3c 4bcd 03bd
00000030: cfef 1cbe 42af a33d 1ea1 0b3e be23 b53c
00000040: 25d2 b83d a630 073e 6cd2 a3bd 33a2 8bbd
00000050: 7013 053c 2fc7 b2bd 4873 cdbd 3e2d 8dbd
00000060: 2894 e23d 0bcf 58bc 55f0 103d 3b49 de3d
00000070: f9cc d9bd 5138 8fbc 8baf ad3d 1788 40bd
00000080: 32a4 febb 6ff5 8abd e5d4 f6bc e8c6 bbbc
00000090: 6179 afbd e8dd 93bb 37da 763c 7d8f 0b3e
000000a0: da9c d03c 1f45 95bd 2c2f a13d 3c3c 823d
000000b0: 1528 9ebd b477 ec3d cf6c adbd a3f8 28bd
000000c0: 271a f73d 6148 91bc cef7 22bd 481e 1ebd
000000d0: 3d18 093d 0e59 d13d ce47 123c b250 933b
000000e0: 562a 65bc 151d df3d 5f76 e2bc 000f 30bd
000000f0: 074b 1a3e 0c9b 01bd 78f8 49bd ef7d a83d
00000100: 0458 ad3d f6c3 073e 24e2 9c3d 56fb e9bd
00000110: 8f9f b6bd 4b65 023e b5af 1a3d a741 7b3d
00000120: da60 5bba 32e1 063e f22c b43d 66d4 343c
00000130: aa8c cc3c 88ad 9e3c 0336 db3d 7ed2 823d
00000140: e07b 18bb 509d 08bd 796c a7bd 279e b2bd
00000150: 7bed d83d e7a1 913d 3ab9 363d bfec aa3c
00000160: 7084 dabd a1ba fb3d a77b 40bd 28f3 5e3c
00000170: 20cb 6f3c c9c9 66bd b5a2 6dbd f400 c5bd
00000180: 3032 4b3d a96b 483c 4e9f d23d 0c92 9a3d
00000190: cc8a bc3d 32f8 ab3c 8cfd df3d c458 a53c
000001a0: 2266 3b3d 7979 003d 40ad 30bd 803a a83c
000001b0: 134b 363d b845 0c3e 31f4 193d 71b9 853d
000001c0: 34ae 66bd 3230 22bd 9fa3 c6bd eea6 423e
000001d0: bf7c d33c 6d20 ecbd b64c 11bc ab61 0e3e
000001e0: 4f4f 26bd 062a 8c3d 0ab8 183d c385 dd3d
000001f0: 9b5f 12bc 8d36 3e3d 2f7d 2d3d a344 00be
00000200: fb31 a53d 83f2 bb3d 202d 4abd 5cd3 1abe
00000210: f9f0 a33b 5ffe 1bbd 4d6a 1d3e 42c8 0abe
00000220: a3d7 adbc 53bf c13d 27c9 c33d fe44 d13d
00000230: 2713 fb3d 3255 04be 7693 f03d bae2 0fbd
00000240: 8b02 683c 9184 d63b fd0e 0a3e 6bcf e33d
00000250: d309 12be e8e7 5fbd c4b3 d13d 5594 d93c
00000260: d045 10bc b21b 013e e033 97bd ee5e 71bd
00000270: 332e 5cbc fa02 ca3d dd7b 65ba cc5b 693b
00000280: 9486 6e3d 95da 48ba 6690 d33d 713f a2bd
00000290: e37c dfbc b798 0abe d6c5 cd3c 4c99 a6bd
000002a0: 839f 23bd 6892 093e f4f5 fe3d fb72 0dbe
000002b0: 3143 01bd 57e4 cf3c d94e 03bd b648 fa3d
000002c0: 786a 2ebd d163 423d 9a3d d3bd 9084 10be
000002d0: b377 4e3d c31b ccbc 037a 68bb 1546 cabd
000002e0: c9ae 8f3d e893 08bd ec09 8abd 1302 a23d
000002f0: 06d1 fabd c4e5 d5bc 6f35 56bc 3716 39bd
00000300: ef97 c33d ad4a 2cbd e25b 95bc c133 52bd
00000310: 6e47 46bc caf1 60bd 6d80 e73d 709a b6bd
00000320: 976c f1bc 3ae6 89bd d170 91bd 0ca7 033e
00000330: 4171 53bd e650 1ebd be00 1cbd 7ce7 ca3c
00000340: 3089 a63d c90a fbbd 93d2 35bd 143a e93d
00000350: bb12 8d3d 37d7 65bd c314 bf3d 1cd9 89bc
00000360: 04ef cc3d ed83 d83d 4186 803d 2452 aebc
00000370: a3df e33d 8d17 c63d 8799 75bd 73dd aa3c
00000380: c728 0c3d 8538 e43c 199e 9e3d a35a aa3d
00000390: 3d30 a33c ed5f f4bd 2612 49bd 3ba1 0f3e
000003a0: 9206 50bd 836e 843b aaf5 d8bc c15d b43d
000003b0: e776 a33b e7bd e33d dd14 963d 48a5 d63d
000003c0: 8a8a e73c ca31 3d3d 9a10 e63d 046d 0fbe
000003d0: eb1f e2bc b931 00bd 7982 fdbc 1e1e 113c
000003e0: 109d f33d 0752 433b bac7 093e 5cf8 673d
000003f0: 487f 363d f343 25bc 8e9a 35be 8cc6 193d

encoder.4.bias f4 [128]
0.042704463 -0.008250223 0.09982101 -0.029954607 0.07391848 0.07711243 -0.040521506 -0.014892904
-0.004866182 0.0058902567 0.019397967 -0.15377016 0.41246954 0.004866781 -0.11094401 0.006711334
0.038400747 0.0071644965 0.054008577 -0.007082785 0.038627006 0.032690026 0.089299746 0.053480204
-0.058602814 0.018873166 0.07547895 0.045583256 0.03984361 0.044265527 -0.08636961 -0.026295308
-0.0030260417 0.0534597 0.04161071 -0.00069930207 0.011318724 -0.09291488 -0.035868105 0.016686948
0.053474225 -0.020693602 -0.029997945 -0.026065452 0.04270092 0.06323737 0.09949854 0.027085623
-0.17291479 -0.0033940903 -0.011502705 -0.038558945 -0.012707121 0.040259127 0.010845104 -0.014967336
-0.08675759 -0.018840846 0.05154902 0.008937372 -0.05989542 0.021005357 0.064066894 -0.009056418
0.016510772 0.08254243 0.0017547605 0.0 0.043341875 -0.0005598815 -0.11332313 -0.048109744
-0.05222179 -0.028180104 0.05008385 0.0038088728 0.07598591 0.031451 0.580877 0.03628161
0.089508094 0.045455836 0.007089759 -0.030407296 -0.013963579 0.17185654 0.067450956 0.07587439
-0.021784967 0.04116964 0.03694594 0.048218194 0.03294596 -0.012088303 0.032615382 -0.023817003
0.07248607 -0.088927574 0.049565285 -0.011187607 0.040239755 0.030290388 -0.0039587715 -0.034364007
0.0026633395 -0.083963096 -0.13123532 0.03066615 0.058412652 -0.082825854 0.040579643 -0.0051060156
0.023339856 0.063018434 0.087045126 -0.021601334 -0.011317618 -0.029456241 -0.0032903873 0.000659852
-0.04467614 0.05323905 -0.024457432 0.03632323 0.0129305255 0.04775765 0.068678476 0.02272632
00000000: e0ea 2e3d f12b 07bc f56e cc3d 5d63 f5bc
00000010: 9262 973d 1fed 9d3d e1f9 25bd 5e01 74bc
00000020: 7e74 9fbb 0e03 c13b 7ce8 9e3c ed75 1dbe
00000030: 352f d33e 8579 9f3b 9d36 e3bd c0ea db3b
00000040: 1a4a 1d3d 27c4 ea3b 1938 5d3d b516 e8bb
00000050: 5a37 1e3d fae5 053d c9e2 b63d 0f0e 5b3d
00000060: 8109 70bd e69b 9a3c b594 9a3d 82b5 3a3d
00000070: 0e33 233d c54f 353d 8de2 b0bd 4269 d7bc
00000080: 8e50 46bb 8ff8 5a3d fe6f 2a3d 5e51 37ba
00000090: 2b72 393c 284a bebd 6fea 12bd 11b3 883c
000000a0: ca07 5b3d a185 a9bc 40be f5bc 3787 d5bc
000000b0: 29e7 2e3d 9882 813d e4c5 cb3d abe2 dd3c
000000c0: 9310 31be 636f 5ebb d775 3cbc fcef 1dbd
000000d0: 8731 50bc c1e6 243d aaaf 313c 8f39 75bc
000000e0: f7ad b1bd 1e58 9abc 1125 533d 0e6e 123c
000000f0: e654 75bd 6d13 ac3c 8135 833d 5f61 14bc
00000100: 9941 873c 010c a93d feff e53a 0000 0000
00000110: 4087 313d 03c5 12ba f515 e8bd b90e 45bd
00000120: 84e6 55bd f6d9 e6bc b924 4d3d 489e 793b
00000130: 809e 9b3d c4d2 003d 5bb4 143f 079c 143d
00000140: 0550 b73d e62f 3a3d 3651 e83b b918 f9bc
00000150: 7fc7 64bc 29fb 2f3e ba23 8a3d 0864 9b3d
00000160: 6376 b2bc 7fa1 283d a054 173d 7180 453d
00000170: 58f2 063d 050e 46bc b597 053d e01b c3bc
00000180: 9473 943d a91f b6bd f804 4b3d 3a4c 37bc
00000190: 71d2 243d 8c23 f83c 95b8 81bb 46c1 0cbd
000001a0: 6c8b 2e3b d8f4 abbd 8d62 06be 9437 fb3c
000001b0: 1b42 6f3d 9aa0 a9bd d736 263d 5d50 a7bb
000001c0: 3a33 bf3c cf0f 813d b744 b23d 48f5 b0bc
000001d0: 886d 39bc 374e f1bc 8aa3 57bb ebf9 2c3a
000001e0: 54fe 36bd 3111 5a3d f45a c8bc abc7 143d
000001f0: 8eda 533c 879d 433d 4da7 8c3d 8c2c ba3c

encoder.6.weight f4 [128, 128]
0.0026814933 0.0073816013 0.012301931 -0.13174742 0.08503684 0.052052133 0.035825346 0.09402523
0.0113952225 0.10094391 -0.056935493 -0.09012624 0.009703465 0.07585242 -0.011283675 0.043896485
-0.0104165105 0.025304781 0.06553408 -0.060249265 0.12480205 -0.040071297 -0.035807107 -0.07642366
0.0023165294 0.05576017 0.021974681 -0.028486812 0.03668846 0.07003163 0.11514637 0.057359964
0.1009002 0.021248916 0.024168648 0.0647468 0.07123016 0.012461507 -0.038897395 0.108525716
-0.1382751 0.1027145 -0.04711801 0.12727712 -0.02098751 -0.059749767 0.08753171 -0.036219273
0.011030719 -0.114731885 -0.06603078 0.1674076 0.14304416 -9.665765e-05 0.07003117 0.06966992
-0.1092404 -0.007993961 0.003920819 -0.08017128 -0.01487689 0.09007354 0.17242642 0.062422886
-0.09665356 0.17716213 -0.005822452 -0.11438494 0.027564878 -0.08612962 -0.07727898 -0.10559112
0.016782617 -0.051778287 0.117328696 -0.105981365 0.15254256 0.10580547 0.041826636 0.061464336
-0.055752203 0.13736758 -0.1008742 -0.08066065 -0.09205092 0.12687252 -0.12014482 0.028522043
0.12806566 -0.02456331 0.14418766 -0.0035898807 0.012247602 -0.033903487 0.13313173 0.051259097
0.008254276 0.040199332 0.013522151 -0.04613143 0.085415855 -0.08810252 0.08710435 -0.1412719
-0.03718108 0.14275725 -0.08861835 0.026070813 -0.06886563 -0.032966036 -0.01128302 0.00959975
-0.091504455 -0.13399303 0.102803096 0.08922111 -0.11671027 0.014905282 -0.12619112 0.14202173
0.016050283 -0.076866284 0.06203281 -0.11466867 0.027025044 0.13275538 0.028739743 0.10171281
-0.040688597 0.10544417 0.115093976 0.12315178 -0.09540422 0.052372523 -0.03338765 0.090288416
-0.03548433 -0.049672917 -0.043601308 -0.04816099 0.19799457 -0.012504679 -0.06491447 -0.052558843
-0.008870103 0.06988416 0.12724441 0.07471754 -0.10787073 0.06944538 0.008702171 -0.049156576
0.02523553 0.050525296 -0.07159012 -0.038449608 0.011369454 -0.0644877 -0.29396328 0.08804947
-0.0063829045 -0.11023808 0.095562875 0.12407876 0.079134196 0.077321194 0.0022167743 0.06597863
0.050070796 0.040728796 -0.086945266 0.0034725058 -0.06285713 0.12653707 -0.01761779 -0.10474814
-0.089943424 -0.06608273 -0.06918738 -0.035890274 -0.116295844 -0.067102656 0.07817547 -0.06613648
-0.10432344 0.09629557 0.038826607 -0.12930372 -0.26418358 0.10431082 -0.12244185 0.15742981
0.028198946 0.07420848 0.18597612 -0.042450495 0.06470205 -0.047215234 -0.0825141 0.094428495
-0.11949781 0.0763026 -0.15416707 -0.06372735 0.011338642 0.06164796 -0.15573716 -0.114304096
-0.045737077 -0.008199631 -0.049441025 -0.04171316 0.14064562 0.03567782 0.022674138 0.06125017
0.108158454 -0.07350631 0.052551888 -0.05343657 -0.07366944 -0.10528799 -0.1201045 -0.14071786
0.0661404 -0.022103624 -0.042936116 -0.13514113 -0.028869748 -0.08013285 -0.04997058 -0.054095805
-0.04868515 0.10632519 0.037074994 0.052511066 -0.08348452 0.08904125 -0.14178106 0.1279345
0.07421044 0.1292144 0.04178906 -0.03519257 0.06253938 -0.00035325615 -0.035796262 0.1204391
0.08463069 -0.030037433 0.032622494 -0.014460341 0.08212915 -0.053882144 0.01587445 -0.03970097
00000000: febb 2f3b 5ce1 f13b 0a8e 493c cce8 06be
00000010: cb27 ae3d 9e34 553d 99bd 123d 4d90 c03d
00000020: 07b3 3a3c aebb ce3d 3135 69bd 1b94 b8bd
00000030: 48fb 1e3c 8358 9b3d 2adf 38bc cdcc 333d
00000040: 03aa 2abc f94b cf3c bb36 863d efc7 76bd
00000050: 3898 ff3d cd21 24bd 79aa 12bd 0284 9cbd
00000060: ead0 173b c764 643d 3f04 b43c 2d5d e9bc
00000070: a346 163d be6c 8f3d dcd1 eb3d 48f2 6a3d
00000080: c4a4 ce3d 3512 ae3c 54fd c53c f899 843d
00000090: 1ee1 913d 592b 4c3c e052 1fbd bb42 de3d
000000a0: fd97 0dbe fb5b d23d d1fe 40bd ef54 023e
000000b0: 00ee abbc 2cbc 74bd d343 b33d a95a 14bd
000000c0: 30ba 343c 8df8 eabd 253b 87bd e66c 2b3e
000000d0: 2b7a 123e aeb4 cab8 816c 8f3d 1aaf 8e3d
000000e0: 6eb9 dfbd 1af9 02bc 377a 803b d730 a4bd
000000f0: 33be 73bc 7a78 b83d 8d90 303e 24af 7f3d
00000100: 4df2 c5bd fd69 353e 44ca bebb a742 eabd
00000110: bdcf e13c ba64 b0bd 7144 9ebd 2840 d8bd
00000120: b37b 893c 7815 54bd 074a f03d c20c d9bd
00000130: 1e34 1c3e 8ab0 d83d 6852 2b3d 07c2 7b3d
00000140: 6c5c 64bd 16aa 0c3e 2297 cebd 6931 a5bd
00000150: 3185 bcbd dfea 013e 7d0e f6bd 0fa7 e93c
00000160: a523 033e ff38 c9bc eea5 133e 3444 6bbb
00000170: 2baa 483c 62de 0abd af53 083e 0ff5 513d
00000180: f13c 073c 0ea8 243d 038c 5d3c 4ff4 3cbd
00000190: 82ee ae3d 186f b4bd c463 b23d 95a9 10be
000001a0: 304b 18bd f52e 123e 8a7d b5bd 7592 d53c
000001b0: 6c09 8dbd 6507 07bd 6adc 38bc 4548 1d3c
000001c0: b066 bbbd 7835 09be 6e8a d23d 8fb9 b63d
000001d0: cb05 efbd 4935 743c 3f38 01be 256e 113e
000001e0: e27b 833c 126c 9dbd 1e16 7e3d 68d7 eabd
000001f0: a063 dd3c 07f1 073e 9c6f eb3c ce4e d03d
00000200: 16a9 26bd 1df3 d73d 64b6 eb3d 0037 fc3d
00000210: 4a63 c3bd 9284 563d 7dc1 08bd 22e9 b83d
00000220: 0458 11bd d475 4bbd 4997 32bd 7544 45bd
00000230: 17bf 4a3e 6de0 4cbc e1f1 84bd f147 57bd
00000240: e953 11bc 6d1f 8f3d 5c4c 023e 8205 993d
00000250: 54eb dcbd 6139 8e3d 8d93 0e3c 6858 49bd
00000260: beba ce3c 9df3 4e3d d79d 92bd 567d 1dbd
00000270: f246 3a3c 2112 84bd 5b82 96be 4853 b43d
00000280: af27 d1bb 81c4 e1bd 78b6 c33d 011d fe3d
00000290: 1c11 a23d 935a 9e3d 4d47 113b ce1f 873d
000002a0: 0917 4d3d 3dd3 263d 5c10 b2bd fb92 633b
000002b0: 3dbb 80bd ef92 013e 2f53 90bc 3186 d6bd
000002c0: 4234 b8bd 6256 87bd 1db2 8dbd ae01 13bd
000002d0: 842c eebd 1e6d 89bd 761a a03d 9072 87bd
000002e0: 87a7 d5bd 9d36 c53d a608 1f3d 3268 04be
000002f0: 1243 87be e9a0 d53d cbc2 fabd 4835 213e
00000300: 7a01 e73c 9efa 973d 8670 3e3e 92e0 2dbd
00000310: 8282 843d c364 41bd 27fd a8bd ba63 c13d
00000320: 45bb f4bd 8a44 9c3d f9dd 1dbe 7c83 82bd
00000330: b6c5 393c 9282 7c3d 9079 1fbe 4418 eabd
00000340: cd56 3bbd bf57 06bc ac82 4abd 6bdb 2abd
00000350: 6805 103e e822 123d 1dbf b93c 75e1 7a3d
00000360: 2e82 dd3d 7a8a 96bd a640 573d 4ee0 5abd
00000370: 01e0 96bd 3ba1 d7bd 59f9 f5bd 5818 10be
00000380: 9e74 873d a912 b5bc c8dd 2fbd 7062 0abe
00000390: 4080 ecbc b11c a4bd f3ad 4cbd 9093 5dbd
000003a0: 146a 47bd 05c1 d93d f3db 173d d815 573d
000003b0: eff9 aabd 425b b63d 0e2f 11be 4301 033e
000003c0: a5fb 973d c850 043e 012b 2b3d 1626 10bd
000003d0: a514 803d 3d35 b9b9 1a9f 12bd c6a8 f63d
000003e0: db52 ad3d 1011 f6bc 2a9f 053d 11eb 6cbc
000003f0: 5433 a83d 86b3 5cbd 220b 823c 7c9d 22bd

encoder.6.bias f4 [128]
0.060843095 -0.016425407 -0.018324135 0.049459282 0.04624721 -0.013688078 0.005103112 0.02134741
0.027771004 -0.0013035444 0.0742113 -0.024587592 0.045310773 0.054818433 -0.00962889 0.024471814
-0.0138442535 0.026098246 -0.010977856 -0.008822084 0.033819478 0.04392231 -0.0062102145 0.034916542
0.03130432 0.0024600518 -0.048238307 0.04436086 -0.04710632 0.039221894 -0.017904622 0.0012111972
0.060045324 0.08573885 0.005252796 -0.02578437 -0.025522174 0.100029916 0.14974667 0.052211583
-0.012937028 -0.01344638 0.07486866 0.018243134 0.03795384 -0.0012758406 -0.0039938525 0.03072613
-0.020503888 0.018326398 -0.027700292 0.08187102 0.057534836 0.020019207 -0.16197969 -0.008304865
-0.015279251 0.15279406 0.004957208 -0.013317587 -0.017256863 0.020391032 0.0064152298 -0.03974008
-0.03661975 -0.021740152 -0.005819467 -0.0043698973 0.08415489 -0.007763528 -0.001098541 -0.010259557
0.014839704 0.06148004 0.0233308 -0.07533178 0.046267692 0.1187241 -0.009430343 0.046685304
-0.026342154 0.026768725 0.02340088 -0.0028431553 0.04308846 0.11868152 0.051063817 -0.022418667
0.0020992318 0.049566913 -0.0866392 0.003534924 0.0071301027 -0.019187285 -0.011423981 -0.015635328
-0.025291828 -0.026460603 0.09468405 0.05065787 -0.033674274 0.014467091 -0.015456246 -0.023170907
-0.014101137 -0.021280097 0.0043185437 0.0029251848 -0.0072906283 0.15657611 0.016899768 -0.0059094783
-0.009720092 0.002502751 0.009445914 0.023290971 0.013988758 -0.001691533 0.07782278 -0.06750294
-0.05668884 -0.026419418 0.024271548 -0.030350335 0.0413954 0.021476613 -0.0071178693 0.044861898
00000000: 9c36 793d 938e 86bc 7f1c 96bc d195 4a3d
00000010: b76d 3d3d f643 60bc 0238 a73b c3e0 ae3c
00000020: 0480 e33c b1db aaba 18fc 973d eb6b c9bc
00000030: ca97 393d 4b89 603d 7ec2 1dbc 1d79 c83c
00000040: 02d3 62bc fdcb d53c 77dc 33bc 818a 10bc
00000050: 4b86 0a3d e1e7 333d 0e7f cbbb a604 0f3d
00000060: f538 003d d238 213b 8895 45bd bcb3 353d
00000070: 8ef2 40bd 23a7 203d b7ac 92bc 09c1 9e3a
00000080: 16f2 753d da97 af3d a61f ac3b be39 d3bc
00000090: e113 d1bc 7cdc cc3d 3157 193e d0db 553d
000000a0: d4f5 53bc 354e 5cbc bd54 993d a072 953c
000000b0: 7c75 1b3d 1b3a a7ba ddde 82bb 5db5 fb3c
000000c0: c5f7 a7bc 3e21 963c b9eb e2bc feab a73d
000000d0: a6a9 6b3d 52ff a33c 01de 25be 2111 08bc
000000e0: d355 7abc 0c76 1c3e 1370 a23b 0232 5abc
000000f0: 445e 8dbc 180b a73c d936 d23b 7ec6 22bd
00000100: 97fe 15bd 6718 b2bc 3ab1 bebb 5b31 8fbb
00000110: 6659 ac3d 3165 febb ebfc 8fba b317 28bc
00000120: 3b22 733c 7fd2 7b3d 3c20 bf3c 8c47 9abd
00000130: 3183 3d3d 9f25 f33d ba81 1abc 1739 3f3d
00000140: 80cb d7bc 164a db3c 34b3 bf3c 3b54 3abb
00000150: 867d 303d 4c0f f33d 4b28 513d 5aa7 b7bc
00000160: 4493 093b ad06 4b3d e56f b1bd 2faa 673b
00000170: a3a3 e93b a72e 9dbc a62b 3bbc a915 80bc
00000180: cf30 cfbc e8c3 d8bc b6e9 c13d a07e 4f3d
00000190: 09ee 09bd 6107 6d3c 323c 7dbc ead0 bdbc
000001a0: 7508 67bc 9953 aebc 9282 8d3b 75b4 3f3b
000001b0: 39e6 eebb 7d55 203e 6271 8a3c 4ca4 c1bb
000001c0: 0541 1fbc 3205 243b 09c3 1a3c b5cc be3c
000001d0: 1b31 653c 6eb6 ddba 8d61 9f3d fb3e 8abd
000001e0: 8f32 68bd 896d d8bc 20d5 c63c 44a1 f8bc
000001f0: 398e 293d b9ef af3c 043d e9bb 1cc1 373d

encoder.8.weight f4 [48, 128]
-0.073813066 -0.04894212 0.0020920218 -0.04837969 -0.031059556 -0.031117236 0.13995685 0.018554838
0.083120346 -0.074130446 -0.08366143 -0.17468676 -0.13181943 0.004645461 0.044366747 0.04584145
0.0763551 0.19127905 -0.037752602 0.082206756 -0.056610964 0.09536434 -0.06439822 0.1604695
0.14194503 0.08794579 -0.0055098394 -0.047214694 0.10452606 -0.16488287 -0.062366046 -0.0009300958
-0.0004931748 0.103053555 0.14512391 -0.027699525 0.10944959 -0.061554182 0.022103928 -0.09118538
0.026873294 0.062230743 -0.11951145 -0.06447167 -0.07197874 0.09806215 0.13577057 0.07113053
0.12118933 -0.09331701 -0.12156223 0.025641521 0.07331789 0.04212011 -0.030474393 -0.17188352
-0.014832316 -0.08097285 -0.038093194 0.09663213 0.13089423 0.15111636 0.1261157 -0.08364528
-0.022581447 0.12714511 -0.0034460446 -0.053066302 0.13467285 -0.13870639 0.11330783 0.08098193
0.12196951 0.005421502 -0.10078818 0.08191525 0.03580977 -0.08305434 0.12050312 0.07551849
-0.08452761 0.07934137 0.005339532 -0.001694446 -0.14465693 -0.0670249 0.107443295 0.09924521
-0.1397562 0.03694691 -0.09692282 0.00025375778 0.00024773183 -0.061614767 -0.06017957 0.026249481
0.09819486 -0.119418465 0.033467248 -0.027459884 -0.14832574 -0.1527925 -0.16024992 -0.061769273
-0.113514304 0.11967479 0.09077805 -0.083732866 0.06660899 0.002988546 -0.08550855 -0.064606264
-0.09604125 -0.0002722366 0.02117896 0.05359509 0.08789038 -0.15949774 -0.06645762 -0.044429056
-0.01830836 0.015972141 -0.060676225 -0.13392039 -0.02696535 -0.05344906 -0.024980767 0.019191233
0.021344863 0.10711486 -0.10061604 0.09216699 -0.0656119 0.0049569304 -0.12549734 -0.12756169
0.03395591 -0.0512879 0.07714694 0.1447028 0.042298213 -0.16258782 -0.0032817405 0.020103449
0.14766711 0.14370349 0.055783004 0.03697579 0.02723256 0.081160575 -0.03907268 0.015405157
0.017692521 0.033935674 0.011112033 -0.16969168 0.04993596 0.057489563 -0.13580061 0.09263947
0.13663211 0.0633594 -0.06179405 -0.1271545 0.070281796 -0.0039944258 0.033099968 0.040951077
0.017899571 -0.028122304 0.01366723 -0.12463059 -0.0053100633 0.12530898 -0.044723503 -0.010443107
0.045762077 -0.13976638 0.064842 0.013782266 0.03758696 0.08473213 0.06921378 -0.10490463
0.005196879 0.14048257 0.0661185 0.03198145 -0.13719727 -0.029930627 -0.010142632 0.06866955
0.09284682 -0.037176356 -0.055021115 -0.017344307 0.02052883 0.06932202 -0.053310055 0.10111784
-0.09223387 -0.13714145 -0.14657448 0.045966685 0.11632598 -0.10924816 -0.060268525 0.13871604
-0.053279947 0.002265197 0.093815334 -0.037756387 0.08312062 -0.059432827 -0.046453323 0.05634395
-0.10660804 0.040114436 -0.07979957 0.0923157 0.019071907 0.058004797 0.12922847 0.09625827
0.079510525 0.12969357 -0.10571987 -0.026275698 0.012053005 -0.11077224 -0.118637174 0.07076301
0.17636569 -0.038162615 -0.07671597 -0.067716286 0.09656459 0.08507175 -0.12940806 0.07501994
0.05145861 0.08154661 -0.06295205 -0.13589281 -0.057680387 -0.124004655 0.120441146 0.0423658
-0.11187653 0.06107599 -0.027082885 -0.042344537 -0.00091572653 -0.11343962 -0.09813256 0.10382884
00000000: 4e2b 97bd 8877 48bd 4d1a 093b c829 46bd
00000010: 9c70 febc 93e9 febc d950 0f3e 5100 983c
00000020: 003b aa3d b4d1 97bd af56 abbd 16e1 32be
00000030: acfb 06be f438 983b e8b9 353d 3fc4 3b3d
00000040: 1060 9c3d a8de 433e 79a2 1abd 045c a83d
00000050: e6e0 67bd 614e c33d 37e3 83bd 1e52 243e
00000060: 0a5a 113e ec1c b43d e28b b4bb 3264 41bd
00000070: c211 d63d 0ed7 28be 8a73 7fbd acd1 73ba
00000080: 6748 01ba be0d d33d 5d9b 143e 1dea e2bc
00000090: 1b27 e03d 3d20 7cbd 4c13 b53c 67bf babd
000000a0: 6225 dc3c aae5 7e3d 6bc2 f4bd b909 84bd
000000b0: 9769 93bd cfd4 c83d 7107 0b3e e2ac 913d
000000c0: 1d32 f83d fd1c bfbd 9ef5 f8bd 2b0e d23c
000000d0: b127 963d 2386 2c3d 6fa5 f9bc 3c02 30be
000000e0: 3e03 73bc 18d5 a5bd 9c07 1cbd 11e7 c53d
000000f0: 2309 063e 3fbe 1a3e 7924 013e 374e abbd
00000100: bafc b8bc 5432 023e 09d7 61bb 0d5c 59bd
00000110: aee7 093e 0c09 0ebe f00d e83d dbd9 a53d
00000120: 27cb f93d dba6 b13b 096a cebd 2fc3 a73d
00000130: 44ad 123d 6518 aabd 57ca f63d 70a9 9a3d
00000140: d01c adbd ba7d a23d 3ef7 ae3b 2c18 deba
00000150: f220 14be 5a44 89bd 3b0b dc3d 1341 cb3d
00000160: 401c 0fbe a555 173d 797f c6bd cb0a 8539
00000170: 01e2 8139 c45f 7cbd da7e 76bd 2709 d73c
00000180: 631a c93d ab91 f4bd f414 093d 8df3 e0bc
00000190: b4e2 17be a375 1cbe 8e18 24be c701 7dbd
000001a0: 307a e8bd 0e18 f53d d8e9 b93d 237c abbd
000001b0: 4b6a 883d 7bdb 433b 1b1f afbd 4a50 84bd
000001c0: 46b1 c4bd faba 8eb9 807f ad3c 8686 5b3d
000001d0: dfff b33d 6053 23be ef1a 88bd 3efb 35bd
000001e0: 6afb 95bc 02d8 823c a287 78bd 6d22 09be
000001f0: 70e6 dcbc 67ed 5abd 77a4 ccbc ef36 9d3c
00000200: 6cdb ae3c 095f db3d c80f cebd 0cc2 bc3d
00000210: 885f 86bd bf6d a23b 6082 00be 889f 02be
00000220: 5a15 0b3d 4313 52bd 37ff 9d3d f92c 143e
00000230: e440 2d3d 6c7d 26be 7812 57bb fdaf a43c
00000240: 0c36 173e 0227 133e b87c 643d ed73 173d
00000250: d116 df3c 8437 a63d ad0a 20bd e965 7c3c
00000260: e8ef 903c 2200 0b3d 3f0f 363c a8c3 2dbe
00000270: a689 4c3d 2d7a 6b3d 510f 0bbe c3b9 bd3d
00000280: 4ae9 0b3e 93c2 813d c21b 7dbd ca34 02be
00000290: e7ef 8f3d ace3 82bb d593 073d 51bc 273d
000002a0: 1fa2 923c bf60 e6bc 84ec 5f3c 533e ffbd
000002b0: 0a00 aebb ff50 003e fe2f 37bd 9119 2bbc
000002c0: 0471 3b3d eb1e 0fbe e2cb 843d 03cf 613c
000002d0: c9f4 193d 0a88 ad3d f4bf 8d3d 3dd8 d6bd
000002e0: 954a aa3b aada 0f3e 2369 873d fbfe 023d
000002f0: 717d 0cbe 1331 f5bc 482d 26bc 9fa2 8c3d
00000300: 7926 be3d 3c46 18bd d25d 61bd a615 8ebc
00000310: 142c a83c b4f8 8d3d a55b 5abd df16 cf3d
00000320: 1ce5 bcbd cf6e 0cbe 9f17 16be 9047 3c3d
00000330: 513c ee3d 80bd dfbd 21dc 76bd 940b 0e3e
00000340: 133c 5abd b373 143b 4122 c03d 71a6 1abd
00000350: 253b aa3d d66f 73bd d745 3ebd eac8 663d
00000360: 5155 dabd 094f 243d f56d a3bd 0410 bd3d
00000370: b03c 9c3c 7096 6d3d 7854 043e 0e23 c53d
00000380: 6ad6 a23d 64ce 043e a983 d8bd 2240 d7bc
00000390: f879 453c 8edc e2bd 0cf8 f2bd 32ec 903d
000003a0: 3599 343e 6750 1cbd 431d 9dbd d6ae 8abd
000003b0: a8c3 c53d 193a ae3d 8c83 04be 0ea4 993d
000003c0: 43c6 523d e901 a73d 01ed 80bd 7c27 0bbe
000003d0: 4542 6cbd 27f6 fdbd d9a9 f63d c387 2d3d
000003e0: 861f e5bd d12a 7a3d eddc ddbc 7771 2dbd
000003f0: 5e0d 70ba 0853 e8bd b9f9 c8bd 37a4 d43d

encoder.8.bias f4 [48]
-0.006746268 -0.004058569 -0.0065648686 0.0054232567 0.011906822 0.05460748 0.009833168 0.0050193504
0.08355083 0.08632863 0.0063872896 -0.007613176 0.00044038397 -0.013624175 0.006995224 0.025504733
0.032488108 0.020955324 0.012064272 0.00409573 -0.006432462 0.0084770145 -0.0030636217 0.010245746
-2.7787964 -2.7578619 -2.7711813 -2.786392 -0.7690805 -1.4851123 -1.6232939 -2.6456509
-1.5050662 -0.8906148 -2.7153323 -2.5211709 -2.6431227 -1.6681935 -1.2301776 -2.5025668
-1.6483079 -1.0240738 -2.70541 -2.7101824 -2.0900488 -2.822073 -1.56698 -1.6191725
00000000: cc0f ddbb bffd 84bb 1c1e d7bb 93b5 b13b
00000010: d514 433c 18ac 5f3d 4c1b 213c 5d79 a43b
00000020: b31c ab3d 11cd b03d 784c d13b f377 f9bb
00000030: 56e3 e639 ef37 5fbc 3138 e53b 4def d03c
00000040: 4012 053d 80aa ab3c 39a9 453c 7935 863b
00000050: 67c7 d2bb 2de3 0a3c 0bc7 48bb c6dd 273c
00000060: cdd7 31c0 cf80 30c0 095b 31c0 3f54 32c0
00000070: 76e2 44bf 2918 bebf 18c8 cfbf 5852 29c0
00000080: 02a6 c0bf 55ff 63bf 01c8 2dc0 dd5a 21c0
00000090: ec28 29c0 5d87 d5bf 7676 9dbf 0e2a 20c0
000000a0: c1fb d2bf da14 83bf 7025 2dc0 a173 2dc0
000000b0: 5cc3 05c0 d89c 34c0 cd92 c8bf 0b41 cfbf
