models/y01vae_dim_12_banana.pt (torch, 435942 bytes, 22 tensors)

encoder.0.weight f4 [128, 12]
-0.028029894 0.01832394 0.07706126 -0.076050036 -0.06343194 -0.062124025 0.08668061 0.04381091
-0.018763233 -0.1318178 0.10897684 0.072811775 0.08553035 0.13458748 -0.02335221 0.07279458
-0.110626206 -0.14299676 0.13539156 0.12605686 -0.15560634 -0.065303214 -0.046512336 0.1805147
-0.058171943 0.09344087 -0.00942962 -0.11907849 -0.075214155 0.03362424 0.05999585 -0.13263333
-0.111314 0.16159151 0.02052853 -0.004793084 -0.08149824 -0.015877727 -0.046427447 -0.19047536
0.081559174 -0.018941788 0.08948371 0.24643557 0.12135113 0.12613627 0.038361434 -0.07964924
-0.124073245 0.077399686 -0.096466884 0.07379222 0.034514714 -0.089855574 0.01930055 -0.08266776
0.036616903 0.09544393 -0.06143558 0.12735069 -0.0841678 -0.056098238 0.07539077 -0.020255128
0.0060752053 -0.0067418595 -0.033984073 0.05258463 0.013973584 -0.0090488605 0.013335715 -0.027021252
0.00608969 0.015392688 0.14327003 0.026360184 -0.0150622325 0.00437903 -0.048945807 0.031392306
-0.0050056176 0.002346124 0.006228395 0.017720174 -0.04247288 0.024262194 -0.005769186 0.02279663
-0.033428594 0.093532674 0.055002183 0.069841474 -0.008653257 -0.009433772 0.009530544 0.04748788
0.07801542 -0.1320401 -0.1513655 0.01704248 0.09563527 -0.06590297 -0.014707041 0.06210662
0.0323022 -0.08014332 -0.15471037 0.21194325 -0.066901855 0.10436817 0.13027811 0.0019011458
-0.08379988 0.05601341 0.012976485 -0.05606071 -0.025612952 0.07855597 0.13229068 -0.16006222
0.12849748 0.04428737 0.02413808 0.03304957 -0.028749937 -0.024595197 0.017611137 -0.03700999
-0.04327349 0.052796565 0.01836257 0.021465065 0.0813196 0.06129833 -0.034321837 -0.141653
-0.07705881 0.11074455 0.13188736 0.104045905 -0.10614533 0.14136578 -0.13925649 -0.10761164
-0.0044697574 0.06801961 0.022714252 0.068953164 -0.09795124 0.07383442 -0.1471044 0.11258839
0.08074831 -0.19763444 -0.12273401 -0.07131107 0.10420119 0.16819267 0.058581132 0.02594835
0.07583344 0.09451874 0.034118444 -0.15478975 -0.057692908 -0.048953652 -0.1274823 -0.27512228
-0.011123529 0.052924693 -0.006844256 0.09485078 0.081663296 -0.074171446 -0.011949601 0.0838154
-0.0904939 0.012815717 -0.0033701358 0.05951172 -0.08725983 0.0680029 -0.041439503 -0.010515449
-0.0070645656 0.04905105 0.017328313 -0.04639189 -0.017996842 0.014838156 -0.09955557 0.03067428
-0.12155298 0.16634722 -0.0017103449 -0.051665813 0.10588797 0.036790535 -0.12782302 0.090242036
-0.10888872 0.10771132 -0.11437836 0.215885 -0.06450987 0.20277417 0.055203483 0.028786192
0.035776757 -0.024914378 -0.00449357 0.09388383 0.01327024 0.11174075 -0.048691418 0.10227172
0.08046453 0.11150568 0.009985883 -0.048468035 0.019497994 0.025947504 -0.06687357 0.026662868
-0.13995795 -0.014887947 0.124649286 0.011510063 -0.14921631 0.056718722 -0.038811285 -0.0780765
-0.109086744 -0.018409975 -0.06236674 -0.07038074 -0.07676159 -0.16824605 -0.10722739 -0.039363153
0.11987708 -0.12745215 -0.06059487 -0.17188773 0.026234932 -0.124859594 -0.08698574 -0.0034135696
-0.10411978 -0.04508382 0.020671858 0.035917457 -0.048894715 0.046579946 -0.029322773 0.06640847
00000000: f39e e5bc 161c 963c 4bd2 9d3d 1fc0 9bbd
00000010: 9be8 81bd c375 7ebd 9b85 b13d 1273 333d
00000020: 5ab5 99bc 3ffb 06be 402f df3d 571e 953d
00000030: 892a af3d 4dd1 093e 224d bfbc 5315 953d
00000040: fe8f e2bd be6d 12be 16a4 0a3e 0d15 013e
00000050: 4557 1fbe b1bd 85bd b883 3ebd d8d8 383e
00000060: b445 6ebd ed5d bf3d b17e 1abc 6cdf f3bd
00000070: e109 9abd 92b9 093d 35be 753d 08d1 07be
00000080: 98f8 e3bd 3f78 253e 732b a83c 4e0f 9dbb
00000090: 8de8 a6bd 0212 82bc b52a 3ebd f90b 43be
000000a0: 7f08 a73d cf2b 9bbc 3c43 b73d 9b59 7c3e
000000b0: f186 f83d de29 013e e120 1d3d 241f a3bd
000000c0: 1d1a febd ba83 9e3d 6e90 c5bd 6020 973d
000000d0: 4d5f 0d3d 3306 b8bd 301c 9e3c b74d a9bd
000000e0: 9bfb 153d 1b78 c33d e0a3 7bbd 3868 023e
000000f0: 2b60 acbd 44c7 65bd 7a66 9a3d 15ee a5bc
00000100: 8412 c73b d1ea dcbb e232 0bbd fb62 573d
00000110: 76f1 643c ac41 14bc 0b7e 5a3c ac5b ddbc
00000120: 068c c73b 9d31 7c3c 61b5 123e 50f1 d73c
00000130: 95c7 76bc f77d 8f3b 667b 48bd 3895 003d
00000140: 2a06 a4bb 6ec1 193b 9017 cc3b e629 913c
00000150: 0bf8 2dbd 82c1 c63c 710b bdbb 00c0 ba3c
00000160: 6cec 08bd 0f8e bf3d f849 613d 0c09 8f3d
00000170: 64c6 0dbc 1c90 1abc 0026 1c3c a782 423d
00000180: 8cc6 9f3d 8535 07be 8fff 1abe ac9c 8b3c
00000190: 6ddc c33d 23f8 86bd cdf5 70bc 8363 7e3d
000001a0: 504f 043d 2e22 a4bd 656c 1ebe a707 593e
000001b0: d703 89bd fbbe d53d a067 053e de2f f93a
000001c0: 469f abbd 516e 653d 539b 543c ea9f 65bd
000001d0: 41d2 d1bc f4e1 a03d 3577 073e 5ae7 23be
000001e0: d894 033e ac66 353d 39bd c53c fc5e 073d
000001f0: fd84 ebbc de7b c9bc 3b45 903c ca97 17bd
00000200: 8b3f 31bd 3641 583d 1a6d 963c 81d7 af3c
00000210: e48a a63d f513 7b3d 0e95 0cbd 7c0d 11be
00000220: 02d1 9dbd 0ace e23d 7b0d 073e 0516 d53d
00000230: b962 d9bd 31c2 103e 4199 0ebe 7e63 dcbd
00000240: 0b77 92bb de4d 8b3d 3d13 ba3c 5137 8d3d
00000250: a99a c8bd 8036 973d 89a2 16be be94 e63d
00000260: 5f5f a53d af60 4abe f85b fbbd 8a0b 92bd
00000270: 6f67 d53d b33a 2c3e c5f2 6f3d a291 d43c
00000280: 904e 9b3d 0b93 c13d c8bf 0b3d 3481 1ebe
00000290: 664f 6cbd a083 48bd b88a 02be d4dc 8cbe
000002a0: 763f 36bc 90c7 583d c845 e0bb 2041 c23d
000002b0: 163f a73d 33e7 97bd 42c8 43bc 69a7 ab3d
000002c0: de54 b9bd 03f9 513c 7fdd 5cbb 90c2 733d
000002d0: 48b5 b2bd 1b45 8b3d 78bc 29bd fd48 2cbc
000002e0: df7d e7bb c1e9 483d 1bf4 8d3c 6c05 3ebd
000002f0: 1d6e 93bc bd1b 733c cae3 cbbd a148 fb3c
00000300: c5f0 f8bd ed56 2a3e a72d e0ba 889f 53bd
00000310: cbdb d83d acb1 163d 0ae4 02be d1d0 b83d
00000320: 0d01 dfbd c197 dc3d 343f eabd f510 5d3e
00000330: c01d 84bd 08a4 4f3e 0c1d 623d 05d1 eb3c
00000340: a68a 123d 3d19 ccbc cc3e 93bb 2a46 c03d
00000350: 6c6b 593c 56d8 e43d a770 47bd d673 d13d
00000360: 96ca a43d 175d e43d d49b 233c 6b86 46bd
00000370: 42ba 9f3c dc8f d43c 03f5 88bd 166c da3c
00000380: 2351 0fbe 93ec 73bc 2048 ff3d b494 3c3c
00000390: 29cc 18be e451 683d 95f8 1ebd 92e6 9fbd
000003a0: df68 dfbd 84d0 96bc 4474 7fbd c723 90bd
000003b0: 2e35 9dbd b148 2cbe 099a dbbd 423b 21bd
000003c0: 1d82 f53d d182 02be 5432 78bd 5603 30be
000003d0: a4ea d63c 63b6 ffbd 9425 b2bd 32b6 5fbb
000003e0: c03c d5bd d0a9 38bd 0758 a93c 2f1e 133d
000003f0: d345 48bd 9dca 3e3d 5036 f0bc 2a01 883d

encoder.0.bias f4 [128]
-0.07392522 0.027387122 0.04031894 0.02520829 -0.010659898 -0.031041468 0.01896421 0.11686057
0.017430838 -0.0053989 -0.012462342 0.02148908 0.016173564 0.01738794 -0.052565683 0.022431808
0.07655291 0.095281154 0.033019632 -0.03771732 -0.028412329 -0.026280738 -0.034567136 0.055292558
0.048064474 0.028106319 -0.02839343 -0.080922924 -0.0006682313 -0.001800596 -0.025228964 0.02386842
0.0016186152 0.028337834 -0.020795472 0.028625876 -0.0433713 -0.047211144 -0.0033460404 0.13370615
0.017622957 -0.028791772 -0.0037842928 -0.0119021265 0.036245342 0.023668947 0.1052317 0.009091337
0.06510786 0.15021457 0.012735464 -0.033555288 0.07421734 0.023365282 -0.059621997 -0.058656048
-0.107579276 -0.010133703 0.0076282583 -0.025819527 0.03246793 0.024711218 -0.015356175 -0.011264573
-0.04923228 -0.0126667 0.052414622 -0.00539374 0.026632555 -0.0754437 0.018377466 0.024922514
0.039471284 -0.02771145 0.021099385 0.038015164 0.0072340993 0.036741473 -0.11246413 0.027948963
-0.049090095 0.04717024 0.047694176 -0.05793841 -0.046058264 -0.034132235 0.0071623838 -0.013536667
-0.02322241 0.03978292 0.07803597 0.052363038 -0.026717389 0.00036424477 0.12864424 0.055818938
0.023275454 -0.057460837 -0.026764676 0.13764639 -0.08833593 0.06602522 -0.007955664 -0.0014310325
0.06534892 0.05813172 -0.067610815 0.052633185 0.10059074 0.022018539 -0.052820615 -2.5094761e-05
0.00073009223 0.0029801722 -0.012499633 -0.006385648 -0.06031259 0.018982708 0.04068228 -0.014059045
0.036382586 0.003763893 0.016780721 0.015728805 0.030969769 0.013418549 -0.02973468 -0.013736951
00000000: 1b66 97bd f55a e03c 7925 253d 9e81 ce3c
00000010: daa6 2ebc ad4a febc d55a 9b3c 9854 ef3d
00000020: 1ecb 8e3c 41e9 b0bb da2e 4cbc de09 b03c
00000030: 6c7e 843c 2771 8e3c 1d4f 57bd e9c2 b73c
00000040: c6c7 9c3d c422 c33d 983f 073d 7a7d 1abd
00000050: f9c0 e8bc b44a d7bc 4596 0dbd 737a 623d
00000060: 41df 443d 393f e63c 5799 e8bc ebba a5bd
00000070: 3e2c 2fba fa01 ecba f9ac cebc b487 c33c
00000080: b727 d43a bf24 e83c 445b aabc d080 ea3c
00000090: 1ba6 31bd 7960 41bd 3e49 5bbb 44ea 083e
000000a0: 055e 903c b9dc ebbc e601 78bb 2301 43bc
000000b0: ff75 143d 61e5 c13c b883 d73d d5f3 143c
000000c0: 4557 853d d9d1 193e 68a8 503c 4571 09bd
000000d0: 43ff 973d 8c68 bf3c 3236 74bd 5341 70bd
000000e0: 8652 dcbd d507 26bc 78f6 f93b 7983 d3bc
000000f0: 18fd 043d 2e6f ca3c 7798 7bbc 0b8f 38bc
00000100: caa7 49bd fe87 4fbc b7b0 563d f8bd b0bb
00000110: 842c da3c 3a82 9abd 578c 963c 4d2a cc3c
00000120: a4ac 213d 1f03 e3bc 9ed8 ac3c cab5 1b3d
00000130: 060c ed3b 3a7e 163d 9853 e6bd 39f5 e43c
00000140: b212 49bd 9535 413d f85a 433d d450 6dbd
00000150: 97a7 3cbd 3ece 0bbd 6eb2 ea3b e6c8 5dbc
00000160: ec3c bebc 6af3 223d 53d1 9f3d a07a 563d
00000170: 6dde dabc 1bf8 be39 51bb 033e 66a2 643d
00000180: 2aac be3c 0e5c 6bbd 9841 dbbc 2df3 0c3e
00000190: 78e9 b4bd 3b38 873d 7958 02bc 7c91 bbba
000001a0: a8d5 853d 871b 6e3d 8a77 8abd e595 573d
000001b0: 8502 ce3d 3960 b43c 6e5a 58bd 9782 d2b7
000001c0: a963 3f3a fe4e 433b 43cb 4cbc b33e d1bb
000001d0: 560a 77bd a081 9b3c 76a2 263d e957 66bc
000001e0: e805 153d a5ab 763b b977 893c b2d9 803c
000001f0: 50b4 fd3c 79d9 5b3c 2596 f3bc f310 61bc

encoder.2.weight f4 [128, 128]
0.03406043 -0.020578953 -0.0857518 0.13940416 -0.03236408 0.06432756 -0.00082615326 -0.021821164
0.026288223 0.036688004 -0.02339708 -0.10243032 -0.07752535 -0.06261639 -0.082655855 0.108444296
-0.1613511 0.14083657 -0.14384316 -0.01854777 -0.0417988 -0.07085347 0.050840024 -0.08538585
0.010091011 -0.13859446 -0.07551314 0.10595454 -0.12611957 0.013877106 0.07332265 0.16604134
-0.036240105 0.04162752 0.0047362885 -0.1606188 0.092481874 -0.020149687 0.050156325 0.036944713
0.042736683 -0.038191866 0.07309717 -0.17929105 0.0948221 0.14824952 0.09622287 -0.055037767
-0.02446119 0.1322576 -0.004315371 0.075704046 -0.11592519 -0.09021462 -0.01607943 0.02679334
-0.009161559 0.023059266 -0.028297046 0.17809284 -0.033869706 0.04881915 -0.021948867 -0.073068686
-0.039101847 -0.03875399 0.064859554 0.02871126 -0.07244098 0.018300435 0.044053458 0.08395829
0.07682595 -0.0012842019 0.041563388 0.09211622 0.058017 -0.116757214 -0.07852 0.020294359
0.056401 -0.0710113 0.0024306367 -0.0022547978 -0.02786954 -0.021834593 0.13924557 -0.1790777
0.115060806 -0.033385444 -0.13111493 0.027490554 0.044257306 0.12894621 -0.045353662 0.115254104
0.08228522 0.094753355 0.07907933 0.06554827 -1.9044553e-05 -0.024839563 -0.007375789 0.16551329
0.100819856 -0.06242245 -0.057834856 -0.0445039 0.01121478 0.028521681 -0.0012136321 0.042691972
-0.104918495 0.06699654 -0.056668125 -0.04339249 0.03541567 -0.044922914 -0.055583674 -0.06760058
-0.06363589 -0.07717462 -0.065185666 -0.0802477 0.0956875 0.15503477 -0.0029221869 0.046672896
0.04539363 0.004338204 0.014252813 0.12430441 0.0071217427 0.0011698047 0.09534803 -0.081257395
0.0983037 -0.03509194 -0.0449147 -0.020955347 0.1345593 -0.035859387 -0.05431571 0.038513895
0.0737517 0.033064492 0.0013883179 0.07909357 -0.008243349 -0.074236244 -0.08932855 -0.0057192557
-0.01879762 0.019071838 -0.0107268505 0.153837 -0.054400284 0.0024607172 -0.018899927 0.06600026
0.10666776 -0.105460346 -0.005557708 0.020738658 0.009392353 0.1416947 0.10046325 0.051578164
0.098989405 -0.040345527 0.0092775 0.055262074 0.1101509 0.09772091 -0.0068325326 0.078231245
-0.046900697 -0.06890357 -0.06906846 0.15742046 -0.11172343 0.02133483 0.06795651 0.0037710886
-0.033825576 -0.0013744172 -0.061826248 0.16951674 0.0533523 -0.08787743 -0.045918245 -0.038975574
-0.085102215 -0.11314562 0.18129157 -0.033868838 -0.050893836 -0.028378053 0.0094313575 -0.12476536
0.042336114 0.021382462 0.079137065 0.06368851 0.03783799 0.09557726 0.038817666 -0.05346118
-0.12557147 -0.087500654 0.031372603 -0.025516104 -0.012192249 -0.042563837 -0.004819974 -0.07521944
-0.013953989 0.101425394 0.06988919 -0.10904526 -0.093359575 -0.13205379 0.049096003 -0.015379026
-0.052910965 0.0075264527 -0.07378602 -0.08514632 -0.022030178 -0.033755932 0.054223407 0.0044689584
0.07653607 0.06135701 0.005170755 0.06259341 -0.10765357 -0.0045205606 0.07558707 -0.1359124
0.01201135 0.0383319 -0.0068921526 0.09179843 -0.07411144 0.15764251 0.11538831 -0.10393515
0.1609971 -0.09755294 0.09374316 0.053363964 -0.037688166 0.015039476 0.019522509 -0.110307164
00000000: f382 0b3d 3195 a8bc a49e afbd f7bf 0e3e
00000010: 3390 04bd 2bbe 833d 3592 58ba 4cc2 b2bc
00000020: 665a d73c 2946 163d 3cab bfbc fdc6 d1bd
00000030: 9cc5 9ebd 063d 80bd 7947 a9bd 0b18 de3d
00000040: 3939 25be 7637 103e 9f4b 13be 7ef1 97bc
00000050: 3835 2bbd a01b 91bd a13d 503d c7de aebd
00000060: c554 253c b5eb 0dbe a2a6 9abd b2fe d83d
00000070: 7d25 01be cd5c 633c 2f2a 963d be06 2a3e
00000080: 8170 14bd 9e81 2a3d de32 9b3b 4179 24be
00000090: 2367 bd3d f510 a5bc b870 4d3d 5753 173d
000000a0: a90c 2f3d 136f 1cbd f8b3 953d 1398 37be
000000b0: 1732 c23d b9ce 173e 7f10 c53d 486f 61bd
000000c0: d562 c8bc 896e 073e f567 8dbb b90a 9b3d
000000d0: 306a edbd 71c2 b8bd 02b9 83bc b57d db3c
000000e0: 5d1a 16bc c9e6 bc3c 35cf e7bc f85d 363e
000000f0: f6ba 0abd 97f6 473d 1cce b3bc 09a5 95bd
00000100: 4229 20bd 81bc 1ebd 16d5 843d e033 eb3c
00000110: f05b 94bd cbea 953c 6671 343d 53f2 ab3d
00000120: ec56 9d3d aa52 a8ba 5f3e 2a3d 6ea7 bc3d
00000130: 3ca3 6d3d 681e efbd 18cf a0bd 5b40 a63c
00000140: bc04 673d 5f6e 91bd 514b 1f3b 3bc5 13bb
00000150: a94e e4bc 76de b2bc 6496 0e3e 2560 37be
00000160: 00a5 eb3d 2dbf 08bd fe42 06be df33 e13c
00000170: 2647 353d 7a0a 043e c3c4 39bd 580a ec3d
00000180: 2785 a83d 0c0e c23d 58f4 a13d 2c3e 863d
00000190: dec1 9fb7 577c cbbc 9ab0 f1bb 517c 293e
000001a0: a47a ce3d afae 7fbd 3ee4 6cbd b949 36bd
000001b0: 32be 373c 4da6 e93c bc12 9fba c7dd 2e3d
000001c0: 82df d6bd 7b35 893d d61c 68bd 53bc 31bd
000001d0: 0610 113d 1701 38bd b5ab 63bd 2c72 8abd
000001e0: 8953 82bd ba0d 9ebd 1080 85bd e858 a4bd
000001f0: cff7 c33d 6fc1 1e3e 2982 3fbb 142c 3f3d
00000200: acee 393d 7e27 8e3b a184 693c 4f93 fe3d
00000210: 825d e93b 2254 993a d445 c33d 476a a6bd
00000220: 7353 c93d 91bc 0fbd 7af8 37bd 8caa abbc
00000230: eac9 093e 4be1 12bd 267a 5ebd bfc0 1d3d
00000240: 220b 973d a26e 073d 38f8 b53a cffb a13d
00000250: 1d0f 07bc 2c09 98bd e3f1 b6bd 9868 bbbb
00000260: 77fd 99bc 8b3c 9c3c acbf 2fbc 7287 1d3e
00000270: d5d2 5ebd fc43 213b 05d4 9abc 252b 873d
00000280: a074 da3d 98fb d7bd 6f1d b6bb 1ee4 a93c
00000290: 62e2 193c 6a18 113e adbf cd3d a043 533d
000002a0: f5ba ca3d 5a41 25bd a800 183c 7c5a 623d
000002b0: cc96 e13d e721 c83d 70e3 dfbb b437 a03d
000002c0: f21a 40bd 511d 8dbd c473 8dbd d432 213e
000002d0: 41cf e4bd 62c6 ae3c c82c 8b3d 5e24 773b
000002e0: b08c 0abd ca25 b4ba 853d 7dbd cc95 2d3e
000002f0: f187 5a3d 15f9 b3bd c514 3cbd daa4 1fbd
00000300: 124a aebd e4b8 e7bd 7fa4 393e 0dba 0abd
00000310: 0e76 50bd 1779 e8bc fb85 1a3c fb84 ffbd
00000320: a268 2d3d 462a af3c 9d12 a23d 1f6f 823d
00000330: 02fc 1a3d 03be c33d 46ff 1e3d 1cfa 5abd
00000340: cf95 00be 8b33 b3bd 8f80 003d 2607 d1bc
00000350: 00c2 47bc 6b57 2ebd dff0 9dbb a60c 9abd
00000360: 469f 64bc 1eb8 cf3d 1022 8f3d 1f53 dfbd
00000370: 4e33 bfbd 1c39 07be e418 493d 4ff8 7bbc
00000380: 2bb9 58bd 76a0 f63b 201d 97bd 3261 aebd
00000390: a278 b4bc a943 0abd 5d19 5e3d 5770 923b
000003a0: f1be 9c3d 7d51 7b3d 706f a93b f930 803d
000003b0: 7a79 dcbd 3621 94bb 65cd 9a3d 9f2c 0bbe
000003c0: 41cb 443c e901 1d3d 91d7 e1bb d100 bc3d
000003d0: bdc7 97bd 0a6d 213e b550 ec3d f4db d4bd
000003e0: 6cdc 243e d6c9 c7bd 6afc bf3d 2c94 5a3d
000003f0: e85e 1abd 2268 763c abed 9f3c b9e8 e1bd

encoder.2.bias f4 [128]
-0.047200877 0.0076301564 0.0002442812 -0.013762308 -0.008404527 -0.005307199 -0.035779286 0.017253581
0.026480867 0.0055058743 0.033508845 0.0837732 0.01609552 0.10030991 0.057578523 -0.035117723
0.24941573 0.049396385 0.035495237 -0.019545864 0.01760483 0.049504954 0.14713253 -0.14936654
0.043353673 0.13747595 -0.029302623 0.07980908 -0.03865913 -0.10606136 -0.0088936845 0.0067224517
-0.062258024 -0.004955978 0.05331907 0.046782114 0.034506176 -0.01992288 0.028041057 -0.019328604
-0.0052486043 0.04795838 0.086741336 -0.011863194 -0.036327213 0.03081844 0.02088387 -0.035441842
-0.00665965 0.061229445 0.042480234 -0.01092409 0.07758887 0.036647227 -0.102836005 -0.0069667525
-0.06055765 -0.013369972 0.04966023 -0.081402786 -0.08529023 0.074663006 0.013254685 -0.10368941
-0.0318773 -0.058911055 -0.036824614 0.14049152 0.07380657 -0.027846295 0.025221461 -0.06002491
0.011265802 -0.007739684 -0.16202995 -0.0034190994 0.104104914 0.090993986 -0.02761226 0.14019293
-0.077299796 0.025149183 0.017001195 -0.035401586 0.072248414 0.003046532 -0.03718448 -0.0027812298
-0.015238697 0.035200667 -0.0783502 0.057168342 0.05482751 -0.082421266 0.0050548287 -0.037909187
-0.0031856464 0.034195453 -0.09219508 0.050217625 -0.0014959102 -0.10721969 0.045898836 -0.034766845
0.09626265 -0.044316314 -0.03927353 0.023462957 0.02834291 0.051873885 0.058020625 -0.045425717
-0.0002217411 -0.0101177925 -0.0012173665 0.003929003 -0.016596152 0.21186568 -0.00013684173 -0.107629806
-0.008283055 -0.029297778 -0.07145203 0.057702824 -0.074515946 -0.023744412 0.018680857 0.04244793
00000000: b555 41bd 6406 fa3b de12 8039 4e7b 61bc
00000010: 24b3 09bc 03e8 adbb 4d8d 12bd 6257 8d3c
00000020: 67ee d83c 9f6a b43b 9240 093d 4991 ab3d
00000030: c1da 833c 486f cd3d 75d7 6b3d 9ad7 0fbd
00000040: d666 7f3e dd53 4a3d 7463 113d a61e a0bc
00000050: 0138 903c b5c5 4a3d e9a9 163e 8bf3 18be
00000060: 9f93 313d 7fc6 0c3e 0e0c f0bc f172 a33d
00000070: 0959 1ebd b336 d9bd d1b6 11bc 0348 dc3b
00000080: 4502 7fbd c265 a2bb 1965 5a3d 9a9e 3f3d
00000090: 5956 0d3d 4f35 a3bc 5cb6 e53c 0557 9ebc
000000a0: 7cfc abbb 0270 443d 71a5 b13d d85d 42bc
000000b0: d8cb 14bd f476 fc3c a614 ab3c 772b 11bd
000000c0: 3139 dabb bacb 7a3d c1ff 2d3d f4fa 32bc
000000d0: eae6 9e3d 671b 163d af9b d2bd 5b49 e4bb
000000e0: 4c0b 78bd ba0d 5bbc 8668 4b3d 81b6 a6bd
000000f0: a5ac aebd ebe8 983d 2e2a 593c 1d5b d4bd
00000100: c691 02bd b84c 71bd 68d5 16bd 02dd 0f3e
00000110: e627 973d ea1d e4bc 3d9d ce3c aedc 75bd
00000120: 3394 383c 2d9d fdbb 2eeb 25be f812 60bb
00000130: f534 d53d 0e5b ba3d 1b33 e2bc bc8e 0f3e
00000140: 5b4f 9ebd a905 ce3c 1746 8b3c 4101 11bd
00000150: faf6 933d 53a8 473b c14e 18bd 4b45 36bb
00000160: baab 79bc 932e 103d 1276 a0bd 5a29 6a3d
00000170: d092 603d 7bcc a8bd faa2 a53b aa46 1bbd
00000180: 47c6 50bb 8810 0c3d c6d0 bcbd ffb0 4d3d
00000190: 6b12 c4ba ff95 dbbd 6b00 3c3d ae67 0ebd
000001a0: 5a25 c53d 0685 35bd 48dd 20bd 6335 c03c
000001b0: 642f e83c b679 543d 09a7 6d3d 5110 3abd
000001c0: 2c83 68b9 19c5 25bc 0b90 9fba debe 803b
000001d0: a7f4 87bc 51f3 583e 2c7d 0fb9 046d dcbd
000001e0: a7b5 07bc e501 f0bc 7155 92bd cc59 6c3d
000001f0: d19b 98bd a483 c2bc 9908 993c e1dd 2d3d

encoder.4.weight f4 [128, 128]
0.1598535 0.13643506 -0.043192554 0.088371746 -0.009563712 -0.005265628 -0.09594605 -0.045839578
-0.03973817 0.13339172 0.116152525 0.075050324 0.09442898 0.07181647 -0.00038916527 0.054121044
-0.09474771 0.07497747 -0.10768437 -0.051078215 0.12080792 0.10046765 -0.12563226 0.034298286
-0.033878982 0.11207653 0.02868418 0.04078939 0.13899724 0.020086387 0.15225086 0.13370655
0.07706491 -0.086441 -0.12958083 0.12925468 0.041697744 0.11321587 -0.07216789 -0.19113953
-0.0910819 0.05376491 -0.044530697 -0.04895216 0.04843817 0.1319779 -0.010293835 0.029968021
-0.015976032 -0.011210867 -0.042026527 -0.06329824 -0.0381756 0.11529542 -0.080263555 0.061290815
-0.01274271 0.06464892 -0.01761616 -0.112643145 -0.12606336 -0.11495127 -0.07747407 -0.07919986
0.093830876 0.036164902 -0.113272466 0.0075131096 0.049023334 -0.034363497 0.051811498 -0.10930436
-0.07551554 -0.06507688 -0.12241639 0.029828133 0.12976852 -0.010995062 -0.07229315 -0.14300671
-0.12059114 0.023203257 0.071388416 0.02162436 0.16488709 0.014632647 0.0055131014 -0.05874366
0.025022332 0.08875218 0.026545987 0.1291808 0.09139975 -0.09824886 0.06112793 0.015417803
-0.063229196 0.11019473 0.10775959 -0.06646789 0.09528894 0.048174813 -0.08898633 -0.06338651
-0.07652223 -0.019004567 -0.07176623 0.086407706 -0.02585199 -0.0024507311 0.13412663 0.06120638
0.015579071 0.12165385 0.10918071 0.13169289 -0.11965147 -0.018182194 -0.023257907 0.07010456
0.045891937 -0.056390062 0.025029397 -0.018075356 0.07727239 -0.08069111 0.07833008 -0.011297766
0.124302775 0.044490986 -0.11842302 -0.009275182 0.12107099 -0.024852537 0.120362885 -0.0063629947
0.11290398 -0.034845237 -0.035560127 0.08034839 0.013111011 0.021606565 0.033997506 -0.09087359
0.07548472 -0.13106853 -0.019516574 0.02703401 -0.025898049 0.09911618 -0.12770109 0.06581246
-0.16955942 -0.10614364 0.019240174 -0.07838732 0.058676038 0.042193826 -0.008042361 0.027635243
-0.047394183 -0.08292585 0.014976152 0.04916039 -0.07799974 0.05639391 -0.00094161555 0.10097822
0.06286354 -0.02875704 -0.08127647 0.06351073 -0.0036123279 -0.061855257 0.0016239205 -0.14797018
0.015437814 -0.029808141 -0.0021136208 -0.06073407 -0.003355979 0.072432995 0.058792695 0.018165559
-0.08954413 0.012235423 0.16452332 -0.030590855 0.068528876 -0.0054885657 -0.06720205 0.14150636
-0.09001585 -0.041235916 -0.010213478 -0.07339474 0.16068159 0.103285916 0.09438468 0.09379958
0.11498401 0.09944018 -0.06812284 -0.10918964 0.0018850536 0.17694502 -0.017020412 0.06534204
-0.043915186 0.02069411 0.060981005 0.05087372 -0.0973826 0.111322306 0.08570964 0.088195324
-0.029807769 0.083885945 -0.037063394 0.07225353 -0.12892675 0.04977942 -0.11029654 -0.11084492
0.091747135 0.07248173 -0.0058854073 0.018304484 0.043216243 -0.034158286 -0.12410415 0.061250117
-0.048863593 -0.036948495 0.1593904 -0.0718766 0.026531752 0.01174202 -0.06352941 0.08316468
0.056906722 0.054569162 -0.009816817 -0.03451459 -0.11432706 0.07183217 0.048454747 -0.095718764
0.04015236 0.12875737 0.11651055 0.079501726 0.1125271 0.018502928 0.01662686 -0.04691392
00000000: a3b0 233e a2b5 0b3e adea 30bd 3ffc b43d
00000010: 1eb1 1cbc 4a8b acbb 5d7f c4bd 48c2 3bbd
00000020: 7ec4 22bd d797 083e 60e1 ed3d fcb3 993d
00000030: fb63 c13d 8314 933d e108 ccb9 07ae 5d3d
00000040: 160b c2bd ca8d 993d 9f89 dcbd 6437 51bd
00000050: 256a f73d fcc1 cd3d bea5 00be 5c7c 0c3d
00000060: b0c4 0abd 6188 e53d 16fb ea3c c712 273d
00000070: 4b55 0e3e 358c a43c a6e7 1b3e 5fea 083e
00000080: 35d4 9d3d fb07 b1bd d6b0 04be 575b 043e
00000090: 41cb 2a3d b9dd e73d c2cc 93bd 15ba 43be
000000a0: 2689 babd 9838 5c3d d265 36bd 0f82 48bd
000000b0: 1a67 463d 3725 073e 79a7 28bc 7f7f f53c
000000c0: 2be0 82bc c9ad 37bc 0224 2cbd 82a2 81bd
000000d0: 055e 1cbd 0120 ec3d 3861 a4bd 140c 7b3d
000000e0: cdc6 50bc a766 843d c44f 90bc 73b1 e6bd
000000f0: c116 01be 926b ebbd baaa 9ebd 8933 a2bd
00000100: 672a c03d a621 143d 65fb e7bd 8830 f63b
00000110: b1cc 483d bdc0 0cbd 4b38 543d f7da dfbd
00000120: e4a7 9abd 0747 85bd 72b5 fabd 215a f43c
00000130: 0ae2 043e a224 34bc 6e0e 94bd 5a70 12be
00000140: 7df8 f6bd c214 be3c 1734 923d 9225 b13c
00000150: 29d8 283e c5bd 6f3c 3fa7 b43b 319d 70bd
00000160: a2fb cc3c b4c3 b53d f876 d93c f947 043e
00000170: cb2f bb3d b336 c9bd 4861 7a3d f49a 7c3c
00000180: 4f7e 81bd c6ad e13d 0fb1 dc3d 5120 88bd
00000190: d926 c33d f452 453d 773e b6bd c9d0 81bd
000001a0: b0b7 9cbd 77af 9bbc 2cfa 92bd 86f6 b03d
000001b0: 8dc7 d3bc 729c 20bb 7e58 093e 8bb3 7a3d
000001c0: 5c3f 7f3c a725 f93d 239a df3d 80da 063e
000001d0: d40b f5bd d3f2 94bc 5e87 bebc fb92 8f3d
000001e0: 2ff9 3b3d 44f9 66bd 730a cd3c c512 94bc
000001f0: fd40 9e3d 6141 a5bd 856b a03d 441a 39bc
00000200: 7492 fe3d 2e3c 363d c587 f2bd eff6 17bc
00000210: 11f4 f73d 8c97 cbbc d180 f63d ab80 d0bb
00000220: 343a e73d e1b9 0ebd 7fa7 11bd b28d a43d
00000230: 91cf 563c 4000 b13c f840 0b3d ef1b babd
00000240: bc97 9a3d d436 06be 39e1 9fbc 6e76 dd3c
00000250: 2528 d4bc 6cfd ca3d 13c4 02be afc8 863d
00000260: fca0 2dbe d661 d9bd 929d 9d3c 8889 a0bd
00000270: 4956 703d 6fd3 2c3d 1bc4 03bc 4e63 e23c
00000280: 6720 42bd 07d5 a9bd 895e 753c 685c 493d
00000290: 54be 9fbd 4dfd 663d c0d6 76ba abcd ce3d
000002a0: 9abe 803d e293 ebbc 4774 a6bd ea11 823d
000002b0: cebc 6cbb f05b 7dbd bbd9 d43a 7f85 17be
000002c0: e3ee 7c3c 3430 f4bc ac84 0abb 4ac4 78bd
000002d0: fcef 5bbb c057 943d 9cd0 703d f0cf 943c
000002e0: ea62 b7bd 1577 483c cd78 283e ac99 fabc
000002f0: de58 8c3d 6dd9 b3bb 3aa1 89bd 0be7 103e
00000300: 3b5a b8bd fee6 28bd 6e56 27bc fb4f 96bd
00000310: b789 243e 9187 d33d c14c c13d ff19 c03d
00000320: bd7c eb3d 4ba7 cb3d fd83 8bbd d19e dfbd
00000330: e713 f73a 1331 353e 646e 8bbc 0cd2 853d
00000340: 69e0 33bd b286 a93c 38c7 793d f660 503d
00000350: 8770 c7bd f3fc e33d 8988 af3d c09f b43d
00000360: 6c2f f4bc 65cc ab3d c9cf 17bd a9f9 933d
00000370: 6005 04be 81e5 4b3d 27e3 e1bd a902 e3bd
00000380: ece5 bb3d 4d71 943d 60da c0bb 49f3 953c
00000390: 8403 313d 8fe9 0bbd 512a febd 67e1 7a3d
000003a0: 3125 48bd 4e57 17bd 3d37 233e 0a34 93bd
000003b0: 1e59 d93c 9a61 403c b51b 82bd 3e52 aa3d
000003c0: 0617 693d ea83 5f3d b7d6 20bc 2c5f 0dbd
000003d0: 4e24 eabd bf1c 933d 7c78 463d 3308 c4bd
000003e0: cd76 243d f9d8 033e 159d ee3d cdd1 a23d
000003f0: 9c74 e63d 7493 973c 0d35 883c d028 40bd

encoder.4.bias f4 [128]
0.009081302 -0.007996906 -0.08562982 0.13066958 -0.010184529 0.0649467 0.06906173 -0.018559948
-0.011812804 -0.02043986 0.054541264 -0.0014430848 -0.07313821 0.007867969 0.05901491 0.39784005
-0.067365415 0.0023327812 -0.007146949 -0.010930044 -0.04240012 -0.033502743 0.051788524 0.00051531114
0.0057756966 0.08630695 -0.011726455 -0.02270938 0.09814515 0.029039226 -0.088538826 -0.006003718
0.106638774 -0.049217027 -0.15408652 -0.039121106 -0.050010715 -0.010145178 0.033229444 0.06582265
0.13032262 0.11736867 0.043253817 0.038540047 -0.0026530745 -0.0049712956 0.07507725 0.04566527
0.019808251 -0.054391228 0.024531027 0.0006684391 0.13421844 0.0711015 0.0051897657 -0.008243538
0.034710515 -0.08079866 0.0023153983 -0.023544503 0.0046865977 0.036396038 0.056501247 0.0018618869
-0.026967159 -0.12118044 -0.016410321 0.035970412 0.073034585 -0.066063724 -0.048149765 -0.0010216414
-0.02804593 -0.02343618 0.046835717 0.06300478 0.024922738 0.16552423 0.0018468902 0.05204071
0.049872786 0.012845523 0.20482026 0.027141027 -0.06872237 -0.036161583 0.0047147023 0.011831142
0.022812422 -0.00095431827 -0.005006235 0.019065117 0.005084378 0.03842415 -0.06856672 -0.051090527
0.049127314 0.04684284 -0.0062511144 -0.019219121 0.03984489 0.08223641 0.018367937 -0.0009108205
-0.26241353 -0.030240713 -0.03040128 -0.024541147 0.02297036 0.07460898 -0.12017502 -0.060926892
0.004976353 -0.027450612 0.06727964 -0.050184462 -0.017345212 0.06338118 0.073282346 0.090384044
0.19331816 0.23040192 -0.028152496 -0.061973702 -0.019641997 0.050857414 0.08834784 -0.008558496
00000000: bec9 143c 7405 03bc b05e afbd 3fce 053e
00000010: 03dd 26bc c702 853d 3c70 8d3d 080b 98bc
00000020: 7e8a 41bc 7e71 a7bc a966 5f3d e425 bdba
00000030: 7cc9 95bd a7e8 003c 9eb9 713d b1b1 cb3e
00000040: e1f6 89bd 93e1 183b f430 eabb ed13 33bc
00000050: c0ab 2dbd 2c3a 09bd 3420 543d f215 073a
00000060: 0e42 bd3b b3c1 b03d 5120 40bc 0609 babc
00000070: 5300 c93d ace3 ed3c d853 b5bd d6ba c4bb
00000080: 6e65 da3d cb97 49bd dbc8 1dbe 743d 20bd
00000090: 09d8 4cbd f637 26bc 991b 083d 07ce 863d
000000a0: 4b73 053e fc5e f03d ea2a 313d 2bdc 1d3d
000000b0: 34df 2dbb 40e6 a2bb 1ac2 993d 820b 3b3d
000000c0: ea44 a23c 56c9 5ebd 4bf5 c83c 303a 2f3a
000000d0: 8f70 093e aa9d 913d e90e aa3b e80f 07bc
000000e0: 9d2c 0e3d c579 a5bd f0bd 173b 67e0 c0bc
000000f0: 0892 993b 0314 153d da6d 673d 8f0a f43a
00000100: 3bea dcbc 732d f8bd f06e 86bc b655 133d
00000110: 2893 953d 6b4c 87bd b038 45bd 99e8 85ba
00000120: 94c0 e5bc 3bfd bfbc cfd6 3f3d a608 813d
00000130: c52a cc3c 2f7f 293e 5a13 f23a a428 553d
00000140: 6847 4c3d 0776 523c 67bc 513e dc56 de3c
00000150: 50be 8cbd 2b1e 14bd ca7d 9a3b 68d7 413c
00000160: 1ee1 ba3c 372b 7aba 580b a4bb 732e 9c3c
00000170: db9a a63b a462 1d3d b56c 8cbd 4d44 51bd
00000180: b939 493d 47de 3f3d 26d6 ccbb 6b71 9dbc
00000190: 6534 233d 906b a83d 5b78 963c 21c4 6eba
000001a0: 115b 86be 5fbb f7bc 1b0c f9bc 840a c9bc
000001b0: 562c bc3c 98cc 983d 521e f6bd 7a8e 79bd
000001c0: ad10 a33b 1be0 e0bc e8c9 893d 398e 4dbd
000001d0: 8c17 8ebc fecd 813d 0e15 963d 451b b93d
000001e0: 32f5 453e 7bee 6b3e 10a0 e6bc 23d8 7dbd
000001f0: 41e8 a0bc dd4f 503d b6ef b43d ef38 0cbc

encoder.6.weight f4 [128, 128]
0.099704996 0.0060658148 -0.0077538514 0.1086773 0.00852825 0.044604477 0.1325193 -0.085930206
-0.16087963 0.07082271 -0.06964711 -0.0036451337 -0.028152112 0.04627972 -0.03110985 0.025297144
0.03381629 -0.13148288 0.0038896697 0.096724205 0.118676335 -0.07684633 -0.053603556 -0.06293877
-0.0016689512 0.012302841 0.18852009 0.12960094 0.09003609 0.02468864 -0.023603983 -0.11383484
0.081144765 -0.23408248 -0.042570595 0.07243767 0.057633698 0.0047259983 -0.058140345 -0.12968737
0.018329535 0.0077225748 -0.09693439 -0.0150996465 0.07282071 -0.06953472 -0.12070687 -0.0919082
0.004362572 -0.012809093 0.0019039371 0.068741485 0.0032391888 -0.124216735 -0.13380057 0.13370453
0.059993334 -0.068455726 0.10783262 -0.008001929 -0.006658995 0.059835404 -0.10710472 0.013256536
0.0011425769 0.06523198 -0.017419564 0.05072438 0.08163823 0.10719887 0.071596235 0.068164974
-0.11847709 -0.105093606 -0.0059832507 -0.038034406 0.1134252 0.12309538 0.07727366 0.07193227
0.06318657 -0.032882273 -0.016770417 -0.10284134 -0.05954094 -0.09643283 0.020448357 0.07515731
0.04306669 0.060370214 -0.04361957 -0.088580534 -0.015291801 -0.061644647 -0.09540686 0.11196389
0.025787083 0.1148385 -0.013037216 0.027992325 0.0028866017 -0.07502843 0.07636984 0.031452645
0.020166447 -0.1126793 0.041827966 0.098149315 -0.016532583 -0.028673304 -0.05015731 0.0120800985
-0.07343097 -0.040116206 -0.12177607 -0.013468022 -0.060449332 -0.003928936 -0.09236624 -0.0021276993
0.04010603 -0.0008467496 -0.090455115 -0.045748044 0.028988587 0.030874742 0.13249019 -0.08786208
0.121866606 -0.05641592 0.18634722 0.07045623 -0.01366241 -0.04878377 -0.16075446 0.022018516
-0.066204384 -0.021718299 0.081604816 -0.07914247 0.08834023 0.0063809366 -0.02757255 0.15470496
0.010795069 0.1545618 -0.08649369 -0.0020960548 -0.021263069 -0.034172926 0.08666004 0.14899029
-0.13922349 -0.05168075 -0.048731714 -0.060992848 0.015535653 0.058483515 0.12005993 -0.097521715
-0.09634171 0.057657633 -0.09713221 -0.0998974 0.009131009 -0.08347945 0.003378621 -0.039010063
0.08067199 0.080119476 -0.042538177 0.07568246 0.02931925 -0.019173287 0.016691633 0.13823408
-0.048448417 -0.029532166 0.117789894 -0.08334893 0.027302206 0.019460604 0.101046935 -0.07111596
0.10413639 -0.023179252 0.050376628 -0.08376963 0.016742537 -0.0009732718 -0.012140475 -0.049044
-0.02836982 0.021349302 0.119178995 0.121123925 -0.074963234 0.10929446 0.09192385 -0.09784026
-0.13108867 0.07486001 -0.012977141 -0.10715867 -0.06633125 -0.019496864 0.091844164 0.11792153
0.15356262 -0.028110288 -0.0023586524 0.07001991 -0.022872435 -0.052137904 0.058829796 -0.032422848
0.07641131 0.047121417 -0.07940762 -0.019915193 0.05213767 0.021295788 -0.05085247 -0.082341194
-0.045295697 0.03841812 0.06029726 0.041359328 0.051135246 -0.050753795 0.0033217121 0.043205075
0.097272724 0.09192071 0.013700383 0.053837024 0.17894292 -0.060126364 -0.1077139 -0.11152426
0.12434725 -0.08693577 -0.07859773 0.09885113 0.004003764 -0.015383694 -0.057345092 0.11461069
0.08895923 -0.1282593 0.010813784 0.003210734 -0.10711004 0.06384339 -0.053050593 -0.101941235
00000000: 2232 cc3d bec3 c63b 0514 febb 3492 de3d
00000010: 13ba 0b3c 2fb3 363d 24b3 073e 2dfc afbd
00000020: a1bd 24be 7f0b 913d 25a3 8ebd 32e3 6ebb
00000030: 429f e6bc ce8f 3d3d 16da febc f53b cf3c
00000040: f382 0a3d 73a3 06be d4e9 7e3b 5717 c63d
00000050: 940c f33d 9c61 9dbd 678f 5bbd 0be6 80bd
00000060: b6c0 daba db91 493c 690b 413e 1cb6 043e
00000070: d764 b83d d53f ca3c 245d c1bc 3e22 e9bd
00000080: 3a2f a63d 51b3 6fbe 815e 2ebd 335a 943d
00000090: 5011 6c3d 8cdc 9a3b 9224 6ebd c4cc 04be
000000a0: d227 963c a70d fd3b 8a85 c6bd 8264 77bc
000000b0: 0623 953d 3868 8ebd 2a35 f7bd 5e3a bcbd
000000c0: e8f3 8e3b 3bdd 51bc 878d f93a 56c8 8c3d
000000d0: 9248 543b 5865 febd 0403 09be d7e9 083e
000000e0: 92bb 753d 8432 8cbd 59d7 dc3d 861a 03bc
000000f0: b333 dabb f815 753d b859 dbbd f131 593c
00000100: 85c2 953a 5898 853d 79b3 8ebc 5ec4 4f3d
00000110: f231 a73d 158b db3d 0ca1 923d 149a 8b3d
00000120: 1ea4 f2bd 513b d7bd 250f c4bb f7c9 1bbd
00000130: 794b e83d 6e19 fc3d a741 9e3d 3a51 933d
00000140: f667 813d 90af 06bd 1d62 89bc 7b9e d2bd
00000150: 33e1 73bd 937e c5bd 5083 a73c 13ec 993d
00000160: b366 303d c246 773d 6faa 32bd b669 b5bd
00000170: 768a 7abc 197f 7cbd ac64 c3bd 534d e53d
00000180: 6f3f d33c 7330 eb3d 0c9a 55bc 2950 e53c
00000190: 242d 3d3b 81a8 99bd ca67 9c3d 7dd4 003d
000001a0: 1b34 a53c 68c4 e6bd cd53 2b3d 8202 c93d
000001b0: 576f 87bc 47e4 eabc c071 4dbd 9beb 453c
000001c0: fa62 96bd e450 24bd bb65 f9bd fba8 5cbc
000001d0: b899 77bd 4ebe 80bb 832a bdbd df70 0bbb
000001e0: 3846 243d 67f8 5dba 8840 b9bd 4d62 3bbd
000001f0: 7979 ed3c 07ed fc3c 82ab 073e 09f1 b3bd
00000200: 3395 f93d 6114 67bd ced1 3e3e 5b4b 903d
00000210: 4dd8 5fbc 7ed1 47bd d19c 24be 2d60 b43c
00000220: 2a96 87bd 93ea b1bc 6d20 a73d 7315 a2bd
00000230: b9eb b43d 2d17 d13b d4df e1bc fa6a 1e3e
00000240: cddd 303c 7345 1e3e 9b23 b1bd f75d 09bb
00000250: e32f aebc e9f8 0bbd d27a b13d e990 183e
00000260: 9a90 0ebe 32af 53bd e89a 47bd a3d3 79bd
00000270: 4089 7e3c 698c 6f3d fbe1 f53d 77b9 c7bd
00000280: cd4e c5bd 692a 6c3d 41ed c6bd 0297 ccbd
00000290: 3a9a 153c 46f7 aabd db6b 5d3b 04c9 1fbd
000002a0: 5b37 a53d ae15 a43d 833c 2ebd 68ff 9a3d
000002b0: ec2e f03c 4c11 9dbc e4bc 883c 3c8d 0d3e
000002c0: d971 46bd 71ed f1bc d43b f13d d8b2 aabd
000002d0: e0a8 df3c d86b 9f3c b2f1 ce3d 3fa5 91bd
000002e0: 7645 d53d 6ae2 bdbc b957 4e3d 698f abbd
000002f0: a527 893c 2a23 7fba d8e8 46bc 5de2 48bd
00000300: d367 e8bc bbe4 ae3c 1e14 f43d d20f f83d
00000310: 5386 99bd c6d5 df3d 9242 bc3d 7960 c8bd
00000320: 1c3c 06be 3450 993d 139e 54bc 0176 dbbd
00000330: aed8 87bd e3b7 9fbc cb18 bc3d d880 f13d
00000340: 853f 1d3e 8c47 e6bc 9f93 1abb 9966 8f3d
00000350: f95e bbbc 8e8e 55bd 83f7 703d d2cd 04bd
00000360: 887d 9c3d 6302 413d 76a0 a2bd 3025 a3bc
00000370: 4f8e 553d 8174 ae3c ae4a 50bd 80a2 a8bd
00000380: fb87 39bd 525c 1d3d 42fa 763d 6668 293d
00000390: 3173 513d 36e3 4fbd 15b1 593b cef7 303d
000003a0: ec36 c73d ed40 bc3d 9277 603c 3684 5c3d
000003b0: d03c 373e 1047 76bd 1b99 dcbd d566 e4bd
000003c0: c5a9 fe3d 620b b2bd d9f7 a0bd 7672 ca3d
000003d0: 0232 833b e40b 7cbc b0e2 6abd 02b9 ea3d
000003e0: 4230 b63d 6856 03be 4c2c 313c 2e6b 523b
000003f0: 825c dbbd 53c0 823d 944b 59bd 91c6 d0bd

encoder.6.bias f4 [128]
-0.057886835 0.031062469 0.05342871 0.028684074 -0.11654426 0.034167174 0.04468486 -0.024156604
-0.034702066 0.0075114025 -0.028989974 0.031883534 0.03456317 -0.04762097 -0.02041816 -0.011099307
-0.0051519535 0.067172565 0.05198831 -0.018492028 -0.01494178 -0.015746746 -0.007884452 0.010374261
0.089079924 0.0 0.042290196 -0.02017351 0.051349446 0.00019527752 -0.029442387 -0.0172945
0.09061908 -0.0056477124 0.009512468 -0.04171748 -0.005764413 0.0016413087 0.055364538 0.013769749
0.23448528 0.038190685 0.06113768 -0.0032998451 -0.024620337 -0.06901159 0.12266324 -0.046885096
-0.0077125286 -0.029967451 0.02983843 -0.037719224 -0.009243583 0.06904672 0.05598984 -0.016418392
-0.0048625353 -0.02308773 0.001749259 -0.021774828 0.16672418 -0.024009679 0.037530474 0.016246365
0.020721905 -0.002894589 0.04893905 0.064876765 -0.013751523 0.04955426 0.0 0.020178048
-0.044772312 -0.020251103 0.061286196 0.07972564 0.03764999 -0.010401362 0.0656282 0.01429245
-0.0016829355 0.07518247 0.017348045 -0.05056786 -0.061770648 0.05428058 0.06027447 -0.10550079
-5.958765e-05 -0.0029508616 -0.00065400155 -0.012916725 -0.10516958 0.06595604 -0.03172671 -0.011417588
-0.06843288 -0.019957596 -0.020307245 -0.00078296487 0.061305746 -0.043538015 0.017394846 0.035391483
0.0040751984 0.032112043 -0.028090678 0.035179008 -0.013711763 -0.028681407 -0.0088039255 -0.010241796
-0.026602346 0.021965247 -0.07723185 0.04198238 -0.0035363524 0.0012817547 0.01335596 -0.06382169
-0.037940595 -0.04474747 -0.0931171 0.959997 -0.027385568 -0.040317457 0.011202455 0.08221002
00000000: bf1a 6dbd b876 fe3c 10d8 5a3d ddfa ea3c
00000010: c2ae eebd e1f2 0b3d 7907 373d 12e4 c5bc
00000020: c123 0ebd 3622 f63b 627c edbc 4f98 023d
00000030: 1c92 0d3d 350e 43bd fc43 a7bc ded9 35bc
00000040: b8d1 a8bb c591 893d b2f1 543d 987c 97bc
00000050: 5ece 74bc 52ff 80bc ca2d 01bc cef8 293c
00000060: 896f b63d 0000 0000 7c38 2d3d eb42 a5bc
00000070: cc53 523d 69c3 4c39 2931 f1bc 32ad 8dbc
00000080: 7f96 b93d 7210 b9bb 2fda 1b3c f3df 2abd
00000090: 67e3 bcbb 2e21 d73a edc5 623d 839a 613c
000000a0: e91c 703e d66d 1c3d 816b 7a3d 3742 58bb
000000b0: 97b0 c9bc f355 8dbd dd36 fb3d 960a 40bd
000000c0: 61b9 fcbb 4d7e f5bc b96f f43c 797f 1abd
000000d0: 6672 17bc 5e68 8d3d 9a55 653d dd7f 86bc
000000e0: e755 9fbb 7b22 bdbc 6447 e53a 2061 b2bc
000000f0: beb9 2a3e f2af c4bc 8eb9 193d 1917 853c
00000100: fcc0 a93c 25b3 3dbb 5074 483d 1cde 843d
00000110: 114e 61bc 68f9 4a3d 0000 0000 6f4c a53c
00000120: 2c63 37bd a4e5 a5bc 3c07 7b3d 3247 a33d
00000130: e036 1a3d 796a 2abc 1468 863d e12a 6a3c
00000140: f295 dcba 44f9 993d 7d1d 8e3c 3f20 4fbd
00000150: 3803 7dbd 5055 5e3d 5de2 763d cc10 d8bd
00000160: c1ed 79b8 3e63 41bb 4d71 2bba aca0 53bc
00000170: 2663 d7bd f613 873d def3 01bd d610 3bbc
00000180: 8a26 8cbd 1d7e a3bc 615b a6bc e23f 4dba
00000190: bc1b 7b3d eb54 32bd a37f 8e3c a9f6 103d
000001a0: 3e89 853b eb87 033d 6c1e e6bc dd17 103d
000001b0: 4da7 60bc 45f5 eabc 573e 10bc 35cd 27bc
000001c0: 2aed d9bc 76f0 b33c bb2b 9ebd b7f5 2b3d
000001d0: 26c2 67bb 8d00 a83a f5d2 5a3c f2b4 82bd
000001e0: 9967 1bbd 2049 37bd 2eb4 bebd 5dc2 753f
000001f0: b357 e0bc eb23 25bd 808a 373c ba5d a83d

encoder.8.weight f4 [24, 128]
-0.031730626 -0.015838495 0.1091312 0.11799515 -0.055998195 -0.13303575 -0.087798186 0.13793996
-0.04325797 -0.022921419 0.16055374 -0.14786105 0.06916686 0.069806285 0.13538754 0.11726527
-0.00727029 -0.03881492 -0.14587869 0.11658296 -0.0057180296 -0.015333126 -0.0237631 0.025239792
-0.023730654 0.010476948 -0.15047671 0.00323449 0.018946487 0.11641329 -0.13927798 0.034623686
-0.110498026 0.104643 0.05374559 -0.04604393 -0.041180793 -0.14111468 0.011840626 0.07292262
0.036870845 0.009967158 0.11751857 0.014445531 -0.011452306 -0.00056221074 0.098765425 0.030945674
-0.13143536 -0.12818243 0.14610347 0.013518139 -0.11790704 0.1607954 -0.08206969 -0.06300243
0.10431636 0.0009668459 -0.1253306 -0.028640257 -0.0058062314 -0.104189545 -0.15075415 -0.12749222
0.12508367 -0.09449074 0.02411963 -0.018653996 -0.015158972 -0.0021329264 0.05791985 0.058165036
0.062391177 0.13797592 0.11231517 -0.046758424 -0.08011295 -0.0022275695 -0.13172674 0.16866831
-0.02152456 0.022840133 -0.043095097 0.043016676 0.068130456 0.15392129 -0.07697553 -0.00070572307
-0.1000427 -0.03264032 0.10472763 0.15603933 -0.01743065 0.13010783 0.07153387 0.119837776
-0.027685715 -0.0092079 0.029858448 0.14823921 -0.03362164 0.05891332 -0.12536071 0.050306384
-0.13824601 0.111105174 -0.011280242 0.096996285 0.004340455 -0.09356552 0.011435598 -0.09224878
0.15033695 -0.1361939 -0.0063978015 0.024255218 -0.09811378 -0.039186426 0.029906515 0.07412707
0.11115197 -0.03910884 0.0142771555 0.013050311 0.13965942 -0.057854388 -0.014256095 0.063967794
-0.022248913 0.012674355 -0.029497825 0.04684151 -0.07695454 -0.10489214 0.04074355 0.18797015
-0.08002931 0.10559989 -0.0802441 0.16184191 -0.055603158 0.081800126 0.14855453 -0.021564065
-0.09011581 -0.10510335 0.0034665773 0.049046848 -0.010483268 -0.0475881 -0.044379313 -0.06771144
0.095623806 0.0941597 -0.030483127 -0.001941506 0.01974943 0.16770755 0.033164952 -0.0011172807
0.018134983 -0.19439209 0.051037144 0.0002749428 -0.0005803993 0.04831959 -0.10522971 0.075745046
0.042741586 0.10821834 0.09050749 0.035865847 -0.11267895 0.020292582 0.012030398 -0.020387797
-0.12974106 0.15121008 -0.08661927 -0.050717253 0.18015397 0.07319855 0.09854877 -0.03592029
-0.068069346 -0.13105905 0.14671285 0.00015737965 0.13820659 -0.0640768 0.14718254 0.041661624
-0.15113568 -0.08254742 -0.020981776 -0.15463702 0.08150867 -0.054607756 -0.13110894 0.010667523
0.011207272 -0.08004889 0.1158832 0.032112073 -0.13025644 0.022527618 -0.095955364 -0.1289398
-0.12643872 0.07945263 -0.0016931231 -0.005686048 0.019049505 0.0086416155 0.112733155 0.007896658
0.034107994 -0.040297624 0.13146375 0.15024114 -0.012753657 -0.1144014 0.04550089 -0.080276914
0.06493494 -0.0014871402 0.09919982 0.07698897 -0.06783715 -0.00691718 -0.10351977 -0.10832712
-0.13878287 -0.118796825 0.018822974 0.020755697 0.041112445 -0.059378512 0.08588233 0.10243196
-0.030518379 -0.048305083 0.01903291 0.042744033 -0.01795448 -0.09030586 -0.047532327 -0.08294837
-0.11302947 0.014183562 0.04916248 -0.04556344 0.070098564 0.105498075 0.047228906 0.021689516
00000000: f9f7 01bd bbbf 81bc 2e80 df3d 71a7 f13d
00000010: 5d5e 65bd 863a 08be 89cf b3bd 2240 0d3e
00000020: 452f 31bd b3c5 bbbc 3368 243e e368 17be
00000030: 5ba7 8d3d 99f6 8e3d 08a3 0a3e c628 f03d
00000040: 9d3b eebb 65fc 1ebd 3961 15be 0cc3 ee3d
00000050: 4f5e bbbb cb37 7bbc d5aa c2bc aec3 ce3c
00000060: ca66 c2bc 81a7 2b3c 9116 1abe bdf9 533b
00000070: aa35 9b3c 176a ee3d e39e 0ebe 91d1 0d3d
00000080: ca4c e2bd 124f d63d 5624 5c3d 8f98 3cbd
00000090: 31ad 28bd 5e80 10be 2fff 413c 7458 953d
000000a0: e205 173d 4a4d 233c 93ad f03d f3ac 6c3c
000000b0: 74a2 3bbc 5361 13ba 8745 ca3d c881 fd3c
000000c0: fe96 06be 4142 03be 269c 153e 2f7b 5d3c
000000d0: 3f79 f1bd 8da7 243e 2714 a8bd 6b07 81bd
000000e0: d1a3 d53d ee73 7d3a aa56 00be f99e eabc
000000f0: 3342 bebb 5461 d5bd 4c5f 1abe 528d 02be
00000100: ef15 003e 5c84 c1bd 8896 c53c 44d0 98bc
00000110: 565d 78bc 91c8 0bbb 5d3d 6d3d 763e 6e3d
00000120: e48d 7f3d 8f49 0d3e 7f05 e63d c385 3fbd
00000130: 4212 a4bd 6afc 11bb 60e3 06be 63b7 2c3e
00000140: 4654 b0bc 3b1b bb3c 7c84 30bd 4132 303d
00000150: fb87 8b3d 8b9d 1d3e 59a5 9dbd 4600 39ba
00000160: 30e3 ccbd dbb1 05bd 717b d63d c6c8 1f3e
00000170: b9ca 8ebc fd3a 053e 5a80 923d 826d f53d
00000180: 27cd e2bc bbdc 16bc b499 f43c 05cc 173e
00000190: d8b6 09bd 184f 713d 8f5e 00be 110e 4e3d
000001a0: 5d90 0dbe 1c8b e33d c4d0 38bc fda5 c63d
000001b0: 603a 8e3b 489f bfbd 605c 3b3c eeec bcbd
000001c0: eef1 193e 6a76 0bbe a6a4 d1bb e1b2 c63c
000001d0: e1ef c8bd f281 20bd 82fe f43c efcf 973d
000001e0: a5a3 e33d 9730 20bd bbea 693c f9d0 553c
000001f0: e102 0f3e b9f8 6cbd 6592 69bc 8c01 833d
00000200: 5a43 b6bc 19a8 4f3c 6ca5 f1bc e2dc 3f3d
00000210: 589a 9dbd b1d1 d6bd b5e2 263d 3f7b 403e
00000220: 68e6 a3bd c144 d83d 0557 a4bd e3b9 253e
00000230: 23c0 63bd d386 a73d ae1e 183e 1fa7 b0bc
00000240: a38e b8bd 6d40 d7bd 842f 633b 59e5 483d
00000250: 03c2 2bbc bdeb 42bd 15c7 35bd 4cac 8abd
00000260: 6ad6 c33d cdd6 c03d c0b7 f9bc 227a feba
00000270: 8ec9 a13c 87bb 2b3e f9d7 073d b871 92ba
00000280: d18f 943c b80e 47be 530c 513d 3326 9039
00000290: f025 18ba c3ea 453d ad82 d7bd 3820 9b3d
000002a0: cd11 2f3d 94a1 dd3d fe5b b93d 11e8 123d
000002b0: 39c4 e6bd a13c a63c 251b 453c 4f04 a7bc
000002c0: d7da 04be d1d6 1a3e 7265 b1bd e5bc 4fbd
000002d0: 487a 383e 1fe9 953d f0d3 c93d 2721 13bd
000002e0: f167 8bbd 5834 06be e53b 163e 4706 2539
000002f0: 0786 0d3e b33a 83bd 05b7 163e 61a5 2a3d
00000300: 50c3 1abe 9f0e a9bd f9e1 abbc 2b59 1ebe
00000310: 04ee a63d 62ac 5fbd 6c41 06be d6c6 2e3c
00000320: b59e 373c acf0 a3bd 2c54 ed3d f387 033d
00000330: f261 05be d78b b83c 3f84 c4bd cc08 04be
00000340: 2779 01be 0fb8 a23d c9eb ddba 0752 babb
00000350: b50d 9c3c 9095 0d3c a4e0 e63d fc60 013c
00000360: d3b4 0b3d 1f0f 25bd 6f9e 063e d0d8 193e
00000370: b7f4 50bc 484b eabd 245f 3a3d 3968 a4bd
00000380: 9cfc 843d 25ec c2ba 4629 cb3d 65ac 9d3d
00000390: 34ee 8abd 83a9 e2bb 2c02 d4bd 9cda ddbd
000003a0: 191d 0ebe c04b f3bd a332 9a3c da07 aa3c
000003b0: 8665 283d e236 73bd 13e3 af3d d9c7 d13d
000003c0: ae01 fabc 8ddb 45bd e8ea 9b3c 5e14 2f3d
000003d0: 4615 93bc 47f2 b8bd 42b1 42bd d6e0 a9bd
000003e0: ff7b e7bd 2c62 683c 995e 493d bba0 3abd
000003f0: d68f 8f3d 600f d83d 1973 413d 36ae b13c

encoder.8.bias f4 [24]
0.014233318 0.0033237345 0.031245017 -0.011588948 0.011102921 -0.014024636 0.005349922 -0.120342754
0.004242449 -0.041955546 0.03012105 -0.036584917 -1.6293218 -1.532106 -0.50575346 -0.13623741
-1.6567286 -0.97364914 -0.43162456 -0.96905935 -1.1341169 -1.1289648 -1.036786 -1.1043549
00000000: dd32 693c 03d3 593b 8df5 ff3c 92df 3dbc
00000010: 07e9 353c 96c7 65bc 664e af3b 4376 f6bd
00000020: 3e04 8b3b 94d9 2bbd 6cc0 f63c 11da 15bd
00000030: 9e8d d0bf 0d1c c4bf 0f79 01bf d281 0bbe
00000040: af0f d4bf 1241 79bf e5fd dcbe 4614 78bf
00000050: be2a 91bf eb81 90bf 67b5 84bf 805b 8dbf
