models/y01vae_dim_4_banana.pt (torch, 415372 bytes, 22 tensors)

encoder.0.weight f4 [128, 4]
000000 f1 dd 04 3e 5c 31 aa 3d 9e 5c a8 bc 69 8a 23 3e
       0.12975289 0.08310196 -0.020551976 0.15970768
000010 f9 43 13 be 05 69 2d 3d a7 63 f1 bd b0 55 84 3e
       -0.14381398 0.042336483 -0.11786585 0.25846624
000020 a6 c6 2b 3e b7 cb fe bd 4f 40 70 bd ee e3 e8 bd
       0.16774997 -0.12441199 -0.05865508 -0.11371599
000030 b2 e8 18 3d 9d 57 8a bc 34 d0 bc ba e1 d4 10 3e
       0.03733129 -0.01688748 -0.0014405311 0.14143707
000040 69 78 1d bd e4 6f 58 be 8e 2b 26 bd fe 79 05 3c
       -0.03844491 -0.21136433 -0.04056888 0.008146761
000050 fc d5 4a 3b cf ee b0 bd 14 8e c9 3d 91 ce 17 3e
       0.0030950299 -0.08639299 0.098415524 0.14824893
000060 95 08 a0 bd 24 94 1b be e3 a6 db bd 0c 2e 20 be
       -0.07814137 -0.1519323 -0.107251905 -0.15642565
000070 93 95 9d 3d 1d 58 e7 bd 53 54 8e bc 87 73 95 3d
       0.07694545 -0.11296103 -0.017374193 0.07297426
000080 18 84 d3 bb 9a fa 07 3e fa d5 f1 bd ac f9 46 3e
       -0.006454956 0.1327919 -0.11808391 0.1943118
000090 c5 7e 1c be fb bf 9d 3c 92 58 75 bd 5a a7 11 bd
       -0.15282734 0.019256582 -0.05989892 -0.03555999
0000a0 fb db 72 bc 06 f1 ab bd b8 90 09 3e 7a f3 60 bd
       -0.014822955 -0.08395581 0.13434112 -0.054919697
0000b0 c2 10 31 be 4c 97 0a be 0c 05 3b be 02 c2 b2 3d
       -0.17291549 -0.13534278 -0.18263644 0.0872841
0000c0 06 30 b8 bd cd ab 82 3e de 51 e5 bd 9f d3 3b 3d
       -0.08993535 0.255217 -0.111972556 0.045856114
0000d0 b1 4c 40 be d0 a5 52 3e 87 80 03 be 1c 8a 2e 3e
       -0.18779255 0.20571065 -0.12841998 0.17044872
0000e0 64 40 ae 3d c1 be 09 3d 6b 7a 84 bd 61 be 79 bd
       0.08508375 0.033629183 -0.06468662 -0.060972575
0000f0 e5 e0 4c 3d bd 13 3c 3d 3b 5b 19 be 08 03 04 be
       0.050019164 0.04591726 -0.14976208 -0.12891781
000100 df ca d2 bd b2 61 22 bc b5 c6 a4 3d 64 d1 ee 3d
       -0.10292601 -0.009910988 0.08045713 0.11661032
000110 9a fa 20 3e 10 5a 0a 3e cf e3 25 be 88 35 c8 3d
       0.15720597 0.13510919 -0.16200183 0.09775835
000120 23 a4 2d be 5c 11 77 bd 1c 38 f8 3c 6b 31 39 be
       -0.16957144 -0.06031929 0.030300193 -0.18085258
000130 41 07 22 be b2 2a 81 3d cd 63 04 3e 8d 9b af 3a
       -0.1582308 0.063069716 0.12928696 0.0013397798
000140 e6 e6 21 bd 75 3e 6b bd 23 ed 26 be e9 2e c8 bd
       -0.039526843 -0.05743261 -0.16301398 -0.097745724
000150 f4 37 16 be d8 d4 11 3c 82 d3 35 3e 95 e1 be 3c
       -0.14669782 0.008900844 0.17756465 0.023300925
000160 38 a0 cc 3d 9e 14 2b be f4 4a 19 3e ef 58 17 be
       0.09991497 -0.16707084 0.14969999 -0.14780019
000170 23 74 34 bd 17 e5 3a bd 48 02 b2 3d a0 31 25 bc
       -0.04405607 -0.045628633 0.08691841 -0.010082632
000180 c5 a3 18 bd 1e 98 22 be 25 0a bd bd d9 57 24 3e
       -0.037265558 -0.1587834 -0.092304505 0.16049136
000190 62 9d 26 be c3 9a ed bd 59 c8 b8 3d c6 4d 19 bd
       -0.16270974 -0.11601784 0.09022588 -0.037427686
0001a0 14 2e a5 bd 64 d6 13 3e cf 8c 06 3e d3 c1 02 3e
       -0.08065429 0.14437252 0.13139652 0.1276925
0001b0 9e 23 08 3e c2 04 1e 3e 14 b3 56 bc 37 6b c0 bd
       0.13294837 0.15431502 -0.013104219 -0.093954496
0001c0 d2 72 e6 bc 69 e0 e8 bd 7d 69 bb bd 4a a1 ee 3d
       -0.028130922 -0.11370928 -0.0915098 0.11651857
0001d0 6b 60 1c be c4 2f cc bd 5a 53 f9 bd 82 bb 36 3e
       -0.15271156 -0.09970048 -0.12174101 0.17844966
0001e0 21 64 0f 3c c7 0b 9e 3d b6 e0 54 bd bc 43 d7 bd
       0.0087519 0.0771709 -0.051972114 -0.10510966
0001f0 d7 72 29 3e 49 2e d6 3d 0f 39 02 3e 9c dc 5f be
       0.16547714 0.10458047 0.12717079 -0.218615
000200 cb fc de bd 75 43 43 be d0 6a 2c 3d e2 80 85 3c
       -0.1088806 -0.19068702 0.04209405 0.016296808
000210 ee 0f 23 3d d1 69 12 3c 14 80 34 3e b5 a6 21 be
       0.039810114 0.008936361 0.17626983 -0.1578625
000220 99 9f 1f 3e 03 a7 da 3d 9d 84 94 3d cd 5d 5c 3d
       0.15588225 0.10676386 0.072518565 0.053800393
000230 9a ba 96 3d 57 46 21 be 0c d0 07 be cd cd d7 3d
       0.0735981 -0.15749489 -0.13262957 0.105373
000240 ca 29 2b bc aa 27 c8 3c 01 9d 88 bd 13 46 ff bd
       -0.010446975 0.024432976 -0.06670571 -0.124645375
000250 39 72 91 3d ed b4 8c 3c 50 46 03 bc 3f ac 44 3d
       0.07101864 0.017176116 -0.008012369 0.04801583
000260 d7 f3 14 3b c1 10 e3 bb 2a f9 8a 3d 1d 0b 5a 3e
       0.0022728348 -0.0069294875 0.067858055 0.21293302
000270 56 7f 0c be cf df 01 be bf a0 1f be 20 bb 69 be
       -0.1372045 -0.12683032 -0.15588664 -0.22825289
000280 77 38 f6 3d cb a4 06 be 43 cf 49 bd eb 27 9b 3d
       0.120224886 -0.13148801 -0.049269926 0.07575973
000290 85 05 9b 3c 1d 70 68 bd 9c 4e dd bc cd 11 21 3e
       0.01892353 -0.056747545 -0.027015023 0.15729447
0002a0 b3 f4 88 3d d1 73 0e 3e 8f e4 fd 3b b2 89 3c 3e
       0.06687298 0.13911368 0.0077481936 0.18411902
0002b0 4a db 9c 3d c0 c2 06 be fb 45 2f be 6c 2a 9a bc
       0.076590136 -0.13160229 -0.17116539 -0.018819056
0002c0 9d 42 2c bd 89 a4 23 3e ec 26 09 3e 8d 7c a7 3c
       -0.042055715 0.15980734 0.13393754 0.020445133
0002d0 d9 86 09 3c 8c 1f a2 bd 1e bf 0a 3e e0 e3 71 bd
       0.008393967 -0.07916173 0.13549468 -0.05905521
0002e0 ad 32 7e bc 19 ce 24 3e 2b ab df bc 19 d4 e6 bd
       -0.015515012 0.16094245 -0.027303299 -0.11270923
0002f0 f3 c6 53 3d 7a 30 e4 bd 49 bd c3 3c 57 f0 0e 3e
       0.051703405 -0.11142059 0.02389397 0.1395887
000300 54 13 40 3c 2e 9d f5 bd 10 b2 3f bd 12 00 8d bc
       0.011723358 -0.1199287 -0.046800673 -0.017211948
000310 fb 12 e5 bd f8 5d 40 3c b5 69 80 39 47 6f f2 3d
       -0.11185261 0.011741154 0.0002449282 0.11837631
000320 ef 9e d5 3d 2a a0 62 3e 88 fd b1 bd ab b9 f8 3d
       0.10430705 0.2213141 -0.086909354 0.12144788
000330 35 a7 8b 3d cf b1 2f 3d fe 02 80 bd 17 4f 71 bd
       0.068190016 0.04289418 -0.06250571 -0.058913317
000340 60 f4 c2 3d f6 0a fa 3d 8b bb e2 3d 0b 48 35 3e
       0.09519267 0.12209122 0.11070927 0.17703263
000350 ee a8 68 3c 34 7a f2 bd 43 f7 55 3c ee 2b ef 3c
       0.014200432 -0.11839715 0.01305944 0.029195752
000360 71 db c5 bc 4a f9 1e 3e 82 c8 f8 3b 0d 29 74 bd
       -0.02415249 0.15524784 0.007592262 -0.05960946
000370 69 7f cf bd bb ee 88 3d 6d 2e a3 3d e2 c9 07 3e
       -0.101317234 0.06686159 0.079678394 0.13260606
000380 07 cc 03 be da 03 72 3e dd a9 91 3d 12 4f a7 3d
       -0.12870799 0.23634282 0.07112477 0.08169378
000390 b6 f1 b0 3d 9f fe 72 bd 3d f9 2f 3d 2f db 20 bd
       0.08639853 -0.059324857 0.0429623 -0.03927153
0003a0 b1 ce 77 bd 04 30 ce 3d 70 2b 34 be 27 c2 3d 3d
       -0.06049985 0.10067752 -0.17594695 0.046327736
0003b0 07 f5 30 be ba e8 e4 3d 7b 72 e9 3d 03 f2 23 bd
       -0.1728097 0.111772016 0.113987885 -0.040025722
0003c0 f3 85 ba 3d 54 02 18 3e be 4a 22 3e 88 bf ab 3d
       0.0910758 0.14844638 0.15848824 0.08386141
0003d0 07 f6 24 bd 2b 29 01 be 9c ac 00 be 15 85 66 3e
       -0.040273692 -0.1261336 -0.12565845 0.22511704
0003e0 e9 91 2f be 78 03 ad 3d 41 43 ed 3b 46 ee 32 3e
       -0.17145504 0.08447927 0.0072406833 0.17473707
0003f0 c3 6a 86 3b a7 c4 ae bd e2 89 43 bd f2 e8 29 be
       0.0041020825 -0.08533602 -0.047738917 -0.16592768

encoder.0.bias f4 [128]
000000 2d 23 29 3d 73 3d db b9 22 81 af bd 48 35 ac bd
       0.041293312 -0.00041816718 -0.08569552 -0.084086
000010 e7 b5 17 3b a6 58 80 ba f0 2c 50 bd c1 6c 93 bd
       0.0023149194 -0.0009792044 -0.050824106 -0.071984775
000020 db a7 6d 3d 68 1c a9 3c 6b 6a 3d bd d3 1e 50 bc
       0.058021408 0.020643428 -0.046244066 -0.012702662
000030 8a e1 69 3d 85 b4 15 3d 47 d4 ec bd 5c 31 c8 ba
       0.057099856 0.03654911 -0.11563926 -0.0015273499
000040 0b cb 15 bd a2 11 15 bd ac e2 33 bd c2 17 87 bc
       -0.03657059 -0.03639377 -0.043917343 -0.01649082
000050 b0 5c 81 bb aa 35 9d bb 53 6b b2 bd 50 79 9f bb
       -0.003947817 -0.004797657 -0.08711877 -0.0048667565
000060 fb 06 ee 3c b9 15 88 bd 33 91 06 3c 3a c4 a5 3b
       0.029056063 -0.06644768 0.008213329 0.0050587924
000070 76 c5 23 bb 03 6b 46 3c ee a0 d3 bc e8 72 ab bb
       -0.0024989522 0.0121104745 -0.025833573 -0.0052322038
000080 65 5f 09 be 45 db 0b bd 37 82 62 bc 57 08 9a bd
       -0.13415296 -0.03414466 -0.013824991 -0.07521122
000090 d8 e3 91 bd 5b 5e 57 bc ac 49 19 3d 48 21 a6 bd
       -0.07123536 -0.013145055 0.037423775 -0.08111817
0000a0 d5 5b 54 bc f9 9a 30 bc 42 48 51 3d a8 64 8e bc
       -0.012961348 -0.010779136 0.0510943 -0.017381981
0000b0 c4 31 41 bb 97 7f a5 bc 88 3f 96 bc 08 25 f3 bc
       -0.0029479126 -0.020202441 -0.018340841 -0.029680744
0000c0 05 57 1c bd 04 4e b4 3c 08 87 7b 3b 7d a1 8c bd
       -0.038168926 0.022009857 0.0038380045 -0.06866739
0000d0 2a ef 34 3d 3c c8 77 bc 69 8d b3 3b fa 6a 87 bc
       0.044173397 -0.015123423 0.005479504 -0.016530503
0000e0 df 1a 36 3d 61 a8 38 bd bb 79 6f bc e7 9e 9c 3c
       0.04445922 -0.045082454 -0.014616425 0.01911874
0000f0 61 75 ca 3c 92 38 e1 3b c7 79 da 3c e8 b7 51 bd
       0.024714174 0.006873199 0.026669396 -0.051200777
000100 dd 30 b3 bb 5f cf 33 3c e5 8a c4 bc 7a be ab bc
       -0.0054684714 0.010974734 -0.023992011 -0.02096485
000110 6c 09 37 bd e4 78 1e bd 3c a6 a7 bc 53 ad 0e be
       -0.04468672 -0.03868951 -0.020465009 -0.13933305
000120 94 76 67 bb 6d 19 27 bd 83 04 c4 3c fb 33 21 bc
       -0.003531848 -0.040795732 0.023927933 -0.009839053
000130 6c 25 57 bc 6a d1 02 bc 33 21 37 3d 97 19 0d bc
       -0.013131481 -0.0079844985 0.044709396 -0.008612058
000140 f7 4c 6f bc 94 73 8e bc 1c 5f d3 ba 96 c8 b3 bc
       -0.014605752 -0.017389096 -0.0016126367 -0.021946233
000150 c6 2c 3e 3c 66 e3 b9 bb a9 8f 0d 3d d4 1c a9 bc
       0.0116073545 -0.00567286 0.034560833 -0.02064363
000160 d4 37 e9 3b f0 72 d2 bb 0f 73 a7 bd 5f 68 96 bc
       0.007117251 -0.006422393 -0.081762426 -0.018360315
000170 bc 13 93 bc fd bc e5 bc 46 51 93 ba af f3 77 3d
       -0.017953746 -0.028044218 -0.0011239431 0.06053513
000180 a2 29 90 bc b8 3f 71 bc 1d c3 c9 bc 85 2c 81 3b
       -0.017597977 -0.014724664 -0.02462917 0.0039420747
000190 ca 87 82 3a 8f 8d 8f bb c9 14 8d bc 05 c9 48 3c
       0.0009958681 -0.004380889 -0.017221825 0.012254958
0001a0 8d 2a 97 b9 e5 4f 0b 3c 9c db 4b bc ea cb 06 3d
       -0.00028832667 0.008502935 -0.012442496 0.03290931
0001b0 7c 2e bd bc d9 59 f6 bc ac 2c d9 b8 ed 71 99 bc
       -0.023093455 -0.03007214 -0.00010355687 -0.018731082
0001c0 2e 69 09 3b d5 a5 93 bc 71 d1 57 bd c6 40 49 bd
       0.0020967233 -0.01802341 -0.052689973 -0.04913404
0001d0 a4 46 88 3c 71 3c eb 3d 15 90 21 bd 10 97 b4 bc
       0.016635247 0.11486138 -0.039444048 -0.022044688
0001e0 b4 b9 3f bc 3c 8a 2e bd 0c 29 50 3d d6 66 8e bc
       -0.01170199 -0.0426123 0.050820395 -0.01738302
0001f0 61 db b7 bc f1 2c 3a bd 8f 50 ec bc c2 8f 0d 3d
       -0.022443475 -0.045453016 -0.028847007 0.034560926

encoder.2.weight f4 [128, 128]
000000 75 bc 5e 3d 68 88 dc 3d ef 23 74 3d 5f 11 21 3d
       0.054378945 0.10768205 0.05960458 0.039323207
000010 a7 93 fa 3d 68 85 55 bd 64 a4 c1 3d f9 31 00 be
       0.12235194 -0.05212918 0.09455183 -0.12519063
000020 e5 7f 1e 3d f3 97 8c 3d cc ec e6 3b e2 47 d1 bd
       0.03869619 0.068649195 0.0070472714 -0.10218789
000030 12 dc 90 3d 86 f4 0d be b5 5c a0 bd ce b1 24 3d
       0.07073225 -0.1386281 -0.078301825 0.04020863
000040 73 23 ec bd 5d 03 03 bd 81 6c 39 bd 51 5a ea 3d
       -0.11530199 -0.03198563 -0.045269493 0.11443008
000050 46 74 2b bd 24 18 d9 bc dc 90 f7 bd 9e 35 c7 bd
       -0.041858934 -0.026500769 -0.120881766 -0.097270235
000060 ad c3 ef bc 51 6a a4 3d 8c 1d 4e bd cf 04 54 3d
       -0.02926811 0.08028091 -0.050321147 0.0517624
000070 76 cd e4 bd cd 90 fb 3b 8a 0d c2 bd af bf f9 3d
       -0.11172001 0.0076771737 -0.094752386 0.12194764
000080 13 90 0b be 56 60 08 3e 2f 53 4f 3d 27 e6 bc bd
       -0.13629179 0.13317999 0.05061644 -0.092235856
000090 82 e9 e1 3d 21 78 e7 3d c2 06 8f 3d 06 c3 d9 bd
       0.11030866 0.1130221 0.06983711 -0.10632901
0000a0 63 fd 78 3d ba 31 39 bd b5 3c 9c 3d ce 42 ff 3c
       0.060788523 -0.04521344 0.076287664 0.031159785
0000b0 18 49 0d 3e 6c 66 e0 3d 33 b8 00 3d 41 2d 87 3d
       0.13797414 0.109570354 0.031425666 0.066004284
0000c0 0f 35 a1 bd ca 19 41 bd ad 86 45 bb f8 d3 61 3d
       -0.07871448 -0.047143735 -0.0030140087 0.05513379
0000d0 b5 a1 eb 3d 71 ab 0c 3e 0f 01 4c 3e 2d f0 71 3d
       0.115054525 0.13737275 0.19922279 0.05906694
0000e0 24 56 06 3d 9b 40 ac 3d bb 59 46 3d 88 5d 13 bd
       0.032796994 0.0841076 0.048425417 -0.03597787
0000f0 b1 cc a4 bd 26 61 f3 bd 41 87 12 bd e7 63 b9 3d
       -0.08046854 -0.11883764 -0.03577352 0.09052258
000100 bf 2b fa 3d ab ef 95 3d 07 12 98 bd b9 fe 91 3d
       0.12215375 0.07321104 -0.074253134 0.071286626
000110 0b 23 41 3c a0 7c c9 3d 2c f6 d0 bd c8 9d 02 be
       0.01178814 0.098382235 -0.102032036 -0.12755501
000120 c2 20 24 3c 17 72 30 bc 87 65 ed bd d6 a4 51 3c
       0.010017576 -0.010769389 -0.115916304 0.012795648
000130 2a 33 22 3e 0d b9 88 bd e5 b0 4d bd 68 be a4 3d
       0.1583983 -0.06675921 -0.050217528 0.080441296
000140 df 3b ea 3d 44 cc de 3d 1b 8d b2 bb ed d3 27 3d
       0.11437201 0.10878804 -0.00544895 0.040973593
000150 a4 e4 48 3d 4a 92 c0 bd 76 08 b5 3d 8d 7f a3 bd
       0.049046174 -0.094029024 0.088395044 -0.07983313
000160 8b 63 a7 bd 3a 67 3a bd b0 9b e5 bc 83 c8 ff bd
       -0.08173283 -0.0455086 -0.02802834 -0.124894165
000170 e8 dd 0e be 47 f1 0e be 0d 78 35 3b c6 25 bf bd
       -0.13951838 -0.13959228 0.0027689964 -0.093333766
000180 9a ca 06 be 68 a1 ca bb db 77 d5 bd e0 7f bb bd
       -0.13163224 -0.006183792 -0.10423251 -0.091552496
000190 61 5e c8 3d 6e e0 d9 3d cb c7 b7 3c 4d 77 9b 3d
       0.09783626 0.1063851 0.022434136 0.07591114
0001a0 5c f1 2c bd 29 41 7b bd 7e b3 91 3d f8 41 24 3d
       -0.042222366 -0.06134144 0.071143135 0.040101975
0001b0 c9 a5 37 3c a5 b5 03 3e 17 ab e5 bd 16 43 52 bc
       0.01120896 0.1286226 -0.112142734 -0.012833377
0001c0 cd d6 bf bc 1d 42 03 3b 87 40 a9 bd 10 b5 d4 3c
       -0.023417855 0.002002842 -0.08264261 0.025965244
0001d0 7e 7e b4 bd 52 36 e3 3d 78 4e 1d 3d d1 c6 b6 3d
       -0.08813189 0.11094345 0.03840491 0.0892464
0001e0 49 2b cf bc 61 3f 94 bd 63 c5 4a bb 1d 1f c8 bd
       -0.025289195 -0.07238651 -0.0030940406 -0.097715594
0001f0 c6 2b 91 3c dd 13 ac bd b8 0d 24 3d 83 24 52 3c
       0.017721068 -0.08402226 0.040052146 0.012826088
000200 b0 a6 1a be de 2e fa 3c a8 bf 16 3b 57 07 e0 3c
       -0.15102649 0.030539926 0.002300242 0.02734725
000210 e0 35 82 3d 49 96 c4 bc fc 24 00 3d 0d 52 98 bd
       0.06357932 -0.023997443 0.03128527 -0.07437525
000220 b0 61 3e 3d 1b 77 11 bd f4 63 ae 3d 8a aa 2c bd
       0.04647988 -0.03551398 0.08515158 -0.042154826
000230 2f de 3b 3c 61 37 a5 bd 09 36 d3 3d 48 41 cb 3c
       0.011466547 -0.08067203 0.10313041 0.024811402
000240 b5 9b c8 3d b8 38 49 3d e0 bb 11 3e 02 16 9b 3d
       0.09795324 0.049126357 0.14231825 0.07572557
000250 62 6c fd 3d ea 2a ef 3c f7 6c ad 3d 50 f1 71 3d
       0.12374188 0.029195268 0.08468049 0.059068024
000260 31 ef a7 3d 97 25 4b 3d 2c 7d 6b bd dc 73 ee 3d
       0.08199919 0.049596395 -0.05749242 0.11643192
000270 41 cd 10 3e 0d d1 03 be 94 73 06 3e e6 68 09 bd
       0.14140798 -0.12872715 0.13130027 -0.033547305
000280 3f 86 58 3d 41 a6 44 bd 63 d3 3a bd c5 a5 a5 bd
       0.052862402 -0.048010115 -0.04561175 -0.08088259
000290 1a 91 49 3d 96 7f 23 be 8f 8a a8 bd fb 54 ce 3d
       0.049210645 -0.15966639 -0.08229553 0.100748025
0002a0 95 ba dc bd 4c c5 a2 bd 02 47 cb bd d1 61 83 3d
       -0.10777775 -0.07947788 -0.09925653 0.064151414
0002b0 d0 02 b2 3d 54 33 f0 3d d1 ed a2 bd 6a 03 6f bd
       0.08691943 0.1172854 -0.07955516 -0.058352865
0002c0 0f c7 fd bc bf 96 97 bd 6c 6e d9 3c 8f ac e2 bd
       -0.030978708 -0.074017994 0.026541911 -0.11068069
0002d0 6a 3b f1 bc a3 16 19 bd 1b 04 09 3e 67 a7 3a bd
       -0.029447276 -0.037375104 0.13380472 -0.045569804
0002e0 07 f3 0d 3e e8 01 29 bd b9 e0 c0 bb 86 1f 8c bd
       0.13862239 -0.041261584 -0.005886164 -0.0684195
0002f0 85 32 c7 3d d5 0c d1 bd 88 21 c1 bd c0 84 28 3e
       0.09726433 -0.10207526 -0.09430224 0.1645689
000300 a2 90 8e 3d f5 b6 2d bc 22 df 0f 3e c1 1b 99 3d
       0.0696118 -0.010602702 0.14049962 0.07475997
000310 ce 4f 06 3d 0e d1 e8 3a 76 8c 20 3c 6d 0b e4 3d
       0.03279095 0.0017762498 0.0097991135 0.11134992
000320 0b 18 e1 b9 d7 43 37 bd 87 f7 60 3d 74 d7 17 3e
       -0.00042933258 -0.04474243 0.05492356 0.14828283
000330 03 68 c1 3d 23 9b 4e 3d ac 50 1b 3d 1e 65 af 3d
       0.09443667 0.05044092 0.03791873 0.085642084
000340 d1 51 f0 3a 0d fb 3e 3c 34 17 d3 bc 13 f1 01 be
       0.001833493 0.011656535 -0.0257679 -0.12689619
000350 bd ee 0f 3e 16 84 c2 3d dc 9d 68 bd d2 9b 72 bd
       0.14055915 0.0949785 -0.05679117 -0.059230633
000360 c0 76 ae bd 8a b7 02 be 56 a5 09 3e cb 30 0c be
       -0.085187435 -0.12765327 0.13441977 -0.13690488
000370 62 78 80 3d d6 35 0d bd e5 ff 25 bc a5 e2 47 bd
       0.06272961 -0.03447517 -0.010131811 -0.04880013
000380 9c e3 9e 3d ef 84 9a bd 45 ad 44 3e d5 9b 19 be
       0.07758257 -0.07544886 0.19206722 -0.15000851
000390 1e 9f ca bd 12 d0 0e bd 5b 23 87 3c c3 c5 2c bc
       -0.098936304 -0.0348664 0.016496351 -0.010545197
0003a0 24 b7 26 bc 8d 6c e6 3d 88 e7 70 3c 37 82 b3 3b
       -0.0101755 0.11251173 0.014703639 0.0054781693
0003b0 ae 64 b1 bd 07 6b 98 3d 5c 19 9b 3d 1e 1f 52 3d
       -0.08661781 0.07442289 0.07573196 0.051299207
0003c0 85 79 85 3d 40 c4 09 3e c3 2e 8c 3c 5e 21 ea 3d
       0.06517319 0.1345377 0.017112141 0.114321455
0003d0 8d e4 d0 bd 7f 05 ce bd b0 73 69 3d d3 19 ab 3c
       -0.101998426 -0.10059642 0.056995094 0.020886337
0003e0 55 eb a0 3d d8 0b ff bd 71 df b6 bd e8 38 f3 bc
       0.07857386 -0.12453431 -0.08929337 -0.029690221
0003f0 dd ed e4 bd b9 68 9c 3d 5d e2 0a 3e fd 1d 27 bd
       -0.11178181 0.07637162 0.13562913 -0.040800083

encoder.2.bias f4 [128]
000000 09 d9 3d 3c e0 93 41 bd 51 04 f3 3c 24 3b 6e bc
       0.01158739 -0.047260165 0.029665144 -0.014540467
000010 5a ce e4 3c 4b 2d 1c bc 47 ea dc 39 fe b1 c0 3d
       0.027930427 -0.009532283 0.0004213622 0.09408949
000020 f3 72 0c bd c6 98 b9 bc 8b 1d 0b 3c 3c 81 f2 3c
       -0.03428931 -0.022655856 0.00849093 0.02960264
000030 af de 88 3c 30 cb ac 3a 01 80 76 bd 05 5a 97 bb
       0.016707746 0.0013183113 -0.060180668 -0.0046188855
000040 e1 43 8f bd 38 c9 76 3c cd 65 04 b8 c8 bc 61 3d
       -0.06995369 0.015062623 -3.156606e-05 0.055111676
000050 0a 6b 15 bc c7 0f cc 3c e9 14 fe 3c 0c 1e f9 bb
       -0.009119758 0.024909867 0.03101583 -0.007602459
000060 69 08 13 bc de 55 5d bc 85 85 bb 3c f0 a4 93 bc
       -0.008974173 -0.013509242 0.022890816 -0.018022984
000070 e1 34 0d bd 7f 74 16 3e ed 01 98 3c 00 cc 7c bb
       -0.034474257 0.14692877 0.018555606 -0.0038573742
000080 0e bb ad ba a0 2e 9e bc 49 7e 35 bd 20 43 bd 3b
       -0.0013254599 -0.019309342 -0.044309888 0.005775824
000090 83 7d 82 3d 09 14 a9 3c fc 22 23 3b 99 40 b7 bc
       0.06371596 0.020639436 0.0024892678 -0.02236967
0000a0 37 86 fa 3b 28 38 f0 3c dd f5 64 bb 40 c3 38 3d
       0.007645394 0.029323652 -0.0034936585 0.04510808
0000b0 9e 16 00 bd e2 18 8a bc 00 00 00 00 2e c1 ec 3c
       -0.03127157 -0.016857568 0.0 0.028900709
0000c0 0a 9d eb bb 20 b0 d1 bd 95 dc 73 bc ae 9a 98 bc
       -0.0071903514 -0.10238671 -0.014884134 -0.018628445
0000d0 15 61 22 bd 70 21 64 3a 82 63 b9 3c 64 28 89 bc
       -0.039643366 0.00087024923 0.022630457 -0.016742893
0000e0 4f 00 3e 3d 5d bc 5b 3c de 62 92 bc 12 3a b9 bc
       0.046387013 0.0134116085 -0.01786941 -0.022610698
0000f0 56 7a ff 3c 95 fc a7 bd 59 a1 9d 3d 30 a8 9e 3d
       0.031186264 -0.08202473 0.0769679 0.07746923
000100 09 e3 47 3d 12 99 95 bc 07 fa 55 bc aa 86 c0 3c
       0.048800502 -0.018261466 -0.013060099 0.023501713
000110 0f f2 a8 3b 2a e0 ee bc e5 a8 02 3d 04 ae 48 3d
       0.0051558088 -0.029159624 0.03189935 0.04899408
000120 ea ea 8c 3c e8 ad 3c bc de fa 37 3c 75 aa 82 3b
       0.01720186 -0.011516072 0.011229245 0.003987605
000130 63 0f f3 bc 6d 26 89 bc 13 62 6e bc 0b c0 50 bd
       -0.029670423 -0.016741956 -0.01454975 -0.050964396
000140 51 42 2f 3d 44 d7 e0 bb b4 5c bf 3b cf 5e dd bb
       0.042787854 -0.006861599 0.0058399085 -0.006755687
000150 e9 dd 2f 3d 2e 51 2d 3c 36 6a a7 3d ae b4 48 3c
       0.04293624 0.010578437 0.08174555 0.012250109
000160 e1 37 f4 3b d5 b7 2a ba 53 33 83 bd 5c 6c f3 bc
       0.0074529503 -0.00065123785 -0.06406274 -0.029714756
000170 1a d0 98 bb 02 9e 46 ba 4e b7 8d 3d c8 f7 f9 39
       -0.0046634795 -0.00075766456 0.06919728 0.00047677592
000180 ca 76 57 3c 20 71 2f bd c1 d3 80 bc 2f e5 4f 3d
       0.01315088 -0.042832494 -0.015725972 0.050755676
000190 ec 46 2b 3c 27 7f 98 bc bf dd 09 bc 97 e2 21 bd
       0.010453921 -0.018615318 -0.008414685 -0.039522734
0001a0 88 c2 83 3c a2 b6 0d bd 6c 11 52 bc db e4 b7 3c
       0.01608397 -0.034598 -0.0128215365 0.022447994
0001b0 e8 de 3c 3c 95 f1 56 3d 2d 21 cf 3c 97 41 85 bc
       0.011527754 0.052476484 0.025284374 -0.016266627
0001c0 7d 97 13 3a c7 c3 a4 bd 8e 29 63 bc 3e ec a4 bc
       0.00056301785 -0.08045154 -0.013864888 -0.02013218
0001d0 ea 31 d2 3c 4d 5e 2a bc 15 18 1d bd e2 65 d1 bb
       0.025658567 -0.01039846 -0.038353045 -0.006390319
0001e0 d1 48 94 bd 1a 05 b6 bc 53 60 3f bd 40 e7 09 3c
       -0.07240451 -0.02221923 -0.04672272 0.008416951
0001f0 86 28 2c bd 7c ad b8 3c 05 e4 4d 3d fb 2b 05 3d
       -0.042030834 0.022543661 0.050266284 0.032512646

encoder.4.weight f4 [128, 128]
000000 12 8c 44 3d 89 d2 9c bd 94 b4 0c 3e 51 f8 e0 3d
       0.047985144 -0.07657344 0.1374076 0.109848626
000010 8c 7d 2b bd a0 db e0 bd 21 ab 00 3e e8 68 19 3d
       -0.041867778 -0.1097939 0.1256528 0.037453562
000020 48 2b 4b bd fc 65 e5 bd a2 97 8c 3c f0 80 d4 3d
       -0.049601823 -0.112010926 0.017162148 0.103761554
000030 f4 f6 83 39 b6 84 09 be cd 7b b3 bd 17 09 bb bd
       0.00025170262 -0.13429531 -0.087638475 -0.09132593
000040 42 07 3d bd 53 07 55 3d 01 1a a4 bd b6 3f 1a 3e
       -0.0461495 0.052008938 -0.08012772 0.15063366
000050 3b 7a a3 3d e0 c7 da bd 4e 86 d0 3d af f8 4f 3d
       0.07982298 -0.106826544 0.101818666 0.050774273
000060 c2 6b 44 bc 50 2a fb ba db 91 13 3e 57 67 90 ba
       -0.011988582 -0.001916239 0.14411108 -0.0011017126
000070 33 f7 57 3b fc e3 b2 bd 2c 17 08 3e 98 a9 d7 3d
       0.0032953739 -0.08734891 0.1329009 0.10530394
000080 6b 59 be bc f4 e0 77 bd 36 12 3e 3c fa 8a 0b be
       -0.023235997 -0.060517266 0.0116010215 -0.13627234
000090 bb 93 55 bc b1 e5 e2 3c 59 4d aa bd 8f 1b b7 3d
       -0.01303571 0.027697416 -0.08315534 0.08940803
0000a0 d2 63 1d 3d 01 9e a3 3c 4b 29 dd 3d 08 9c 0d 3d
       0.038425274 0.019972803 0.10798892 0.03457263
0000b0 9e ed 2d bc 54 1e d2 bd 9a ab b8 bd 10 a5 dd 3d
       -0.010615734 -0.10259691 -0.090171054 0.10822499
0000c0 67 b9 25 3d 60 8b cb 3d 76 3f a5 3d 39 06 07 bc
       0.040460017 0.09938693 0.08068745 -0.00824123
0000d0 87 25 aa bd e1 73 82 bd 73 8c d4 3d 32 9c 9c 3d
       -0.08307939 -0.063697584 0.10378351 0.076469794
0000e0 36 01 ff 3d c3 ba 6e 3d bb 65 e3 3c d6 5d 53 bc
       0.12451403 0.05828358 0.02775847 -0.01290079
0000f0 75 10 5e 3d 3c 68 e9 bd 1b 4a 7d bd bc d0 ca bd
       0.054214913 -0.11396834 -0.06183825 -0.09903094
000100 25 56 cb bc ea be 78 3d 1b b9 c6 bc 5e f5 e1 3b
       -0.02482135 0.060728945 -0.024258187 0.006895705
000110 c8 0f 02 3e 3a b4 98 bc f6 a5 08 be dc 66 23 3d
       0.12701333 -0.018640626 -0.13344559 0.039893016
000120 5b 13 ed 3d 1e 66 60 bc f9 21 00 3c 6f e0 bc 3d
       0.115759574 -0.013696222 0.0078206 0.09222495
000130 a3 da 05 bc f6 4f a7 bd ed 84 07 be 70 25 8d bd
       -0.008169803 -0.08169548 -0.13234301 -0.06891906
000140 6d 22 05 3e 6a 76 07 bd 5f b8 a4 3d 84 31 2e bd
       0.13001414 -0.033071913 0.080429785 -0.04252769
000150 8d 84 01 3e fc d1 57 bd df 0c 1a 3d cd 53 d8 bd
       0.1264822 -0.05269049 0.03760993 -0.10562859
000160 cc 09 d2 bc 61 3a 03 3d b4 d9 bd 3d bc e5 dc bc
       -0.025639437 0.032038096 0.09270039 -0.026965015
000170 05 9d a4 3d b4 78 08 bd 3d b9 a0 3d a2 01 af bb
       0.080377616 -0.033318236 0.078478314 -0.005340771
000180 6d 4c 8f 3c 98 bb c9 3d 85 70 f0 bc 4a da 72 3d
       0.017492497 0.09850234 -0.029350528 0.059290208
000190 c3 96 a3 bc 82 18 fd bd 1d 71 57 bd ee 02 dc bd
       -0.01996935 -0.1235819 -0.052598108 -0.10742746
0001a0 5f 8f 84 3d 99 50 4c bc f7 57 26 3d 7a 3c 3e 3d
       0.06472658 -0.012470388 0.040611234 0.046444394
0001b0 e0 a0 b7 bd ea 2f c9 3c 0b 96 cb 3d aa d5 07 bc
       -0.08966231 0.02455898 0.09940728 -0.008290688
0001c0 58 bd 1e be cc 15 f9 3d eb d4 3e bc 9f 6f 00 3e
       -0.15501916 0.121623605 -0.011647443 0.1254258
0001d0 39 e8 b1 3d 7b 79 99 bd 1f fa a3 bd 9f 37 ff 3c
       0.08686871 -0.07493874 -0.08006691 0.031154452
0001e0 c6 54 05 be c7 14 0e be bd 9b 36 bd f4 9f 81 bd
       -0.1302062 -0.13875113 -0.044582117 -0.06329337
0001f0 7b 8d ce 3d a1 e4 88 bd f7 86 b6 3d f5 95 0b be
       0.10085579 -0.066842325 0.08912461 -0.13631423
000200 c6 20 ba bd e0 d2 ab bd 82 bd bc 3d 91 07 21 bb
       -0.09088282 -0.083898306 0.09215833 -0.002457116
000210 35 c4 f4 3d 57 7d e5 3d 65 95 0e 3e a8 d1 c0 3c
       0.11951486 0.11205547 0.13924177 0.023537472
000220 02 06 bf bd f8 cb 39 bd 20 28 cd bd 4d d7 00 3d
       -0.09327318 -0.045360535 -0.10017419 0.031455327
000230 a2 51 0c bd fc 75 28 3d 4d 06 35 3d e2 7b 4f bd
       -0.03425754 0.041128144 0.044195462 -0.050655253
000240 92 0a 0e 3d 44 92 7b 3d 59 7d 53 3d bd 44 26 3d
       0.03467805 0.061418787 0.051633213 0.040592898
000250 91 79 b7 3d 7b 39 7d bd c6 f7 f8 bd e4 bc 83 3c
       0.08958734 -0.061822396 -0.12156634 0.016081281
000260 19 3f 2e 3d e4 6b 28 bc b6 d0 08 bd c9 26 19 3c
       0.042540643 -0.010279629 -0.033402167 0.009347626
000270 a0 43 eb 3d 79 04 77 3d f1 51 3e bd 29 41 45 bd
       0.11487508 0.060307 -0.046464864 -0.048157845
000280 7a fd c5 3c da b5 f9 bd b6 5c 1a 3c f7 47 cd 3d
       0.024168719 -0.121928886 0.009421518 0.10023492
000290 51 a9 13 3e e0 d3 b2 bd cd 85 97 3d ed d3 b1 bd
       0.14420058 -0.08731818 0.07398567 -0.08683
0002a0 67 d6 ff bc 88 a6 cb 3d 93 5e 3b bd ce b1 d4 3d
       -0.031230165 0.09943873 -0.04574449 0.10385476
0002b0 61 2d 10 bd e9 78 49 3d 34 83 b3 bc 84 41 a3 3c
       -0.035199527 0.049187575 -0.021913148 0.019928701
0002c0 2e c8 ff 3d 82 8f 24 3d ab aa f5 bd 3d 18 9a 3d
       0.12489353 0.040175922 -0.11995443 0.07524154
0002d0 f2 82 da bc d5 16 13 bd ce bc e2 bd 7f 05 f6 3c
       -0.026673768 -0.035910446 -0.11071168 0.030031918
0002e0 69 4d aa 3d 4d d0 88 bd 53 11 42 3d 69 92 03 be
       0.08315546 -0.06680355 0.047379803 -0.1284882
0002f0 be c0 07 3e 32 82 04 3e f0 8f d1 bd ee 5b a6 bc
       0.13257119 0.1294029 -0.10232532 -0.020307507
000300 9b 03 64 bd 39 a6 6a bd b5 a7 d1 3d 8a 3c 77 bd
       -0.0556675 -0.05728743 0.10237066 -0.06036047
000310 b6 d1 de 3d 5a 79 15 3d 2b 90 04 be 1c db a1 3d
       0.10879843 0.036492683 -0.1294562 0.0790312
000320 81 7b b3 bd c0 da 93 3c fe b1 74 3d a5 ee a3 3d
       -0.08763791 0.018048644 0.05974006 0.08004502
000330 50 3c 3d bd f2 0b 97 bc 63 3e 0c 3d bc 32 76 bd
       -0.046200097 -0.018438313 0.034239184 -0.060106978
000340 d3 14 a5 bd f7 cc 33 bc ff 60 43 3c 83 53 5c bd
       -0.080606125 -0.01097416 0.011924981 -0.05379058
000350 0c be 19 bd 4d 08 62 3d b0 34 8d bb 1b 15 f3 bd
       -0.03753476 0.055183697 -0.0043092594 -0.1186926
000360 30 81 96 bd 70 36 86 3d 64 5a 44 3c db ff 8a ba
       -0.07348859 0.06553352 0.011984441 -0.0010604815
000370 e8 a5 e9 3d 90 40 0f 3e ef 77 91 3d 01 64 4b 3d
       0.11408597 0.13989472 0.07102954 0.049655918
000380 36 8e 12 3d c1 15 42 3b 4a 87 24 be 08 ba eb 3d
       0.035780154 0.0029615017 -0.16067234 0.11510092
000390 3c 05 4d bd 85 dc 92 bd 8a 2d da bd b4 81 85 bd
       -0.05005382 -0.07170967 -0.10653217 -0.065188795
0003a0 2d 34 b8 bd 67 03 99 3d 77 3d cc 3d 23 11 e7 38
       -0.08994327 0.07471352 0.09972661 0.0001101813
0003b0 1c 6a 01 3e 75 c7 e1 3d b6 88 1e bc 18 22 d4 bd
       0.12638134 0.110243715 -0.009676149 -0.10358065
0003c0 bf 89 df 3d a3 ca 23 3e ef 5c 28 bd c4 cc 06 be
       0.10914945 0.15995269 -0.041104253 -0.1316405
0003d0 f4 e0 02 3d 66 a3 b4 3d 2e e6 0a be ae fa 18 3e
       0.031952813 0.08820228 -0.13564369 0.14939377
0003e0 37 69 d6 ba 55 97 02 be 8b 4a e3 bd 8f 2a 6d bc
       -0.0016358261 -0.12753041 -0.11098202 -0.014475479
0003f0 11 6c 09 3e 72 62 b7 3d ce 83 2d 3d 8b a3 2a 3d
       0.1342013 0.08954324 0.042362027 0.041659873

encoder.4.bias f4 [128]
000000 b7 d9 11 3d e4 d4 f3 3c c4 d8 8a 3c 86 1c a0 3d
       0.03560802 0.0297646 0.016949065 0.078179404
000010 11 0f 15 bc 11 b5 6c 3c 8e 0d 7b 3c d6 07 9d bc
       -0.00909783 0.0144474665 0.015323056 -0.019168776
000020 af 6b 35 be 5e db a1 bc 11 39 a8 3d ac df 25 3f
       -0.1771686 -0.019757923 0.082140096 0.6479442
000030 c4 0c e5 bc 97 ab 55 bc 97 e5 83 3c 89 4f 30 bc
       -0.027960189 -0.0130413985 0.016100688 -0.01076115
000040 2e 0d e0 bb 4f 7d f5 3c ac 4f 3b bc 43 4e 56 bc
       -0.0068375086 0.029966978 -0.0114325695 -0.0130801825
000050 a2 15 b2 3c ec a5 8d bc a3 a1 92 bc f6 f6 13 3f
       0.021738831 -0.017291032 -0.01789934 0.5779871
000060 d1 bc 4d bc 57 fc 3d bd 05 fa 95 bc 3d 81 0e 3c
       -0.012557224 -0.04638323 -0.018307695 0.008697805
000070 0c 13 a6 bc 5b 0c a0 3d a2 6e 03 3d 9d f2 58 bc
       -0.020272754 0.078148566 0.03208793 -0.013241437
000080 97 38 b0 3c 29 55 69 3b ef bd b8 3c b0 4d dd bc
       0.02151136 0.0035603738 0.022551505 -0.027014583
000090 52 dd 3a bc 7f 78 12 3d 5d e9 35 bc 17 e4 e4 bc
       -0.011405306 0.035759445 -0.011103001 -0.027940793
0000a0 b7 26 44 bd fb d4 9c bc e8 4d bf bd aa c3 08 3c
       -0.047888484 -0.019144526 -0.09341031 0.008347431
0000b0 8a 97 73 bc 5b bf 36 bc 58 73 4d 3c 5b 3a 09 3d
       -0.014867673 -0.011154021 0.012539707 0.033502918
0000c0 58 8a 48 bc 5a 0f e6 bc 15 7c c7 3a 0f 3f e9 bb
       -0.012240015 -0.028083492 0.0015219474 -0.007118113
0000d0 63 00 7b bb 66 0e 5b 3d 11 4c 85 bc b8 ab 3a bd
       -0.003829979 0.05348053 -0.016271623 -0.04557392
0000e0 c5 6e 0f 3c 9d 41 92 bd e1 f0 6b bb 3e 87 de 3c
       0.008754437 -0.07141421 -0.003600173 0.027164098
0000f0 25 f8 51 3d 2c 09 be bc 46 c5 f8 3b 9b ab 8e 3c
       0.05126204 -0.023197733 0.007591876 0.017415812
000100 6e ab 75 bd 51 76 47 3c 9e 0d 37 3b a8 a3 1f bd
       -0.05997794 0.012174205 0.00279317 -0.038974434
000110 51 05 2c bd d1 43 72 3b 11 a7 9e 3c 20 e6 dd 3c
       -0.041997258 0.0036966691 0.019366773 0.027087271
000120 1e e1 6e 3c 5a 30 02 bc ed 8d 60 3d e9 42 23 bd
       0.014580039 -0.007946098 0.05482285 -0.039858732
000130 f6 51 85 3b b7 21 77 bc 36 71 8a bc 26 e6 4a bc
       0.0040686084 -0.015083722 -0.016899686 -0.012383973
000140 c3 52 41 bd 19 28 4e 3c 3e 19 0e 3d 56 8a 8a bd
       -0.04719807 0.012582802 0.03469204 -0.06764667
000150 0a b6 e4 bd 45 61 54 bc b9 bd 96 bc b5 35 a8 bc
       -0.11167534 -0.012962644 -0.018401014 -0.020533422
000160 96 34 0d 3b 5c 9e 43 3e c2 64 b3 ba cf 22 39 3c
       0.0021546236 0.19103378 -0.0013686644 0.011299803
000170 0b e2 10 3c 19 1f d9 3c 22 45 e7 3c e2 bf 7c bd
       0.008842955 0.026504086 0.028231207 -0.06170643
000180 98 51 86 3d a3 bc 69 bb e5 0a 1e bd c4 dd 3a bb
       0.065585315 -0.0035665415 -0.03858461 -0.002851353
000190 40 73 88 bc e1 12 1f 3d 2c 5c 2b bc 30 d1 b2 bc
       -0.016656518 0.038836364 -0.010458987 -0.021828264
0001a0 50 a7 2e 3a 8d 8a c9 bc e7 00 da 3c 00 00 00 00
       0.0006662505 -0.024602199 0.026611758 0.0
0001b0 9a eb 3e 3c 60 fe 89 3c cc d3 d9 3b c1 52 98 3c
       0.0116528515 0.016844928 0.0066475626 0.018594148
0001c0 5b 03 63 bc de 38 b4 3b 59 21 af bd 53 3d 07 3d
       -0.0138557805 0.005499943 -0.085512824 0.033017468
0001d0 a3 b1 09 3d 70 dc c4 bb 00 00 00 00 3c 31 66 3c
       0.033616673 -0.0060077235 0.0 0.014049824
0001e0 b0 46 52 3d 4a 32 a2 bc 88 46 85 bc 96 6a 83 bd
       0.051336944 -0.01979937 -0.016268983 -0.06416814
0001f0 e3 6c ad 3d 48 d3 04 3d b4 e5 dd 3c 6a fb 73 bd
       0.08468034 0.032428056 0.02708707 -0.05956594

encoder.6.weight f4 [128, 128]
000000 0c f7 9f bd 11 f6 dc bd 1b 8f a4 bd d6 64 a9 3d
       -0.07810792 -0.10789121 -0.08035108 0.08271186
000010 52 ea 3b 3a d3 64 4b be f2 48 af 3c 6d ff 15 bd
       0.00071684003 -0.1986268 0.021397088 -0.036620546
000020 be fd 8e 3e a9 ac 13 be e4 c8 c8 bd c4 49 1a 3e
       0.27927965 -0.14421333 -0.09803942 0.15067202
000030 9e 81 c0 3c b5 d1 4c bd ec 6b 67 be 26 9a 19 3d
       0.023499306 -0.05000468 -0.22599763 0.037500523
000040 53 55 23 3e 1c 32 27 3b ea 1e bc 3d d5 79 a8 3d
       0.15950517 0.0025512045 0.09185584 0.082263626
000050 98 5c bd 3c cf d1 d5 bd f5 c1 3d 3d 99 c3 88 3e
       0.023115441 -0.104404084 0.04632755 0.2671173
000060 44 eb 81 3d 8f 0b 04 3e 14 6b 07 be cb 7d d1 3c
       0.063437015 0.12895034 -0.13224441 0.025572678
000070 b8 b4 53 bd 31 86 1d be 45 9b be 3d ad 35 95 bd
       -0.05168602 -0.15383221 0.09306959 -0.072856285
000080 7c 5b 0e bd 0f 95 5a bc bf 6e 1f bd b3 ca 9c 3d
       -0.034755215 -0.013341202 -0.038923975 0.07655849
000090 b6 47 c3 3d dc 49 ba 3a a4 d6 08 be e8 9a 61 bd
       0.09535162 0.0014212686 -0.13363129 -0.05507937
0000a0 7c 2c 3c 3d e6 ed f5 3d ba 9a 93 bc 3b 2e 5c 3d
       0.04594086 0.12008266 -0.018018115 0.053755026
0000b0 51 47 d3 bd 46 54 c7 3c b0 52 06 3e 97 c8 02 3c
       -0.10316337 0.024332177 0.1311748 0.007982395
0000c0 26 c2 18 be 32 d2 bc bd 62 50 51 3c f2 93 b4 3d
       -0.14917812 -0.09219779 0.012775512 0.08817281
0000d0 78 bb e6 bc ff 2f 15 bc a3 c8 d2 3d 37 cc 0b 3e
       -0.028165564 -0.009105681 0.10292175 0.1365212
0000e0 de 48 23 bd 97 3e 29 3d 95 93 fd bd d8 c0 89 3d
       -0.039864413 0.041319456 -0.12381665 0.06726235
0000f0 01 fd f9 3d a0 62 cd 3b 34 f1 03 bd 91 05 24 3d
       0.1220646 0.0062678605 -0.03221245 0.04004437
000100 16 5a 5f 3d df 6c a5 bc 92 78 b9 3d 7f af 5e bd
       0.054529272 -0.020193515 0.090562 -0.054366585
000110 e1 80 a3 3b 57 53 36 3c 0e e8 dc 3c 41 c3 a2 bd
       0.004989729 0.011128268 0.026966121 -0.07947398
000120 6c 14 0c 3e 04 36 2c bd 11 34 68 3d a8 3a 58 bd
       0.13679665 -0.0420437 0.05669028 -0.052790314
000130 69 d4 04 3e 37 99 a1 bd 49 e0 c0 bc a6 84 6d 39
       0.12971653 -0.078905515 -0.023544447 0.00022651497
000140 8c fb 98 bd 5b 11 8f bd 65 92 58 3d db 3a a5 3d
       -0.07469854 -0.06985732 0.052873988 0.080678664
000150 e6 b0 cf 3d 21 fa e0 bc 18 dd 97 3d 55 d0 ad bd
       0.101411626 -0.02746302 0.07415217 -0.08487002
000160 5d a4 5c 3e 79 95 0a be 68 47 33 3c 73 51 21 3e
       0.21547075 -0.13533582 0.010942318 0.15753727
000170 bb 95 95 3d 27 03 d3 3c db db 84 3c 7b c8 d9 bd
       0.073039494 0.02575834 0.016218117 -0.10633942
000180 2f 63 8d 3d 89 75 0c 3e 8d 98 a1 3c 2b 2c fa 3d
       0.069036834 0.13716711 0.019726062 0.122154556
000190 28 4a f4 bd 70 01 6e 3e cf 3f 16 3e 8c 60 b2 bc
       -0.11928207 0.23242736 0.14672779 -0.021774553
0001a0 d6 b2 ae 3d ee 71 b0 3d 12 17 39 3d af b6 9d 3d
       0.08530204 0.0861548 0.045188017 0.0770086
0001b0 42 b8 18 3e 3a b3 01 3e ce fe ab bd 34 fd 3d bc
       0.14914039 0.12666026 -0.083982095 -0.011596013
0001c0 52 11 9f bd 76 cb c6 3d 6d c5 24 bd 72 1d 8d bd
       -0.077669755 0.09706776 -0.040227342 -0.06890382
0001d0 3f 6c 0f 3d 2f 36 bf bc ef 2d d2 3c 08 89 9e 3d
       0.03501534 -0.023341266 0.025656668 0.077409804
0001e0 78 38 d7 3d cc 62 91 3d 90 53 55 bc f0 26 d9 3d
       0.105088174 0.07098922 -0.013020411 0.1060313
0001f0 67 ed 17 3c 79 35 d7 3c e8 19 b4 bc b4 c0 e5 3d
       0.00927291 0.026270615 -0.02198501 0.11218396
000200 e2 53 17 be 60 74 c2 bd 29 eb d8 bd 89 a0 54 bd
       -0.14778093 -0.09494853 -0.10591728 -0.05191091
000210 45 49 8e bd ac 9a 85 3d 3d 13 c4 3c 05 2c 36 3d
       -0.06947569 0.06523642 0.023934955 0.044475574
000220 fe 11 dd bd 57 8c 03 bd 45 6f da bd 54 67 06 3c
       -0.10794447 -0.03211626 -0.10665754 0.008203346
000230 d4 72 ba 3d 55 c5 04 3e 02 40 88 3d 0c ea fd bd
       0.09103933 0.12965901 0.066528335 -0.123981565
000240 d3 ee 50 3d aa ca 9a 3d c7 2f 52 3d 6b 98 08 be
       0.05100901 0.07558186 0.051315095 -0.13339393
000250 dc d1 ab bd a4 76 b4 3b ae 04 ec bd ab aa 5a bd
       -0.08389637 0.005507307 -0.1152433 -0.053385418
000260 94 79 ae 3c ac 22 9d bd b8 79 89 3d d5 7d ce 3d
       0.021298207 -0.07672629 0.06712669 0.10082594
000270 ff f4 27 bd eb 11 84 bc b8 8c 9b bd 98 76 ba bc
       -0.04100513 -0.016121825 -0.07595199 -0.022761628
000280 c6 41 74 3d c7 25 bf 3b 29 c2 2d bc 6c fe 37 bd
       0.05963304 0.005833361 -0.010605373 -0.04492037
000290 92 f6 ee bd 14 41 a0 3d 60 d6 0e be a6 fb d2 3d
       -0.11668123 0.07824913 -0.13948965 0.103019044
0002a0 59 b1 2c 3d a5 70 cb 3d f1 c2 00 bc 05 d1 26 bd
       0.04216132 0.099335946 -0.007858978 -0.04072668
0002b0 1d 72 5c 3c 38 f2 72 3d ea b8 21 bd 4c ec ad bd
       0.013454941 0.05931303 -0.03948299 -0.08492336
0002c0 cc e2 53 3d da c4 aa bd 62 df 9d bd 7f 12 12 3d
       0.051729962 -0.08338328 -0.077086225 0.03566217
0002d0 ca d2 b5 bd dd 08 f2 3c e3 7d e2 3d 2a 90 8c bd
       -0.088780954 0.029545242 0.11059167 -0.068634346
0002e0 50 cd 1c 3d e6 37 a1 bd d3 28 6d 3c ec 2d 1b 3d
       0.03828174 -0.0787199 0.014475065 0.03788559
0002f0 1d 2d 0f be e0 af 80 3d c4 e4 8e bd da 28 7e 3d
       -0.13982053 0.062835455 -0.06977227 0.062050678
000300 e3 18 fc 3c 92 96 6d bd ab 62 57 3d 33 e7 0b be
       0.030773586 -0.058004923 0.05258433 -0.13662414
000310 d3 45 b5 3d 6b 4a 97 3d 7f 0d 0c 3e 01 ec 18 be
       0.088512085 0.07387241 0.13677023 -0.14933778
000320 3e 8d 8b 3d 84 81 f4 bd 7d bd fb 3b 14 1c cc bc
       0.06814049 -0.11938766 0.007682501 -0.024915732
000330 4c 40 92 3b 2c e4 96 3d 1d 37 f3 3c b5 51 30 ba
       0.004463231 0.07367739 0.029689366 -0.00067260425
000340 5e 7c 9c bd 03 fb 7b bc 29 05 a1 bd 88 3f ff bd
       -0.07640909 -0.01537967 -0.07862312 -0.124632895
000350 56 c7 b2 bb 17 c7 a3 bd 72 84 bb bb 6c 51 9a 3c
       -0.0054558916 -0.07996958 -0.005722576 0.018837653
000360 9c a4 fc bd 9f 67 4a bd cc 8a 4e 3c c0 b5 44 3d
       -0.12336084 -0.049415227 0.012606334 0.048024893
000370 0e 18 e2 bd 1d 43 b1 bd 6f b2 97 3b 89 b9 57 3d
       -0.11039744 -0.08655379 0.0046294252 0.052667174
000380 99 9b b8 bc 82 e4 0e bc 2b 4c cf 3d 49 2c 2c bd
       -0.022535132 -0.008721473 0.1012195 -0.04203442
000390 cd 91 d7 3c cc da b9 bd 48 69 8d 3b f3 e6 d5 3d
       0.02631464 -0.09074935 0.004315529 0.10444441
0003a0 ef 3a 60 3d 3a 2f f5 bd 62 31 a0 3c 87 77 5b 3c
       0.054743703 -0.119718984 0.019554798 0.013395197
0003b0 d0 8c e7 3d 73 3d fa bd ce 4c de 3d f7 43 1b be
       0.11306155 -0.12218752 0.10854493 -0.15162645
0003c0 fc dc 9e bc 68 48 a2 3d 1e 9d 0b be 39 88 d3 bd
       -0.019392483 0.07923967 -0.13634154 -0.10328717
0003d0 ab 34 f4 bc a2 1f 1f be 79 b3 ca 3d 13 9e 02 3e
       -0.02981027 -0.1553941 0.09897513 0.12755613
0003e0 92 8c 17 be a0 20 c2 bd 07 d5 1b be b5 a2 f6 bd
       -0.14799717 -0.09478879 -0.15217982 -0.12042753
0003f0 5a aa 7e 3d d6 4e 0a be 3e 92 c4 3d ad 57 26 bd
       0.06217418 -0.13506636 0.09598206 -0.040610958

encoder.6.bias f4 [128]
000000 77 10 8c 3d 0a 41 d1 bc b2 61 57 3d 32 49 88 bc
       0.06839078 -0.025543708 0.052583404 -0.016636465
000010 cc fa da bb 69 93 0c 3d c0 19 d9 bc d4 29 db 3c
       -0.0066827293 0.03432027 -0.026501536 0.026753344
000020 f7 4a d8 3c 5b ad af 3d 91 cf 0a 3c 2e 1c 9e bc
       0.026402934 0.08577987 0.008472339 -0.019300546
000030 a3 bc 56 bc 07 f1 b0 bb 2f c1 b2 3c e6 79 90 bb
       -0.013106498 -0.0053998264 0.021820633 -0.0044090627
000040 e0 16 4c bc 48 3f a4 bc fa 4e 71 bc a3 3b 12 3d
       -0.012456626 -0.020049706 -0.014728302 0.035701405
000050 2d 28 92 bb 15 71 2a 3d 9f 80 84 b9 5e fe 64 3d
       -0.0044603557 0.04161175 -0.00025272832 0.055906646
000060 d3 d4 cf bc 0f fe dd ba a8 a1 53 3e f6 d4 c5 bc
       -0.025370037 -0.0016936677 0.20667136 -0.0241494
000070 4e 49 92 3d 0b af 0b 3d 94 a9 e6 3e 40 56 bf 3c
       0.07142888 0.03410248 0.45051253 0.023356557
000080 94 85 40 bd 38 a4 0f bd 37 c5 23 3c 1d 07 37 bd
       -0.04700239 -0.03506872 0.00999575 -0.044684518
000090 ea 79 6b bd 08 9e 36 bc 60 af 15 3c f4 d3 5b 3d
       -0.057489313 -0.011146076 0.009136051 0.05366893
0000a0 5c c4 61 bc a7 04 25 3b 04 e1 9a 3e 07 14 b8 bb
       -0.013779726 0.0025179775 0.30249798 -0.005617622
0000b0 04 37 d2 3b c3 0b a4 39 24 8b 82 3d 4c 35 1d bc
       0.00641525 0.0003128928 0.06374195 -0.0095952265
0000c0 24 c3 b3 bc bf e9 46 3d 2a e7 de 3c 68 ec 15 bd
       -0.021943636 0.04856276 0.027209837 -0.036602408
0000d0 a7 2c 8c bc 9e a1 84 bb d6 47 1a 3d b7 a8 36 3c
       -0.017111136 -0.0040475866 0.037666164 0.011148623
0000e0 77 f1 39 bc 7f 8d 2d 3d 82 63 9e bc ee be 9d bd
       -0.011349074 0.04237127 -0.019334558 -0.077024326
0000f0 88 16 d2 bc e8 c7 3f bb cf 5c 0f bc bc 06 24 bc
       -0.02564551 -0.002926344 -0.008750155 -0.010011371
000100 a4 7f e4 bc ef 63 a4 bc ff f5 98 39 7c 3c a0 bc
       -0.027892895 -0.020067183 0.0002917498 -0.019560091
000110 85 38 9a 3c 58 dd 7c 3c 8c d6 3e 3b 45 3f 0b 3d
       0.018825779 0.015433632 0.002911958 0.033995885
000120 23 8b 12 3c f7 75 a2 3c 68 83 de bc f4 6b 35 3d
       0.008944306 0.01983164 -0.027162269 0.044292405
000130 e5 ed 35 bd a0 4c 5e 3a 74 26 dc 3c b4 24 ad 3c
       -0.044416327 0.0008480046 0.026873805 0.021135665
000140 e6 aa 95 bc 1d 5c f6 3a 56 72 b9 bc 41 1e c8 3d
       -0.018269967 0.0018795762 -0.022637527 0.097713955
000150 34 52 ba bc 75 be 2a 3d d3 e5 ea 3b 61 19 44 3b
       -0.022744276 0.04168554 0.0071685105 0.0029922354
000160 d2 44 a1 bd 6b 3d b9 3c 8a 8b 95 3c ed 43 40 3c
       -0.078744546 0.022612294 0.018255014 0.011734945
000170 a0 a7 69 3c 7f c5 cc bc a9 55 b4 3d 15 53 2e 3d
       0.014261156 -0.024996517 0.08805401 0.042559702
000180 11 09 06 bb d3 98 f1 bb 35 5e 39 3b 7a a0 1a bd
       -0.0020452181 -0.0073729544 0.0028284912 -0.0377507
000190 c9 9a 05 3d 71 98 cd 3d cf 40 17 3a 69 10 4b 3d
       0.032618318 0.100388415 0.000576985 0.049576197
0001a0 4d 12 c1 bc 2c de 05 bc e9 c4 84 3c c0 41 9a bb
       -0.023568297 -0.008170646 0.016207175 -0.004707545
0001b0 fb 89 0b bd d3 83 10 bd 83 29 7d 3b df ca a3 bc
       -0.034067135 -0.035281967 0.003862948 -0.019994197
0001c0 01 0b 9c 3b 91 15 c2 3d e1 83 eb 3c a7 99 9b 3d
       0.004762054 0.0947677 0.028749408 0.07597666
0001d0 f6 b5 d0 bc 42 ba 08 3e 79 9c 74 bc 94 79 5a bd
       -0.02547739 0.13352302 -0.014929884 -0.053338602
0001e0 1e 95 ac bc 8f 3c 55 3d 13 12 fa 3c 4b a2 0b 3d
       -0.021067198 0.052059706 0.030526197 0.03409032
0001f0 09 f5 a7 3c 37 cd 97 bc 0c 61 82 bc c9 33 da bc
       0.020502584 -0.018530471 -0.015915416 -0.026636021

encoder.8.weight f4 [8, 128]
000000 97 f1 99 bd 2c e1 05 3e 99 2d 08 3d 7e fc 54 bc
       -0.07516783 0.13074178 0.03324661 -0.012999652
000010 08 84 34 3e b0 50 e6 bd 5d 8f e5 bd 3b 01 e9 bd
       0.17628491 -0.11245859 -0.11208985 -0.11377188
000020 a3 18 26 3e 48 59 7e 3d 26 d9 1e 3d 8f ca 8d bd
       0.16220336 0.062096864 0.038781308 -0.069234006
000030 9d 80 1f bd bf a0 19 3e 7e ee d7 bd 3d 0e 11 3e
       -0.038941015 0.15002726 -0.10543536 0.14165588
000040 3a d1 d4 3d 46 b5 2d be f9 12 c9 3d 17 21 cd bc
       0.10391469 -0.16963682 0.09818072 -0.025040193
000050 f4 d6 32 be d1 79 21 3e 94 7e b6 bd e3 59 2b bd
       -0.1746481 0.15769126 -0.089108616 -0.04183377
000060 52 2d 11 3c 9d 72 5e 3d 91 68 e5 3c f3 bc 0a 3e
       0.008860903 0.054308522 0.028003963 0.13548641
000070 e5 bf f4 3d e7 12 4b 3d 7d a7 92 3d c9 90 36 be
       0.119506635 0.049578574 0.07160852 -0.17828669
000080 db ce d7 bd 56 0a e8 bd 47 5a 06 be 2b 61 c5 bd
       -0.105375014 -0.113300964 -0.13120376 -0.09637674
000090 7c 2e 07 be 74 65 cf 3d 44 84 05 3e 2b 6b b8 3d
       -0.13201326 0.101267725 0.13038737 0.09004816
0000a0 f1 1b 25 3d e0 72 bb ba 1e 73 8c bc 84 76 22 3e
       0.04030985 -0.0014301203 -0.017144736 0.15865523
0000b0 be 0e 1f 3e 36 a9 0a be 5a 12 b7 bd c9 5d e7 bc
       0.15532967 -0.13541111 -0.08939047 -0.028242962
0000c0 b7 81 8c bc c6 33 9d 3c 1e c0 9f 3d 73 76 14 be
       -0.017151697 0.019189727 0.07800315 -0.1449831
0000d0 00 db 34 3d 69 62 44 3d f7 7d 36 bd 73 b9 d8 bd
       0.044154167 0.047945414 -0.044553723 -0.10582247
0000e0 d6 b0 eb bd eb 61 a5 bd b5 b6 ac 3d b5 23 a8 3d
       -0.11508338 -0.08075317 0.08433286 0.082099356
0000f0 c5 4c fa 3d 5a 46 99 3d 61 d8 1f be b3 04 55 bd
       0.12221674 0.074841216 -0.15609886 -0.052006435
000100 47 be 8b bd 83 a1 39 3e b5 fe c0 bd a3 2b 71 bb
       -0.06823402 0.18128018 -0.094235815 -0.003679969
000110 b3 26 1a 3c 85 4c 45 3e 41 d7 ed bd c7 a5 f8 3d
       0.009408641 0.19267471 -0.11613322 0.121409945
000120 50 d6 00 be 78 95 1f 3e 53 dd 35 3e 98 6b 0a 3e
       -0.12581754 0.15584362 0.1776021 0.13517606
000130 4b b1 d3 3d 67 67 e7 3d 90 9a 6b bd c8 5e 89 bd
       0.1033655 0.11299019 -0.05752045 -0.06707531
000140 35 56 23 be 26 38 7c 3d c8 fa 1b be ac b5 b2 bc
       -0.15950854 0.061576985 -0.15232384 -0.021815144
000150 b5 cc c0 bd a9 28 9b bc 66 dd bf bc f6 22 01 3e
       -0.09414045 -0.018940287 -0.023421 0.12610993
000160 0c 0b 32 bd d0 03 52 3d e2 ad 81 bd db 97 59 3d
       -0.043467566 0.051273167 -0.06331994 0.053123336
000170 9d 19 0c be b6 8f ad 3c 84 0e 71 3c 17 6b da bd
       -0.13681646 0.02118669 0.014712933 -0.10664957
000180 53 45 1e be 1e 36 b6 3d c1 74 2f 3e f0 66 82 3c
       -0.15456133 0.08897041 0.17134382 0.015918225
000190 42 0d 0f 3e 0e 4d 95 3d b1 5e 1c 3e 5e 1b aa 3c
       0.13969901 0.07290088 0.15270497 0.020765003
0001a0 68 d9 13 be 1d 81 32 3d 12 83 29 be b8 e4 02 bd
       -0.14438403 0.043580163 -0.16553906 -0.031956404
0001b0 7e f2 03 3d 48 ac ad bc a0 0a 30 3d a0 4d a6 bd
       0.03221368 -0.021200314 0.042978883 -0.081202745
0001c0 0c 97 d9 bb 7d e0 65 bc d9 69 9a 3c 02 84 f5 3c
       -0.0066403206 -0.014030573 0.0188493 0.029970173
0001d0 38 76 b5 bd de 3c 53 3c dd 60 2b 3d ed 8c 79 3d
       -0.08860439 0.01289293 0.041840423 0.060925413
0001e0 9c 67 bb 3d 0e 20 19 3e 1e 92 ba bd ae 20 ce bd
       0.09150621 0.14953634 -0.09109901 -0.10064827
0001f0 21 1a e1 bd 11 26 90 bc d2 da 24 3d b0 d0 14 be
       -0.10991312 -0.017596276 0.040247746 -0.14532733
000200 be 82 4c 3c 1e 96 b1 bd 40 46 4a 3e 11 4d 43 3e
       0.012482343 -0.08671211 0.19753361 0.19072367
000210 c4 d8 62 bd ea de 04 3e 85 2b 16 3e 6d 34 31 bd
       -0.055382505 0.1297566 0.14665039 -0.043262888
000220 4a c3 6f 3d 2d f5 a8 3d ba 73 0e 3e 80 d1 b0 bd
       0.05853585 0.082498886 0.13911334 -0.08633709
000230 c2 97 87 bd 85 b1 4e 3c 60 ed 8b bd 39 da 1d be
       -0.066207424 0.012615566 -0.06832385 -0.15415277
000240 21 95 b7 3d 1b 8d 09 be a3 63 c1 3d 5f e3 90 be
       0.08963991 -0.13432734 0.09442832 -0.2829847
000250 5d 9b 9f 3d 4d c5 34 be 5f 31 12 be e9 0c 8e bc
       0.07793305 -0.1765339 -0.14276646 -0.01734014
000260 f6 94 56 bd df 98 0a be 25 4c 8c 3c 28 26 b0 3d
       -0.052388154 -0.13534878 0.017126152 0.08601028
000270 26 d6 25 be 7c c4 0d 3e 9f cd b1 3c 12 e8 21 be
       -0.16194972 0.13844484 0.021704493 -0.15811184
000280 5e a7 a6 3d 24 ee 3f be 9e 8f dd 3b 99 a7 32 3e
       0.081373915 -0.18743187 0.0067615053 0.17446746
000290 0c d8 99 bd 9a 53 de 3d d7 de 0a bd 60 82 55 3e
       -0.07511911 0.108557895 -0.033903923 0.20850515
0002a0 78 42 24 3e f9 c7 22 3e 13 2b 7c bd f8 89 be bd
       0.16040981 0.15896596 -0.061564516 -0.09303659
0002b0 27 3c ee bc 6f d8 d7 3d be 03 c5 bd f6 e5 ee 3d
       -0.029081417 0.10539328 -0.096198544 0.11664955
0002c0 54 fa e9 bd bc e6 7b bd 37 b6 be 3d ca 8e d5 3d
       -0.114246994 -0.061499342 0.093120985 0.104276255
0002d0 96 88 e6 3c 44 21 5a 3e 40 09 c7 3c a6 fd d4 3c
       0.028141301 0.21301752 0.024296403 0.025999855
0002e0 55 47 03 be bd cc dc 3d 9e 51 82 bd ba 85 29 bc
       -0.1282018 0.10781238 -0.063632235 -0.010346824
0002f0 d7 f5 58 bd ac 47 07 be d0 1f f6 3d 1b 6b c5 3c
       -0.052968826 -0.13210934 0.120177865 0.024098923
000300 e1 24 42 bd 1f 0a e0 3d 0f c9 fd 3d ad 7b 4a be
       -0.04739845 0.109394304 0.123918645 -0.19773741
000310 ff c6 77 3e 17 87 08 3d 79 87 31 3e 62 23 27 3e
       0.24197005 0.033331957 0.17336835 0.16322091
000320 86 2c 5c be 09 c2 93 bd c3 38 76 bd 9f 99 d4 3d
       -0.2150136 -0.07214744 -0.060112726 0.103808634
000330 02 cf 39 3c 4a 4c 08 3d b2 5a 6d 3d ad ac 06 3e
       0.011340858 0.03327588 0.057947822 0.13151808
000340 94 3f d5 3b 69 c9 14 be 69 0f 92 3d b8 91 8f 3d
       0.0065078232 -0.14529957 0.071318455 0.070102155
000350 57 91 77 bb f6 93 39 3e ce ba 10 3d 43 d3 c5 3d
       -0.0037775838 0.18122849 0.0353344 0.096594356
000360 ff 6d d7 be f4 2e ed 3d 0e 96 5e be 00 46 0a be
       -0.42076108 0.11581221 -0.21736929 -0.13503265
000370 80 34 33 be 4c 98 51 bd 87 cd 26 be fe 6b e4 bd
       -0.17500496 -0.051170632 -0.1628934 -0.111534104
000380 a2 62 76 3d 5b 71 0f 3e 66 03 9c bd 33 83 9d bd
       0.060152657 0.14008085 -0.07617836 -0.0769104
000390 60 f0 e8 3d de df 7a be 48 38 f8 bb 91 16 0c 3e
       0.11373973 -0.24499461 -0.0075750686 0.13680483
0003a0 2b 9e 85 bd a9 eb 4c 3e 96 48 3c be 26 5e 17 be
       -0.06524309 0.20011772 -0.18387064 -0.14782009
0003b0 da 53 cf bc 02 d2 25 be 23 b4 8c be 5d 77 95 3d
       -0.025308538 -0.16193393 -0.27481183 0.07298157
0003c0 89 a9 2b bd 08 21 46 bd 47 66 01 3e 70 01 fd 3d
       -0.04190973 -0.048371345 0.12636672 0.1235379
0003d0 21 f1 30 be 3a 58 ad 3e 73 3c 89 3d b3 a6 d0 3c
       -0.17279483 0.33856374 0.06700983 0.025470113
0003e0 4d ad 83 3d b4 60 60 be 04 ce 43 3d ab ba 22 3e
       0.06429539 -0.2191189 0.047803894 0.1589152
0003f0 b3 e4 92 be 61 e1 17 bd 9f 08 96 3c e7 92 a0 bd
       -0.2869011 -0.037080172 0.018314658 -0.078405194

encoder.8.bias f4 [8]
000000 6b bb 4f 3c ca 18 a1 3c b0 30 ef 3b 6e 91 e3 3c
       0.012678961 0.01966514 0.007299505 0.027779307
000010 f8 d1 6e be 6d bc 08 be 6b 9e 5c be a2 8b 41 be
       -0.23322284 -0.13353129 -0.21544807 -0.18900922
