models/y01vae_dim_32_banana.pt (torch, 487718 bytes, 22 tensors)

encoder.0.weight f4 [128, 32]
0.047296535 -0.0859763 -0.013593276 0.03827785 -0.01575386 -0.091315724 -0.029297117 -0.11145774
0.006445372 0.07906737 0.057200897 0.027973304 -0.04748077 -0.040734228 -0.020644654 0.05963678
0.045532417 0.032276224 -0.025461992 0.11809584 -0.10204825 -0.05305383 0.0048631867 -0.05460662
-0.028043585 0.14001246 -0.069789454 0.017946534 0.014606041 0.05832563 -0.030228302 -0.08753056
0.058698997 -0.101092786 -0.017458834 0.04802903 -0.022364473 -0.12320062 -0.03648468 -0.14658295
0.010232281 0.09833133 0.072468415 0.03968343 -0.06394413 -0.06423925 -0.026972001 0.08557907
0.04828771 0.050656796 -0.036518246 0.15444078 -0.13224825 -0.060639698 0.005286992 -0.06576458
-0.03393833 0.17758882 -0.08603122 0.030043734 0.018518845 0.0773112 -0.037653986 -0.11087056
0.045148462 0.05437135 -0.041803565 -0.09543394 -0.058538858 -0.00086872303 0.047555145 0.02408414
0.08244066 -0.013233692 0.010229036 -0.15268123 -0.0034743992 0.00783177 -0.0020230894 -0.025896944
0.03583888 -0.16262183 -0.036145255 -0.091273814 0.028572269 -0.034585856 -0.042541746 -0.023202121
-0.051859614 -0.054614402 -0.035313472 -0.014450922 -0.063524984 0.039345205 -0.029839566 -0.043212622
0.018059991 0.035245568 -0.030274427 0.1632262 -0.038775545 -0.13021338 0.029622419 0.13241678
-0.016018666 -0.21233846 0.09293483 -0.16286011 0.047148526 -0.055752892 -0.012824878 -0.02337572
0.010372074 -0.08197653 0.07382082 -0.22051384 -0.04451283 0.05369088 -0.09284365 0.17539506
-0.111215 0.044601757 0.01564564 -0.006162108 0.03718621 -0.02767031 0.022097353 0.04763409
-0.017795859 -0.02676766 -0.045894705 0.17842108 -0.034884643 -0.061439622 -0.012187768 -0.00011927872
-0.004318755 0.05091711 -0.030495197 -0.1475795 -0.00852738 0.012025325 0.033726715 0.12926285
0.043902785 0.011417423 -0.051062457 -0.05844193 0.019350462 -0.07327101 -0.052262947 -0.10976322
-0.024643308 0.020610975 -0.0065553254 0.060137067 -0.1700909 -0.1439643 -0.013405494 -0.055948477
-0.11470046 0.07323294 -0.094216086 0.033706132 -0.06406776 0.087261 -0.0055670915 0.06021508
-0.020553505 0.0637052 -0.0111941155 -0.019549321 -0.06491972 -0.069443084 -0.13181044 -0.012831841
0.13860972 0.28588444 -0.12398847 0.09947826 0.06315193 -0.052862003 -0.071957886 0.23579128
-0.07877637 -0.08814294 0.028240023 -0.040919945 0.07198701 0.13025878 0.011552788 -0.17208415
-0.01918519 -0.052032158 0.018626573 0.017205222 0.06329574 -0.06469985 0.123284996 -0.119449995
0.05568988 -0.06281299 -0.031640135 -0.02192612 0.01698209 0.067849204 -0.067664675 -0.07017857
-0.05314867 0.07618011 0.011678837 0.045430016 -0.02975569 -0.013625206 -0.02843258 -0.017737623
-0.033498667 -0.038013354 0.061431136 0.010031044 -0.029415743 0.07416998 -0.11890485 0.06309293
-0.0069124703 -0.1384236 -0.034904476 -0.064641185 0.01206534 -0.07293915 -0.020373615 -0.11737236
-0.03762278 0.03565333 -0.012582436 0.12011552 0.034540612 -0.1270479 0.008961673 -0.09529096
0.02060637 0.060382392 0.057719816 -0.0066933082 0.043124136 -0.045946896 0.07573271 -0.012057522
-0.06377569 -0.0813151 0.007289572 0.003355363 -0.051825136 -0.021310711 0.05958261 -0.11476876
00000000: 03ba 413d 5814 b0bd 55b6 5ebc 3cc9 1c3d
00000010: 3d0e 81bc bd03 bbbd 8200 f0bc f543 e4bd
00000020: b333 d33b 13ee a13d 7d4b 6a3d 4528 e53c
00000030: 327b 42bd efd8 26bd fa1e a9bc b245 743d
00000040: 3380 3a3d 1334 043d ab95 d0bc 3bdc f13d
00000050: acfe d0bd f94e 59bd 5e5b 9f3b 31ab 5fbd
00000060: a9bb e5bc 6d5f 0f3e c6ed 8ebd 9c04 933c
00000070: 2d4e 6f3c dbe6 6e3d 58a1 f7bc 3943 b3bd
00000080: 5c6e 703d bc09 cfbd d405 8fbc 17ba 443d
00000090: b335 b7bc 9b50 fcbd f670 15bd d719 16be
000000a0: 4ca5 273c f061 c93d 526a 943d 188b 223d
000000b0: 24f5 82bd de8f 83bd 63f4 dcbc 1444 af3d
000000c0: 55c9 453d 807d 4f3d 2894 15bd b925 1e3e
000000d0: 166c 07be 5561 78bd 813e ad3b 95af 86bd
000000e0: eb02 0bbd d8d9 353e 2331 b0bd 471e f63c
000000f0: d5b4 973c 5655 9e3d 113b 1abd 1b10 e3bd
00000100: 98ed 383d 7eb4 5e3d 373a 2bbd df72 c3bd
00000110: 71c6 6fbd 04bb 63ba 2fc9 423d 1a4c c53c
00000120: a6d6 a83d 21d2 58bc b097 273c 7858 1cbe
00000130: bfb2 63bb d350 003c cf95 04bb d425 d4bc
00000140: cacb 123d 5686 26be 0c0d 14bd c4ed babd
00000150: 6410 ea3c e6a9 0dbd 4140 2ebd 6012 bebc
00000160: bf6a 54bd 5ab3 5fbd dca4 10bd 8fc3 6cbc
00000170: 6319 82bd 7028 213d 1b72 f4bc b8ff 30bd
00000180: 8cf2 933c a85d 103d 1302 f8bc c524 273e
00000190: 1bd3 1ebd a856 05be b7aa f23c 4498 073e
000001a0: 9439 83bc 416f 59be 9e54 be3d cdc4 26be
000001b0: d01e 413d 255d 64bd 701f 52bc 707e bfbc
000001c0: a2ef 293c 50e3 a7bd 5f2f 973d 61ce 61be
000001d0: 1653 36bd f8ea 5b3d d024 bebd c39a 333e
000001e0: b1c4 e3bd 55b0 363d 492b 803c 82eb c9bb
000001f0: 9150 183d d9ac e2bc 8205 b53c f71b 433d
00000200: 9fc8 91bc da47 dbbc 16fc 3bbd 04b4 363e
00000210: 33e3 0ebd 1da8 7bbd 34af 47bc 4625 fab8
00000220: 5884 8dbb 768e 503d 10d1 f9bc 151f 17be
00000230: 6db6 0bbc de05 453c 0625 0a3d 7b5d 043e
00000240: 68d3 333d 2510 3b3c de26 51bd ce60 6fbd
00000250: dc84 9e3c 1c0f 96bd ac11 56bd 8acb e0bd
00000260: c3e0 c9bc 59d8 a83c 0ece d6bb 4952 763d
00000270: 4f2c 2ebe 616b 13be b8a2 5bbc 3b2a 65bd
00000280: 13e8 eabd 27fb 953d 5df4 c0bd 710f 0a3d
00000290: f535 83bd e5b5 b23d 266c b6bb 16a4 763d
000002a0: d35f a8bc df77 823d 8667 37bc e625 a0bc
000002b0: a1f4 84bd 2d38 8ebd 51f9 06be a43c 52bc
000002c0: b5ef 0d3e 725f 923e abed fdbd 42bb cb3d
000002d0: cd55 813d d485 58bd a85e 93bd 4573 713e
000002e0: 8155 a1bd 4984 b4bd 9f57 e73c ac9b 27bd
000002f0: ed6d 933d 8f62 053e e847 3d3c d436 30be
00000300: 422a 9dbc ac1f 55bd c196 983c f7f1 8c3c
00000310: 32a1 813d 5b81 84bd d87c fc3d 33a2 f4bd
00000320: 121b 643d 19a4 80bd 1699 01bd 689e b3bc
00000330: 061e 8b3c 86f4 8a3d c793 8abd c8b9 8fbd
00000340: 6bb2 59bd 5104 9c3d 9858 3f3c d314 3a3d
00000350: 34c2 f3bc 423c 5fbc 71eb e8bc 7e4e 91bc
00000360: e635 09bd e4b3 1bbd 379f 7b3d 3f59 243c
00000370: 49f9 f0bc 6ee6 973d 6384 f3bd de36 813d
00000380: 0182 e2bb ebbe 0dbe fff7 0ebd 9962 84bd
00000390: b4ad 453c 1f61 95bd 91e6 a6bc eb60 f0bd
000003a0: 581a 1abd 3a09 123d 9026 4ebc 20ff f53d
000003b0: 757a 0d3d d818 02be fbd3 123c e827 c3bd
000003c0: b1ce a83c 8753 773d 9d6b 6c3d 8a53 dbbb
000003d0: efa2 303d d032 3cbd c019 9b3d ea8c 45bc
000003e0: d49c 82bd 8888 a6bd 5ddd ee3b a6e5 5b3b
000003f0: 9846 54bd cd93 aebc e50c 743d e20b ebbd

encoder.0.bias f4 [128]
0.023085518 0.022484282 0.0374996 -0.008554603 -0.035300802 -0.0032847046 -0.0022026643 0.025877211
-0.05856012 -0.022798128 -0.020098345 -0.01414984 -0.046187237 0.486164 0.026512701 0.017326003
-0.01327382 0.066961184 0.06527175 -0.004067853 0.021635277 -0.026235845 0.0005414493 -0.0259494
0.006924051 0.0322298 -0.012650008 0.008163176 -0.034565512 -0.01796332 0.0425694 0.042458307
-0.06486464 0.010473323 0.23476142 -0.019184358 -0.021197978 0.106072344 -0.016717628 0.052902512
-0.0023097296 0.020737492 -0.026520588 -0.035152815 0.14634489 0.008577368 -0.011378623 0.14132376
0.017997911 0.37490293 0.016333269 0.02947945 -0.006793994 0.010820434 -0.002936346 0.06804487
0.012792332 0.012530253 0.029647034 0.015616116 0.010401005 -0.034475368 -0.007527078 -0.061183088
0.011266331 0.0031883523 0.02446781 -0.017183378 -0.053681556 0.039937455 0.10275454 0.008609579
-0.018448347 0.010117313 -0.058617156 -0.015744528 0.021339742 0.22067535 0.036460586 0.077801935
-0.02574071 0.18062693 0.06778556 0.012429298 0.07997815 0.029742418 -0.041665684 0.023322336
0.0071418304 -0.00014363001 0.032145295 0.43015626 -0.015134347 0.010170325 -0.0055310614 0.0073877163
0.0024560126 -0.020494834 0.024025483 0.021956755 -0.035879463 -0.024926497 0.041221775 -0.029318329
-0.08910564 0.029727947 -0.03135961 -0.030513784 0.08061026 0.05947298 0.0184421 0.4280401
-0.021667447 0.037283503 0.030454343 0.045992557 -0.013912281 0.053516332 -0.088078514 -0.009760484
0.07684255 0.09263752 0.37356347 -0.005734375 -0.020999586 0.022351252 -0.016178295 0.20088308
00000000: d71d bd3c f530 b83c 2e99 193d 9b28 0cbc
00000010: 9397 10bd 3344 57bb 935a 10bb 72fc d33c
00000020: bddc 6fbd 24c3 babc 49a5 a4bc bbd4 67bc
00000030: d42e 3dbd 7dea f83e 2a31 d93c 43ef 8d3c
00000040: 707a 59bc f222 893d 32ad 853d a04b 85bb
00000050: 773c b13c 8eec d6bc 0cf0 0d3a d693 d4bc
00000060: 26e3 e23b 6503 043d fb41 4fbc d7be 053c
00000070: 9194 0dbd d027 93bc 405d 2e3d c3e8 2d3d
00000080: c1d7 84bd 4d98 2b3c 4c65 703e 8428 9dbc
00000090: 62a7 adbc 753c d93d 68f3 88bc 4eb0 583d
000000a0: d55e 17bb ace1 a93c b441 d9bc 66fc 0fbd
000000b0: 6fdb 153e 1788 0c3c 676d 3abc 2db7 103e
000000c0: 5b70 933c 47f3 bf3e 59cd 853c e37e f13c
000000d0: 27a0 debb 3148 313c b66f 40bb 1c5b 8b3d
000000e0: ee96 513c b14b 4d3c 56de f23c bdda 7f3c
000000f0: fa68 2a3c 0b36 0dbd b5a5 f6bb 1e9b 7abd
00000100: 6b96 383c adf3 503b b770 c83c 28c4 8cbc
00000110: 31e1 5bbd 7595 233d f970 d23d 310f 0d3c
00000120: fd20 97bc 16c3 253c 8b18 70bd abfa 80bc
00000130: afd0 ae3c b8f8 613e b257 153d 9f56 9f3d
00000140: 2ede d2bc 44f6 383e 28d3 8a3d 41a4 4b3c
00000150: 96cb a33d 5fa6 f33c a3a9 2abd 7c0e bf3c
00000160: 0406 ea3b 639b 16b9 c9aa 033d 713d dc3e
00000170: 0df6 77bc 6fa1 263c e83d b5bb a814 f23b
00000180: 0ef5 203b c8e4 a7bc 17d1 c43c a7de b33c
00000190: 58f6 12bd a732 ccbc 2ad8 283d fe2c f0bc
000001a0: 057d b6bd 0688 f33c ef72 00bd 0bf8 f9bc
000001b0: fe16 a53d f199 733d e313 973c 1228 db3e
000001c0: ee7f b1bc 96b6 183d 637b f93c b162 3c3d
000001d0: 56f0 63bc f133 5b3d 8262 b4bd 70ea 1fbc
000001e0: a05f 9d3d bdb8 bd3d b643 bf3e 6de7 bbbb
000001f0: 5307 acbc f919 b73c 5888 84bc 4bb4 4d3e

encoder.2.weight f4 [128, 128]
0.016608024 -0.011039076 -0.034126915 0.03601357 -0.045429178 -0.056962986 0.008343761 0.11737691
0.025707254 -0.04849831 -0.078893505 -0.013026981 0.18212673 -0.00812759 0.13148916 -0.022013906
-0.06369648 0.10662866 0.15202871 -0.016655406 -0.086954884 0.109151684 0.04986946 0.08710867
-0.068048835 0.029283991 -0.0543573 0.096897535 -0.07797162 0.14123924 0.07136356 0.027806995
-0.10815055 0.1315571 0.11815276 0.11669597 0.09909034 0.02156903 -0.035918787 -0.07701773
0.0011791008 0.13778666 -0.057089865 0.08334008 0.11934078 0.13883035 0.009262336 -0.018231913
0.12450278 -0.047384277 0.019584589 0.09307891 -0.050484974 -0.0473774 -0.10555663 0.12486375
0.1455124 0.017423196 0.06970921 0.043782067 0.023747114 -0.059777692 0.10333009 -0.021969486
-0.010390833 -0.07341775 -0.047743604 -0.10962963 -0.051800698 0.07029096 0.015964482 0.11928719
0.03594217 0.04578537 -0.15260881 -0.04214035 -0.046529077 0.05306025 0.047834586 -0.04160129
0.104858495 0.0003033224 0.03240995 -0.08598217 0.051100496 0.04361837 0.068683706 0.11967626
0.14311755 -0.006442867 0.09393088 0.0052189482 0.10320338 0.15136637 -0.06853412 0.18275717
0.09122449 0.009814587 0.012024513 0.014784261 0.087552644 -0.07828047 -0.07036538 -0.050202034
0.040210065 -0.057208486 0.04846226 -0.04763096 0.07537849 0.10801351 0.013956351 0.18734379
-0.1405543 -0.04542167 0.08070871 -0.035374235 0.13857251 -0.025190886 0.04806848 0.011359673
-0.016297888 0.1033406 0.13792023 -0.024407156 0.03269681 -0.00736498 0.06599883 -0.003219724
0.13787808 0.05352625 0.039052226 -0.023840943 0.0018389063 -0.045130666 0.09006209 0.006107018
0.060661107 -0.013113573 0.092327885 -0.07717636 0.01763998 0.033006188 0.098848104 0.027489232
-0.053215116 0.04508706 0.10049437 0.01762998 0.030214952 -0.016676856 0.17329153 -0.02027917
0.0011726887 -0.046476383 0.06701394 -0.08169523 -0.022553254 0.0775148 0.09519257 -0.007946796
0.0065653804 -0.13139197 -0.11700755 0.07138259 -7.3172116e-05 0.023280557 -0.005753596 0.06742723
0.08992718 -0.00043609546 0.09588409 -0.05053873 0.039817173 -0.073401995 0.059801776 -0.03969315
0.12633151 0.012079091 0.038704924 0.064786844 -0.03370655 0.09755115 -0.007918247 0.055106655
-0.010855614 -0.06203937 -0.02955359 -0.04627578 -0.041050397 0.036077652 0.10444429 0.1514332
0.06885385 0.03744758 0.024690025 -0.09425884 0.025726555 -0.055130653 -0.0065779067 0.0002508388
0.12695265 0.082604215 -0.030189935 0.11645596 0.11012969 -0.019460984 -0.080072194 0.004410499
0.06545635 -0.067270525 -0.014456726 0.101427846 0.066275194 -0.013263227 -0.0149190305 0.056296665
0.16342057 -0.12238633 0.1496057 0.092696376 0.10145611 -0.06444334 -0.0648771 0.022589358
-0.072108716 -0.011404872 -0.024145046 0.008432761 0.051155485 -0.07745664 -0.04812834 0.06483187
-0.025965763 -0.061250478 -0.101095065 0.070606686 0.010369672 0.06893761 -0.04284012 0.15396336
0.1366346 -0.020434892 -0.022404455 -0.019120926 0.097442105 -0.028817326 -0.04016325 0.026944637
-0.04316377 -0.0045971605 -0.0047862804 0.011295197 0.104245305 -0.049443085 0.1694041 -0.14017689
00000000: 8d0d 883c 3edd 34bc aac8 0bbd f782 133d
00000010: f213 3abd 0552 69bd 45b4 083c 4e63 f03d
00000020: 0598 d23c 2aa6 46bd eb92 a1bd 1e6f 55bc
00000030: 6e7f 3a3e 9529 05bc 18a5 063e 8256 b4bc
00000040: 4d73 82bd 2060 da3d 6aad 1b3e eb70 88bc
00000050: 6715 b2bd eb8a df3d eb43 4c3d 0866 b23d
00000060: 305d 8bbd fbe4 ef3c c3a5 5ebd 3772 c63d
00000070: 96af 9fbd 05a1 103e 0f27 923d 7fcb e33c
00000080: 097e ddbd e8b6 063e 13fa f13d 4cfe ee3d
00000090: e0ef ca3d 89b1 b03c 941f 13bd 79bb 9dbd
000000a0: 0f8c 9a3a f217 0d3e 10d7 69bd 34ae aa3d
000000b0: f068 f43d 8b29 0e3e 0ec1 173c 185b 95bc
000000c0: 50fb fe3d 0416 42bd dc6f a03c 28a0 be3d
000000d0: 55c9 4ebd ce0e 42bd 132e d8bd 91b8 ff3d
000000e0: 3401 153e 17bb 8e3c b4c3 8e3d d354 333d
000000f0: 4f89 c23c 74d9 74bd ba9e d33d 5af9 b3bc
00000100: 503e 2abc 0c5c 96bd cc8e 43bd 8085 e0bd
00000110: f82c 54bd b5f4 8f3d f2c7 823c d84c f43d
00000120: 1938 133d 7189 3b3d 7c45 1cbe 5c9b 2cbd
00000130: 4695 3ebd b455 593d 33ee 433d 1d66 2abd
00000140: 0dc0 d63d 3e07 9f39 4cc0 043d 6c17 b0bd
00000150: c14e 513d 2da9 323d 0baa 8c3d d418 f53d
00000160: 688d 123e b01e d3bb d55e c03d b603 ab3b
00000170: 4b5c d33d c9ff 1a3e 9e5b 8cbd b224 3b3e
00000180: e8d3 ba3d 5dcd 203c 7702 453c af39 723c
00000190: cd4e b33d 8351 a0bd b91b 90bd a6a0 4dbd
000001a0: 4fb3 243d 7253 6abd 5d80 463d ae18 43bd
000001b0: 0a60 9a3d 3036 dd3d 2ea9 643c 0dd7 3f3e
000001c0: 77ed 0fbe 130c 3abd 9c4a a53d 93e4 10bd
000001d0: f4e5 0d3e 1e5d cebc 74e3 443d ec1d 3a3c
000001e0: 2683 85bc 3da4 d33d f63a 0d3e 84f1 c7bc
000001f0: 17ed 053d ee55 f1bb 652a 873d 0102 53bb
00000200: e92f 0d3e 573e 5b3d 3af5 1f3d 154e c3bc
00000210: 7507 f13a efda 38bd 7972 b83d 611d c83b
00000220: c877 783d 50da 56bc 6716 bd3d a40e 9ebd
00000230: b881 903c 7f31 073d e070 ca3d 1931 e13c
00000240: 18f8 59bd 36ad 383d fecf cd3d bf6c 903c
00000250: 5985 f73c e79d 88bc 5673 313e 8020 a6bc
00000260: e7b4 993a 055e 3ebd 9b3e 893d d44f a7bd
00000270: 9ac1 b8bc 14c0 9e3d 52f4 c23d 4733 02bc
00000280: 6722 d73b 9e8b 06be a8a1 efbd 0931 923d
00000290: fb73 99b8 deb6 be3c a988 bcbb 4a17 8a3d
000002a0: be2b b83d bea3 e4b9 e15e c43d b301 4fbd
000002b0: 5517 233d c953 96bd b5f2 743d 4995 22bd
000002c0: 0c5d 013e 61e7 453c 0e89 1e3d f7ae 843d
000002d0: e10f 0abd e6c8 c73d 89bb 01bc 84b7 613d
000002e0: bfdb 31bc ff1c 7ebd 5f1a f2bc ac8b 3dbd
000002f0: 7624 28bd 29c6 133d e3e6 d53d 4e11 1b3e
00000300: 3f03 8d3d a262 193d bc42 ca3c c70a c1bd
00000310: 7fc0 d23c aed0 61bd 7b8b d7bb 0483 8339
00000320: e0ff 013e 662c a93d e250 f7bc 7680 ee3d
00000330: ad8b e13d a46c 9fbc e4fc a3bd f285 903b
00000340: fb0d 863d 21c5 89bd e7db 6cbc 67b9 cf3d
00000350: 4abb 873d 024e 59bc f36e 74bc 5597 663d
00000360: b957 273e afa5 fabd 3d32 193e 99d7 bd3d
00000370: 39c8 cf3d dffa 83bd 49de 84bd 510d b93c
00000380: bcad 93bd 80db 3abc d5cb c5bc 9029 0a3c
00000390: 6a88 513d 96a1 9ebd 3922 45bd 92c6 843d
000003a0: 27b6 d4bc c8e1 7abd ee0a cfbd 3d9a 903d
000003b0: 8fe5 293c 292f 8d3d 1f79 2fbd 92a8 1d3e
000003c0: f1e9 0b3e 1367 a7bc 8c89 b7bc 7da3 9cbc
000003d0: ba8f c73d 5012 ecbc 3882 24bd 00bb dc3c
000003e0: 7ecc 30bd c7a3 96bb 3bd6 9cbb 7d0f 393c
000003f0: 907e d53d d584 4abd 4578 2d3e 888a 0fbe

encoder.2.bias f4 [128]
0.105023645 0.094680004 0.06295698 0.046243086 0.03508121 -0.016857006 0.012894433 0.0141508
-0.025583161 -0.08927867 -0.058931354 0.11531912 0.03811247 0.15927276 -0.023778655 0.035519466
-0.02418886 0.021052076 0.03557605 0.033867173 0.06691167 -0.024098616 0.074299976 0.061107334
0.5064384 0.012980654 0.024383055 0.06311948 0.035273004 0.06909721 0.118141875 -0.026609931
0.1274983 -0.13225856 -0.020674216 0.07187633 0.04214389 0.018773861 0.16996104 -0.02493018
0.03328107 0.032224182 0.07326698 0.05797648 0.033274516 -0.042610522 0.060072754 0.010861848
0.03685457 0.03396179 0.045462273 0.015859017 0.02529143 0.025494752 0.059009288 0.057345714
0.062698856 0.057256386 0.021957012 -0.022569763 0.008982576 0.11589968 0.07934384 0.066306606
-0.018166868 0.055668384 -0.0424317 0.055133622 0.0786169 0.027654462 0.052844945 0.073210455
0.038175166 0.017016193 0.03764006 0.07217203 -0.069307774 0.03489088 0.007137001 0.15294826
0.12898466 0.049536146 0.0028044307 0.008820648 0.033660956 -0.0023352525 0.05973567 -0.03220901
0.048869878 -0.0028277326 0.054857474 0.017691974 0.1369879 0.08204572 0.01621594 0.03318145
0.07295021 0.020816188 0.028775362 0.0002968758 -0.30094084 0.047381286 0.038625572 0.067425385
0.021323223 0.08310185 0.062285177 0.6883982 0.071438156 0.08448469 0.039040305 0.09502515
0.030241037 0.096833676 0.08363078 0.15598413 0.017576491 0.0774846 0.04389808 0.030150825
0.045423254 0.045883354 0.033382997 0.025030691 0.02066922 0.033263844 0.05213609 0.063040435
00000000: a316 d73d 97e7 c13d 97ef 803d 6469 3d3d
00000010: 51b1 0f3d b417 8abc 2c43 533c c2d8 673c
00000020: c793 d1bc bcd7 b6bd 0162 71bd 6e2c ec3d
00000030: d21b 1c3d 6618 233e 74cb c2bc dc7c 113d
00000040: b727 c6bc 6775 ac3c 31b8 113d 4eb8 0a3d
00000050: fc08 893d 766a c5bc 962a 983d af4b 7a3d
00000060: f2a5 013f cfac 543c f9be c73c c944 813d
00000070: 6d7a 103d d782 8d3d 5ef4 f13d 12fd d9bc
00000080: ea8e 023e ca6e 07be f95c a9bc e633 933d
00000090: 129f 2c3d a4cb 993c 440a 2e3e 603a ccbc
000000a0: bb51 083d 81fd 033d 000d 963d bf78 6d3d
000000b0: dc4a 083d 5f88 2ebd d90e 763d e4f5 313c
000000c0: d1f4 163d 851b 0b3d a636 3a3d c5ea 813c
000000d0: f92f cf3c 5fda d03c b9b3 713d 57e3 6a3d
000000e0: 4268 803d ac85 6a3d 31df b33c 39e4 b8bc
000000f0: a82b 133c d05c ed3d 067f a23d c2cb 873d
00000100: afd2 94bc 8804 643d ddcc 2dbd cbd3 613d
00000110: e601 a13d 9c8b e23c f173 583d 5def 953d
00000120: 905d 1c3d 8b65 8b3c 772c 1a3d eece 933d
00000130: 3cf1 8dbd bde9 0e3d 81dd e93b 789e 1c3e
00000140: 8e14 043e 6ae6 4a3d 8aca 373b 7b84 103c
00000150: 12e0 093d 090b 19bb 64ad 743d 98ed 03bd
00000160: c82b 483d 7b51 39bb 3bb2 603d c2ee 903c
00000170: 8e46 0c3e 9607 a83d 4ad7 843c 46e9 073d
00000180: eb66 953d b686 aa3c 4fba eb3c ffa5 9b39
00000190: eb14 9abe e112 423d d935 1e3d 5216 8a3d
000001a0: 0aae ae3c 4d31 aa3d be1e 7f3d dd3a 303f
000001b0: 2b4e 923d 4f06 ad3d bae8 1f3d 8c9c c23d
000001c0: 0dbc f73c bc50 c63d 9d46 ab3d 4eba 1f3e
000001d0: 93fc 8f3c 3fb0 9e3d 79ce 333d ddfe f63c
000001e0: bc0d 3a3d 2ff0 3b3d 9cbc 083d 2a0d cd3c
000001f0: 7f52 a93c ab3f 083d a78c 553d 581b 813d

encoder.4.weight f4 [128, 128]
-0.067276314 -0.060390677 -0.043551695 -0.005247484 -0.06924676 0.13106349 -0.010481808 -0.03293725
-0.06829278 0.09831779 0.1328688 0.014292821 0.103158265 0.010628812 -0.0005972617 -0.060074683
0.1320076 0.098486416 -0.070821755 -0.062521614 0.051019546 -0.18396151 -0.041547496 -0.029235194
0.15436952 0.061851457 0.09213887 -0.12619446 0.11816672 0.022189181 0.12954004 -0.047738556
-0.04041049 -0.11169505 -0.03237717 0.045065574 0.024199264 0.1075557 0.076840095 0.122731924
-0.099984854 0.040744364 -0.10706008 -0.03513149 0.07872235 -0.084806405 0.05218904 -0.08066161
-0.07756591 0.051569104 -0.13970432 0.119629614 0.11119966 0.028453344 -0.10694844 -0.08000629
-0.036148403 -0.15493822 -0.029959535 0.10384851 -0.014906049 0.062630236 -0.01322887 -0.0067693805
-0.040054347 -0.046770256 -0.008273743 -0.015182176 -0.054279443 0.023896515 0.045622278 0.053219985
0.121599436 0.048374593 0.083276615 -0.08292181 0.04402647 0.09018787 0.09374966 0.010295247
0.11801265 -0.090473615 0.1178021 0.038738243 0.122336954 0.011285891 0.013685794 0.023408452
-0.082449086 0.024475139 0.05379063 -0.10345178 -0.12614621 -0.051373623 0.10565322 0.07462026
-0.05462355 0.12889107 -0.098641835 0.1701224 0.106761426 0.0023375084 -0.0016261021 -0.0074189007
-0.115725204 -0.012650543 -0.1071825 -0.16797344 0.025442839 0.12259534 0.1176365 0.0708726
0.11322395 -0.06656779 0.008808899 0.106170475 -0.020395532 0.0036132757 0.15089159 -0.10220886
-0.018798407 0.038217943 -0.08539276 0.12943386 -0.042907447 0.101305254 -0.06834279 0.12939788
0.081161015 0.10274181 0.030999087 0.08403663 0.11598427 0.0030518621 -0.08657365 0.05114749
-0.049385644 -0.096387915 -0.081399225 0.0680115 -0.10989002 -0.021224996 -0.01283331 -0.06433905
-0.09079998 0.08148989 0.13563526 -0.04628159 0.07752545 -0.06595646 0.05762532 0.02683344
-0.11743143 0.021083318 0.088214636 0.08621464 -0.06913916 -0.028842911 0.08851919 0.024162507
0.062207248 -0.11520004 -0.15968993 -0.10990208 0.0072145094 0.08647729 0.055041995 -0.08866274
0.07626906 -0.1292464 0.06359202 0.035819568 0.09767253 0.04445332 0.0711678 -0.014105712
-0.013673917 0.026446192 -0.08070334 0.037089292 0.1621464 -0.07737336 -0.012689084 0.027851777
0.07579918 0.075931355 -0.06082979 0.03461052 -0.0055859243 0.07740175 0.11508594 0.03490528
0.00662503 0.08689886 -0.108830884 0.11573214 -0.027284803 -0.027079746 0.09311111 0.04812406
-0.07937651 0.04811981 -0.055533264 -0.14661448 0.13571978 -0.040971927 -0.025569547 0.05175791
0.06223629 0.05139984 -0.10368161 -0.08408157 -0.0549808 -0.07641741 0.108848885 0.024841886
-0.12680738 -0.0016613611 0.121398605 -0.11032777 0.07038869 0.1379734 -0.012259521 0.07421529
0.11386525 0.10919411 -0.1325838 0.033317044 0.057566117 0.0898151 -0.08473643 -0.052259903
-0.071881354 -0.039329603 0.07716533 -0.05288028 0.04002105 0.021382201 -0.05862902 0.072353005
0.084184356 0.0823539 -0.07107014 0.009821417 -0.012469999 0.021520926 0.0033900165 0.10969609
-0.12218858 0.12003442 -0.059896216 0.1284499 0.04548019 -0.09136139 -0.074219696 0.015975166
00000000: 2ac8 89bd 375c 77bd 4363 32bd 16f3 abbb
00000010: 3fd1 8dbd 8235 063e e4bb 2bbc 36e9 06bd
00000020: 16dd 8bbd d65a c93d c20e 083e 702c 6a3c
00000030: a444 d33d 7824 2e3c 8e91 1cba df10 76bd
00000040: 002d 073e 3fb3 c93d ff0a 91bd 550b 80bd
00000050: dff9 503d 6860 3cbe b52d 2abd a57e efbc
00000060: 0b13 1e3e f457 7d3d 4eb3 bc3d 1f39 01be
00000070: 6501 f23d 16c6 b53c 25a6 043e 8189 43bd
00000080: 7885 25bd 60c0 e4bd ec9d 04bd ae96 383d
00000090: 893d c63c 2a46 dc3d 575e 9d3d e05a fb3d
000000a0: dcc4 ccbd 90e3 263d 5142 dbbd 0ae6 0fbd
000000b0: 2f39 a13d fbae adbd 2dc4 553d ea31 a5bd
000000c0: e0da 9ebd 203a 533d a60e 0fbe 5f00 f53d
000000d0: a6bc e33d fd16 e93c c907 dbbd 56da a3bd
000000e0: 5910 14bd 20a8 1ebe b36d f5bc 87ae d43d
000000f0: 8038 74bc 4844 803d e7bd 58bc aed1 ddbb
00000100: 0710 24bd 2b92 3fbd 988e 07bc a9be 78bc
00000110: 1f54 5ebd a0c2 c33c 6dde 3a3d 33fd 593d
00000120: 2009 f93d 7024 463d ee8c aa3d e9d2 a9bd
00000130: 1a55 343d 6bb4 b83d d2ff bf3d 65ad 283c
00000140: 9eb0 f13d 3b4a b9bd 3a42 f13d feab 1e3d
00000150: cc8b fa3d 75e8 383c 613a 603c 15c3 bf3c
00000160: 11db a8bd 1680 c83c 9053 5c3d 87de d3bd
00000170: 792c 01be 266d 52bd b760 d83d 82d2 983d
00000180: f2bc 5fbd 05fc 033e bb04 cabd 9134 2e3e
00000190: bca5 da3d e230 193b ef22 d5ba 401a f3bb
000001a0: 5601 edbd 3944 4fbc 8082 dbbd 3b01 2cbe
000001b0: 806d d03c 4413 fb3d 68eb f03d a725 913d
000001c0: f5e1 e73d b254 88bd 3353 103c e86f d93d
000001d0: 8814 a7bc b5cc 6c3b 5383 1a3e e152 d1bd
000001e0: 1eff 99bc 6b8a 1c3d 66e2 aebd 4f8a 043e
000001f0: b8bf 2fbd 2179 cf3d 4ef7 8bbd e180 043e
00000200: bf37 a63d 4c6a d23d ccf1 fd3c 661b ac3d
00000210: 2989 ed3d c001 483b 874d b1bd 0880 513d
00000220: 9a48 4abd 0767 c5bd a3b4 a6bd 9d49 8b3d
00000230: 050e e1bd 0be0 adbc ce42 52bc 31c4 83bd
00000240: 57f5 b9bd 2ce4 a63d f8e3 0a3e c491 3dbd
00000250: aac5 9e3d 2e14 87bd 8708 6c3d cdd1 db3c
00000260: e47f f0bd ecb6 ac3c e0a9 b43d 4d91 b03d
00000270: d598 8dbd f847 ecbc 8d49 b53d 73f0 c53c
00000280: 07cd 7e3d 00ee ebbd c285 23be 5714 e1bd
00000290: b167 ec3b 011b b13d b773 613d d094 b5bd
000002a0: f432 9c3d 2b59 04be 883c 823d 8ab7 123d
000002b0: 8908 c83d af14 363d 6cc0 913d a51b 67bc
000002c0: 9108 60bc afa5 d83c cb47 a5bd f1ea 173d
000002d0: b509 263e ed75 9ebd e0e5 4fbc 6929 e43c
000002e0: 9a3c 9b3d e681 9b3d a828 79bd c3c3 0d3d
000002f0: 210a b7bb cf84 9e3d 2db2 eb3d d7f8 0e3d
00000300: c816 d93b 08f8 b13d bae2 debd f904 ed3d
00000310: 6184 dfbc 58d6 ddbc 0ab1 be3d bc1d 453d
00000320: 2790 a2bd 4719 453d d976 63bd 1b22 16be
00000330: 20fa 0a3e 2ed2 27bd 3a77 d1bc 1a00 543d
00000340: 7beb 7e3d a388 523d 0657 d4bd f532 acbd
00000350: 8c33 61bd bb80 9cbd 2aec de3d 3681 cb3c
00000360: cbd9 01be 07c2 d9ba d59f f83d 87f3 e1bd
00000370: f227 903d e648 0d3e 28dc 48bc 30fe 973d
00000380: 2f32 e93d 29a1 df3d 0cc4 07be 7477 083d
00000390: 73ca 6b3d fbf0 b73d 4b8a adbd 7b0e 56bd
000003a0: 8836 93bd 1418 21bd db08 9e3d fe98 58bd
000003b0: 1ded 233d ba29 af3c fc24 70bd d02d 943d
000003c0: d968 ac3d 29a9 a83d 398d 91bd 02ea 203c
000003d0: f74e 4cbc a74c b03c 0a2b 5e3b 58a8 e03d
000003e0: 023e fabd 9bd4 f53d bc55 75bd 5f88 033e
000003f0: 7049 3a3d ae1b bbbd 7f00 98bd 5ade 823c

encoder.4.bias f4 [128]
-0.028597444 0.03267712 0.0061476342 0.0008437217 0.018772006 -0.029322699 0.029537177 -0.0021920302
0.0040647746 -0.0068883887 -0.018206181 0.012185938 -0.0069632092 0.047024813 -0.008663093 -0.011897497
-0.021671547 0.055523902 0.0075400914 0.016008776 -0.00855506 -0.002089262 0.024537077 -0.022360804
0.030373862 -0.013736177 0.017814392 0.016189326 -0.02722625 0.015626885 0.04426572 0.04941367
-0.004881041 0.095308624 0.0169483 0.03173743 -0.01782723 0.06988543 -0.009274943 -0.008684732
0.037286997 -0.028484039 0.07759874 0.04785095 0.015398016 0.049190033 -0.019602343 0.027002372
0.007075587 -0.0057741064 0.07876761 0.05561005 0.015498192 -0.011385881 -0.014414856 -0.004956365
-0.011099866 0.11871834 0.0100891 0.051725507 -0.019915152 0.04047099 0.030560566 -0.0026651833
-0.019108882 -0.1910307 0.0030258896 0.038839303 -0.018418523 0.0024029398 0.040461823 -0.018629713
-0.020792378 0.08866091 0.028248977 -0.0197529 0.159155 0.00871662 0.042912602 0.047784284
0.0785217 0.0039750407 -0.009309956 0.056153785 0.04305398 0.07850105 0.0431174 0.13891847
0.04612462 0.13222897 0.039370865 0.024036843 -0.03038063 0.06495609 0.037881754 -0.01581836
0.037228297 0.04699672 -0.14483485 0.034194626 0.050120756 0.021192733 0.03837399 0.037285466
0.06528325 -0.02405397 0.01852687 0.0036933043 -0.0059836768 0.0018118104 -0.011138713 0.012384541
0.022849854 -0.020738252 0.016235953 0.032992944 0.059988912 -0.023327768 -0.020872872 0.024144674
-0.0034549912 0.014406743 -0.04938629 0.034803968 -0.03249955 0.023739299 0.011460627 0.007597506
00000000: 3045 eabc 72d8 053d 1872 c93b 342d 5d3a
00000010: c0c7 993c 2836 f0bc f3f7 f13c 2aa8 0fbb
00000020: cd31 853b feb7 e1bb 2125 95bc 87a7 473c
00000030: a22b e4bb 179d 403d a5ef 0dbc b8ed 42bc
00000040: 8788 b1bc 086d 633d df12 f73b d624 833c
00000050: 862a 0cbc 00ec 08bb fb01 c93c 012e b7bc
00000060: 9bd2 f83c b40d 61bc 7def 913c 7a9f 843c
00000070: 9609 dfbc f403 803c f94f 353d fd65 4a3d
00000080: 24f1 9fbb 2b31 c33d 29d7 8a3c 1bff 013d
00000090: 690a 92bc 1820 8f3d eef5 17bc 684a 0ebc
000000a0: 40ba 183d 5c57 e9bc 17ec 9e3d 5cff 433d
000000b0: f647 7c3c 7d7b 493d 1895 a0bc 1434 dd3c
000000c0: 53da e73b b734 bdbb ea50 a13d 5dc7 633d
000000d0: 21ec 7d3c d98b 3abc 4a2c 6cbc 0169 a2bb
000000e0: 36dc 35bc 9a22 f33d c14c 253c 20de 533d
000000f0: 1a25 a3bc e9c4 253d 275a fa3c 5baa 2ebb
00000100: 3b8a 9cbc 8d9d 43be 014e 463b f615 1f3d
00000110: 71e2 96bc a47a 1d3b 4cbb 253d 579d 98bc
00000120: c754 aabc da93 b53d 666a e73c d5d0 a1bc
00000130: 87f9 223e 27d0 0e3c 20c5 2f3d 74b9 433d
00000140: fccf a03d 0f41 823b c988 18bc 8301 663d
00000150: 5f59 303d 29c5 a03d df9b 303d a540 0e3e
00000160: 2bed 3c3d 0867 073e 5843 213d eae8 c43c
00000170: cde0 f8bc b307 853d e629 1b3d 8195 81bc
00000180: b37c 183d a27f 403d 964f 14be aa0f 0c3d
00000190: 6c4b 4d3d 629c ad3c 0c2e 1d3d a5b8 183d
000001a0: 39b3 853d d50c c5bc aac5 973c 5d0b 723b
000001b0: b812 c4bb 457a ed3a 267f 36bc 88e8 4a3c
000001c0: 9e2f bb3c 44e3 a9bc 4301 853c 9c23 073d
000001d0: efb6 753d e019 bfbc 96fd aabc 0dcb c53c
000001e0: 226d 62bb 430a 6c3c 4749 4abd 9b8e 0e3d
000001f0: 401e 05bd eb78 c23c 5bc5 3b3c 80f4 f83b

encoder.6.weight f4 [128, 128]
-0.09847528 0.08617844 0.123992555 -0.10143634 -0.12182782 0.015436421 -0.047954153 0.102272645
0.045829967 -0.11583499 -0.065353476 -0.054465994 0.066589385 -0.09722915 0.13385837 -0.057178427
0.0029445982 -0.08223251 -0.07397902 -0.04644221 -0.08132795 0.12811022 -0.0233263 -0.03779008
0.07360331 0.09063411 0.13520396 0.08508746 -0.0735989 0.12323303 0.066227935 0.15960133
0.087882936 0.0028815032 0.11605147 -0.012951776 0.013379679 0.038514797 -0.09933727 0.087997645
-0.08963402 0.12523192 -0.052352175 0.07828487 0.08196128 0.09781589 0.07074676 -0.0703145
-0.060233954 -0.045256365 0.0056155534 -0.007317082 -0.09448042 0.0660483 -0.07124724 -0.043864157
0.0040402496 -0.058914468 0.11710807 -0.12643455 0.07194917 0.119196445 0.032073513 0.018824864
0.025712356 -0.077420674 -0.007854149 0.11953778 0.119696416 -0.057732005 -0.0343768 0.16066475
0.12050163 0.046223644 -0.0078829285 -0.02540201 0.09370341 -0.053100932 -0.018829538 0.020438958
-0.01672847 0.10476688 0.07912463 0.10667057 -0.13230972 0.025425922 0.10935168 -0.0054209935
0.046764504 0.068797946 0.0018801916 0.074912086 0.13533305 0.07344276 -0.03820553 -0.06412263
-0.056686044 -0.053173855 0.09465969 -0.0040544663 -0.024493791 -0.1390745 0.04590405 0.037001945
-0.10174986 -0.089330114 -0.0060672774 -0.05715009 -0.033563323 -0.029886799 0.01868107 -0.084450364
-0.14354014 -0.09612948 -0.041135877 0.001216894 -0.04838295 -0.028980134 0.056833494 0.10618128
-0.021749495 0.14181232 -0.018870814 -0.09448439 0.017686889 -0.056577507 0.10211391 0.14147279
0.063905396 0.03370634 0.11280254 0.00949946 0.08387301 0.12394662 0.13506195 0.12118679
0.050909348 -0.010909811 0.10213262 -0.0030911407 -0.10118373 -0.05442037 0.079479404 -0.07068754
0.033666994 0.021295693 0.036448102 -0.074999034 0.08460547 0.03891532 -0.07321515 -0.1521102
0.07948988 -0.029588807 0.10377505 -0.115750894 -0.040182974 -0.02366928 0.063577466 -0.07878208
0.06802345 -0.10920967 -0.12446703 0.11609248 0.106980264 0.123056665 -0.07680211 0.061319947
-0.10830575 0.075276166 0.08600113 0.054555338 0.03741818 0.011315895 0.06984055 0.0303943
0.009377004 0.1741402 -0.109122254 -0.09435743 -0.042420875 0.002908795 -0.106667966 -0.06546085
0.06641624 0.009871784 -0.055661548 0.05438264 0.00012676118 -0.051570103 0.093872815 0.15493195
-0.080406 0.06837472 -0.043305803 -0.12165634 -0.12966381 0.052138202 -0.0775727 -0.14263071
0.12489057 0.12583038 0.0047886064 -0.06700108 -0.020122502 0.13186401 0.10010119 0.09978057
-0.11928911 0.09445315 -0.07068436 -0.07236022 0.05885164 0.10813276 0.07188691 0.013281208
0.1019083 -0.025381112 0.06481981 -0.11270416 0.08363891 0.087996736 0.1443608 -0.10243137
0.06674269 0.05134906 0.11743197 -0.019570429 -0.03325993 0.066439934 -0.067408785 -0.10846537
0.086033344 -0.080805115 0.13549404 0.13333035 0.109798506 -0.061165854 0.05216171 -0.11545387
-0.030100308 0.13495013 0.024344608 -0.07385314 0.11009308 -0.102316424 0.00787322 -0.08620731
0.035859786 -0.020956807 0.12731516 -0.0011288335 0.06719634 -0.09131995 -0.011619065 0.052597933
00000000: 68ad c9bd 527e b03d cfef fd3d dbbd cfbd
00000010: dd80 f9bd 0be9 7c3c 936b 44bd 5274 d13d
00000020: 34b8 3b3d e53a edbd 0bd8 85bd bc17 5fbd
00000030: 0460 883d 1420 c7bd 2b12 093e ed33 6abd
00000040: 29fa 403b 8569 a8bd 5082 97bd 303a 3ebd
00000050: 458f a6bd 532f 033e cc16 bfbc c5c9 1abd
00000060: 55bd 963d 609e b93d e872 0a3e 5642 ae3d
00000070: 05bb 96bd 9961 fc3d 83a2 873d 886e 233e
00000080: f8fb b33d 9ad7 3c3b 65ac ed3d b033 54bc
00000090: 7136 5b3c b1c1 1d3d 5771 cbbd 1c38 b43d
000000a0: 0b92 b7bd cc3c 003e 3c6f 56bd d153 a03d
000000b0: 51db a73d b353 c83d ade3 903d 0c01 90bd
000000c0: e1b7 76bd bd5e 39bd ad02 b83b 22c4 efbb
000000d0: f37e c1bd 5544 873d 13ea 91bd e7aa 33bd
000000e0: 1264 843b 4c50 71bd 5bd6 ef3d 0f78 01be
000000f0: 165a 933d 441d f43d 845f 033d 9a36 9a3c
00000100: b8a2 d23c bb8e 9ebd b0ae 00bc 39d0 f43d
00000110: 6523 f53d 6578 6cbd b0ce 0cbd 4d85 243e
00000120: 8fc9 f63d 0155 3d3d 6627 01bc e017 d0bc
00000130: 93e7 bf3d 5d80 59bd 6740 9abc 9a6f a73c
00000140: 250a 89bc 0590 d63d 180c a23d 1a76 da3d
00000150: 337c 07be 064a d03c c6f3 df3d 97a2 b1bb
00000160: 238c 3f3d f0e5 8c3d c370 f63a 826b 993d
00000170: bf94 0a3e 2869 963d 677d 1cbd ba52 83bd
00000180: a02f 68bd d4cc 59bd f1dc c13d 54db 84bb
00000190: 34a7 c8bc 8c69 0ebe e305 3c3d 5a8f 173d
000001a0: 3b62 d0bd b5f2 b6bd 03d0 c6bb 3616 6abd
000001b0: b279 09bd 29d5 f4bc 0b09 993c 50f4 acbd
000001c0: 30fc 12be 88df c4bd 187e 28bd 3080 9f3a
000001d0: 332d 46bd bf67 edbc 3dca 683d 9275 d93d
000001e0: ff2b b2bc 4037 113e f796 9abc 0881 c1bd
000001f0: 18e4 903c d1bd 67bd 1921 d13d 3ede 103e
00000200: d5e0 823d a90f 0a3d 0505 e73d a0a3 1b3c
00000210: 9dc5 ab3d bad7 fd3d ae4d 0a3e c830 f83d
00000220: 5286 503d 10bf 32bc e82a d13d bc94 4abb
00000230: 6a39 cfbd e5e7 5ebd 19c6 a23d a1c4 90bd
00000240: 67e6 093d 4e74 ae3c 9b4a 153d 1899 99bd
00000250: a245 ad3d ac65 1f3d d3f1 95bd c7c2 1bbe
00000260: 97cb a23d 3a64 f2bc 0388 d43d ce0e edbd
00000270: e796 24bd 14e6 c1bc e734 823d 8058 a1bd
00000280: e14f 8b3d 52a9 dfbd 92e8 febd e5c1 ed3d
00000290: 7818 db3d 2205 fc3d 6d4a 9dbd a02a 7b3d
000002a0: 68cf ddbd 642a 9a3d 5c21 b03d 6b75 5f3d
000002b0: ce43 193d 4e66 393c 9008 8f3d 78fd f83c
000002c0: 01a2 193c cf51 323e 7d7b dfbd 783e c1bd
000002d0: 83c1 2dbd 7ba1 3e3b bc74 dabd 5710 86bd
000002e0: 3d05 883d 43bd 213c 5dfd 63bd 55c0 5e3d
000002f0: 32eb 0439 2c3b 53bd 6440 c03d 7ba6 1e3e
00000300: e7ab a4bd 0c08 8c3d 6d61 31bd f626 f9bd
00000310: 97c6 04be de8e 553d 70de 9ebd c90d 12be
00000320: a1c6 ff3d aed9 003e bee9 9c3b dd37 89bd
00000330: f2d7 a4bc 5c07 073e da01 cd3d c159 cc3d
00000340: d94d f4bd a770 c13d f6c2 90bd 9831 94bd
00000350: 6b0e 713d b574 dd3d 7239 933d 6d99 593c
00000360: 4cb5 d03d 0dec cfbc 40c0 843d 70d1 e6bd
00000370: e04a ab3d a237 b43d 51d3 133e 8ac7 d1bd
00000380: 64b0 883d 6453 523d 2c80 f03d 2a52 a0bc
00000390: 903b 08bd a911 883d 9e0d 8abd 1823 debd
000003a0: 4032 b03d 277d a5bd f3be 0a3e c087 083e
000003b0: 0ade e03d 0c89 7abd 84a7 553d 1473 ecbd
000003c0: ec94 f6bc 5e30 0a3e 586e c73c 5140 97bd
000003d0: 7b78 e13d 468b d1bd aefe 003c 758d b0bd
000003e0: b6e1 123d 9cad abbc e85e 023e 5ef5 93ba
000003f0: 3c9e 893d f405 bbbd e45d 3ebc ee70 573d

encoder.6.bias f4 [128]
0.031227171 0.02815334 -0.007303747 -0.0021827172 0.03639655 -0.01668822 0.033415493 -0.015884772
-0.028960349 -0.015734563 -0.022588948 0.0054446436 0.0021260811 0.0017100937 -0.010477848 0.03928244
0.036749836 -0.020934302 -0.034616604 0.013004102 0.0029048664 0.0004323152 0.034107 -0.024142884
-0.024150971 0.0034832438 0.033198774 0.06587156 -0.025152266 0.043359473 0.0069804336 -0.034421865
0.029879626 0.028750388 0.056149185 0.03603398 0.047701508 -0.029749168 0.0038279751 0.07992741
0.021217113 0.016959669 0.000658576 0.007250618 0.025391031 -0.0023097936 -0.0018791623 -0.017026903
0.016346471 -0.008887429 0.030022744 0.02462652 0.018345596 -0.026832374 0.04486961 0.042989142
0.03060848 0.03153003 0.046996266 0.0005333503 -0.014573975 -0.015644785 0.03205181 -0.04160411
0.051692937 0.070805125 0.016985433 -0.03794987 0.058730602 0.020228352 0.022571573 0.030263586
0.016484866 0.04545222 0.018074552 0.007462551 0.025239322 -0.016870786 -0.01903906 0.032198858
0.005502712 -0.02948943 0.06023084 -0.025665157 0.011234578 0.019743871 0.048572876 0.043067332
-0.024285758 -0.041123766 0.007762258 0.04566115 -0.009094847 -0.011949936 -0.0035346958 0.06045651
0.12165574 0.009366215 -0.027867738 -0.011321962 0.021797877 0.010641037 0.041025076 0.053678382
0.04970679 0.084942624 -0.018237412 -0.009786221 -0.021933803 -0.012252148 0.007960709 0.0147982985
0.033821844 0.042149138 0.04509189 0.037077706 -0.015497978 -0.02607078 -0.018761788 -0.020325454
0.019033069 -0.028288744 0.04091648 -0.012255046 0.02468303 0.012046306 -0.014618106 -0.01955183
00000000: 20d0 ff3c d5a1 e63c 4554 efbb eb0b 0fbb
00000010: 8c14 153d bcb5 88bc afde 083d c820 82bc
00000020: 413e edbc c5e5 80bc 750c b9bc fb68 b23b
00000030: b955 0b3b 3925 e03a 48ab 2bbc a0e6 203d
00000040: ff86 163d 6a7e abbc 24ca 0dbd 280f 553c
00000050: 925f 3e3b 5da8 e239 c8b3 0b3d 4cc7 c5bc
00000060: 42d8 c5bc 2247 643b 70fb 073d abe7 863d
00000070: 200c cebc b499 313d 1fbc e43b f1fd 0cbd
00000080: 1ec6 f43c ef85 eb3c b0fc 653d 5e98 133d
00000090: a862 433d 87b4 f3bc c4de 7a3b fbb0 a33d
000000a0: 83cf ad3c 01ef 8a3c 4aa4 2c3a 9896 ed3b
000000b0: da00 d03c e85f 17bb 394e f6ba 017c 8bbc
000000c0: 09e9 853c 949c 11bc 42f2 f53c 8ebd c93c
000000d0: 8149 963c 91cf dbbc 32c9 373d 6215 303d
000000e0: a3be fa3c a225 013d 287f 403d 88d0 0b3a
000000f0: aec7 6ebc 7e29 80bc c248 033d 1269 2abd
00000100: f9bb 533d 4702 913d 0925 8b3c 5371 1bbd
00000110: 808f 703d eeb5 a53c 05e8 b83c 57eb f73c
00000120: 450b 873c 1b2c 3a3d 1511 943c 6a88 f43b
00000130: b2c2 ce3c 9a34 8abc cef7 9bbc f3e2 033d
00000140: 1850 b43b d193 f1bc 9db4 763d bc3f d2bc
00000150: 3c11 383c e6bd a13c 5af4 463d 5f67 303d
00000160: edf2 c6bc 6571 28bd 8a5a fe3b 3007 3b3d
00000170: 8e02 15bc aac9 43bc 5ba6 67bb 3fa1 773d
00000180: a526 f93d c174 193c e24a e4bc c07f 39bc
00000190: 7691 b23c be57 2e3c e909 283d dddd 5b3d
000001a0: 5999 4b3d 66f6 ad3d a066 95bc 6356 20bc
000001b0: 85ae b3bc 3cbd 48bc a26d 023c 9074 723c
000001c0: c688 0a3d 93a4 2c3d 46b2 383d cbde 173d
000001d0: 3beb 7dbc 6392 d5bc 52b2 99bc 9181 a6bc
000001e0: 3deb 9b3c ccbd e7bc 0a98 273d 63c9 48bc
000001f0: 1134 ca3c df5d 453c c880 6fbc 292b a0bc

encoder.8.weight f4 [64, 128]
-0.058530677 0.035097256 0.109758295 -0.06715484 0.0027499837 -0.04848454 -0.0144816935 -0.13515821
0.12611985 -0.0602381 0.124413505 0.11122052 -0.0879372 0.056092087 -0.11635182 -0.077527985
-0.08239314 0.04186974 -0.07981931 0.10670667 -0.069728814 -0.08280261 0.053625166 -0.004409625
-0.032128733 -0.14243683 0.0758142 -0.02238328 0.19067879 -0.16647914 -0.03410241 0.004550578
-0.01266312 -0.09184192 0.09991636 -0.026555467 0.049779095 0.10384025 -0.08159063 -0.017628383
0.09006182 -0.01262658 0.03948221 -0.15929902 0.10938504 -0.14258371 -0.021934435 0.094533004
0.10136372 -0.14498487 0.06262536 0.14297795 -0.07955913 0.07745038 -0.024653574 0.031890746
-0.08179095 0.12464993 0.124958724 -0.12619147 -0.11735191 -0.044121437 0.10119369 -0.062936045
0.12841325 -0.18972896 0.022116262 0.015312049 0.10722391 0.142989 -0.09759281 0.015241487
-0.17490524 -0.010250993 -0.13659614 -0.053760473 -0.1559319 0.14097087 0.14521404 -0.18205972
0.0119656 -0.00641363 0.17671569 -0.08291233 0.1601755 -0.053528756 0.064557746 0.028250292
0.010788401 -0.13498312 0.035762608 -0.10148043 0.13689224 -0.009199558 0.10129928 -0.016777698
-0.08806792 -0.057772014 -0.03737527 -0.10526225 -0.006560334 0.011720313 0.08800062 -0.09072427
-0.051690575 0.0600116 0.121292844 0.13016872 -0.014380998 0.033103995 0.069877364 -0.11308373
-0.11616517 -0.033006683 0.024208235 -0.048268907 0.048831064 -0.08074318 0.08309971 0.067197956
-0.0671801 -0.059274256 0.15750581 -0.052338485 0.16264996 -0.19310664 0.10309327 0.10108115
0.06953125 0.06698037 0.07493673 0.043527637 -0.027642554 -0.0013891034 -0.027754247 -0.04640643
0.082395226 -0.0956368 0.033033796 -0.15872565 -0.1497289 -0.15362294 -0.10044299 0.13065615
0.02932218 0.13602892 0.047796387 -0.16179976 -0.088824004 0.026880914 0.032974035 0.12471773
-0.12893562 -0.08368213 -0.009999864 0.03538045 0.04636378 -0.10293324 -0.06277592 -0.036787324
-0.038083076 0.15074769 0.02115915 0.11634494 -0.027281256 -0.03898631 0.12189986 -0.11666856
-0.13058347 -0.08225395 -0.020633087 -0.17768212 0.08318112 -0.15056482 -0.13541283 -0.15687297
-0.07432847 0.04894935 0.020352837 -0.06154167 -0.05695277 -0.02528283 -0.10520162 -0.0049928715
0.15765345 0.15051219 0.10521094 0.086361736 -0.0826492 -0.11719058 -0.13426739 -0.12285782
-0.1556011 -0.07676064 0.07297182 0.001938765 -0.112460196 -0.1272901 -0.15160736 -0.022595242
0.04979406 -0.13763897 0.016914723 0.09042657 0.06524972 0.09527115 0.14882775 0.010081768
0.083457045 -0.09298041 0.08750836 0.02553027 -0.09232492 0.16255131 0.061232917 0.111429326
0.06304898 0.038389318 0.15893985 -0.023854226 -0.15282942 0.04933763 -0.058657758 0.107872486
0.011888884 -0.02701553 0.09647376 -0.092863664 0.014122486 0.07548693 0.090527244 -0.08982157
0.0343692 -0.12175863 0.17519566 -0.107847266 0.03073233 -0.060369976 0.03707881 0.009405908
-0.059940316 0.14935885 0.01883123 0.05273992 -0.07703839 -0.15719026 -0.04911288 0.0050919726
0.114006944 -0.048408426 -0.12027301 0.1185609 0.113282494 0.09948777 -0.048950482 -0.033851147
00000000: ddbd 6fbd 24c2 0f3d f5c8 e03d 7a88 89bd
00000010: 1239 343b ba97 46bd a044 6dbc ea66 0abe
00000020: 9025 013e 3abc 76bd 82cc fe3d 96c7 e33d
00000030: 6b18 b4bd d1c0 653d dd49 eebd fec6 9ebd
00000040: bcbd a8bd 9b7f 2b3d 4e78 a3bd 0789 da3d
00000050: fbcd 8ebd 6a94 a9bd 10a6 5b3d 9e7e 90bb
00000060: 6b99 03bd f6da 11be 7a44 9b3d 245d b7bc
00000070: 4d41 433e 8279 2abe f8ae 0bbd 041d 953b
00000080: fa78 4fbc 9e17 bcbd f3a0 cc3d da8a d9bc
00000090: 2ae5 4b3d 32aa d43d fd18 a7bd 6669 90bc
000000a0: 5572 b83d b7df 4ebc 19b8 213d 481f 23be
000000b0: 4405 e03d 7701 12be d8af b3bc 859a c13d
000000c0: c897 cf3d ea76 14be ba41 803d d068 123e
000000d0: e6ef a2bd 4e9e 9e3d 4bf6 c9bc df9f 023d
000000e0: 0382 a7bd 7648 ff3d 5cea ff3d 5638 01be
000000f0: 3356 f0bd aeb8 34bd a33e cf3d 9de4 80bd
00000100: c37e 033e 4f48 42be 2a2d b53c 63df 7a3c
00000110: 3698 db3d b56b 123e bdde c7bd 6eb7 793c
00000120: 5c1a 33be c8f3 27bc dcdf 0bbe f133 5cbd
00000130: 9dac 1fbe ab5a 103e fdb2 143e dd6d 3abe
00000140: 5d0b 443c 6e29 d2bb f5f4 343e f1cd a9bd
00000150: 0c05 243e f840 5bbd da36 843d 286d e73c
00000160: d5c1 303c 0439 0abe d07b 123d f9d4 cfbd
00000170: 7b2d 0c3e beb9 16bc ff75 cf3d 6271 89bc
00000180: f45c b4bd 59a2 6cbd d016 19bd bc93 d7bd
00000190: 12f8 d6bb 8e06 403c ab39 b43d a5cd b9bd
000001a0: 7fb9 53bd b9ce 753d 6268 f83d f34a 053e
000001b0: 479e 6bbc 0e98 073d dd1b 8f3d 7198 e7bd
000001c0: 01e8 edbd 0432 07bd 5950 c63c 9eb5 45bd
000001d0: 1503 483d ae5c a5bd 2e30 aa3d 159f 893d
000001e0: b895 89bd 90c9 72bd 3449 213e e160 56bd
000001f0: b68d 263e bfbd 45be 9022 d33d a203 cf3d
00000200: 6666 8e3d 012d 893d 6e78 993d 094a 323d
00000210: a372 e2bc 9312 b6ba e05c e3bc ab14 3ebd
00000220: d4be a83d 3add c3bd 724e 073d fa88 22be
00000230: 8852 19be 554f 1dbe 0eb5 cdbd baca 053e
00000240: 1235 f03c 2a4b 0b3e 25c6 433d d6ae 25be
00000250: 5ce9 b5bd 5d35 dc3c c80f 073d 026c ff3d
00000260: b307 04be 8961 abbd 78d6 23bc 17eb 103d
00000270: f2e7 3d3d aace d2bd a990 80bd 4eae 16bd
00000280: 00fd 1bbd 9a5d 1a3e f455 ad3c 4246 ee3d
00000290: f17c dfbc 1cb0 1fbd a2a6 f93d edef eebd
000002a0: acb7 05be c274 a8bd b806 a9bc 4df2 35be
000002b0: dd5a aa3d aa2d 1abe a9a9 0abe 4fa3 20be
000002c0: 8639 98bd 1d7f 483d feba a63c 1e13 7cbd
000002d0: 4f47 69bd f01d cfbc f273 d7bd 3e9b a3bb
000002e0: e86f 213e de1f 1a3e d578 d73d 6cde b03d
000002f0: fc43 a9bd 9d01 f0bd 647d 09be e19c fbbd
00000300: e555 1fbe af34 9dbd 4072 953d 291e fe3a
00000310: 8851 e6bd 5658 02be f63e 1bbe a819 b9bc
00000320: dbf4 4b3d 3bf1 0cbe bf90 8a3c 9131 b93d
00000330: a5a1 853d 851d c33d 4d66 183e 002e 253c
00000340: 87eb aa3d 836c bebd 9537 b33d db24 d13c
00000350: d914 bdbd da73 263e 5ecf 7a3d 0f35 e43d
00000360: d31f 813d 1e3e 1d3d 21c1 223e f069 c3bc
00000370: 517f 1cbe 4116 4a3d 1e43 70bd 40ec dc3d
00000380: 98c9 423c ac4f ddbc 0994 c53d 4e2f bebd
00000390: 0062 673c e498 9a3d 5966 b93d 5ff4 b7bd
000003a0: b8c6 0c3d 975c f9bd 7e66 333e 07df dcbd
000003b0: 5ec2 fb3c 8246 77bd f3df 173d 3d1b 1a3c
000003c0: fa83 75bd 87f1 183e f443 9a3c d005 583d
000003d0: 4ec6 9dbd 7cf6 20be 962a 49bd 90da a63b
000003e0: 797c e93d ea47 46bd b251 f6bd 0fd0 f23d
000003f0: a700 e83d 3ec0 cb3d 4d80 48bd 80a7 0abd

encoder.8.bias f4 [64]
-0.019276088 -0.012369243 -0.028152453 -0.003189301 -0.01068062 0.019379206 0.010971565 0.0040351367
0.019381303 -0.0057361424 -0.003812375 0.0036930293 -0.016760785 -0.009250752 0.011671408 0.06445398
0.039373253 -0.030693242 -0.014837178 -0.008779137 0.021520533 0.0038866245 0.006787248 -1.1088624e-05
0.025835998 0.008241059 -0.007451453 -0.005119518 0.007374264 -0.010574634 0.024787934 0.00837343
-1.6306652 -2.1282566 -1.590985 -2.235088 -2.041207 -2.3362184 -2.2113106 -2.3372102
-1.4968213 -2.2228715 -2.4305468 -1.3875427 -2.4196973 -1.4302629 -2.4590292 -1.3291159
-1.4226905 -1.2230561 -2.3797295 -1.3974373 -1.9594375 -1.032451 -1.5406781 -1.6150242
-0.9211359 -1.5629674 -1.3856869 -1.4726466 -2.1920125 -2.4468718 -2.4556928 -2.182018
00000000: e3e8 9dbc 5ea8 4abc f99f e6bc 9703 51bb
00000010: c4fd 2ebc 24c1 9e3c 14c2 333c 2e39 843b
00000020: 8ac5 9e3c 40f6 bbbb 0ad9 79bb c006 723b
00000030: ea4d 89bc 7790 17bc 6f39 3f3c 7300 843d
00000040: d945 213d 6570 fbbc a317 73bc 5fd6 0fbc
00000050: d44b b03c bdb6 7e3b 9067 de3b 4709 3ab7
00000060: 04a6 d33c 8205 073c 512b f4bb a1c1 a7bb
00000070: cfa3 f13b 3b41 2dbc 1110 cb3c b630 093c
00000080: a3b9 d0bf 5b35 08c0 65a5 cbbf af0b 0fc0
00000090: 23a3 02c0 9a84 15c0 1d86 0dc0 da94 15c0
000000a0: d797 bfbf 8743 0ec0 148e 1bc0 009b b1bf
000000b0: 52dc 1ac0 db12 b7bf bc60 1dc0 7820 aabf
000000c0: b91a b6bf 1a8d 9cbf 7d4d 18c0 3adf b2bf
000000d0: d9ce fabf 5b27 84bf f134 c5bf 1db9 cebf
000000e0: 90cf 6bbf 510f c8bf 305e b1bf af7f bcbf
000000f0: ef49 0cc0 8c99 1cc0 122a 1dc0 2fa6 0bc0
