models/y01vae_dim_16_banana.pt (torch, 446438 bytes, 22 tensors)

encoder.0.weight f4 [128, 16]
0	0xbb2fd414	-0.002682929
1	0x3cebc4a4	0.028780289
2	0xbcc9c28a	-0.024628896
3	0x3b6d429f	0.003620304
4	0xbaac01d7	-0.0013123107
5	0xbccedd92	-0.025252137
6	0x3cf97ccd	0.030455017
7	0x3be71db8	0.0070531033
8	0x3bb767c6	0.0055970876
9	0x3cfc52a3	0.030801123
10	0xbc51d83d	-0.012807903
11	0x3b85bc36	0.0040812744
12	0xbc06fbe9	-0.008238771
13	0xbc33baaa	-0.010969797
14	0x3e14d57a	0.1453456
15	0xbcc753cf	-0.024331955
16	0xb9fbfc3a	-0.00048062374
17	0x3c94c110	0.018158466
18	0x3b9d7183	0.0048047914
19	0xb996f3dc	-0.0002879192
20	0xbd2b8599	-0.041875456
21	0xbd95387c	-0.07286164
22	0xba16c1cc	-0.0005750924
23	0x3d203f70	0.039123
24	0xbd66b421	-0.056324128
25	0xbcf06880	-0.029346704
26	0xbd57f1d3	-0.052720856
27	0xbd5af180	-0.05345297
28	0x3d6976c5	0.056998033
29	0xbaf9d514	-0.0019060695
30	0x3d5e674f	0.05429774
31	0x3c17d310	0.00926663
32	0xbc7f3297	-0.015576026
33	0x3ea73166	0.32654876
34	0xbd1188b1	-0.03553075
35	0xba9bd42c	-0.0011888794
36	0xbe08d4ef	-0.13362478
37	0xbd9dbc48	-0.077019274
38	0xbc88b0e3	-0.016685909
39	0x3c96a0eb	0.018387279
40	0x3cdb945f	0.026804147
41	0xbda3bc38	-0.07994884
42	0x3d162bdc	0.03666292
43	0xbde9eb2e	-0.1142181
44	0x3d16baaa	0.03679911
45	0xbe0d007d	-0.13769718
46	0xbd6af5bc	-0.057363257
47	0x3ccbf2cf	0.024896054
48	0xbcc14f38	-0.023597345
49	0xba43dbf3	-0.00074714347
50	0x3d91f6e5	0.071271695
51	0xbd502948	-0.05082062
52	0x3cc87440	0.024469495
53	0xbbfd3c58	-0.007728141
54	0x3d14d17e	0.0363326
55	0xbcdb0d85	-0.026739845
56	0xbbb52fb6	-0.005529369
57	0xbc6fa598	-0.014626883
58	0x3d3ecfe4	0.04658498
59	0xbe0fe26a	-0.14051214
60	0xbdbea885	-0.09309486
61	0x3d8607dc	0.06544468
62	0xbd6f2352	-0.058383293
63	0x3aa2ab1f	0.0012410617
64	0x3da1cfb7	0.079009466
65	0xbd322b10	-0.0434981
66	0x3d116f4d	0.035506535
67	0x3cf13162	0.029442493
68	0x3db66017	0.089050464
69	0xbdaa3d48	-0.0831247
70	0xbdebb3b3	-0.11508884
71	0x3d633a2d	0.055475403
72	0xbb840df8	-0.0040299855
73	0xbdb17e8d	-0.08666716
74	0xbd3a0ca9	-0.04542223
75	0xbcb436a2	-0.021998707
76	0xbbf2242c	-0.007389566
77	0xbc3adf3b	-0.011405761
78	0x3c891211	0.016732248
79	0x3e66e401	0.22547914
80	0x3c2233ae	0.009900017
81	0xbd249b03	-0.040186893
82	0x3de89014	0.11355606
83	0xbd97b941	-0.07408381
84	0x3d8b0a43	0.06789067
85	0xbd948ea9	-0.07253773
86	0xbace8d6f	-0.0015758703
87	0x3c5329cb	0.012888382
88	0xbd13d1d7	-0.03608879
89	0x3cf3b36e	0.029748645
90	0xbcc77336	-0.024346929
91	0x3ae77629	0.0017659116
92	0x3d2842d8	0.041079372
93	0x3d0e97ac	0.034812614
94	0xbc383c09	-0.011244782
95	0xbc241f13	-0.010017174
96	0x3d3995de	0.04530894
97	0x3e8208fe	0.25397485
98	0xbd4c62d8	-0.049898952
99	0x3be7154a	0.0070520984
100	0x3cd03550	0.025416046
101	0x3cbd01ab	0.023072084
102	0x3d3f37e5	0.046684165
103	0x3dff309d	0.12460444
104	0xbca2c530	-0.019869417
105	0x3af6dd3f	0.0018834247
106	0xbe3a398f	-0.1818602
107	0xbe1b56cd	-0.1516983
108	0x3b9f0bfc	0.0048537236
109	0xbc03d580	-0.008046508
110	0xbbc34131	-0.005958699
111	0xbd9a0224	-0.075199395
112	0xbdd7e30b	-0.10541352
113	0x3dcb9208	0.099399626
114	0x3d9d037b	0.076666795
115	0x3dc47440	0.095924854
116	0xbd518340	-0.05115056
117	0x3df773b7	0.12082618
118	0xbbc74591	-0.006081291
119	0x3d3d6a13	0.04624374
120	0x3d9d560c	0.07682428
121	0xbd108d02	-0.035290726
122	0xbda832ca	-0.08212812
123	0x3dabbf02	0.08386041
124	0x3cb8d213	0.022561109
125	0xbd3190cc	-0.04335098
126	0x3d99c943	0.07509091
127	0x3cf2e6a5	0.029650996
128	0xba8785ee	-0.0010339597
129	0x3c2cd816	0.010549566
130	0xbd1e1cac	-0.038601562
131	0x3d26d7d2	0.040733166
132	0x3a1196ce	0.00055537827
133	0xbd46cfe8	-0.04853812
134	0xbcb25b50	-0.021772057
135	0x3d3df3a0	0.046374917
136	0xbd89e6af	-0.067334525
137	0xbdf59524	-0.11991337
138	0xbc0c4d77	-0.008563391
139	0x3c1db7c9	0.009626337
140	0xb8f8fba5	-0.00011872434
141	0xbd499d7f	-0.049222466
142	0x3dc3d9e2	0.09563042
143	0xbe08a67b	-0.13344757
144	0x3d722e74	0.059126332
145	0x3da750cc	0.08169708
146	0x3d5539de	0.05205714
147	0x3e4c72ac	0.19965619
148	0x3d1d2e45	0.038374204
149	0x3e940527	0.2891018
150	0xbceee168	-0.029160216
151	0xbe7b9ddc	-0.24571937
152	0x3cf82470	0.030290812
153	0xbe264b97	-0.16239773
154	0x3d9c7f5d	0.0764148
155	0xbe272bcc	-0.16325301
156	0x3daacf54	0.08340326
157	0x3d8bc797	0.06825178
158	0x3d35f644	0.04442431
159	0xbe7e8009	-0.24853529
160	0x3c9080bd	0.017639512
161	0xbae441e3	-0.0017414655
162	0x3d8b73e1	0.068092115
163	0xbdebb372	-0.11508836
164	0xbce7ce5b	-0.02829664
165	0x3d5ccb44	0.053904787
166	0xbdaece9b	-0.085355006
167	0x3d78d414	0.06074913
168	0x3add6e1c	0.0016893777
169	0x3d797ace	0.06090813
170	0x3d1f3ea5	0.0388781
171	0xbe8b66cc	-0.27226865
172	0xbe32e386	-0.17469606
173	0x3dca27e0	0.09870887
174	0x3d2823eb	0.04104988
175	0x3d8d8fa5	0.06912164
176	0x3d5c34c9	0.053761277
177	0x3d98b3c8	0.074561656
178	0x3d375a73	0.044763993
179	0x3d25364e	0.040334992
180	0xbd822ee1	-0.06356598
181	0xbe4f2bd8	-0.20231569
182	0xbdcca53d	-0.09992454
183	0xbdd72e06	-0.10506825
184	0xbdab55fb	-0.08366009
185	0x3cf51e02	0.029921535
186	0x3ce63b19	0.028104352
187	0x3ccb1f87	0.024795307
188	0xbabbcda8	-0.0014328258
189	0xbdfee8bd	-0.12446735
190	0x3cf51394	0.029916562
191	0xbcd97af1	-0.02654788
192	0xbb5ebc69	-0.0033986813
193	0x3da1f10f	0.079073064
194	0xbc24d26d	-0.010059935
195	0xbd0704ef	-0.03296369
196	0xbce92c76	-0.028463583
197	0xbd8a848f	-0.06763565
198	0xbca46e5f	-0.02007216
199	0xbcb687cd	-0.022281552
200	0x3d0cc7e6	0.034370326
201	0x3bb2878b	0.005448287
202	0x3c9727ce	0.018451598
203	0xbc70e384	-0.014702681
204	0x3cacb9dc	0.021084718
205	0xbac7088e	-0.0015185045
206	0xbd3e8618	-0.0465146
207	0xbca41250	-0.020028263
208	0xbcda6f15	-0.026664296
209	0x3c1a7ebb	0.009429629
210	0xbd951692	-0.072796956
211	0xbe67bedb	-0.226314
212	0xbda567c2	-0.08076431
213	0x3e262b98	0.16227567
214	0xbd803257	-0.062596016
215	0xbc4e83b4	-0.012604643
216	0xbd147639	-0.03624556
217	0x3dd50f4b	0.104033075
218	0x3cae4140	0.021271348
219	0x3e0d995d	0.13828035
220	0x3d831f86	0.06402497
221	0x3e692299	0.22767104
222	0xbadfcb18	-0.0017074076
223	0xbd4ddb52	-0.05025799
224	0xbdadcac8	-0.08485943
225	0xbda4af24	-0.08041218
226	0x3c0f1c97	0.008734844
227	0x3da248d3	0.07924046
228	0xbda45073	-0.08023157
229	0x3ca3022c	0.019898497
230	0x3d18cba9	0.0373036
231	0xbcc294cb	-0.02375259
232	0xbddb4cc2	-0.10708
233	0x3db1b5a7	0.086772256
234	0xbd1cf0a5	-0.038315434
235	0x3d03eb03	0.032206547
236	0xbda5b8bb	-0.08091875
237	0xbd5af59a	-0.05345688
238	0xbc08742e	-0.008328481
239	0xbda79164	-0.08182028
240	0xbd2bd201	-0.041948322
241	0xbd8de73e	-0.069288716
242	0xbd204cdd	-0.039135803
243	0xbd1e592d	-0.038659263
244	0x3d5f95fa	0.05458639
245	0x3e2e64ba	0.17030612
246	0x3dc0fb30	0.0942291
247	0x3de6b854	0.112656265
248	0x3db0468b	0.08607205
249	0xbc7b39ba	-0.015333587
250	0xbce27d82	-0.027647737
251	0xbc375e1b	-0.01119187
252	0x3bad3205	0.005285504
253	0x3de45aa7	0.11150103
254	0xbcf37154	-0.029717125
255	0x3c02acb1	0.007975743

encoder.0.bias f4 [128]
0	0x3d8aeb59	0.0678317
1	0xbca58929	-0.020207005
2	0x3d97bd45	0.07409147
3	0x3d86d9da	0.06584521
4	0x3c86f7c4	0.016475566
5	0x3cd5b9e2	0.026089612
6	0x3c465380	0.012104869
7	0x3d22aae5	0.03971376
8	0x3e506c9c	0.20353931
9	0x3d1a2e49	0.037641797
10	0xbcfc6762	-0.030811016
11	0xbc0766c1	-0.0082642445
12	0xbd2ec869	-0.042671595
13	0x3df318d3	0.11869969
14	0xbcb617d7	-0.022228165
15	0x3c576a7a	0.013147945
16	0xbc5727de	-0.013132064
17	0xbcb1d318	-0.021707103
18	0x3cb9c49c	0.022676758
19	0x3d920737	0.07130282
20	0xbafd8f24	-0.0019345027
21	0x3c3d6a13	0.011560935
22	0xbd3aad36	-0.045575343
23	0xbd7fc2bc	-0.062441573
24	0xbcefb902	-0.029263023
25	0xbd0454cf	-0.032307442
26	0x3bf046f0	0.007332675
27	0xbcc22427	-0.02369888
28	0xbd047ca3	-0.032345425
29	0xbc9306b1	-0.017947527
30	0xbc205811	-0.009786622
31	0x3c242607	0.010018832
32	0x3cb3560e	0.02189162
33	0x3d467e6b	0.048460405
34	0xbc397703	-0.0113198785
35	0xbd2ff1ba	-0.042955138
36	0x3b0b302d	0.0021238432
37	0x3d2939c3	0.04131485
38	0xbe003b45	-0.1252261
39	0x3e064fbb	0.13116352
40	0x3d7b4929	0.061349068
41	0xbd4196af	-0.047262844
42	0x3b834ab2	0.004006707
43	0x3d1f8b8f	0.038951453
44	0x3c6c187e	0.014410136
45	0x3a51f8c7	0.0008009788
46	0x3bea0385	0.007141533
47	0xb979421f	-0.00023771123
48	0x3a10de89	0.00055263244
49	0x3d00d0bd	0.03144907
50	0x3cee53cd	0.029092694
51	0x3d016c02	0.031597145
52	0x3bac1e1a	0.005252612
53	0x3d47bee6	0.04876604
54	0x3d665bde	0.056239955
55	0x3d59f8b2	0.05321569
56	0x3d2a4cfa	0.041577317
57	0xbd6e7678	-0.05821845
58	0xbcfe11ee	-0.031014409
59	0xbcfa3ef5	-0.030547598
60	0x3d54e5a6	0.051976822
61	0xbd70487f	-0.058662888
62	0xbd1fa7a0	-0.03897822
63	0xbcef5a06	-0.029217731
64	0x3e08ac52	0.13346985
65	0xbcb12720	-0.021625102
66	0x3c42272c	0.01185016
67	0x3ceedcda	0.029158045
68	0xbc783cdb	-0.015151228
69	0xbbc785f7	-0.006088968
70	0x3e3b3187	0.18280612
71	0x3e8828ad	0.26593533
72	0x39f3ea6c	0.0004652323
73	0xbd08ee97	-0.033430662
74	0x3c0500e8	0.008117892
75	0xbd6b1d96	-0.057401262
76	0xbc5347d9	-0.012895548
77	0xbd3c020f	-0.0459004
78	0xbdcb0d2d	-0.099146225
79	0x3b38a731	0.0028175826
80	0x3d8742fb	0.066045724
81	0x3a87a68d	0.0010349319
82	0x3c40d01f	0.01176837
83	0xbc1fac87	-0.009745724
84	0x3d8a2d47	0.06746917
85	0xbbbf7d65	-0.0058438056
86	0xba16cd99	-0.00057526823
87	0x3bcef269	0.0063155186
88	0xbcf5e9d7	-0.03001873
89	0x3ccb6978	0.024830565
90	0xb9a6830a	-0.0003175962
91	0x3c8deeed	0.017325843
92	0xbd1cbd61	-0.038266543
93	0xbbb01900	-0.005374074
94	0x3d2df3f2	0.042468973
95	0x3c352d49	0.01105816
96	0x3dae840c	0.0852128
97	0x3d847887	0.06468301
98	0xbcf5b0a5	-0.029991457
99	0x3d6db086	0.058029674
100	0xbd7dbaae	-0.06194561
101	0xbdb1fd8a	-0.08690937
102	0x3bc38f75	0.005968029
103	0xbc90542b	-0.01761826
104	0x3c450141	0.012024225
105	0x3d7ca5b7	0.061681475
106	0xbd10f87f	-0.035393234
107	0x3b827771	0.0039815237
108	0xbc33a961	-0.010965676
109	0x3b9da168	0.004810501
110	0xbce2ed1c	-0.027700953
111	0x3d0f9428	0.035053402
112	0x3c6e69ed	0.014551622
113	0xbd0fb814	-0.03508766
114	0x3d808467	0.06275254
115	0x3d6441e2	0.055726893
116	0x3d585d58	0.052823395
117	0xbd4d24fd	-0.050084103
118	0x3be5a5ac	0.007008275
119	0x3b964c8d	0.0045867623
120	0x3d924e76	0.071438715
121	0x3dadfc26	0.08495359
122	0x3d63de34	0.05563183
123	0x3ca34ff8	0.019935593
124	0x3dd6178a	0.104537085
125	0xbb87d27c	-0.0041449647
126	0x3da62625	0.08112744
127	0x3ba27c16	0.00495864

encoder.2.weight f4 [128, 128]
0	0x3d816df9	0.06319804
1	0x3d8f8500	0.070077896
2	0xbe0791b5	-0.13239177
3	0x3d48d259	0.04902873
4	0x3d63944a	0.05556134
5	0x3e3df61a	0.18550912
6	0x3c746ea2	0.014918955
7	0x3cdc3f9b	0.026885798
8	0xbdb9397a	-0.09044166
9	0xbd9015e0	-0.07035422
10	0xbd4886ce	-0.048956685
11	0x3de36990	0.11104119
12	0x3d746c39	0.05967352
13	0x3b212ef8	0.0024594646
14	0x3e2d885f	0.16946553
15	0xbd71cbd7	-0.059032287
16	0x3ccc0c11	0.024908097
17	0xbd24c88d	-0.040230323
18	0x3d4b6260	0.049654365
19	0x3dc77e28	0.09740859
20	0x3a8be90b	0.0010674311
21	0xbde8a98a	-0.11360462
22	0xbc0bf1f6	-0.008541575
23	0xbc8bd7b6	-0.017070632
24	0x3cdac65e	0.026705917
25	0xbc34a11b	-0.011024739
26	0xbca8a3ab	-0.020585855
27	0xbda53149	-0.08066041
28	0x3b043264	0.0020171637
29	0xbe1597b2	-0.14608648
30	0x3e04ea01	0.1297989
31	0x3de26399	0.11054153
32	0xbd6d5c02	-0.057949074
33	0x3dfabd65	0.122431554
34	0x3dd598d2	0.10429539
35	0xbc8779eb	-0.016537627
36	0x3b34d371	0.002759185
37	0x3da1bb8d	0.078971006
38	0x3dd02a35	0.101643
39	0xbe0765a6	-0.1322237
40	0x3e088ceb	0.13335006
41	0x3d5a47e6	0.053291224
42	0x3b6350d2	0.0034685624
43	0xbac8808f	-0.0015297103
44	0x3c4d375e	0.012525408
45	0xbdd1f225	-0.102512635
46	0x3e0d757d	0.1381435
47	0x3cbf1bab	0.023328623
48	0xbdda772a	-0.1066726
49	0x3d98974d	0.07450733
50	0x3d75c1d4	0.059999302
51	0xbd8862e5	-0.06659488
52	0x3de4b632	0.111675635
53	0xbb9921c3	-0.004673214
54	0xbdc6ecea	-0.097131565
55	0xbd32c341	-0.04364324
56	0x3c913c8e	0.01772907
57	0xbce12411	-0.027483018
58	0x3dc579cc	0.096423715
59	0xbcfa4813	-0.030551946
60	0x3e097ad1	0.13425757
61	0x3dc37035	0.09542886
62	0xbdad4ddf	-0.08462118
63	0x3becc353	0.007225433
64	0x3cc80fdc	0.024421625
65	0x3d864301	0.06555749
66	0x3ac8526d	0.0015283354
67	0x3cc9edd7	0.024649544
68	0x3c027bd1	0.00796409
69	0xba4b923e	-0.0007765627
70	0x3d269c1d	0.040676225
71	0x3d61fc58	0.055172294
72	0xbc723b04	-0.014784578
73	0x3b9a49de	0.0047085127
74	0xbdde7854	-0.108627945
75	0x3c49c055	0.012313922
76	0xbc8b872a	-0.017032225
77	0x3dcef49a	0.10105248
78	0x3d65b961	0.056084994
79	0x3d64748b	0.055775207
80	0xbdd36961	-0.10322834
81	0xbd88b7f0	-0.06675708
82	0x3dcd4ce0	0.10024428
83	0x3dcaf1a7	0.09909373
84	0x3dc97b64	0.09837988
85	0x3dc84b34	0.09779969
86	0x3d757219	0.059923265
87	0x3cb04aa7	0.021519972
88	0xbd083466	-0.033253096
89	0x3dd893bc	0.10575053
90	0x3d73127f	0.05934381
91	0xbcf9bff5	-0.03048704
92	0x3a2d7235	0.00066164444
93	0x3d722fd7	0.059127655
94	0xbdb25a3d	-0.08708618
95	0x3e009bf2	0.12559488
96	0x3ddd1cd2	0.10796513
97	0xbda6d330	-0.081457496
98	0xbd6d7656	-0.057974182
99	0x3c9fb424	0.019495077
100	0x3db1ef59	0.0868823
101	0xbd6a1ed2	-0.0571583
102	0xbb03df01	-0.0020121934
103	0x3e02a182	0.12756923
104	0x3df8f38e	0.12155829
105	0xbccc14fb	-0.024912348
106	0x3ddc925b	0.107701026
107	0x3c9f5c5a	0.019453216
108	0xbd350883	-0.04419757
109	0x3dccd26d	0.10001073
110	0xbd69a26a	-0.057039656
111	0x3cd01af0	0.02540347
112	0x3ba09d2a	0.004901548
113	0x3e03645a	0.1283125
114	0xbd3bb958	-0.045831054
115	0x3e274cff	0.16337965
116	0xbc660f93	-0.014041799
117	0x3dba9835	0.091110624
118	0xbc6df52d	-0.0145237865
119	0xbd878d9c	-0.06618807
120	0xbcbb4473	-0.022859788
121	0x3d9a3aed	0.075307705
122	0x3d169381	0.036761764
123	0x3ba4c3af	0.00502821
124	0x3db4b01d	0.088226534
125	0x3dfbafa1	0.12289358
126	0x3bb3c7fb	0.005486486
127	0x3c5118f0	0.012762293
128	0x3d9c77d2	0.076400414
129	0x3d3b8665	0.045782465
130	0xbd643cec	-0.055722162
131	0xbdbf7bc7	-0.093497805
132	0x3d1fa364	0.03897418
133	0x3d3931c6	0.045213483
134	0xbdd2df91	-0.10296548
135	0x3dac0837	0.08400004
136	0x3dae6eb2	0.08517207
137	0x3d600163	0.054688822
138	0xbdaf6eb8	-0.0856604
139	0xbd1fa228	-0.038973004
140	0xbddaa231	-0.10675467
141	0x3dba9d49	0.09112031
142	0xbcf73147	-0.030174864
143	0x3d86ffd1	0.06591762
144	0xbd21955d	-0.039449085
145	0x3dded256	0.10879962
146	0xbd6fc79d	-0.058539975
147	0xbba516ad	-0.0050381036
148	0xbc87c63a	-0.016574014
149	0xbd5eb46c	-0.054371282
150	0xbd81649b	-0.06318017
151	0xbddb8797	-0.10719221
152	0x3b9c5cba	0.004771796
153	0xbd6b2663	-0.057409655
154	0x3d29b1e1	0.041429404
155	0x3ca255e3	0.019816345
156	0x3dde94a7	0.10868197
157	0x3cb31546	0.02186073
158	0x3deba303	0.115057014
159	0x3b9db3cf	0.0048126946
160	0xbd8e2c2a	-0.069420174
161	0x3d4b0a0c	0.04957013
162	0xbd038818	-0.03211221
163	0x3d92b7df	0.07163977
164	0xbde363ca	-0.11103018
165	0x3d6ad359	0.057330463
166	0xbdaf2feb	-0.085540615
167	0xbd5bc125	-0.053650994
168	0x3cbcbb8f	0.023038654
169	0x3d77c028	0.06048599
170	0x3d2b21fc	0.041780457
171	0x3db3e7f5	0.08784477
172	0xbd73db2f	-0.0595352
173	0x3d975742	0.0738969
174	0x3d58542e	0.052814655
175	0xbcd53471	-0.026025983
176	0xbc7abdcf	-0.015304043
177	0xbce4d38c	-0.027932905
178	0x3cd71094	0.026253022
179	0xbd57efc0	-0.052718878
180	0x3db911cf	0.090366
181	0x3e2b89da	0.16751805
182	0x3dc7cacb	0.097554766
183	0x3d8e082b	0.06935152
184	0x3d343c06	0.044002555
185	0xbd3e9504	-0.04652883
186	0xbb498576	-0.0030749715
187	0x3c8c0c4b	0.017095705
188	0x3d64e8e1	0.055886153
189	0xbdd72d9f	-0.105067484
190	0x3d6ca01c	0.05776988
191	0x3d5b7e46	0.05358722
192	0x3df13806	0.11778264
193	0xbd81cfce	-0.06338464
194	0xbd907830	-0.07054174
195	0x3d7f13b7	0.06227466
196	0x3dfb721b	0.12277623
197	0xbdca8cda	-0.098901466
198	0xbdbd531b	-0.09244367
199	0xbd2ca322	-0.042147763
200	0x3d9fa803	0.077957176
201	0x3c4a3ce6	0.012343621
202	0xbd0fb10e	-0.035080962
203	0xbd8344c2	-0.06409599
204	0xbdd4c71a	-0.10389538
205	0x3e32dac8	0.17466271
206	0xbd8f2286	-0.06989007
207	0x3d05f7fa	0.032707192
208	0x3de5ed3e	0.11226891
209	0x3bb36923	0.0054751798
210	0xbdc2d5d2	-0.09513439
211	0xbd1b7d07	-0.037961032
212	0xbdd6bd48	-0.10485321
213	0x3dc417ad	0.09574828
214	0x3d161a3e	0.03664612
215	0x3d895ff6	0.06707756
216	0x3e00ebcb	0.12589948
217	0x3ce580e7	0.028015567
218	0x3d0e41d5	0.03473075
219	0xbc6e004a	-0.014526436
220	0x3d599d96	0.0531288
221	0xbd2afe66	-0.04174652
222	0x3e068a3f	0.13138674
223	0xbd65d66c	-0.05611269
224	0x3d940eb6	0.072293684
225	0x3de9867f	0.11402606
226	0x3cd98208	0.026551262
227	0x3c483978	0.012220733
228	0x3dcabb06	0.09898953
229	0xbd28de58	-0.04122767
230	0xbcd3b612	-0.025843654
231	0xbc0417cc	-0.008062314
232	0x3d129991	0.035790984
233	0x3cff347d	0.031152958
234	0xbdb8dbe0	-0.09026313
235	0x3db9c916	0.09071557
236	0x3d96b10f	0.0735799
237	0x3d7319be	0.05935072
238	0xbd2f67ed	-0.04282372
239	0x3cec2a35	0.02882872
240	0x3b675861	0.003530048
241	0x3d80adc8	0.06283146
242	0xbd43d817	-0.0478135
243	0x3e08293f	0.13296984
244	0xbd82b705	-0.063825645
245	0xbb219d59	-0.0024660437
246	0xbce1f411	-0.0275822
247	0x3ddf5c13	0.10906234
248	0x3d891c7e	0.066948876
249	0x3ccf2757	0.025287313
250	0xbd0f78d1	-0.03502733
251	0x3cb8beef	0.022551982
252	0x3d4f2eca	0.05058173
253	0xbd398ba0	-0.045299172
254	0x3d640a48	0.055673867
255	0xbcf31ade	-0.029675897

encoder.2.bias f4 [128]
0	0x3d3863ba	0.04501698
1	0x3e0e515e	0.13898227
2	0x3d73619b	0.059419256
3	0x3d84a4a2	0.06476714
4	0x3d0a8f77	0.033828225
5	0x3d67fc35	0.056637008
6	0x3d5c3b69	0.053767595
7	0x3ca00b78	0.019536719
8	0xbd203b86	-0.039119266
9	0x3dfb3808	0.122665465
10	0xbd48d789	-0.049033675
11	0x3cb20d13	0.02173475
12	0x3e175e1b	0.14781992
13	0xbdd05dde	-0.10174154
14	0xbdd31bc3	-0.103080295
15	0x3d4b4c7a	0.04963348
16	0xbdb7a4bd	-0.08966968
17	0x3d7a1f7a	0.061065175
18	0xbca7761f	-0.020442067
19	0x3dfcccd9	0.12343759
20	0x3cbb5d31	0.022871586
21	0xbd4d9872	-0.05019421
22	0x3df98b23	0.12184741
23	0x3ddf05bc	0.108897656
24	0xbc56a8ab	-0.013101737
25	0xbdb08edb	-0.086209975
26	0x3d99e0e7	0.075136
27	0xbc9b4557	-0.018953962
28	0x3c6a24b0	0.014290974
29	0x3db21a75	0.086964525
30	0xbc981ca1	-0.018568339
31	0xbdaaeb22	-0.08345629
32	0x3d893a05	0.067005195
33	0xbd9724fb	-0.073801
34	0xbd89f54f	-0.06736242
35	0x3d454734	0.048163608
36	0x3db5c1f4	0.08874884
37	0x3d50864c	0.050909325
38	0x3dbbf441	0.09177447
39	0x3bf82b1e	0.0075734993
40	0xbda54e06	-0.080715224
41	0x3e63adf5	0.22234328
42	0xbd851241	-0.06497622
43	0x3c953171	0.018212052
44	0x3d2a2a97	0.041544523
45	0x3cee634b	0.029100081
46	0xbdba3a7d	-0.09093187
47	0xbe27134f	-0.1631596
48	0x3d034542	0.03204847
49	0x3df39d71	0.11895264
50	0xbd4e8489	-0.050419364
51	0x3a41f622	0.00073990424
52	0x3db2b48c	0.08725843
53	0xbe49b3c2	-0.19697478
54	0xbd293272	-0.041307874
55	0x3da77505	0.081766166
56	0x3cdd7ab4	0.027036048
57	0x3d286491	0.041111533
58	0x3d861ce2	0.06548478
59	0x3d7d2097	0.06179866
60	0xbcba1d83	-0.02271915
61	0x3b0b9ca2	0.0021303077
62	0x3bb1e11a	0.0054284455
63	0x3d0c93de	0.034320705
64	0xbe113c06	-0.14183053
65	0x3dd27240	0.10275698
66	0xbd8f2a57	-0.069904976
67	0xbca0c56e	-0.019625392
68	0x3d089a9a	0.033350565
69	0xbc8661ae	-0.016404
70	0x3d8842f1	0.06653393
71	0xbd860fee	-0.06546007
72	0x3e114314	0.14185745
73	0xbd4b2bf9	-0.049602482
74	0x3dcaa2c9	0.0989433
75	0x3e88e4af	0.26736972
76	0x3d598ca1	0.05311263
77	0x3aeea4af	0.0018207039
78	0x3c3e4d55	0.011615117
79	0x3d09877b	0.03357647
80	0x3bfde4ae	0.007748208
81	0x3d12f399	0.035876844
82	0x3d45c13d	0.04827999
83	0xbc6b7070	-0.014370069
84	0xbc1b1119	-0.009464526
85	0xbd296db7	-0.041364398
86	0xbcc91871	-0.024547787
87	0x3c8e3855	0.017360846
88	0x3bebec4b	0.007199799
89	0xbda88099	-0.08227653
90	0xbe244268	-0.16040957
91	0x3bbfd576	0.005854304
92	0x3e0855c4	0.13313967
93	0xbd2fec3a	-0.042949893
94	0x3d948cc7	0.07253414
95	0x3cf87fe9	0.03033443
96	0x3d96e330	0.07367551
97	0x3d426f03	0.04746915
98	0xbdfee097	-0.12445181
99	0xbe70a13c	-0.23499006
100	0x3d66f556	0.056386314
101	0x3e118438	0.14210594
102	0x3dfd054c	0.12354526
103	0x3bc0bc4e	0.0058818227
104	0x3c616d17	0.013758919
105	0xbe0d74ca	-0.13814083
106	0x3d3bf358	0.045886368
107	0x3daec417	0.08533495
108	0x3d2c7f0d	0.042113353
109	0x3dee43d7	0.11634033
110	0xbc4e21a9	-0.012581267
111	0x39a0788d	0.00030607395
112	0xbd2fca5c	-0.042917594
113	0xbdde1225	-0.108433045
114	0xbdd4b332	-0.10385741
115	0xbcdb044e	-0.026735451
116	0xbd2f25d7	-0.042760696
117	0x3d34aede	0.04411208
118	0xbd9af061	-0.0756538
119	0xbe59e693	-0.21279363
120	0xbd4730df	-0.04863059
121	0xbd432182	-0.047639377
122	0x3d0869fc	0.0333042
123	0xbc63f056	-0.013912281
124	0xbd91641e	-0.07099174
125	0x3ddb28a6	0.107011124
126	0x3d71e41b	0.05905543
127	0xbcbe145a	-0.023203064

encoder.4.weight f4 [128, 128]
0	0x3da8d271	0.082432635
1	0x3d76ad4c	0.060223863
2	0xbe029ebd	-0.12755866
3	0x3dd04bac	0.10170683
4	0x3d0f678b	0.035010856
5	0x3ccb8cdd	0.024847442
6	0x3d5d438b	0.054019492
7	0x3d834243	0.06409123
8	0xbdbc56f6	-0.09196274
9	0x3c983649	0.018580573
10	0x3b99b101	0.00469029
11	0x3dd0a221	0.10187174
12	0xbd4d6fe3	-0.05015553
13	0xbca7a53d	-0.020464534
14	0x3e14290c	0.14468783
15	0x3ca7f7b8	0.020503864
16	0x3d49dc10	0.049282134
17	0x3ddfda4b	0.10930308
18	0x3d388335	0.045047004
19	0xbd3a7a7c	-0.045526966
20	0xbb711f86	-0.003679247
21	0x3e0788bd	0.13235755
22	0xbc61a60b	-0.013772498
23	0x3e0bde98	0.13659132
24	0xbd1c933b	-0.038226347
25	0x3d34e92f	0.044167694
26	0x3d192c4a	0.037395753
27	0x3b941448	0.0045190193
28	0xbd9a43ac	-0.07532439
29	0x3d712685	0.058874626
30	0x3dc0cd04	0.094141036
31	0x3a018b44	0.00049417117
32	0xbdcad49b	-0.099038325
33	0xbcf1eb79	-0.029531227
34	0x3d927f23	0.07153156
35	0xbda8256b	-0.08210262
36	0xbc17da72	-0.00926839
37	0xbdaf5bfa	-0.08562465
38	0xbd8878b2	-0.06663646
39	0x3df40900	0.11915779
40	0x3d007a4c	0.03136663
41	0x3cf8a4dd	0.03035205
42	0xbdf4bd7c	-0.11950204
43	0x3e04b4aa	0.12959543
44	0x3b6455f2	0.0034841266
45	0xbd4f4cff	-0.05061054
46	0xbd9733fa	-0.073829606
47	0xbd2650ae	-0.040604286
48	0xbcdd0909	-0.026981847
49	0xbc67767f	-0.014127373
50	0x3e689607	0.22713481
51	0x3db20e5d	0.08694146
52	0xbd32b336	-0.04362794
53	0x3db4927c	0.08817002
54	0xbd860b08	-0.06545073
55	0xbdff18de	-0.12455915
56	0xbc08e55c	-0.008355465
57	0xbd9dde1f	-0.07708382
58	0xbdc2cc8c	-0.095116705
59	0x3dde32f9	0.10849566
60	0xbde0374c	-0.10948047
61	0xbd42f5fa	-0.047597863
62	0xbdc85ef7	-0.09783738
63	0x3e29d768	0.16586077
64	0xbcdb37a9	-0.02675994
65	0x3ca61ea5	0.020278284
66	0x3cf94bf4	0.030431725
67	0x3d6be59c	0.05759202
68	0xbe0d7f28	-0.13818038
69	0xbb831567	-0.004000354
70	0x3e22af4a	0.1588718
71	0x3d892a49	0.066975184
72	0xbdc32f01	-0.0953045
73	0xbc392576	-0.011300435
74	0xbe006eec	-0.12542313
75	0xb9a1577f	-0.00030773503
76	0x3d84911c	0.0647299
77	0xbd263cad	-0.04058521
78	0xbcc7111e	-0.024300154
79	0xbe02afa2	-0.12762311
80	0x3dc29c1f	0.09502434
81	0x3e110951	0.1416371
82	0x3db5e2f3	0.08881178
83	0x3d5be20d	0.053682376
84	0x3cd9cc9f	0.026586829
85	0xbda8f5a2	-0.08249976
86	0x3cc62202	0.024186138
87	0xbd1a3ddd	-0.037656654
88	0xbd9cc10f	-0.076540105
89	0x3e004bf3	0.12528972
90	0x3d2ae88e	0.041725688
91	0x3d11afe8	0.035568148
92	0xbda4615b	-0.080263816
93	0x3d694b62	0.056956656
94	0xbde8ff1a	-0.11376782
95	0xbc22e6d6	-0.009942731
96	0xbd973f7f	-0.07385158
97	0x3c698673	0.014253247
98	0x3d1a19ea	0.03762237
99	0x3d14ed5c	0.036359176
100	0x3d2b0934	0.041756824
101	0xbe15c92c	-0.14627522
102	0x3d97b95b	0.074084006
103	0x3cf1d600	0.029520988
104	0xbc3c2672	-0.011483775
105	0xbc4ad345	-0.012379472
106	0x3dea26a8	0.11433154
107	0xbd6d8a65	-0.05799331
108	0xbdb7ae66	-0.08968811
109	0xbc0e341c	-0.008679416
110	0xbdd1e219	-0.10248203
111	0xbc6dc6a0	-0.014512688
112	0x3dcebf13	0.10095038
113	0xbca3bee2	-0.019988481
114	0x3a86c2e0	0.0010281466
115	0x3d79ec3e	0.061016314
116	0xbd1b3ba3	-0.03789867
117	0x3d8e9ecf	0.06963884
118	0x3da5f9be	0.08104275
119	0xbca73132	-0.0204092
120	0xbdd820c2	-0.10553123
121	0xbd60fc46	-0.054928087
122	0x39389766	0.00017604008
123	0x3de2f30f	0.11081516
124	0x3e0ad7bd	0.1355886
125	0x3d672b0d	0.05643754
126	0xbdf94416	-0.121711895
127	0x3b64d356	0.0034916005
128	0xbc697117	-0.014248154
129	0x3dac7d83	0.08422377
130	0x3d622877	0.05521437
131	0xbd326ff8	-0.043563813
132	0x3e1f846b	0.15577857
133	0xbd8b13f8	-0.06790918
134	0xbdcdf754	-0.1005694
135	0xbd59558a	-0.053060092
136	0xbdc5ece2	-0.096643224
137	0x3cc52b07	0.024068369
138	0xbc9ee2d1	-0.019395264
139	0x3e1e6903	0.15469746
140	0x3dd27fcb	0.10278281
141	0xbd406482	-0.04697085
142	0x3e45bd32	0.19310454
143	0xbd9e398d	-0.07725821
144	0x3d1186d4	0.035528973
145	0xbe005a61	-0.12534477
146	0xbb6db47b	-0.0036270905
147	0x3dc3571c	0.09538099
148	0xbdda544f	-0.10660612
149	0x3ba99d75	0.005176241
150	0xbd8a3494	-0.0674831
151	0x3ddb9ba1	0.10723043
152	0x3df2b066	0.118500516
153	0x3dd737c0	0.1050868
154	0x3e2049fe	0.15653226
155	0x3ccf46ec	0.025302373
156	0xb9da1e96	-0.00041602988
157	0xbb3454e7	-0.0027516426
158	0x3dea3c79	0.114373155
159	0x3cfce882	0.030872587
160	0x3d8dfbaf	0.069327705
161	0x3c9e949c	0.019357972
162	0x3cb0373e	0.021510717
163	0x3d68eedf	0.05686843
164	0xbd2f179d	-0.04274713
165	0xbc88043e	-0.016603585
166	0xbdde5fd4	-0.108581215
167	0x3dcbb5b8	0.099467695
168	0x3dfea8c1	0.12434531
169	0xbe251c0f	-0.16123985
170	0x3cb9c744	0.022678025
171	0x3a56462d	0.0008173909
172	0x3c59c4c2	0.01329154
173	0x3e27423d	0.16333862
174	0x3d1bf0f0	0.038071573
175	0xbd5552e1	-0.052080993
176	0x3d1de7bf	0.03855109
177	0xbd4c39b8	-0.049859732
178	0x3de355a4	0.11100319
179	0x3e0fbd44	0.14037043
180	0xba4d8e10	-0.00078412984
181	0x3dc34164	0.09533957
182	0xbdbf9b4d	-0.09355793
183	0xbdbcd41b	-0.092201434
184	0xbd26edb7	-0.040754046
185	0x3d267ce4	0.04064645
186	0xbd5310ad	-0.051529575
187	0xbd131b97	-0.035914984
188	0x3d13ee11	0.03611571
189	0xbd9e77b2	-0.07737674
190	0x3da87c35	0.082268156
191	0xbcd30d3e	-0.02576315
192	0x3e3fe1c6	0.1873847
193	0xbb86b052	-0.0041103745
194	0x3d4e181b	0.050315958
195	0x3dcc77b9	0.09983773
196	0x3e18ff8e	0.14941236
197	0xbdd5cfb9	-0.104400106
198	0xbde06e9a	-0.109585956
199	0x3d78ae25	0.060712952
200	0xbd0724fb	-0.03299425
201	0x3d3699f5	0.04458042
202	0xbdf314ce	-0.118692026
203	0x3ac32ec1	0.0014891253
204	0x3e00e1c4	0.12586123
205	0x3b740502	0.003723443
206	0x3e18cbcc	0.14921492
207	0x3dabecfd	0.08394811
208	0x3b81121f	0.003938928
209	0x3aad98a9	0.0013244349
210	0xbd45f60b	-0.048330348
211	0xbcf13206	-0.029442798
212	0xbc22e0c5	-0.009941285
213	0x3daec2de	0.08533262
214	0x3d1e829c	0.038698778
215	0x3bc90500	0.0061346292
216	0x3de9e6b6	0.11420958
217	0x3e37e846	0.17959699
218	0x3db48ec1	0.08816291
219	0x3c5ca64e	0.0134673845
220	0xbd83a57f	-0.0642805
221	0xbd944c2b	-0.072410904
222	0xbdee754a	-0.11643465
223	0x3df3a070	0.118958354
224	0xbdcc11c6	-0.099643275
225	0x3ddf5888	0.10905558
226	0x3d78625f	0.06064069
227	0x3da48871	0.08033837
228	0xbc3e9dfa	-0.011634344
229	0xbc9dda1d	-0.019269044
230	0xbc3c269e	-0.011483816
231	0xbd03e12b	-0.03219716
232	0xbdba6679	-0.09101576
233	0xbc87c13a	-0.01657163
234	0x3e1659cb	0.14682691
235	0x3d037690	0.032095492
236	0x3cd759ae	0.02628788
237	0xbd603da4	-0.054746285
238	0x3d35c560	0.044377685
239	0xbd0b9c75	-0.034084756
240	0xbd059846	-0.032615922
241	0xbb163503	-0.002291978
242	0x3cfee534	0.031115152
243	0x3d72b6d1	0.05925638
244	0x3e079973	0.1324213
245	0x38919be1	6.9431735e-05
246	0xbdc28ac0	-0.09499121
247	0x3df3a45f	0.11896586
248	0x3934119a	0.00017172695
249	0xbcb2c8f9	-0.021824347
250	0x3b0edbe9	0.0021798557
251	0xbdb3f112	-0.08786215
252	0x3bedfa11	0.0072624763
253	0xbdbda434	-0.09259835
254	0xbd5e9c64	-0.054348364
255	0xbd00405d	-0.03131138

encoder.4.bias f4 [128]
0	0xbe048615	-0.12941773
1	0xbd90148d	-0.0703517
2	0x3d8992e6	0.06717472
3	0x3e80456a	0.2505296
4	0xbc7df0e2	-0.0154993255
5	0x3d4f09a9	0.050546322
6	0x3d1bf3e3	0.038074385
7	0xbd9364fe	-0.07196997
8	0xbc1415e6	-0.009038424
9	0xbd0d0ef8	-0.034438103
10	0xbe3825b7	-0.17983137
11	0x3d88b0db	0.066743575
12	0x3d1a8eff	0.037734028
13	0x3e1b91e8	0.15192378
14	0xbbb67d76	-0.0055691553
15	0x3d954178	0.07287878
16	0x3bb7fbba	0.005614725
17	0x3df15bf3	0.11785116
18	0x3d0a87c6	0.03382089
19	0xbc2b9184	-0.010471705
20	0x3d8b64d8	0.06806344
21	0x3deb3156	0.114840195
22	0x3b8e1bf6	0.0043368293
23	0x3da4b98c	0.08043203
24	0x3b2866e3	0.002569609
25	0xbd4e6196	-0.050386034
26	0xbe2eec4f	-0.17082332
27	0x3bc0dc3a	0.005885628
28	0x3daf6701	0.08564568
29	0xbb9200be	-0.004455655
30	0x3c7b7bb1	0.015349315
31	0x3dab7ee4	0.08373812
32	0xbd9a7166	-0.0754116
33	0x3c8ec76a	0.017429072
34	0x3c1d0ae2	0.009585114
35	0xbc9c945a	-0.019113708
36	0xbcb5093b	-0.022099128
37	0xbd1f341f	-0.038868066
38	0x3e113332	0.14179686
39	0x3d7b10ac	0.061295196
40	0xbd31609d	-0.04330503
41	0xbcd4bc23	-0.025968617
42	0x3c840502	0.01611567
43	0xbcb562cd	-0.022141838
44	0x3d436360	0.047702193
45	0x3c0ac04c	0.008468699
46	0x3cb92a01	0.022603037
47	0x3bdc9da5	0.00673266
48	0xbc953108	-0.018211856
49	0x3c06be5a	0.008224094
50	0xbdb238e1	-0.08702255
51	0xbc3329cd	-0.010935259
52	0x3cee6e5d	0.02910536
53	0x3df97a55	0.12181536
54	0xbb870609	-0.0041205925
55	0xbc9ec9eb	-0.019383391
56	0x3d18d769	0.037314806
57	0x3d572de9	0.052534018
58	0x3dca1eb8	0.098691404
59	0x3cd5f2ad	0.026116693
60	0xbda5f35e	-0.08103059
61	0xbd04cf53	-0.032424282
62	0xbda120d5	-0.0786759
63	0x3e22fd9c	0.15917057
64	0xbc9ca049	-0.019119399
65	0x3d25c699	0.0404726
66	0xbc4c9c6d	-0.012488467
67	0xbcfe3222	-0.031029765
68	0xbd90cb2c	-0.07070002
69	0x3d3a9964	0.04555644
70	0xbd0ee329	-0.034884606
71	0xbd87a5e0	-0.06623435
72	0xbda16126	-0.07879858
73	0xbcea436d	-0.028596604
74	0x3d62387d	0.055229653
75	0x3f179a6c	0.59220004
76	0x3d9a40c4	0.07531884
77	0x3d6cdd8a	0.057828464
78	0x3cebcdb8	0.028784618
79	0x3d35b58f	0.0443626
80	0x3b65de24	0.0035075033
81	0x3bce1c5e	0.0062900027
82	0x3dc31997	0.09526365
83	0xbcab02ce	-0.02087536
84	0x3d01b9e5	0.031671423
85	0xbd6483ed	-0.055789877
86	0xbcf64b2b	-0.03006514
87	0x3e0f2a66	0.13981017
88	0x3cbe66bb	0.023242345
89	0xbc5fd1f2	-0.013660895
90	0xbc464b53	-0.01210292
91	0x3ca978a4	0.020687409
92	0xbcb4654f	-0.022020964
93	0xbc9b9d36	-0.018995862
94	0xbc93eed9	-0.018058227
95	0xbcc454a0	-0.023966134
96	0x3d78ac68	0.060711294
97	0x3c650404	0.013978008
98	0xbc53c327	-0.012924946
99	0xbcacd989	-0.021099823
100	0x3c669773	0.014074194
101	0x3d77a58c	0.060460612
102	0xbddecce5	-0.10878924
103	0x3db2eaf9	0.08736224
104	0xbd40fdb4	-0.04711695
105	0x3db3681d	0.087600924
106	0xbd2a8e14	-0.041639403
107	0xbdc7ffe4	-0.09765604
108	0x3d9fb781	0.077986725
109	0x3d5628c4	0.05228497
110	0x3d0942c1	0.033510927
111	0xbb215bcb	-0.0024621363
112	0xbc94b38e	-0.018152025
113	0xbd22c124	-0.039734975
114	0x3cf6644d	0.030077124
115	0x3dec4305	0.115362205
116	0xbd4532e4	-0.048144236
117	0xbc729c67	-0.014807797
118	0x3d851b49	0.06499345
119	0x3cb0c97f	0.021580456
120	0xbe1778bc	-0.1479215
121	0x3c372082	0.011177184
122	0xbd3e4abf	-0.046458002
123	0x3ddc0e11	0.107448705
124	0x3c1cb92e	0.009565635
125	0xbcc38dd9	-0.02387135
126	0xbda1a024	-0.078918725
127	0xbd51b015	-0.051193316

encoder.6.weight f4 [128, 128]
0	0x3d8d7dc5	0.06908754
1	0xbd77c169	-0.060487185
2	0xbcd274ce	-0.025690462
3	0xbdcb507a	-0.09927459
4	0x3dc8831e	0.097906336
5	0xbd895c2e	-0.06707035
6	0xbd7b2656	-0.061315857
7	0x3d21832c	0.039431736
8	0x3dbccd22	0.092188135
9	0xbd4f9af2	-0.050684877
10	0x3daae53f	0.083445065
11	0x3e0d23ca	0.13783184
12	0x3de7e39b	0.11322709
13	0xbd9f26b6	-0.077710554
14	0x3dd61939	0.104540296
15	0x3e157968	0.14597094
16	0x3da5ccc0	0.080956936
17	0x3d0dd149	0.034623418
18	0x3e02f139	0.12787332
19	0xbd7fc72c	-0.062445804
20	0x3d712d07	0.058880832
21	0xbcbea7e0	-0.023273408
22	0xbd622d6e	-0.055219106
23	0x3a3e633a	0.0007262711
24	0x3e1482b7	0.14502989
25	0x3ddfc612	0.10926451
26	0x3c8b83f0	0.017030686
27	0x3d8bdb3d	0.06828926
28	0x3db40421	0.0878985
29	0x3c250fd0	0.010074571
30	0x3d79b62e	0.060964756
31	0xbd06a7b4	-0.032874778
32	0xbc50c2f4	-0.012741793
33	0x3daa3d21	0.08312441
34	0x3e125639	0.14290704
35	0x3db324ff	0.08747291
36	0xbc11dfdf	-0.008903473
37	0x3e26dbbd	0.16294761
38	0xbb986917	-0.0046511996
39	0x3c62b3a2	0.013836773
40	0x3dd0b716	0.10191171
41	0x3d50a092	0.05093438
42	0x3ca161d3	0.019699967
43	0x3d52b042	0.051437624
44	0xbc099ed9	-0.008399689
45	0xbd0c8e65	-0.034315486
46	0x3c634584	0.013871554
47	0xbd955b40	-0.07292795
48	0x3d6756d1	0.05647928
49	0x3dc3916e	0.09549223
50	0xbde80f86	-0.11331086
51	0x3deaff00	0.11474419
52	0xbd51bccc	-0.05120544
53	0x3dd83e92	0.10558809
54	0xbd578a3b	-0.05262206
55	0xbb81fed7	-0.003967147
56	0xbd6fcab8	-0.058542937
57	0x3d4ee357	0.050509777
58	0x3d9b123b	0.075718366
59	0x3cc840e9	0.024445014
60	0x3ca0371c	0.019557528
61	0xbd696397	-0.056979742
62	0x3dd33ac7	0.10313945
63	0x3dc6b979	0.09703345
64	0x3de6dcba	0.11272569
65	0x3cfb719f	0.030693827
66	0xbde79b62	-0.11308934
67	0x3e0dbcef	0.13841604
68	0xbc91f914	-0.017818965
69	0xbd621c48	-0.055202752
70	0x3a194cf6	0.0005847955
71	0x3deb9708	0.11503416
72	0x3de216e9	0.11039526
73	0xbcb49157	-0.02204196
74	0xbe0a8ff5	-0.13531478
75	0xbd65fd42	-0.05614973
76	0x3cfbadcd	0.030722523
77	0xbdab32d6	-0.083593056
78	0x3dbd8935	0.09254686
79	0x3e0c1c5c	0.13682693
80	0xbb4eecb8	-0.00315742
81	0x3e1e6a2d	0.1547019
82	0xbdfd60a0	-0.123719454
83	0xbd1e74cb	-0.0386856
84	0xbcc02a16	-0.023457568
85	0x3e028432	0.12745741
86	0xbdc446aa	-0.095837906
87	0x3ddd58a0	0.108079195
88	0xbde0ec62	-0.109825864
89	0xbca25960	-0.019818008
90	0x3daf60b2	0.08563365
91	0xbddcd81e	-0.107834086
92	0xbc472075	-0.012153734
93	0x3d5b2f69	0.05351201
94	0x3d8ec72b	0.06971582
95	0x3b0a2445	0.0021078747
96	0xbdca6691	-0.09882844
97	0x3cacfc51	0.021116408
98	0xbd5fbb73	-0.054622125
99	0xbd388a54	-0.045053795
100	0xbc8a63cf	-0.016893296
101	0x3d902246	0.07037787
102	0xbcbe8c43	-0.023260241
103	0xbd89e042	-0.06732227
104	0x3e094e29	0.13408722
105	0xbe19f110	-0.15033364
106	0x3c7040ed	0.014663917
107	0xbb8cdbbd	-0.004298656
108	0x3d126abd	0.035746325
109	0xbdb5eedc	-0.088834494
110	0xbda13e51	-0.07873214
111	0xbdcfc6da	-0.1014535
112	0x3e01c2eb	0.12672012
113	0x3d2067b4	0.0391614
114	0xbdb694fc	-0.08915135
115	0xbd0a0397	-0.03369483
116	0xbb8ba72c	-0.004261872
117	0x3d8be485	0.06830696
118	0xbdba9736	-0.091108724
119	0xbd311bc1	-0.04323936
120	0xbc9f8817	-0.019474072
121	0xbd8debfb	-0.06929775
122	0x3d7c8300	0.06164837
123	0xbdbd8c2d	-0.09255252
124	0xbd81b382	-0.063330665
125	0x3dc70e7e	0.09719561
126	0x3d069e62	0.03286589
127	0x3cd5ee43	0.026114589
128	0x3a56327a	0.0008170974
129	0xbcd5c214	-0.02609352
130	0x3de14263	0.109989904
131	0x3de24301	0.11047936
132	0xbd8322da	-0.06403132
133	0xbe12896b	-0.14310233
134	0xbe073b80	-0.13206291
135	0xbb06ae53	-0.0020550683
136	0x3dcb93ad	0.09940276
137	0xbdaa02db	-0.08301326
138	0xbe08994c	-0.13339728
139	0xbd03f4e1	-0.032215957
140	0xbdd29f43	-0.10284283
141	0xbd9a3416	-0.07529466
142	0x3cfd8b9b	0.030950358
143	0xbda2fa22	-0.07957865
144	0xbe1342a3	-0.14380889
145	0xbd367a38	-0.04455015
146	0x3d9e5520	0.0773108
147	0x3de4d53f	0.11173486
148	0x3d8024e0	0.06257033
149	0xbccb994f	-0.024853377
150	0xbd92723b	-0.07150694
151	0x3da95e16	0.082698986
152	0x3dc66a2c	0.096882194
153	0x3df3d678	0.11906141
154	0xbd81a889	-0.06330974
155	0x3d914e93	0.07095065
156	0x3bcd71c4	0.0062696654
157	0x3ca7402f	0.020416347
158	0xbcbbfd34	-0.022947885
159	0xbceb2cf4	-0.028707959
160	0xbd6abb93	-0.05730779
161	0x3c8ec13e	0.01742613
162	0x3d26f53a	0.04076121
163	0x3cb68806	0.022281658
164	0x3d02b5f4	0.031911805
165	0x3d0be120	0.034150243
166	0xbdb518ac	-0.088425964
167	0x3da3e37d	0.08002374
168	0xbd21632f	-0.03940123
169	0x3d5bd2d9	0.053667877
170	0xbdf6ad34	-0.120447546
171	0x3dafcae3	0.085836194
172	0x3e00bbd5	0.12571652
173	0x3cc1379c	0.023586087
174	0x3e11716d	0.14203425
175	0x3d4227f6	0.04740139
176	0x3deac463	0.11463239
177	0x3deb9fdc	0.115051
178	0xbd60f715	-0.054923136
179	0x3cdc3803	0.026882177
180	0x3d89e325	0.067327775
181	0xbdd40466	-0.103524014
182	0x3d7dfc78	0.06200835
183	0xbdd647c3	-0.10462906
184	0x3db4d259	0.08829183
185	0xbbc613a7	-0.006044823
186	0x3d329ad6	0.043604694
187	0xbc2dc376	-0.010605684
188	0xbe0df730	-0.13863826
189	0xbc0547b4	-0.008134771
190	0x3d7a2324	0.06106867
191	0x3d6600b8	0.05615303
192	0x3d639684	0.055563465
193	0x3db36b9a	0.08760758
194	0x3d1d9e23	0.03848089
195	0xbc9b58ad	-0.018963182
196	0x3c0cc765	0.008592461
197	0x3dbeeb79	0.093222566
198	0xbd958580	-0.07300854
199	0x3c7a6803	0.015283587
200	0xbc8af29c	-0.016961388
201	0x3dfc5c4b	0.12322291
202	0xbcdcba34	-0.026944257
203	0xbd53d257	-0.051714268
204	0x3d1d78dd	0.038445342
205	0xbd3b2b26	-0.045695446
206	0xbdcb1d3d	-0.09917686
207	0x3dcbd0fb	0.09951969
208	0xbca4cd74	-0.020117499
209	0xbd37cf32	-0.04487533
210	0x3ddd4975	0.108050264
211	0x3cfbf5c7	0.030756844
212	0xbdd91efe	-0.106016144
213	0xbd863756	-0.06553523
214	0x3dc4032e	0.09570919
215	0x3d3863a7	0.04501691
216	0x3d8a7f6c	0.06762585
217	0x3d0d7e11	0.034544054
218	0x3d9137e1	0.07090736
219	0xbc0f8b27	-0.008761204
220	0xbd600fa9	-0.054702435
221	0xbda2a1bc	-0.07941005
222	0xbd0139ea	-0.03154937
223	0xbe0e63cb	-0.13905255
224	0xbd71a6fb	-0.058997136
225	0xbdc151d4	-0.094394356
226	0x3e0541ca	0.13013378
227	0xbd0d3365	-0.03447284
228	0x3b5e2cb3	0.0033901155
229	0xbd07ff8b	-0.03320269
230	0xbdce47b1	-0.10072268
231	0xbdbe3e0f	-0.092891805
232	0x3d2684d2	0.04065401
233	0x3d5ca494	0.05386789
234	0x3dc80c64	0.09767988
235	0x3d8ae886	0.067826316
236	0x3e15506f	0.14581464
237	0x3cf11280	0.029427767
238	0xbb85a08f	-0.004077978
239	0x3cd48e8d	0.02594688
240	0x3dbfa928	0.09358436
241	0xbcdd0ff8	-0.026985154
242	0xbdf71acb	-0.12065657
243	0x3da052a1	0.0782826
244	0xbc0c87c6	-0.008577293
245	0x3c689631	0.014195965
246	0x3978689c	0.00023690093
247	0x3d13f2ff	0.03612041
248	0x3e1e62a5	0.15467317
249	0x3e1a3a11	0.15061213
250	0xbe048b9e	-0.12943885
251	0xbddc7550	-0.10764563
252	0x3db87360	0.09006381
253	0xbde4fc52	-0.11180939
254	0x3d9deaf6	0.07710831
255	0x3d9fb52e	0.07798229

encoder.6.bias f4 [128]
0	0xbd5e11b0	-0.054216087
1	0xbb4879d8	-0.0030590203
2	0x3d17db59	0.03707442
3	0x3d95dcaa	0.07317479
4	0x3cc32af4	0.023824193
5	0xbc0ff988	-0.00878752
6	0x3d65b80d	0.056083728
7	0xbc4f21db	-0.012642349
8	0x3da8e9e4	0.08247736
9	0xbde7f419	-0.11325855
10	0xbcaa52e9	-0.020791488
11	0xbc7cd4a5	-0.015431558
12	0xbdfb7d05	-0.12279705
13	0x3de764c2	0.11298515
14	0xbc9de817	-0.019275708
15	0x3c337c82	0.010954978
16	0xbbbca2ee	-0.0057567274
17	0xbd9607b2	-0.073256865
18	0xbb9cd65c	-0.004786296
19	0xbde6afd4	-0.11264005
20	0xbc1b0fc0	-0.009464204
21	0xbd5cc5ae	-0.05389946
22	0xbc165480	-0.00917542
23	0xbc8876a1	-0.01665813
24	0xbcaeabf2	-0.021322224
25	0xbb482fa4	-0.0030545974
26	0x3e48b7b3	0.19601326
27	0x3d60c965	0.054879565
28	0xbc20360e	-0.009778513
29	0x3debe723	0.11518695
30	0xbd1b1583	-0.037862312
31	0x3d3f1e2c	0.046659634
32	0xbe0cdf6b	-0.13757102
33	0xbc015eeb	-0.007896165
34	0xbd209dd8	-0.03921303
35	0x3c25bf0b	0.010116349
36	0x3dd5b399	0.10434646
37	0x3db4c6eb	0.08827003
38	0xbc8fcf78	-0.017554983
39	0x3c06c3f2	0.008225428
40	0xbc8568fc	-0.016285412
41	0x3d65c6a9	0.05609766
42	0x3d02ce33	0.03193493
43	0x3cf9a86a	0.030475814
44	0x3d0b5182	0.03401328
45	0x3c07d754	0.008291084
46	0xbc010874	-0.007875551
47	0x3c2655df	0.010152309
48	0xbc7591d8	-0.014988385
49	0x3dafa332	0.08576049
50	0xbafd8e3d	-0.0019344758
51	0xbcfb46e6	-0.030673455
52	0x3d4c2873	0.049843263
53	0x3d66fd49	0.056393895
54	0x3d5cc6b7	0.053900447
55	0xbd47cfa5	-0.04878201
56	0xbb99e018	-0.0046959035
57	0xbeb9a8a8	-0.36261487
58	0xbcc22e8d	-0.023703838
59	0xbc93dc57	-0.018049402
60	0xbbbb63f3	-0.005718702
61	0x3d885d59	0.0665843
62	0x3b9bedca	0.0047585713
63	0x3cfa6988	0.0305679
64	0x3d7f49b0	0.062326133
65	0xbe09cd24	-0.13457161
66	0x3d383a42	0.044977434
67	0x3c944b28	0.018102244
68	0xbe241bdd	-0.16026254
69	0x3c9f422a	0.01944073
70	0x3d70b4ef	0.0587663
71	0x3d7d4da2	0.061841615
72	0xbd01de2e	-0.031706028
73	0xbc00f57a	-0.007871026
74	0x3dbbb5ff	0.091655724
75	0xbc96c083	-0.018402344
76	0x3cb50add	0.022099907
77	0x3d90708e	0.07052718
78	0xbbc19eca	-0.0059088217
79	0x3cc3421b	0.023835232
80	0x3cf28be4	0.02960772
81	0xbd5a8a71	-0.053354684
82	0x3d35f45c	0.044422492
83	0xbca2d34c	-0.019876145
84	0xbc646c7f	-0.013941883
85	0xbc33a1c0	-0.010963857
86	0xbd12b089	-0.03581289
87	0x3d83b1f8	0.06430429
88	0x3d6872fe	0.05675029
89	0xbdb02b51	-0.08602012
90	0x3c550a7b	0.013002987
91	0x3b3b38d5	0.002856781
92	0xbd6eff87	-0.05834916
93	0xbd5b42a8	-0.053530365
94	0x3c531cf8	0.012885325
95	0x3d34b77b	0.044120293
96	0x3cce97a7	0.025218798
97	0x3bb0e2b5	0.0053981193
98	0x3cb9c718	0.022677943
99	0xbceb287e	-0.028705832
100	0x3dc67d35	0.0969185
101	0x3c3222bd	0.01087254
102	0xbd244be9	-0.040111456
103	0x3dc65633	0.0968441
104	0x3d0365a1	0.032079343
105	0xbd00b642	-0.031423815
106	0x3d60330e	0.05473619
107	0x3d88c718	0.06678599
108	0x3cdd5307	0.02701713
109	0xbaafe72e	-0.0013420337
110	0xbbd513eb	-0.0065026185
111	0x3d5f9826	0.05458846
112	0xbd837c2d	-0.06420169
113	0x3cb5e2c1	0.022202851
114	0x3c3a0535	0.0113537805
115	0xbc9e7b51	-0.019345911
116	0x39c4ea4b	0.00037558595
117	0xbc7ed094	-0.015552659
118	0x3d8ae780	0.06782436
119	0x3d5b9161	0.05360544
120	0xbcecb634	-0.028895475
121	0xbcaeede2	-0.021353666
122	0xbc9537c0	-0.01821506
123	0x3bf354d8	0.0074258856
124	0xbcd8bafe	-0.026456352
125	0xbc7a3fc5	-0.015273993
126	0xbd30e257	-0.043184604
127	0xbd857c68	-0.06517869

encoder.8.weight f4 [32, 128]
0	0xbd28bf8e	-0.041198306
1	0xbe4e496d	-0.20145197
2	0xbdac9aa1	-0.084279306
3	0x3daf98f8	0.08574098
4	0xbe2607ac	-0.16213864
5	0xbd564a14	-0.05231674
6	0xbd69219f	-0.05691683
7	0x3e9ab2da	0.30214578
8	0x3d94247d	0.07233522
9	0x3e13ce32	0.14434126
10	0xbc46d5a8	-0.012135901
11	0x3e5873f7	0.21137987
12	0x3e0cc677	0.13747583
13	0x3c9817e3	0.018566078
14	0xbd137263	-0.03599776
15	0xbcacaa85	-0.021077404
16	0xbde1522f	-0.110020034
17	0x3def2173	0.11676302
18	0x3cf6ff3b	0.030151
19	0x3e2fa12a	0.17151323
20	0x3dbd528a	0.09244259
21	0x3df2eb4e	0.11861287
22	0x3df4c8a5	0.119523324
23	0x3d4258c7	0.047447946
24	0xbd63c283	-0.055605423
25	0x3db77d26	0.08959417
26	0xbdefd624	-0.11710766
27	0x3c6f3007	0.014598853
28	0xbca17758	-0.019710228
29	0x3d405a0b	0.04696087
30	0xbdb67f0d	-0.08910952
31	0xbe527e7a	-0.2055606
32	0x3d07420d	0.033021975
33	0x3dff8128	0.124758065
34	0x3d9feb44	0.07808545
35	0xbde6a38d	-0.112616636
36	0xbe697720	-0.22799349
37	0xbd5e3a3c	-0.054254755
38	0x3ccc0eac	0.02490934
39	0x3deb285a	0.11482306
40	0x3d9cbcdf	0.07653212
41	0x3dd08cfc	0.10183141
42	0xbd6fcbdb	-0.05854402
43	0x3e4c1e05	0.19933327
44	0x3d95d701	0.07316399
45	0x3deda979	0.1160459
46	0x3e50c1f7	0.20386492
47	0x3e41bb33	0.18919067
48	0x3e301c1e	0.17198226
49	0xbe39fc71	-0.18162705
50	0xbd7af017	-0.061264124
51	0x3e08133b	0.13288586
52	0xbe0f6f48	-0.14007294
53	0x3dba575e	0.09098695
54	0x3e592b34	0.21207887
55	0xba1de29c	-0.0006022842
56	0x3de9abd3	0.11409726
57	0x3da51536	0.08060686
58	0xbda03c23	-0.0782397
59	0x3da895f4	0.08231726
60	0x3e1b564a	0.15169635
61	0xbda339c7	-0.079700045
62	0xbd676072	-0.05648846
63	0x3b05b359	0.002040109
64	0xbc50df4e	-0.0127485525
65	0x3c944b56	0.01810233
66	0xbe003530	-0.1252029
67	0x3e223af2	0.15842798
68	0xbd40e4a9	-0.047093067
69	0xbd266a2e	-0.040628605
70	0xbc6b9825	-0.014379536
71	0x3e6847b7	0.22683607
72	0xbd4c128b	-0.04982237
73	0x3d1a845d	0.037723888
74	0xbe8b8210	-0.27247667
75	0xbc9faaa1	-0.019490542
76	0x3d10bc69	0.035335932
77	0xbdd5b756	-0.10435359
78	0xbddcea20	-0.10786843
79	0xbe1a2160	-0.15051794
80	0x3e1155f5	0.14192946
81	0xbd2bb398	-0.04191932
82	0x3d21962d	0.03944986
83	0x3c3f9fad	0.0116957845
84	0x3cc6b8cd	0.024258042
85	0x3da2c151	0.079470284
86	0x3d1b9715	0.03798588
87	0x3d88abbb	0.0667338
88	0x3de35284	0.11099723
89	0xbbfd473f	-0.0077294405
90	0x3e19cb43	0.15018944
91	0x3e0ac706	0.13552484
92	0x3d410a69	0.04712907
93	0x3e2264ec	0.15858811
94	0xbd4f81ba	-0.050660826
95	0x3e11fa04	0.1425553
96	0xbe051539	-0.12996377
97	0x3e5ef6af	0.2177379
98	0xbe242217	-0.16028629
99	0x3d6d1dbd	0.05788969
100	0xbe138102	-0.14404681
101	0xbe0433ec	-0.12910432
102	0xbdceba17	-0.100940876
103	0xbe315051	-0.17315795
104	0xbd023335	-0.031787116
105	0x3adad9a9	0.0016696948
106	0xbe02663a	-0.12734309
107	0xbe189b0a	-0.14902893
108	0xbe0c8e88	-0.13726246
109	0xbd71ed72	-0.059064336
110	0xbe66c189	-0.22534765
111	0x3d5e5188	0.054276973
112	0xbe0f1f9c	-0.13976902
113	0x3b43e0cd	0.002988863
114	0xbdb7f556	-0.08982341
115	0x3e35f438	0.17768943
116	0x3d9adbb0	0.07561433
117	0xbe192729	-0.14956345
118	0xbdc86fd8	-0.097869575
119	0x3e1e3f0e	0.15453741
120	0x3e1b2b4d	0.15153237
121	0x3d17a94b	0.037026685
122	0xbdecc6eb	-0.11561378
123	0x3e34998b	0.17636697
124	0x3db1d72f	0.08683621
125	0x3d8c5f7b	0.06854149
126	0x3e15d6e7	0.1463276
127	0x3d7e59bd	0.0620973
128	0x3cdb843e	0.026796456
129	0x3de238b0	0.110459685
130	0x3e1d3e6c	0.15355843
131	0x3d28e1d9	0.04123101
132	0x3c7623d5	0.015023191
133	0x3c2da392	0.01059808
134	0xbbf3e45b	-0.0074429936
135	0x3cc70e51	0.024298819
136	0x3ccd8ba0	0.025090992
137	0xbc7ad05e	-0.015308468
138	0x3d86d306	0.06583218
139	0x3c34ed92	0.011042969
140	0xbbc4e67e	-0.006008922
141	0x3e0dd1f7	0.13849626
142	0x3e0dc5a3	0.13844924
143	0xbdb47928	-0.08812171
144	0xbddfab04	-0.109212905
145	0x3d535ab2	0.051600166
146	0x3dbe0972	0.09279145
147	0xbc04af0b	-0.008098374
148	0x3d908601	0.07056809
149	0xbcee0f1d	-0.029059941
150	0xbde69312	-0.1125852
151	0xbe3e28d0	-0.18570256
152	0xbdcfcb29	-0.101461716
153	0x3e0a51a2	0.13507703
154	0xbda431c0	-0.080173016
155	0xbc0a7bcf	-0.00845237
156	0x3d614a89	0.055002723
157	0xbd4843cb	-0.048892777
158	0xbe0eebde	-0.13957164
159	0xbc1226b3	-0.008920359
160	0xbc1d250a	-0.00959135
161	0x3dee5517	0.11637323
162	0x3ddba024	0.10723904
163	0x3deb6eae	0.1149572
164	0x3c56ca0e	0.013109697
165	0xbcce8765	-0.025211046
166	0x3db68c96	0.089135334
167	0xbdcb2090	-0.0991832
168	0xbce12c8d	-0.027487064
169	0xbd51870b	-0.051154178
170	0x3acf23b3	0.0015803486
171	0xbe08fca9	-0.13377632
172	0xbe02df50	-0.127805
173	0x3c641521	0.013921053
174	0xbc27eb1d	-0.0102489265
175	0xbe0c459a	-0.13698426
176	0xbc87c4eb	-0.01657339
177	0x3d8298d1	0.06376804
178	0x3e17836f	0.14796232
179	0x3cd7f1b2	0.026360366
180	0xbd903c10	-0.07042706
181	0xbdce640d	-0.10077677
182	0x3de35582	0.11100294
183	0x3db69a53	0.08916154
184	0xbd20aa97	-0.039225187
185	0xbd81b6d9	-0.063337035
186	0x3d9d2dfa	0.07674785
187	0xbdcd772b	-0.10032495
188	0x3dcab72e	0.0989822
189	0x3ded4a80	0.11586475
190	0x3bd3f079	0.0064678756
191	0x3d027042	0.03184534
192	0x3caa4df7	0.02078913
193	0x3c226844	0.009912554
194	0xbe18a22c	-0.14905614
195	0x3e290f9f	0.16509865
196	0x3bbc0ef7	0.0057390886
197	0xbdfee7ac	-0.12446532
198	0xbce9d97d	-0.02854609
199	0xbdacc5fc	-0.084362
200	0x3db565ed	0.088573314
201	0x3c3f406d	0.011673075
202	0xbdb02325	-0.08600453
203	0xbd080864	-0.033211127
204	0x3e1bc418	0.15211523
205	0xbdf696ac	-0.12040457
206	0xbd347df7	-0.044065442
207	0xbd8e294c	-0.069414705
208	0xbe13b099	-0.14422835
209	0x3cfbe5f0	0.030749291
210	0xbd30e6df	-0.043188926
211	0xbdbfec4b	-0.09371241
212	0xbdcf32b4	-0.10117093
213	0xbd6caf4c	-0.057784364
214	0xbd437aed	-0.047724653
215	0x3dd44b5a	0.10365935
216	0x3be6bdb0	0.0070416555
217	0xbb8b35d1	-0.004248359
218	0xbe08db92	-0.1336501
219	0x3dea95f8	0.114543855
220	0x3ddc24e0	0.10749221
221	0x3cbb1589	0.022837417
222	0xbdbb5770	-0.09147537
223	0x3e0f5faa	0.14001337
224	0x3dfd15fd	0.123577096
225	0xbe1d8676	-0.15383324
226	0x3e07caec	0.13261002
227	0x3cbc18bc	0.022961013
228	0xbdf405af	-0.119151466
229	0x3e1deae2	0.15421632
230	0xbd7bc362	-0.06146563
231	0xbce5a4e0	-0.02803272
232	0x3de32b53	0.11092248
233	0xbde1c491	-0.1102382
234	0xbdf7fc98	-0.12108725
235	0x3d9bef57	0.0761401
236	0x3e042496	0.12904581
237	0x3d53711c	0.05162154
238	0xbe079523	-0.13240485
239	0x3e175626	0.14778957
240	0x3d076fae	0.03306549
241	0xbda06c1b	-0.078331195
242	0x3bd9fa49	0.006652151
243	0x3e25d7c5	0.16195591
244	0x3d8cde74	0.06878367
245	0x3e1307d6	0.14358458
246	0x3dae0d31	0.0849861
247	0x3db746d9	0.0894906
248	0x3dc0ddc8	0.094173014
249	0x3e087ce2	0.13328889
250	0xbde67e8c	-0.11254606
251	0x3d05af61	0.032637957
252	0xbd987884	-0.074448615
253	0xbbd260d9	-0.0064202365
254	0xb9cb0b90	-0.00038727792
255	0xbcf2b2c2	-0.029626254

encoder.8.bias f4 [32]
0	0xbd78ca8e	-0.060740046
1	0xbce0bcee	-0.027433839
2	0x3d0c9bec	0.034328386
3	0x3c1d9d54	0.0096200295
4	0xbb9e5610	-0.004832037
5	0xbc21666d	-0.00985108
6	0x3ce94408	0.028474823
7	0xbba5e210	-0.005062349
8	0x3d948689	0.07252223
9	0x3c286e7f	0.010280251
10	0x3c9847c4	0.018588908
11	0xbc956936	-0.018238645
12	0x3cc65481	0.024210216
13	0x3dd752dc	0.10513851
14	0xbc65c1a8	-0.014023222
15	0xbcf98c0e	-0.030462291
16	0xbfa9bd5d	-1.3260914
17	0xbf8e6365	-1.1124083
18	0xc0198d8a	-2.3992639
19	0xbffa091e	-1.9534032
20	0xbfb4b3dd	-1.411739
21	0xc00cd905	-2.2007458
22	0xbf375ece	-0.71629035
23	0xc008523e	-2.1300197
24	0xbf8f25a0	-1.1183357
25	0xbfb55570	-1.4166698
26	0xbf925d91	-1.1434804
27	0xbfa1b026	-1.2631881
28	0xbf31fa12	-0.695222
29	0xbf933bd4	-1.1502633
30	0xbf7817e7	-0.9691147
31	0xbf9fdc76	-1.2489154
