models/y01vae_dim_8_banana.pt (torch, 425676 bytes, 22 tensors)

encoder.0.weight f4 [128, 8]
00000000: c392 cf3d 367f d2bb 9503 ce3d bd5e a8bd
00000010: 8224 d43c b515 16bc 124b af3d 2428 4dbd
00000020: 626e b03d a3d2 62bd 2006 2b3d 28af af3c
00000030: 3ad4 193e 4d4a 823d f65c 4abd 89ef 383d
00000040: 80ba 86bd c7fc ecbc b4ba 0d3d 2f0f d33d
00000050: 118b 013e a7b1 8bbd f324 593d bfee 0cbd
00000060: edf0 c6bd dad4 0e3e e9a9 863d dd23 03be
00000070: 1ba7 043d 96f6 bc3d 5348 5dbd 7aa4 3cbd
00000080: ba93 1f3d d397 b2bc c737 99bc 8e6e 153e
00000090: c93c 53bc 02f0 2abc b216 69bd dc1a d3bd
000000a0: 9beb 87bd 5d54 ff3d b45a 2c3d 7a79 c73d
000000b0: c163 e83c 3b2c 98bd 54e8 a43c 95f8 52ba
000000c0: 0191 c0bd 8b8d 3b3d 230d 81bd 9852 1c3e
000000d0: 2777 933b 6a8b 783d 89f2 b0bb b33a 063c
000000e0: 819d 7cbc d59d 77bc 7c9f bd3d 78ff a0bd
000000f0: ea24 0b3c a573 783d 879e 923d b8e1 093e
00000100: 95bf c13d 6bf9 b6bd f8c2 e13d bf44 f33c
00000110: 8eaa b9bd 9711 213d 2ccc f63c 7d45 5fbd
00000120: 56c7 b33d d08b 78bd d689 ae3d 40b8 adbd
00000130: 971a 963d 19cf c1bd 9048 c7bd 72ac b13c
00000140: e054 ffbd 5cb6 2a3e 232f bbbc 2dde 1cbd
00000150: 8adf 363d e08d d13d e41d be3d 1488 07bd
00000160: 8a18 013e 0469 aa3d 20b8 78bd 4e92 cfbc
00000170: 61c5 d33d f02a e63d e7f6 b6bd 598a 8b3d
00000180: 00ea 0c3e 8f3a dfbc 873b 05bc 1d7a 8bbc
00000190: 1427 9a3d fa9a 1abe 9679 f23c 369e a83c
000001a0: acba 0f3d bb8a 0cbe 797d cb3a 5ac3 6abd
000001b0: 7f50 13bc 2351 083e afdd af3c d221 973d
000001c0: 3bbb 223d 02f2 89bd d246 42bb b8e4 c0bd
000001d0: a02f a23d 83f8 953d f3c4 faba c750 c93d
000001e0: 29c4 babc e5c9 3ebd 1585 02bd b38a 6bbd
000001f0: e1ec 68bd 5c43 35bd 4807 e1bc 7459 473e
00000200: b9fc 37bd d67e 36bd fd94 bfbd ef49 0abe
00000210: 9af9 853d 232c 0abe b3a0 9c3c 8e1f 383c
00000220: 7613 d1bd 52a2 e5bd 3ef5 fdbd 88b5 853d
00000230: 4051 a13d 2727 08be f33d ff3d 9c88 0abe
00000240: 0b7f b03d b167 f63d 351a ea3d b208 113e
00000250: 9d84 613d f9f6 44bd 1194 8f3d a1a0 f5bd
00000260: 5338 853c bc48 093c b16f a53c 93ab ec3d
00000270: 6e84 18bd 34e5 70bc 861d be3d 9699 17be
00000280: 8535 953d 6ba5 733d 4882 193d 48cc d4bc
00000290: 1924 59bc 7da6 4bbb 4706 853c f774 ccbc
000002a0: 9394 15be 4392 c03d 5a9b d6bd 098e 67bd
000002b0: 0df4 1cbe e36e 47be 0c41 a0bd 7bf5 1f3d
000002c0: 56a8 05bc 107b d9bd c8d7 873c 2f8f cebd
000002d0: 38c9 4e3d 91de 5fbd ef09 74bd ccbe 06be
000002e0: e999 e8bd 6ff7 113d e875 14bd 4c3b f1bd
000002f0: d65b dcbd e7be f9bb dc2b ec3d bedd 483d
00000300: 3160 0ebd 7c90 b83c a893 8abd ce07 db3c
00000310: 420c d83d aa2f 0abe bd46 93bd 856c 9abc
00000320: fe1a 41bd ef36 613d de1e 1cbe 50ac 693c
00000330: 15a5 553d 2b08 923c b3e3 79bd 05a4 a33d
00000340: 37a4 c03d e648 6f3d 8d33 ed3b 2d91 8ebd
00000350: 9a9c eb3c ffa0 9abd 3e30 bcbd eeb6 793d
00000360: 0536 413b 3577 3e3e 7b6c 3cbc 370b 223e
00000370: 8519 a0bd 656e 8c3d 0fcf ad3d 8c2a 4a3e
00000380: 1469 83bc 2d04 9abc 4a0b ae3c 8d58 413c
00000390: b5b2 94bd bd9a edbd 6f22 a83d 8a2f 113e
000003a0: 5909 0c3e c0f0 8d3c 3454 883c 516e 37bd
000003b0: bf86 62bd 3d87 243d 42d8 7e3d 7a63 e2bd
000003c0: 3db0 ab3c 7644 6f3e ecd1 773d ad47 b03d
000003d0: c913 3d3b d3d3 9fbd 1b99 acbd 9312 073e
000003e0: 70e5 993c 71d3 343d 6166 22bd 0b71 043d
000003f0: 62b5 d03d cce2 173e 1c32 b1bd a4ca 25bd
0.101354145 -0.006423856 0.10059277 -0.08221195 0.025896315 -0.009160449 0.085592404 -0.05008711
0.08614804 -0.05537666 0.041753888 0.021445826 0.15022364 0.06361828 -0.04940506 0.045150314
-0.06578541 -0.028929127 0.034601882 0.103056304 0.12650706 -0.06820994 0.053013753 -0.034407374
-0.09713922 0.13948384 0.065753765 -0.1280665 0.032385927 0.0922672 -0.054024052 -0.046055295
0.038959242 -0.021800911 -0.018703355 0.14592955 -0.01289291 -0.010433199 -0.05690641 -0.103078574
-0.06636735 0.12467263 0.04207869 0.09739967 0.028367879 -0.07430311 0.020130314 -0.0008047906
-0.09402657 0.045789283 -0.06301334 0.15265882 0.004500288 0.06067983 -0.005400006 0.008192706
-0.015418411 -0.015113314 0.09258935 -0.07861227 0.008492688 0.060657162 0.07159143 0.13465011
0.094603695 -0.089342915 0.110235155 0.029695867 -0.09065734 0.039323416 0.030126654 -0.05450963
0.08778255 -0.06068021 0.08522384 -0.084824085 0.0732929 -0.09463329 -0.09730637 0.021688674
-0.124673605 0.16671127 -0.022849625 -0.03829782 0.044646777 0.10232139 0.09283045 -0.03308876
0.12607017 0.083208114 -0.06072247 -0.025338318 0.103403814 0.112386584 -0.08933812 0.06813497
0.13761139 -0.027249603 -0.008131868 -0.017026002 0.07526985 -0.15098181 0.029598992 0.020583253
0.035090134 -0.13724796 0.0015525065 -0.057315208 -0.00899136 0.13312201 0.021468012 0.073794976
0.03972934 -0.067356125 -0.0029644263 -0.09418625 0.0791924 0.073227905 -0.0019132182 0.0982986
-0.022798615 -0.04657926 -0.0318652 -0.05750532 -0.05686653 -0.044253692 -0.027469292 0.19467717
-0.04491875 -0.044554554 -0.09354589 -0.13504766 0.06541748 -0.134934 0.019119596 0.011237992
-0.1020879 -0.11212601 -0.12400292 0.06528765 0.07876825 -0.13296185 0.12462988 -0.13528675
0.086179815 0.12031496 0.1143078 0.14163473 0.05505811 -0.048087094 0.07010663 -0.11993528
0.016262209 0.008379158 0.02019486 0.11556163 -0.03723567 -0.014703084 0.09282975 -0.14804682
0.07285599 0.059483927 0.03747776 -0.025976315 -0.013253235 -0.0031074577 0.016238345 -0.024958117
-0.14607458 0.09402897 -0.1047885 -0.05653194 -0.15327473 -0.19475894 -0.07824907 0.039052468
-0.00815781 -0.106191754 0.016582385 -0.10085904 0.050484866 -0.054655615 -0.059579786 -0.1315872
-0.11357481 0.03563636 -0.036245257 -0.11778888 -0.10759704 -0.0076216343 0.11531803 0.049039595
-0.034759704 0.022529833 -0.067664444 0.02673712 0.10549213 -0.13494745 -0.07191227 -0.018850574
-0.047144882 0.05498403 -0.1524615 0.014262274 0.052159388 0.01782616 -0.061008167 0.079902686
0.094063215 0.05841913 0.0072388113 -0.06961284 0.028761197 -0.07550239 -0.09188889 0.06096547
0.002948166 0.18600161 -0.011500473 0.1582459 -0.078173675 0.068569936 0.08486759 0.19742793
-0.016041316 -0.01880082 0.021245617 0.011800897 -0.07260648 -0.116017796 0.08209693 0.14178291
0.13675441 0.017326713 0.016641714 -0.04478294 -0.055304285 0.040168036 0.06221796 -0.1105413
0.02095806 0.2336596 0.06050293 0.08607421 0.0028850904 -0.07804074 -0.0842764 0.13190679
0.018786162 0.04414696 -0.039648417 0.03233437 0.10190846 0.1483261 -0.08652136 -0.040476456

encoder.0.bias f4 [128]
00000000: f879 97ba 0921 8dbd 467c d53c 79bb 223c
00000010: a813 d33c b9f0 803c ef73 e93c acfd 96bc
00000020: b60e 343c 13db ac39 17cc aabc 2733 923c
00000030: ff4a 2fbd 3396 6a3c 172b 2a3d a283 ba3d
00000040: 25ff 96bc fb1e bcbc 5f4f 4d3d e138 a4bd
00000050: dcda c7bd 5c10 dd3a e45a 67bd 2327 683d
00000060: 65b1 45bd 6dae 503d 525a 1cbd e07b b13d
00000070: a75a 413b bea3 0f3d 200a 213d 3fa5 04bd
00000080: 79bd 053c fbd8 ff3b 74ee a9bc 3446 46bc
00000090: 19c8 34bc 7eb7 11bd 22b6 49bc 893b 023d
000000a0: 97f2 333d 9101 cc3b 1161 023d 05af dc3c
000000b0: 72ed 073d 7fc8 83bc 2738 eebc 3238 963c
000000c0: b9f2 643c 7923 b7ba d128 863b c484 0e3e
000000d0: 1863 533d b794 b03c ef7c 97bd 99aa 9eba
000000e0: 56ee febb eedf 91bd 1d19 7f3d c1dc 013d
000000f0: 4b22 003a 5d63 623c 029d 573d 9aca 70bc
00000100: 3535 913d f803 31bd 1195 5bbd 5950 49bc
00000110: 5a69 d73c 8c10 f43c 2631 c9bb 2883 86bc
00000120: 0d9b 2abd 8c68 90bd 6586 f1bc 2430 b7bd
00000130: e3a4 053d e57a 41bc bd7d e8bc d7f9 763c
00000140: 3386 ffbc eb00 00bd f89c 433d a033 6dbc
00000150: 4c4c 48bd e305 0e3d e5b9 b6bc e5ad 3c3c
00000160: 6f12 5fbd c5dc d53c 4416 9abc 2f1f 4c3c
00000170: 99e9 2fbc 51a5 57bd 9adb c63c 85ef 8ebc
00000180: 4837 b7bd bd19 c43c 75c6 2cbd 7818 a3bc
00000190: d1ca bebc 6dc0 22bd 2416 a03d 776e babb
000001a0: 0013 f1b9 d8e6 91bc df5c ecbb 4bdd 593d
000001b0: 2143 333d afc1 ed3b 07b9 d53d 15b7 28bd
000001c0: 0511 71bc b8f0 9e3c 5037 243e 1266 0f3d
000001d0: 9bff 08bd 7fc1 2d3d 396f d33c 2ece 4b3c
000001e0: 88a9 a3bc a226 e93c 26fb 87bc 3a15 bf3c
000001f0: c9a3 f8bc 737b cb3c 5e66 b33c 906d a33c
-0.0011556735 -0.068910666 0.026060235 0.009932392 0.025766209 0.015739786 0.028497664 -0.018431507
0.0109898355 0.0003296962 -0.02084927 0.017846657 -0.04279613 0.014318037 0.041545 0.09107138
-0.01843221 -0.022963991 0.050124522 -0.08018661 -0.09758541 0.0016865837 -0.056483164 0.05667795
-0.04826488 0.050947595 -0.038172074 0.086662054 0.0029503496 0.035068266 0.039316297 -0.032384153
0.00816285 0.0078078485 -0.020743586 -0.012101699 -0.011034035 -0.035575382 -0.01231149 0.03179506
0.043932524 0.0062257727 0.03183085 0.026938925 0.03318543 -0.016086815 -0.02907951 0.018337343
0.013973885 -0.0013972364 0.004094221 0.13917834 0.051608175 0.021555288 -0.07396876 -0.0012105285
-0.0077798767 -0.07122789 0.06227981 0.031704668 0.00048879226 0.013817635 0.05263997 -0.0146967415
0.070902266 -0.043216676 -0.053608958 -0.012287223 0.026295353 0.029793046 -0.006139892 -0.016419962
-0.041651774 -0.07051191 -0.02948303 -0.08944729 0.03262795 -0.0118090855 -0.02838027 0.015074215
-0.03119192 -0.031250875 0.04775712 -0.01447764 -0.048900887 0.034673583 -0.022305438 0.011516069
-0.05446094 0.026106248 -0.018809445 0.012458607 -0.010736846 -0.052647892 0.024274636 -0.017448196
-0.08946091 0.023938054 -0.04218145 -0.019909129 -0.02329007 -0.039734293 0.07816723 -0.005689438
-0.00045981258 -0.01781027 -0.0072132195 0.053189557 0.04376519 0.007255755 0.10435682 -0.041190226
-0.01471353 0.019401893 0.16036725 0.03500945 -0.03344689 0.04242086 0.025809871 0.012439294
-0.0199783 0.028460804 -0.01659925 0.023325551 -0.030351536 0.024839139 0.021899398 0.019949704

encoder.2.weight f4 [128, 128]
00000000: e6fc 53bd 950d d8bc a410 cbbd 733c 3a3d
00000010: 6943 cd3d 7c91 063e 4348 78bb 749e 84bd
00000020: 567d 76bd fb78 0d3e 5ccd 753c 001c c9bd
00000030: a56e 203e c3fa 243c a8a4 e9bb da81 9b3c
00000040: add7 4ebc cda1 2a3d b490 b4bd f9de 1abc
00000050: 4666 6abc 8275 503d a9d5 9ebd 1e24 053e
00000060: 6f7a 7fbd e7f3 363d 0456 eabd cdae 85bd
00000070: b7de f93d d267 8cbd 484d bd3c cfb7 263d
00000080: 6d7d 813c 0631 0e3c 5bed 6dbc 49d2 12bc
00000090: b8aa 713d 885a 2a3e bfc9 e43d 9ddb 953d
000000a0: 1e4f 713d 4a52 12bd 4e52 24bd 4f52 a73d
000000b0: 7afb bd3c 129e d3bb 6e64 00bc e2ef 5f3d
000000c0: 86b1 fb3d e625 dcbd 6bb9 c33d 3002 2a3c
000000d0: 19c6 613d a290 063e 8d5f 203d 2b4c 053e
000000e0: 83c4 97bd b755 c93d 6626 edbd a9d6 4fbd
000000f0: cb0e 733d 84f1 733d 8eb8 94bc 9935 01be
00000100: 942c ca3d 101b efbc a0b2 24bc f567 0e3d
00000110: 57f0 0abd 1b2c c6ba 6e5a 6dbc 2f5e 26bd
00000120: 7803 9cbd b6d1 d93d 8690 90bd b0e7 f13d
00000130: 9925 2bbc 4a01 493d 7fd7 e33d d1a3 82bd
00000140: e0df b63d 87d4 7abd e0ab f43c dbb6 e5bd
00000150: 3905 94bd 2981 73bd 9b2f a7bd 77f1 053e
00000160: 7549 80bd 38d7 f93c 20d6 89bd 0bbe 833d
00000170: 2ea2 11bd 83bc ca3d de69 443c 4acb 98bd
00000180: 384c 7abd 440c 8dbd 925b f8bd 5eb3 b53d
00000190: e1b1 a43d 6697 3b3d 7355 b53d a324 80bd
000001a0: cf09 b33d 0d27 903d a2a5 b73d 8434 b03d
000001b0: 8189 87bd 5dab aa3d 3e9c 563d b799 c5bd
000001c0: a082 f73b 569b 81bd 51b2 c2bd 32cf 24bc
000001d0: d58d d1bd 5f30 30bd d8fc c7bd c119 073e
000001e0: 7d2f a5bd 48fd 813d baf4 193d 2432 d53d
000001f0: b269 9f3d 4bc3 a3bd 7577 9cbc 26c2 cd3d
00000200: b4bb 963d f7ba 6bbd 7540 ba3c f0ca 723b
00000210: 3591 6fbd 543b 60bc 6808 3a3e 6305 c63d
00000220: 54a1 ff3c dc47 153c 22ce d5bc b3bb 6fbd
00000230: ea3b bfbd bf5c 1c3e 7a6a 143e cb6c 113e
00000240: 1717 d2bb c158 fabd 1acd 5e3d f6e9 cebd
00000250: 973e 2a3d 8009 0cbd ae07 88bd acc2 16bd
00000260: 5411 013d a1fb 71bd 82ad 963d 64c1 aa3d
00000270: 2512 b33d 561f 033e 8574 fc3a e7b1 84ba
00000280: cf0b 2d3d 929c aebd 1067 a03c f6ab 053e
00000290: e2c8 c03a 4347 ee3c 276b 15bd 3e8c 853d
000002a0: 1549 623d 03c7 c8bd 023a 6f3c eba3 c13d
000002b0: 892c 1abd 283f c03d c0d5 3bbb 7611 76bd
000002c0: f9b3 f2bc 736f 6abd 3b5c e7bd 9686 113d
000002d0: c7b6 8f3d 4c31 b83d d1c0 f93b dd8f d83d
000002e0: 5b1c 4dbb 6673 993d 3554 17bd 1f3f c43d
000002f0: c28d 6e3d 535e c4bd e9a3 f8bd c412 7dbd
00000300: 4f82 493d 658d d9bd 411b 1e3e 2fee f5bd
00000310: 6e4d 64bd c6c5 543c 369a 673d 0fb7 10be
00000320: cbde 1dbe 85f8 fd3d dce9 59bd bc52 073e
00000330: 08cc 183d c317 e73d 6684 8abd 3788 aa3d
00000340: 95bc 503b 2314 883d 6557 aebd a496 d5bc
00000350: b232 a93c 5298 413d ee2e 6bbc 0392 c43a
00000360: bfb7 1fbd c6ff 6c3d 25b6 303d 00e5 a4bd
00000370: 7de8 a23d ae05 8bbc 13d9 c33b 8071 dcbd
00000380: e7f2 f0bc 4731 febc d0dd 9bbd 110f a4bd
00000390: ffd7 1dbd d9de bf3d 1023 323d 0527 05bd
000003a0: 1446 86bc 0dfe 37bd 83e0 c03d a4a4 363d
000003b0: bf64 42bc 4b0b 48ba c43f ee3b df11 da3d
000003c0: d06b c0bd 5e45 37bd 58c1 12bd 1825 23bd
000003d0: cfdf 85bd 4bda aa3d 72f2 cbbd c2d9 6e3d
000003e0: 9cea 26bd c11b fe3d 4fcd 683c e4b2 a6bd
000003f0: cd3f bdbd d05a a83d d62b 1bbd 20b3 85bc
-0.051754855 -0.026373664 -0.09915283 0.045467805 0.10022623 0.13141435 -0.0037884868 -0.06475535
-0.060178123 0.13815682 0.015002575 -0.09819794 0.15667208 0.010069552 -0.0071302243 0.018982816
-0.012624663 0.04165821 -0.088166624 -0.009452575 -0.01430661 0.050893314 -0.07755596 0.13002059
-0.06237262 0.044666197 -0.114421874 -0.06527481 0.122006826 -0.0685574 0.02310814 0.040702637
0.015806878 0.00867868 -0.014521922 -0.008961269 0.0590007 0.16636097 0.111712925 0.073172785
0.058913343 -0.03572301 -0.040117554 0.08169996 0.023191202 -0.0064580524 -0.007836444 0.05467213
0.12289719 -0.10749416 0.0955685 0.010376498 0.05512056 0.1314111 0.039153624 0.13017337
-0.074105285 0.09830802 -0.115795895 -0.050741825 0.05934028 0.0595565 -0.018154409 -0.12618102
0.09871784 -0.02918771 -0.010052353 0.03476711 -0.033920612 -0.0015119346 -0.014486892 -0.040617164
-0.07617849 0.10635702 -0.07058816 0.11811769 -0.010445976 0.049073495 0.11125087 -0.06378902
0.089294195 -0.061237838 0.029867113 -0.112165175 -0.07227559 -0.05944935 -0.08163377 0.13080393
-0.06264011 0.030498132 -0.06730294 0.06432732 -0.035555057 0.09899237 0.011988131 -0.07460649
-0.061107844 -0.06887105 -0.12126841 0.08872102 0.0804174 0.04579868 0.08854189 -0.06256988
0.08742105 0.07038698 0.08967139 0.086037666 -0.06618024 0.08333466 0.052395098 -0.096484594
0.0075534135 -0.06328456 -0.095066674 -0.010059165 -0.102321304 -0.04301488 -0.09765023 0.13193418
-0.08065698 0.06347138 0.037586905 0.10409954 0.07783832 -0.079962336 -0.01909993 0.100467965
0.0736002 -0.05755135 0.022735814 0.003704723 -0.05848809 -0.01368602 0.18167269 0.09668996
0.031204857 0.009111371 -0.026099268 -0.058528613 -0.093375996 0.15269755 0.14493743 0.14201657
-0.006411444 -0.1222396 0.05439482 -0.10103218 0.041563597 -0.034188747 -0.0664209 -0.036806747
0.031510666 -0.059077863 0.07357313 0.083376676 0.08743695 0.12804922 0.00192608 -0.001012382
0.04224759 -0.08525957 0.019580394 0.13053879 0.0014708305 0.029086715 -0.03647914 0.0652089
0.055245478 -0.098035835 0.0146012325 0.09455093 -0.03764013 0.09387046 -0.002866134 -0.060075246
-0.029626833 -0.057235193 -0.112968884 0.03552874 0.07017284 0.08993778 0.0076218625 0.10574315
-0.0031297419 0.07492714 -0.03694554 0.09582352 0.05824066 -0.095883034 -0.121406384 -0.061785474
0.049196538 -0.10622672 0.15440084 -0.120083205 -0.055737905 0.012986606 0.05654355 -0.14132331
-0.1541702 0.12400917 -0.05320154 0.13215154 0.037303954 0.11283829 -0.06763534 0.08326762
0.0031850685 0.06644466 -0.08512763 -0.026072808 0.020654056 0.047264405 -0.014354451 0.0014997128
-0.038993593 0.057861112 0.043142457 -0.08051491 0.079545 -0.016970482 0.005976805 -0.10763836
-0.0294127 -0.031029357 -0.07610667 -0.08010686 -0.038536068 0.09368677 0.04349047 -0.032507915
-0.016390838 -0.044920016 0.09417822 0.044590607 -0.01186484 -0.00076310773 0.007270785 0.1064794
-0.093955636 -0.044743888 -0.03582892 -0.039830297 -0.06536829 0.08342417 -0.09958352 0.05831314
-0.040751085 0.124076374 0.014209106 -0.081395894 -0.09240685 0.08220446 -0.037883602 -0.016320765

encoder.2.bias f4 [128]
00000000: b16f 153c 843b c83c f14b 023d ca7a 0f3c
00000010: 1a19 923c aa70 ca3d 6b69 633c 3594 a0bc
00000020: 018a beba 6685 093d d4ac 823c b022 b73b
00000030: cbc9 80bd 221b 203d 9f1c a53c 95be 0dbd
00000040: 86bd 80bc 113a 24bd 8100 cd3c 0d20 16bc
00000050: 5bbf 3f3c 61d3 423d 1d35 f8bb 837f f13b
00000060: 7098 533b a022 273c d1ff 503c 5c73 71bd
00000070: 6f06 6dbd eb97 28bc f0dd d6bc e875 453d
00000080: 7a73 f3bc 2298 bcbc b4c3 8fbc 8b86 a43d
00000090: 4f40 d0bd c132 a6bc 778b e4bc 4818 653d
000000a0: 2b11 9ebc ed85 553f 595e ab3c 353f 6cbc
000000b0: 9226 253d 5eb3 c53c c847 813d 94c7 60bc
000000c0: 00a0 613d 7e8c e73c 5dbf 84bc ec7b 0abd
000000d0: ccf6 b13c 3854 833c 4f9f a0bc 1a67 11bd
000000e0: 3ec1 aebc b7dd 1b3d ad4d 233b 0df7 bebc
000000f0: ad31 4f3b e535 95bc 3bc1 bfbd 190b 793c
00000100: ce7d 47bd b283 943c 9b19 c23c 07db 51bd
00000110: 5213 283c 703a 583d 5d4c 3fbd 2f52 89bb
00000120: ad53 163c 13e3 0bbd 4cdf 743d 8f7c e9bc
00000130: 5ea5 fbbc 9175 f23c 1235 363e 9ed1 4e3c
00000140: ad7f 263d 5e77 2e3d 5abc 06bd 00e2 20bc
00000150: fdd5 4abc e0e4 de3c a965 7b3d 5e6e 0a3d
00000160: 2690 ccbd 205a 563c 7873 88bd 84ba 9a3c
00000170: 2677 bbbc 8a12 24bd 7b7a b03c 2a15 cdbc
00000180: e4c0 2d3c b7db ce3a 479b a0bd ab25 663d
00000190: 2118 193d a665 31bd 143a d53c a138 a43c
000001a0: b907 b7ba 7833 ebbb 93d0 783d 042c 533b
000001b0: ed87 573d 9e01 213c f7ff 423d a1c3 dd3c
000001c0: b94c dcbc a17b bcbd ad05 ea3c 5997 1a3d
000001d0: ede9 3abd c689 d2bd 4613 b03c c1fc 463d
000001e0: 10fa 403b 2113 3dbd a0e6 6abc cf8f f3bc
000001f0: b9e4 b63e 1493 9b3b 3563 543d 2e52 a3bc
0.009120868 0.024442442 0.031810705 0.008757303 0.017834235 0.0988477 0.013880114 -0.01960192
-0.0014536978 0.033574484 0.015951551 0.005588852 -0.06288489 0.039088376 0.02015525 -0.03460558
-0.015715372 -0.04009444 0.025024654 -0.009162915 0.011703338 0.047564868 -0.007574691 0.007369937
0.0032286905 0.010201126 0.012756304 -0.058947906 -0.057867464 -0.010290126 -0.026228875 0.048208147
-0.02971815 -0.023021761 -0.017549373 0.080334745 -0.10168516 -0.020287873 -0.027898533 0.05593136
-0.019295296 0.8340748 0.020919012 -0.014419367 0.040319987 0.02413338 0.06312519 -0.013719458
0.05508423 0.028265234 -0.01620453 -0.033809587 0.021724127 0.01603137 -0.019607214 -0.035498716
-0.02133238 0.03805324 0.0024918125 -0.023311162 0.0031615302 -0.018214175 -0.09363028 0.0152004
-0.04870396 0.018129203 0.02369385 -0.05123427 0.010258513 0.052790105 -0.046703685 -0.0041907053
0.009175223 -0.0341521 0.059783265 -0.028501777 -0.030718502 0.029597076 0.17793682 0.012623219
0.040649105 0.042594306 -0.03289447 -0.009819508 -0.01238012 0.027208745 0.061376248 0.03379666
-0.09988432 0.013083011 -0.06662649 0.018887766 -0.022883963 -0.040056743 0.021542778 -0.025034506
0.010605071 0.0015782033 -0.07842117 0.056188267 0.037376527 -0.04330983 0.02602867 0.020046534
-0.0013964094 -0.0071777664 0.060745787 0.003222228 0.052619863 0.009827046 0.04760739 0.027070822
-0.026892053 -0.09203268 0.02856716 0.037741993 -0.045633245 -0.102801844 0.021493565 0.04858089
0.0029445924 -0.04616082 -0.014337212 -0.02973166 0.35721377 0.0047477577 0.051852424 -0.019936647

encoder.4.weight f4 [128, 128]
00000000: 9bcc 9d3d 31d2 0e3e e625 823d 57d9 c23d
00000010: 85d9 a43c 2168 acbc a33d 5d3d 2bba a5bd
00000020: 81d8 b6bd f6d6 383d 252c ebbc 9007 d83d
00000030: fcb9 5bbd 0c2d c5bd 02a7 bebc 6342 603d
00000040: c7ad 2fbc b997 38bd 4727 efbc 0b53 babc
00000050: 7291 2bbd 0b9f 21bd 8abd afbd da20 773c
00000060: e2eb e33d 399b c3bc a816 143e 6f4c 04bd
00000070: 44de 63bd 676f 233e 3a3c 783d 1018 f03d
00000080: 311a c9bd 3750 e33c b697 d83c 2dc2 033e
00000090: 3c9e 0ebe c60d 17bd 99f7 713d 5fc3 eebc
000000a0: a418 0f3e 54a8 103e 9263 efbc a4dd debd
000000b0: d7a6 343d 9a79 1abe d0d6 82bd 92e5 b13d
000000c0: 9403 ebbd e2de 87bd 764f fa3c 4a5c 33bb
000000d0: 7c98 f53d 8caa e5bb ad88 1fbd 6385 f83d
000000e0: 16b8 f4bc 1a99 8bbd 1400 e0bd cfae 8a3c
000000f0: 152a 0dbe 02e3 923d b843 abbd eba2 07bd
00000100: 7504 61bd 3351 453b 5901 083d bf65 093c
00000110: dcf4 ebbd bdb3 41bc faf5 18be bb8d db3d
00000120: 4b0e 9cbd 2d9e d6bd 2720 64bd 6fa4 c83d
00000130: 64e4 f5bd 73a4 143d 8d1a c3bb 8553 2a3c
00000140: 7279 183d 4569 16bd bc4c 4abc 2de4 603d
00000150: e0af fb3c 21db a2bd 4f19 0abd 9b1b 04be
00000160: f309 273c f036 733d 22df 293d f2fc a3bb
00000170: bc91 853c 4841 4d3d 4660 1a3d 525a fc3d
00000180: fe03 ee3d 81df 873c 938b 813c 76fd d0bd
00000190: 36e2 a63d f238 953b 37c3 c4bd e55d 7e3d
000001a0: 220a 843d e85b 8cba 0f95 8e3d c056 0dbd
000001b0: aa21 da3d e9c2 25bd 5eaf 36bb b6f5 a23d
000001c0: e31c 96bd 3450 2c3d 6941 52bd 8684 793d
000001d0: 9442 e9bd 78d4 b4bc 35d9 373c 84b2 92bd
000001e0: 4516 a7bd c7be a1bd 4663 7a3d e4ea 193b
000001f0: 917b 67ba 6868 1abd a039 b73c 4a2e 1b3e
00000200: ffd9 f83d 0c7e 8f3d 5ebb 933d fc64 423c
00000210: e386 8abd f646 943d 466f 1b3e a780 dd3c
00000220: fb42 2ebd 924d e4bc 8326 35bd 8c7f b03d
00000230: 62dc e23d 4991 a03d e917 efbd cac4 833d
00000240: 30f0 9f3d f4da 04be 6b74 d7bd 7af6 ce3d
00000250: e73c 60bc 5def f2bc bb31 c2bc 540e c1bd
00000260: 689f bf3d 5676 b0bd c6b3 47bc 5b1a 853d
00000270: 5d41 42bd 7b61 d4bd c6bd ac3c 4432 ff3b
00000280: e821 9bbd 015d 363d ff43 4d3d 5875 9dbd
00000290: 2bc6 d93b 10fe 133d 752f 073d 8be4 a23d
000002a0: d4ec 87bc d6dd b93d f286 24be 6353 08bd
000002b0: 12fd d63d 120e 99bd ccb4 ac3c 83ea 79bb
000002c0: f7b1 a0bd 6270 f9bd 744b dfbd aa08 e73d
000002d0: 4e89 3d3d cc37 c03d 2b81 b03d 8586 cbbd
000002e0: 4d1c 6fbd 9643 cb3d 6ea1 26be 2145 1cbc
000002f0: fc62 fabd d6aa 54bd 35cd 51bc 2519 4fbd
00000300: 5ea1 48bd ec80 ffbd 3785 cbbd 8ee0 9b3d
00000310: 7aff 04be de09 bebb 49a6 133d b17c cfbd
00000320: 49d1 8cbd 9248 11be f45c fabd 8d99 efbd
00000330: c684 063d 00cc 503c 126e b9bd 7b15 aebd
00000340: ca6d 093e eb3d 2bbc 4c6c bcbd 9fc3 b5bc
00000350: 4aa3 c4bd 17df 2c3d 7d9c 9dbd c05c 92bd
00000360: cd31 03be 63cb 04bd b6e9 7d3d cb9b 19be
00000370: 03f1 70bc f8de f3bd eb68 6dbd 543b ebbd
00000380: 3510 ed3d ad4a 3d3d 1a2a 173c a394 693b
00000390: ae87 b7bd 9978 cc3c a8fc 3e3d 461b 34bd
000003a0: a67a d8bd 93e4 15be 42ba 96bd 793a b2bc
000003b0: e5d9 92bd b864 f9bc f9f9 63bd 1446 dfbd
000003c0: 2e5e a2bd 6898 1ebd 5ed2 6c3a 3f40 f2bd
000003d0: dd7a 543d 7326 1c3c 83cf 963d 62e9 d03d
000003e0: bada 6dbd c0a6 da3d 6234 5b3d c6a3 1cbd
000003f0: 702c 93bd d9fd eabd 6822 c5bd 578a debd
0.07705041 0.13947369 0.06354885 0.095141105 0.020123253 -0.021045746 0.05401386 -0.08092149
-0.089280136 0.045126878 -0.028707573 0.105483174 -0.053644165 -0.09627733 -0.023272995 0.05475081
-0.010722584 -0.04506657 -0.029193534 -0.022744676 -0.041886754 -0.039458316 -0.085810736 0.015083516
0.111289755 -0.023877727 0.14461768 -0.032299455 -0.05563189 0.15960465 0.06060431 0.117233396
-0.09819449 0.02774821 0.026439529 0.12867041 -0.13927549 -0.03687837 0.05907402 -0.029145895
0.13974243 0.14126712 -0.029222284 -0.10882118 0.044104423 -0.1508545 -0.063886285 0.08686365
-0.11475292 -0.066343084 0.030555468 -0.002736824 0.11991975 -0.007008856 -0.038948704 0.121348165
-0.029872935 -0.06816311 -0.10937515 0.016929058 -0.13785584 0.071722046 -0.08362526 -0.033114355
-0.05493589 0.0030108213 0.03320441 0.008386075 -0.115213126 -0.011822638 -0.14937583 0.10720392
-0.07619914 -0.104793884 -0.055694725 0.09796988 -0.12006453 0.036289643 -0.005954093 0.010395889
0.037225194 -0.036721487 -0.012347396 0.054905105 0.030723512 -0.07951952 -0.033715542 -0.12901156
0.010195243 0.059378564 0.04147256 -0.0050045187 0.016304843 0.050111085 0.03768947 0.12321915
0.11621855 0.016586067 0.015813624 -0.10204594 0.08148615 0.0045539076 -0.09607547 0.062101264
0.06447245 -0.0010708543 0.069620244 -0.03450656 0.10650952 -0.040469084 -0.0027875523 0.07957022
-0.073297285 0.042068675 -0.05133191 0.0609174 -0.11389652 -0.02207397 0.01122122 -0.071629554
-0.081585445 -0.07897716 0.06112983 0.0023485953 -0.00088303635 -0.037697226 0.022366345 0.15154377
0.121509545 0.070064634 0.07213472 0.011864897 -0.06764009 0.07240097 0.15179166 0.027038885
-0.042544346 -0.02786902 -0.04422618 0.08618078 0.11077191 0.07840211 -0.116744824 0.06434019
0.07809484 -0.12974149 -0.10520252 0.101056054 -0.013686395 -0.029655153 -0.023705354 -0.09426561
0.09356576 -0.08616321 -0.012188857 0.064991675 -0.047425617 -0.103701554 0.021086585 0.0077879746
-0.075748265 0.04452229 0.050113674 -0.07688397 0.006645938 0.036130965 0.033004243 0.07953747
-0.01659242 0.09075515 -0.16067103 -0.03328265 0.10497488 -0.07473387 0.021082304 -0.0038134165
-0.07846444 -0.121796384 -0.109030634 0.112809494 0.046273522 0.093856424 0.08618387 -0.09937767
-0.0583766 0.09925 -0.16272518 -0.009537966 -0.12225911 -0.051920734 -0.012805273 -0.05056109
-0.048982017 -0.12475762 -0.09937518 0.0761119 -0.12988082 -0.005799516 0.036047254 -0.10131205
-0.068758555 -0.1418784 -0.12224761 -0.11699209 0.032841466 0.01274395 -0.09054197 -0.08500191
0.13420787 -0.010451774 -0.092003435 -0.022188006 -0.096014574 0.042204943 -0.076958634 -0.07146597
-0.12811966 -0.032420527 0.061990462 -0.15000837 -0.014705899 -0.11907762 -0.057961386 -0.11485925
0.11575357 0.046213794 0.009226346 0.0035641573 -0.08961426 0.02495985 0.04662767 -0.043971322
-0.10570268 -0.14637975 -0.073597446 -0.021756398 -0.07170466 -0.030443534 -0.055658314 -0.10902038
-0.079281196 -0.038719565 0.00090340327 -0.1182866 0.051874984 0.009530651 0.073637985 0.10200764
-0.058069922 0.10676336 0.053516753 -0.038242124 -0.0718621 -0.11474199 -0.09625703 -0.1086623

encoder.4.bias f4 [128]
00000000: 523a bf3b 076f acbc 7a5b b3bc 4476 36bd
00000010: 4fec d0bc 6962 ecbc 5501 cf3c c009 5b3c
00000020: 5040 08bd 8392 0fbe 5cfa 49bd af92 bcbd
00000030: 5dee 8a3d 4f4e 1fbd 2019 5bbc 0e0e 043d
00000040: 837a 913d 6598 44bd 30d8 8dbd 3b34 ebbd
00000050: 776d fc3d 2905 3e3c 1b9d 3fbd 7c4f ddbc
00000060: 0f81 cc3d 7f12 8abd 63fa 703c 9ff7 75bc
00000070: e29f 5abd c623 713d d247 e03c ae64 adbc
00000080: f7d7 d3bb 1daa 2dbd af02 6b3c 0156 983c
00000090: 60e0 c0bd 0541 9139 d3b6 3b3d 5e1a 0e3d
000000a0: d225 2b3d 7206 b0bc 821e 5a3c bfaa 1b3d
000000b0: 5b03 093d 8eb1 023f 2b4e aa3c bd27 00bd
000000c0: 7f7a 7abc c84f d3bc 1e1e 39bc e2bc 1bbd
000000d0: 0b90 c03b c2a3 903d 377c 5f3d c375 b4bc
000000e0: f8fe 133e 8543 02bc 9cb4 e0bc aaaa c0ba
000000f0: 342f 71bd 0fe5 4a3e 0d08 efbc b0b7 943d
00000100: 2188 6c3c 30c0 12bc 9ae3 8c3b 3728 873d
00000110: 7cfc 743d 06d0 2ebc 4dd5 a53c 2663 a33d
00000120: 1e39 7dbd 2e00 16bd 4f5d f2bc 521e abbc
00000130: 61bf 043d d9c5 9fbc 2e66 2b3d d9ae c13d
00000140: cdec 9c3d 4beb 2abd ce28 b4bc 54cb 3ebc
00000150: b718 bd3b 8b59 9abc 4303 6f3d 6751 ccbc
00000160: d430 09bc 63a4 35bc 1c46 0c3d 165f 28bb
00000170: 1248 3abc e623 0f3e fb58 06bd a73e 7dbc
00000180: 7465 94bc 10c6 fc3c ab17 23bc 6e8e 9ebc
00000190: e435 4ebd 05cb 1e3d 00d3 1b3d fbfd ba3c
000001a0: 42b1 63bb f3ab 66bc a13a 84bd 28d9 013c
000001b0: e705 0b3b c361 8c3b 0220 043c 1efc bfbc
000001c0: 74af fbbc f5cd 4b3c e1c6 c23b e124 81bc
000001d0: 49fd c43c 7c70 86bb eac9 55bc 99a9 02bd
000001e0: 0333 943d 658e cfbc 017e dabc c5c8 333d
000001f0: 4afa 13bd 2cd0 c4bd 8d50 b2bd 4a34 1dbd
0.0058358097 -0.021049036 -0.021894205 -0.04454638 -0.025503306 -0.02885552 0.02526919 0.013369024
-0.03326446 -0.14020734 -0.049311027 -0.09207665 0.067837454 -0.03889304 -0.0133726895 0.032239966
0.071034454 -0.047996897 -0.06926 -0.114845715 0.12325566 0.01159791 -0.046780687 -0.02701544
0.099855535 -0.06741809 0.014708134 -0.015012651 -0.053375132 0.058872007 0.027377997 -0.021166172
-0.006464954 -0.04239856 0.014343902 0.018595697 -0.09417796 0.00027704999 0.04582865 0.034693114
0.041784115 -0.021487448 0.013312938 0.038004633 0.033450466 0.51052177 0.020789227 -0.031287897
-0.015287994 -0.025794879 -0.011298684 -0.03802193 0.0058765463 0.07062484 0.05456182 -0.02202881
0.14452732 -0.007950668 -0.027429871 -0.0014699299 -0.058882907 0.19813941 -0.029178644 0.07261598
0.014436753 -0.008956954 0.004299593 0.06599467 0.0598111 -0.010669714 0.020243311 0.079778954
-0.06182205 -0.036621265 -0.029585509 -0.020888481 0.032409076 -0.01950352 0.041845493 0.09457178
0.07662354 -0.0417283 -0.021992113 -0.011645157 0.0057707685 -0.018841526 0.05835272 -0.02494116
-0.008373458 -0.011086556 0.03424655 -0.0025691441 -0.011369722 0.13978538 -0.032799702 -0.015456832
-0.018114783 0.030856162 -0.009954373 -0.019355025 -0.050344363 0.038767833 0.038043022 0.022826185
-0.0034743105 -0.014079082 -0.06456495 0.007925309 0.0021213235 0.004284115 0.008064272 -0.023435649
-0.030723311 0.012439241 0.0059441184 -0.015764656 0.024046557 -0.0041027647 -0.013048628 -0.031900022
0.07236292 -0.025336454 -0.026671411 0.04389264 -0.036127366 -0.09610018 -0.0870677 -0.038379945

encoder.6.weight f4 [128, 128]
00000000: e56b d1bd 4425 993d af97 bfbd 486c 1fbe
00000010: 66ca cebd 29e8 0c3e 7d46 9d3a 379a a23d
00000020: d888 7c3d 0c91 2cbe b6aa dfbc 84b5 e33d
00000030: 463a f73d b3f2 0c3e 8e87 19bd 25e3 ed3d
00000040: 60f0 9ebd 15e0 cbbd 77b3 57bd 168c 1e3e
00000050: 3f34 ca3d ea0f 8d3d 0698 853d 9c01 a53d
00000060: a25c 5a3d b4c6 943d c380 cd3b dd72 0dbe
00000070: 25d1 a1bd b223 14be 9394 7e3d 7556 6fbd
00000080: 7446 02be 13b4 853b 41f5 1c3d 8a32 123d
00000090: 531a c0bd f341 cfbc d8d6 013e 42a6 1cbb
000000a0: 8d66 113c a112 dfbd 6dd0 f6bd 5ac4 c23d
000000b0: 95cb c03d 1907 083c c16f 133e e495 aabd
000000c0: 263d 12bc 0752 0ebc a6cd d3bd 3a48 5ebd
000000d0: 6b22 1e3e ee72 9cbd 3dfd b7bb 7292 473d
000000e0: 4e02 a23d 728d 13bd a8b9 0c3c 57f3 d4bd
000000f0: 97e3 a2bc 6cf4 bc3c f2e1 f13d eaa6 573d
00000100: 942f 113d cf3e e6bc 8f3d 25bd 2d51 2a3d
00000110: 0402 6c3c 83f1 f137 d8dd f93d 0ab6 a73d
00000120: 78df 89bd 2eb1 ef3d 6fe0 723d 990f c5bd
00000130: b91b a2bd eeda 303e a77a 933c bf8a ddbd
00000140: 0dde 0bbe 9e54 953d a7b3 d7bd 9d0c a4bd
00000150: 3ece f1bd e8eb 1dbd 2575 2e3e 1f01 2a3d
00000160: 7deb 6cbc 8bf8 66bd bee0 ab3b da41 21bd
00000170: 5ffb 043e 7520 82bd ef9b 9e3c cb6d edbd
00000180: 72e4 f7bd 024f dabd d855 76bd 5552 953d
00000190: b349 a9bd da79 47bd 0153 f13d 2cfc d73d
000001a0: 17c7 af3c eb3f 8b3d fe48 d63d c548 a93d
000001b0: e35b a03d 0c35 e03b 4172 ed3d d264 223e
000001c0: 7ebb 04bd d64f 24bd 5175 433d 4e95 9dbd
000001d0: 8699 3dbb 7ee0 ff3d 6a8b 81bd 80d0 ccbd
000001e0: d4ac b3bd 74e3 af3d 76e0 213d 8891 303c
000001f0: 585c 87bd 1ab4 b93b ed21 efbd c157 093d
00000200: 0554 423d 69a3 69bd 5378 c9bc e84b 833d
00000210: 44c3 00bc 5be0 693d 6d19 853d a2ae a13d
00000220: 4d95 703d 9ba2 a4bd 6052 3ebb c979 60bd
00000230: 583c 49bd 8881 213b e5dc 35bc a415 9d3d
00000240: 2dc2 9a3d 4c19 453d 5402 ef3d c8fd c2bd
00000250: 9a8a bc3c 042b 7ebd 699f 563d c145 cfbc
00000260: 4bff cf3d 66bf 903d 8b82 d13a 4e09 bc3d
00000270: 3c78 2c3d de3b 1bbd 08ac 9fbc fb5b 86bd
00000280: 0225 ccbc 66c3 1e3d cbcf 8f3d 8a07 8c3d
00000290: 9b27 ccbd 7059 32bd 4cd6 d2bd 6418 2ebd
000002a0: 5093 a6bc 219c 183d b5fd aabc d9df b4bd
000002b0: 5ca3 ab3d b356 8cbd ee04 b63d a32a c73d
000002c0: 5d77 2fbd 6c6c 26bc 801a e9bc 5d68 133e
000002d0: a541 00bb 67b7 e53d e648 143e 7446 bbbd
000002e0: 8de0 03be 586b b2bb 7cf1 063e 82e3 bebd
000002f0: 05b0 20bd b511 cbbd 4332 143e 2801 953d
00000300: bbbd cbbd 3646 cfbb a130 b63c 243b 9ebd
00000310: 86d9 f33d 1033 5e3c 3142 173d 20d2 8cbc
00000320: 2a63 d73d b688 16bd ec7f a5bd 2e5c ba3c
00000330: 2cb4 2bbd 1813 003e f4ed 603b 68f5 953d
00000340: 834e 29bd 0bae 76bd 12dc 363c 1cc5 e83d
00000350: 571b 40bd 3b44 fd3d 1612 3a3d 4f94 e9bd
00000360: a430 7b3d 5bd6 d93d 4d72 99bd 10b2 f3bd
00000370: ce74 4dbd 276a 6dbd a894 d33d f905 e4bb
00000380: 499b 0e3e 903f 1a3e dd54 43bc aab1 64bc
00000390: 3d5f b0bd ae46 923d babf 783b ff7d 83bd
000003a0: 7003 a83c 41f5 843c 912e d1bc 5e68 ecbb
000003b0: 14e8 f43c 4b16 b8bc 57b4 073e e4dc babd
000003c0: 8724 8e3d 1ec8 57bd f8a2 aebd 4155 cc3d
000003d0: 69ec 0c3e 2037 d9bd 492c 3d3d 7e41 fe3d
000003e0: 21ea a73d 6659 1b3d 48e9 c5bd 2e63 3f3d
000003f0: 3ea1 733d 0305 2abb 6463 bbbd cc1d 343c
-0.102256574 0.07477811 -0.09355103 -0.1556865 -0.10097198 0.13760437 0.0011999157 0.079395704
0.061653942 -0.16852206 -0.027303081 0.11118606 0.12071662 0.13764457 -0.03748279 0.1161559
-0.07760692 -0.0995485 -0.052661385 0.15483126 0.098732464 0.06887801 0.06523137 0.080569476
0.053310998 0.07264462 0.006271453 -0.13813348 -0.07901219 -0.14466742 0.06215341 -0.05843206
-0.12722188 0.0040803044 0.03831983 0.03569273 -0.09380021 -0.025300002 0.12679613 -0.0023902808
0.008874548 -0.10892225 -0.12051473 0.09510107 0.0941383 0.008302473 0.143981 -0.083293706
-0.008925712 -0.008686549 -0.10341959 -0.0542681 0.15442817 -0.076391086 -0.005614905 0.048723646
0.07910596 -0.036023565 0.008589186 -0.10397976 -0.019883914 0.023065768 0.11810674 0.052649416
0.035445765 -0.028106121 -0.04034191 0.04158132 0.014404777 2.8841901e-05 0.122005165 0.08189018
-0.067320764 0.11703716 0.059296068 -0.09622116 -0.07915444 0.17271015 0.018002821 -0.10817479
-0.13658924 0.0729153 -0.10532313 -0.08010218 -0.11806916 -0.038555056 0.17036875 0.041504975
-0.014460442 -0.056389373 0.005245297 -0.03936944 0.12986515 -0.06353847 0.019361464 -0.11593207
-0.12104119 -0.10659601 -0.06014046 0.07291094 -0.0826601 -0.04870019 0.1178341 0.10546145
0.021457238 0.06799301 0.10463141 0.08265833 0.07830026 0.006842261 0.11594058 0.15858772
-0.03240537 -0.0401152 0.047719304 -0.07694493 -0.0028930618 0.1249399 -0.06325419 -0.10000706
-0.08773199 0.08588305 0.039520703 0.010776885 -0.0660941 0.0056672217 -0.11676393 0.033530954
0.04744341 -0.057040606 -0.024593508 0.06410962 -0.007859055 0.057098728 0.0649899 0.07894637
0.058736134 -0.08038827 -0.0029040799 -0.054803643 -0.049129814 0.0024643857 -0.011100029 0.07670143
0.07556567 0.048119828 0.11670366 -0.09521061 0.02301531 -0.06205274 0.05239812 -0.025301816
0.10156115 0.07067756 0.0015984339 0.09181462 0.042106852 -0.03789889 -0.01949121 -0.06560513
-0.02491999 0.038760565 0.07022055 0.068373755 -0.09968492 -0.043542325 -0.1029478 -0.04250373
-0.020333916 0.03725827 -0.02087293 -0.08831758 0.08380768 -0.06852474 0.08887659 0.09724929
-0.042838443 -0.010157686 -0.028455019 0.1439528 -0.0019570377 0.11216622 0.14480934 -0.09144297
-0.12878628 -0.0054449253 0.13178056 -0.093207374 -0.039230365 -0.09915487 0.14472298 0.07275611
-0.099482976 -0.0063255085 0.022239985 -0.07726124 0.11906724 0.013561979 0.03692836 -0.01719004
0.10516961 -0.03675147 -0.0808104 0.022749033 -0.041919872 0.12507284 0.0034321519 0.07322198
-0.04133464 -0.060224574 0.011160867 0.11365721 -0.046901073 0.123665296 0.045427404 -0.11405241
0.061325684 0.10636588 -0.07492504 -0.11899197 -0.05016022 -0.057962563 0.10331088 -0.00695872
0.13926424 0.1506331 -0.011922088 -0.013958374 -0.08611915 0.07142387 0.0037956075 -0.06420516
0.020509452 0.016230227 -0.0255349 -0.00721459 0.02989582 -0.022471568 0.13252388 -0.09124163
0.06940561 -0.05268108 -0.085271776 0.099771984 0.13762058 -0.106062174 0.04618481 0.124148354
0.081989534 0.037927054 -0.096636355 0.046725444 0.059479944 -0.0025942929 -0.09149817 0.010993432

encoder.6.bias f4 [128]
00000000: 7b09 b73b 331f 943c 0f0c b5bc 7f3c 843c
00000010: b6a3 5dbc 05b6 c03d 00fe f33d ddfc fcbc
00000020: ff07 1a3b 0a3e 3cbc 893d ff39 89c9 e83b
00000030: d259 9bbc 8510 c03d 518a 2c3b 8ae8 55bd
00000040: 7ca7 a23c 0210 5fbd 56cb 1b3c 03af 1e3c
00000050: 9947 73bd 2394 d13b 4684 45bd b1ed 08bc
00000060: 42b6 04bd 9653 3d3e 6447 8a3d ddd9 283c
00000070: b0d1 08bc 62c8 f3bc e219 b83c c60e 313d
00000080: e188 82bc 3b06 76bd cba1 a3bb 3b0e 403d
00000090: 7e4c abbb 7388 33bc 47bf 18bc a084 9abc
000000a0: 9e13 9fba f543 a93d 3f44 f1bc 1655 bd3c
000000b0: 9400 26bd c0bd ecbb 3065 c7bc 42f1 02bd
000000c0: 632e a83d bbb9 d7bc d5fb 183e 4aac a8bc
000000d0: 82e4 823b 5d5b 973d a5fc d7bc f584 a33d
000000e0: 2956 ab3b 0533 37bc 3cf0 873d 233e e43c
000000f0: 33ef cebc 2919 04bd 9307 7d3c 97ef 043c
00000100: b119 25bb 1463 a6bb 5cd3 e83c 8698 ba3d
00000110: cff9 b7bc ae74 5ebc ccdc 80bd 1c9e 403d
00000120: 2dc1 823d d9ec f03c 267d 7fbb 3536 afbb
00000130: fd92 bbbc 93c0 333d 9782 dc3b 0355 c0bc
00000140: 80e8 0b3d 1c2b 1abc ceb1 05bc bd10 61bd
00000150: 2a51 61bd cf23 3abc a9af 61bd 7089 fdbc
00000160: 0566 4d3b 1ef8 7abc 7073 06bd 81e5 cc3b
00000170: 19d3 98bc 8b47 153d be1b 043d db57 193c
00000180: 163b d1bc 9f7a 1a3d 8de7 3abd be1b 8a3c
00000190: 40f3 83bc 7ceb aa3c 6a6f 8cbc d25f 4f3d
000001a0: f4a4 dc3c 8dec 5c3d 9d8d 01bb 5db2 b2bc
000001b0: 2fd2 1c3e ecf5 cdbb aa53 83bb 6dc0 0dbd
000001c0: cdc2 933d a10b 92bc 57ce 5a3d 5751 39bc
000001d0: fc92 3b3d ada9 82bc a288 0fbd d8da 0fbd
000001e0: b1e9 f8bc 634b b73c 6b87 b53c f62d 29bd
000001f0: d8b7 72bc cd90 8dbc 45d6 1e3d 8a11 253f
0.005585847 0.018081283 -0.022100477 0.016142128 -0.013527801 0.094097175 0.11913681 -0.030882293
0.0023503301 -0.011489401 0.00048683237 0.007104103 -0.018963728 0.09378151 0.002632756 -0.05222372
0.019855253 -0.054458626 0.009508928 0.009685281 -0.059394453 0.006395833 -0.04822185 -0.008357451
-0.032400377 0.18488917 0.06751898 0.010305849 -0.008350775 -0.029758636 0.02247328 0.04322698
-0.01593441 -0.060064536 -0.0049936525 0.04688857 -0.0052276244 -0.010957825 -0.009322948 -0.018862069
-0.0012136584 0.08264915 -0.029451488 0.023111861 -0.040527895 -0.0072247684 -0.024340242 -0.031968363
0.082119726 -0.02633368 0.14939816 -0.020589966 0.0039945254 0.07390473 -0.026365587 0.07984344
0.005228777 -0.011181598 0.06637618 0.02786166 -0.025260543 -0.032250557 0.0154437 0.008113763
-0.0025192315 -0.005077729 0.028421097 0.09111123 -0.022457985 -0.013577623 -0.06292114 0.047025785
0.063845016 0.029409813 -0.0038984506 -0.005347038 -0.022897238 0.043884825 0.0067294347 -0.023478037
0.034157276 -0.009409692 -0.008160068 -0.054947603 -0.055009045 -0.0113610765 -0.055099163 -0.030949324
0.0031341326 -0.015317945 -0.032824934 0.006252945 -0.018655347 0.03644518 0.03225302 0.009359325
-0.02554087 0.037714597 -0.04563098 0.016858932 -0.016107202 0.02086424 -0.01714297 0.05062849
0.026934125 0.05393653 -0.0019768246 -0.021813566 0.15314554 -0.0062854197 -0.0040077763 -0.03460734
0.0721489 -0.01782781 0.053419437 -0.011310897 0.045794472 -0.015950048 -0.035042413 -0.035120815
-0.03038487 0.022374814 0.022159299 -0.041303597 -0.01481434 -0.01728096 0.038778562 0.6447989

encoder.8.weight f4 [16, 128]
00000000: 6c7f 20bd 0f10 113e 0212 7c3c 2536 96bd
00000010: d3cf e9bd e450 123e 3733 723d db69 21be
00000020: 0886 033e 64ec e23d 4d8e 2c3b 3ac0 33bc
00000030: 62e6 0c3d 43ff e43d 88ee d23d 2782 d23b
00000040: add3 163e 42c9 e43d 49f8 253e cb14 8dbd
00000050: aa93 8e3c d367 c43d bdac c1bc f8af de3d
00000060: 7396 7a3c 039c a9bd 31e2 04be 54d2 4abc
00000070: 2b8c ee3c 95d5 1fbe 59f0 f33d d7a1 0b3e
00000080: ac83 e3bd 5566 c23b 3b89 c73c d7c2 193e
00000090: 27a0 83bd 0ee7 3d3d 36d7 58bb bbee 9d3d
000000a0: 7df6 fcbc 7579 24be a2f4 273e 87a4 0abd
000000b0: fe88 cdbd fe2b a4bd 2bea ed3d 9057 b1bd
000000c0: 100d 5c3d ca32 20be a691 7a3c cd03 91bc
000000d0: 8377 cebd ab17 22bd b8dc c43c ab5b bfbc
000000e0: c216 103d 45ba 833d 64eb 55bc b2ff fd3d
000000f0: fe42 8d3d 6540 7e3d 36de 17be aaa2 15be
00000100: 0622 31be da76 99bc 12fa 2d3c df58 7e3c
00000110: 17ca 5cbd aa51 893d f69c ed3d cdec febd
00000120: c569 fcbd 294b 07be b254 8a3d 596a 29bd
00000130: 6bf9 c73d dfde 80bd 64f8 9ebb 6d89 1c3e
00000140: 02a6 b53d 9a6e 26bd 9336 4bbc 234f 5f3d
00000150: 7276 4cbd a62e 023e d93d f23d a5e2 a23d
00000160: ba5d 02be ff15 0abe e713 0abd 285b 013e
00000170: b01a 193e 19da 0b3b 802e 0a3e 63ee fd3b
00000180: 589e fdbc 8ba4 403c d329 56bd 4fa1 a7bd
00000190: d928 083e ca69 133d c5eb 363e be98 1cbe
000001a0: 7fbe 413d 2aa8 10be a5d4 cabd effd 18be
000001b0: 3fd1 22be 1e59 7e3c cff9 e43d 9ad3 223e
000001c0: daf5 c43c cf21 07bd 568a 01be 6138 36be
000001d0: 8b0d a13d 8ecd adbc fcbb 9dbd e905 93bc
000001e0: f23c 3cbd 9864 483c 2029 2d3e 6ae2 ebbc
000001f0: 4270 80bd d7c2 a23d b5a9 893d 1bbf 4a3c
00000200: 8581 8abd 8ec2 063e 59af e8bd b656 383d
00000210: 192c 0b3e e697 ccbd e774 393e 85c9 40bc
00000220: f606 0b3e ada1 40bd 2e90 3ebe 67bb 5bbd
00000230: 2701 493d 82e5 df3c 3774 89be eba2 2b3d
00000240: d557 0ebc ab89 b03d ded0 bc3c ddbc e3bb
00000250: 00a5 05be 3f44 64be 1bd7 c5bc e391 e03d
00000260: 1d0f 6cbd c801 c1bd e760 ef3d 78ce 2fbe
00000270: 398c a43e 5670 cdbd 4ff9 24be c5b6 093e
00000280: cabc df3c f87f 08be 1e50 5b3e 682f ed3d
00000290: 3090 0abe 0efd fcbd dedb bf3d c29a d93d
000002a0: 7c0b 9ebc 5d30 82bd 3763 183e 140d 37be
000002b0: 46df d73c 7ae7 1bbe c979 123e 9bc2 833d
000002c0: 633b d7bd 1190 a03d d921 e33d 9ebf e23d
000002d0: 8b6e 133e 191f 20be 68cd e53c c2f5 6c3e
000002e0: 4a31 0b3e b631 26be 85b4 833e 4807 903d
000002f0: b689 9abd a36d 80bd 8ac4 0abe 44d4 3bbe
00000300: 34bb b4bd 83b5 083c 5cec 51bd 7254 c53c
00000310: c40e 25be 9ea9 15bc 4719 433e 607e 86bc
00000320: 3f00 813e f1d0 2abe e747 2cbd c653 78bd
00000330: d302 01be 172d b23d 1ef8 073e ffc6 d5bc
00000340: d0ee 2b3e 2295 a8bc 2fe5 233e 9b6e cebc
00000350: 5c29 bb3d 30d8 063e b223 56be 4856 b43d
00000360: 9349 93bd 7322 883d 7ce4 12be 6fb5 d1bd
00000370: 7536 84bb f586 e2bd b928 2abe b0d0 b13d
00000380: 5764 3fbd 5509 59be 86de 6a3d 51c5 5e3e
00000390: 316c 2a3b 50dd 49be 39d9 293d 93b4 8bbd
000003a0: 7dc1 3fbd 9245 833c 7b39 15be 8a00 a93d
000003b0: 5c28 cebd c82b 89bd 139f 1c3d cd36 22be
000003c0: ecf4 b23d a110 aebd 63a1 673d 460d b9bd
000003d0: 9c00 13bd 274a 00be 23b8 a73d ddba a93d
000003e0: 8d23 9abd 5a8d c53d bda0 85bd 4064 29be
000003f0: 5e49 123e 58f9 dbbd 6751 1a3e e995 0e3e
-0.03918402 0.14166282 0.015385153 -0.07334546 -0.114165924 0.1428867 0.059130874 -0.15763037
0.12844098 0.11080244 0.0026329935 -0.010971123 0.034399398 0.111815 0.102994025 0.006424207
0.14729185 0.111711994 0.16207995 -0.068887316 0.017404396 0.095901154 -0.023641938 0.10873407
0.015294659 -0.0828171 -0.1297691 -0.012379248 0.029119572 -0.15608819 0.11911077 0.13635956
-0.11109099 0.005932609 0.024357429 0.15015732 -0.06427031 0.04636293 -0.003308726 0.0771155
-0.030879254 -0.16061957 0.16401914 -0.03384831 -0.10035895 -0.08016203 0.116169296 -0.08659279
0.053723395 -0.15644374 0.015293514 -0.017702008 -0.10081389 -0.039573353 0.024031028 -0.02335914
0.035177954 0.064320125 -0.01305661 0.12402286 0.06897543 0.06207313 -0.1483086 -0.14612833
-0.17298135 -0.01873343 0.010618703 0.015524118 -0.053903665 0.06705029 0.116022035 -0.1244751
-0.123248614 -0.13212265 0.067544356 -0.041361187 0.097643696 -0.06292509 -0.004851388 0.15286799
0.08869554 -0.04063282 -0.012403148 0.05451883 -0.049917646 0.12713107 0.11828203 0.07953385
-0.12731066 -0.13484953 -0.033710387 0.1263243 0.14951587 0.0021339713 0.13494301 0.007749365
-0.030959293 0.01175798 -0.05228598 -0.08185064 0.13296832 0.03598956 0.17863376 -0.15292642
0.04730081 -0.1412665 -0.0990384 -0.14940618 -0.15900134 0.015524177 0.1118046 0.15901032
0.024043012 -0.032991227 -0.12650427 -0.17794944 0.07863911 -0.02121618 -0.07701871 -0.017947154
-0.04595656 0.012231015 0.16910219 -0.028794486 -0.062714115 0.07947319 0.06721822 0.012374665
-0.06762985 0.13160154 -0.1136157 0.04500457 0.1359104 -0.0998991 0.18111001 -0.011766796
0.13576874 -0.047029186 -0.18609688 -0.053645518 0.049073365 0.027331118 -0.26846477 0.041903418
-0.008687933 0.08620008 0.023048814 -0.0069500045 -0.13051224 -0.22291659 -0.024150422 0.10965326
-0.0576316 -0.09424168 0.116884045 -0.17168605 0.3213823 -0.10031192 -0.16110729 0.13448627
0.027311701 -0.13330066 0.21417281 0.11581308 -0.13531566 -0.12352954 0.09368108 0.10625221
-0.019292586 -0.06356881 0.14881597 -0.17876083 0.026351582 -0.1522502 0.1430427 0.064336024
-0.10509374 0.078399785 0.1109044 0.11071704 0.14397638 -0.15636863 0.028052047 0.23140624
0.13593021 -0.162299 0.25723663 0.07032639 -0.075457975 -0.062709115 -0.13551536 -0.18342692
-0.08824769 0.008344057 -0.0512508 0.024088118 -0.16118914 -0.009134678 0.19052611 -0.016417682
0.251955 -0.16681267 -0.04206076 -0.060626768 -0.12598734 0.087000065 0.13278243 -0.026095865
0.16790318 -0.020578925 0.16005395 -0.025199225 0.09138748 0.13168406 -0.20912054 0.08805519
-0.071917675 0.06647196 -0.14344972 -0.10239684 -0.004034812 -0.11060897 -0.16617097 0.08682382
-0.04672655 -0.21194966 0.05734112 0.21754958 0.0026004429 -0.1971333 0.041466925 -0.06821551
-0.046815384 0.016024385 -0.14572708 0.08252056 -0.10066292 -0.06697804 0.038237642 -0.15841217
0.087381214 -0.084992655 0.056550395 -0.09035735 -0.035889253 -0.12528287 0.08189418 0.082875945
-0.07526312 0.09646101 -0.06524799 -0.16542149 0.142858 -0.10740918 0.15070115 0.13924374

encoder.8.bias f4 [16]
00000000: 8d12 aabc e0ba 1c3d 675c aabd 5fef 5cbc
00000010: 7ad0 d53c cff4 d53d 2cfb c83c e550 9ebc
00000020: 5de8 d0be 8ef1 77be fa7d e4bd 327e a8bf
00000030: 8940 23bf 3f8d 37be 8e07 0fbf 251f 24bf
-0.020760799 0.038264155 -0.083184056 -0.013484805 0.026100386 0.10447084 0.02453383 -0.019325683
-0.4080228 -0.2421324 -0.111568406 -1.3163512 -0.6377035 -0.17924975 -0.558709 -0.6411002
