models/y02vae_D2_layers(4, 4, 4, 4, 4)__mog6_2d_vlim(0.001, 0.004)_seed43.pt (torch, 33330 bytes, 64 tensors)

encoder.0.weight f4 [4, 2]
000000 5c cd c2 be b7 19 2f be 07 8b a2 3e f1 b9 86 3e
       -0.38047302 -0.17099653 0.31746694 0.26313737
000010 48 b7 3e 3f 14 de 3e bf c9 5b 45 bf f7 86 d9 be
       0.74498415 -0.74557614 -0.7709318 -0.42485783

encoder.0.bias f4 [4]
000000 0e b3 35 bc 5b cd c5 3b d5 d9 5a bd f0 1d 5e bc
       -0.011090053 0.006036443 -0.053430397 -0.013556942

encoder.2.weight f4 [4]
000000 ca 0f 76 3f 19 1b 73 3f df 70 88 3f 58 59 6f 3f
       0.9611784 0.9496322 1.0659446 0.934957

encoder.2.bias f4 [4]
000000 10 87 e1 bd d6 21 db 3d 58 14 ed bd b3 fa 4d ba
       -0.11012089 0.10699813 -0.11576146 -0.00078574865

encoder.2.running_mean f4 [4]
000000 04 00 00 00 7c 45 8a 3e 2e 33 7a 3e 04 00 00 00
       6e-45 0.27006137 0.24433586 6e-45

encoder.2.running_var f4 [4]
000000 04 00 00 00 e0 26 6b 3c 35 e9 1c 3d 04 00 00 00
       6e-45 0.01435253 0.03830834 6e-45

encoder.3.weight f4 [4, 4]
000000 b2 61 fe be ca 18 e1 3e 75 41 3b 3f 53 91 33 3f
       -0.4968391 0.43964225 0.73146755 0.7014362
000010 2f 58 60 be ed 3e 3c 3f 33 61 2e bf cf ee 3f 3e
       -0.2190864 0.7353352 -0.68117064 0.18743442
000020 cc 5c 30 bf 52 27 1c bd d8 c2 4a 3f 62 e8 d9 3d
       -0.68891597 -0.038123436 0.7920356 0.10640027
000030 8f 6c a7 3e cd 3b ce 3d 78 2f d1 be 96 a4 16 bf
       0.3270001 0.1007 -0.40856528 -0.5884489

encoder.3.bias f4 [4]
000000 96 6d 54 bd 83 c9 9d 3e ca 79 fb 3d d3 40 67 3b
       -0.05186232 0.30817804 0.12279089 0.003528644

encoder.5.weight f4 [4]
000000 e2 ab 98 3f 7b c6 33 3f 40 c6 87 3f d9 3b 75 3f
       1.1927454 0.7022473 1.0607376 0.95794445

encoder.5.bias f4 [4]
000000 e1 9d 11 be c2 74 4a 3e ed 18 1d 3d 13 8d 73 bd
       -0.14220382 0.19771102 0.03835385 -0.05946071

encoder.5.running_mean f4 [4]
000000 b7 c1 d2 3e 25 37 12 3f c8 66 d9 3e 79 7e 45 3e
       0.41163418 0.57115394 0.42461228 0.19286527

encoder.5.running_var f4 [4]
000000 f2 7d a0 3e f2 4e 02 3f df b9 8a 3e b6 51 58 3d
       0.3134609 0.5090171 0.27094933 0.0528123

encoder.6.weight f4 [4, 4]
000000 6a f5 19 bf d3 58 09 3f 78 87 58 3f ee 45 52 be
       -0.601401 0.5365116 0.8458171 -0.20534489
000010 48 73 22 3f ab 2d d3 bd 32 62 70 3f 01 26 d0 bb
       0.63457155 -0.10311445 0.93899834 -0.0063521867
000020 7a bc c6 bd 99 44 08 3f 67 ea 0e 3f cd de 7d bf
       -0.09703918 0.5322967 0.5582642 -0.9916809
000030 f5 d9 db be 20 69 93 be 3a 5b b8 3e b9 0c e2 3d
       -0.42939726 -0.28791142 0.360071 0.11037583

encoder.6.bias f4 [4]
000000 d8 f1 b4 3c 43 0d bf 3e 87 eb d8 3d 73 dd e7 3c
       0.022087976 0.37314805 0.10591798 0.028303837

encoder.8.weight f4 [4]
000000 7a 97 89 3f c5 c3 8c 3f 46 d9 93 3f a3 2c 34 3f
       1.0749352 1.0997244 1.1550682 0.7038061

encoder.8.bias f4 [4]
000000 02 07 f8 bd 57 52 c2 3d be 6d 3c 3e 73 57 1c 3e
       -0.12110712 0.09488361 0.18401238 0.15267734

encoder.8.running_mean f4 [4]
000000 c8 d4 9f 3e cf e7 5f 3f e7 81 2c 3f df 86 10 3e
       0.31217027 0.87463087 0.67385715 0.14113949

encoder.8.running_var f4 [4]
000000 0f 1c 8e 3d c1 79 e6 3f de 64 f6 3e 9f ef de 3c
       0.069389455 1.8005906 0.4812383 0.02721387

encoder.9.weight f4 [4, 4]
000000 00 30 f7 3e 44 93 c8 be 29 a5 8a bd f1 fb 2c bf
       0.4827881 -0.39174855 -0.06769783 -0.6757193
000010 cd ca 46 be 98 99 b9 be 67 cd 32 3f bf f4 40 be
       -0.194133 -0.36249995 0.6984467 -0.18843363
000020 ba e1 ae bd 48 69 1f be 09 d0 c8 be 8f d0 9a be
       -0.08539148 -0.15567505 -0.39221218 -0.30237243
000030 68 7b 83 3e 7a 50 f2 3e 60 c9 cc 3e d7 30 cf 3e
       0.2568009 0.47327024 0.39997387 0.4046695

encoder.9.bias f4 [4]
000000 16 bb 58 3a 3d 80 3f 3e 05 81 06 3e 4b 5d 21 3f
       0.0008267624 0.18701263 0.13135155 0.6303298

encoder.11.weight f4 [4]
000000 8d f3 6b 3f 3d 4f 84 3f 48 f9 92 3f cc 47 03 3f
       0.92168504 1.0336682 1.1482325 0.5128143

encoder.11.bias f4 [4]
000000 d5 5c f4 be 9f af 37 bc 4f 04 a2 3d ea 62 d4 3e
       -0.47727075 -0.011211305 0.07910978 0.41481715

encoder.11.running_mean f4 [4]
000000 7f cb 19 3e 02 f3 ae 3e 5d ab 98 3e 3e 37 5a 3f
       0.15019034 0.34169775 0.2981824 0.8524054

encoder.11.running_var f4 [4]
000000 c4 a6 e6 3d 76 32 1c 3e 51 ac bf 3d 6b 06 7c 3f
       0.11262277 0.15253624 0.093590386 0.98447293

encoder.12.weight f4 [4, 4]
000000 9b 57 62 bf 75 8c 26 3e cd 10 61 bd 45 22 dc 3e
       -0.88414925 0.16264518 -0.054947663 0.42994896
000010 ac e8 73 3e d0 0a e7 3e c1 97 45 3f 25 e2 00 bf
       0.23819226 0.45125437 0.77184683 -0.5034507
000020 88 d6 c9 3d a0 6f d2 3e 5c cc d2 3e 60 93 05 3e
       0.09855372 0.41100788 0.4117154 0.130445
000030 d9 0a 08 bf ca d2 0d 3f 7a 72 a9 bf c0 2f b5 3d
       -0.5314155 0.55399764 -1.323806 0.08846998

encoder.12.bias f4 [4]
000000 ef 0a 1f 3f 63 65 77 3d fe 59 8c 3e a6 23 5e 3e
       0.6212606 0.060399424 0.2741241 0.21693286

encoder.14.weight f4 [4]
000000 76 8f 8f 3f 85 27 6e 3f 8c 36 28 3f d3 80 66 3f
       1.1215656 0.9302905 0.6570823 0.9004032

encoder.14.bias f4 [4]
000000 85 59 2c 3f fe 1a 23 3f 5f ff b3 be e9 77 07 bf
       0.67324096 0.6371306 -0.3515577 -0.52917343

encoder.14.running_mean f4 [4]
000000 c5 bf b0 3f 4f 04 9c 3e 86 21 ad 3e 93 38 a6 3f
       1.3808523 0.30472037 0.3381464 1.2986015

encoder.14.running_var f4 [4]
000000 90 87 01 3f 10 7e 53 3e 41 9c 84 3d 09 69 df 3f
       0.50597477 0.20653558 0.064751156 1.7453929

encoder.15.weight f4 [4, 4]
000000 1b 14 7f 3e 27 f5 00 bf aa 67 d7 be eb cf 56 be
       0.24910013 -0.5037407 -0.42071277 -0.20977752
000010 af b9 fc be 6a 7e eb be bc d7 19 bf 97 8e 44 bf
       -0.49360415 -0.45994884 -0.6009481 -0.76780075
000020 27 d5 04 bf f2 46 5c bf e9 8b 00 3e 91 0c 1d 3f
       -0.51887745 -0.86045754 0.12553371 0.613473
000030 c9 0d 7f bf 0b 45 58 bf 0a ba 64 3f 03 8c e5 3c
       -0.9963041 -0.8448035 0.89346373 0.028020864

encoder.15.bias f4 [4]
000000 25 83 c9 bd ac cb b5 3b 77 ce fd bd 06 38 5a bf
       -0.09839467 0.005547961 -0.12392896 -0.85241735

decoder.0.weight f4 [4, 2]
000000 f3 93 7f 3e 26 c0 85 3e 8c 03 45 3e 21 25 27 3b
       0.24958782 0.2612316 0.19239634 0.0025504308
000010 da f2 2f 3f 12 c8 8d bf 4d 4f 00 3f ba 19 6b be
       0.6872994 -1.1076682 0.50121003 -0.22959033

decoder.0.bias f4 [4]
000000 be 88 3c bd 46 58 83 3e 7c fa c1 3e e2 00 c8 3e
       -0.046028845 0.25653285 0.37886417 0.39063174

decoder.2.weight f4 [4]
000000 4d 57 25 3f 7a 6a 69 3f 9b d6 97 3f f3 07 62 3f
       0.64586335 0.91178095 1.1862367 0.8829338

decoder.2.bias f4 [4]
000000 d7 cf 2a 3e c4 cc 1d bf 40 03 fd be 79 42 68 3e
       0.16680847 -0.6164057 -0.49416542 0.22681607

decoder.2.running_mean f4 [4]
000000 3a d0 fa 3d 9f ba 89 3e 49 6f 43 3f 18 0a f9 3e
       0.12246747 0.26900193 0.7634168 0.48640513

decoder.2.running_var f4 [4]
000000 c4 43 18 3d 13 5c ef 3c ff 6a 53 3f d9 9b 2f 3e
       0.037174 0.02921871 0.8258514 0.17149295

decoder.3.weight f4 [4, 4]
000000 23 b5 11 3f dc e5 7c 3e 42 54 f7 be fe 5e 4b be
       0.5691702 0.2469706 -0.4830647 -0.19860455
000010 73 70 26 3e cc fb de be 79 c1 74 be 8b 31 92 3e
       0.16253833 -0.4355148 -0.23901929 0.28553423
000020 7d 3e 1d bb d5 e2 4c bf 3d d5 8d 3c 41 2c 39 3f
       -0.0023993545 -0.8003362 0.017313594 0.7233315
000030 24 26 1d bf a1 fc 33 3f 90 fc 0d 3f 87 69 41 bf
       -0.6138632 0.70307356 0.55463505 -0.75551647

decoder.3.bias f4 [4]
000000 eb de 12 3f cb 30 b8 be e4 df 23 3c 38 0b 89 be
       0.57371396 -0.35974726 0.01000211 -0.26766372

decoder.5.weight f4 [4]
000000 cc 13 24 3f 38 9c cf 3e cc 9f b7 3f 71 a8 47 3f
       0.6409271 0.40548873 1.4345641 0.77991396

decoder.5.bias f4 [4]
000000 c9 a8 13 be f4 36 a7 3e 02 51 0c bf 83 ad 10 3e
       -0.14419855 0.32659113 -0.5481111 0.1412869

decoder.5.running_mean f4 [4]
000000 cd e4 4f 3f 28 de 4f 3e 2f e7 2a 3f d0 ce df 3a
       0.812085 0.2029959 0.6675901 0.0017075185

decoder.5.running_var f4 [4]
000000 2f ea fc 3e 1f db 3b 3d b1 4a 1a 3e 8e ae ff 39
       0.49397418 0.045863267 0.15067555 0.00048767444

decoder.6.weight f4 [4, 4]
000000 dc 4b 91 3e 11 38 02 3f 9f 70 aa be f5 16 51 3f
       0.2837819 0.508668 -0.33289048 0.81675655
000010 c6 3a 00 3f 13 cf d4 3d 8a 96 18 bf d6 93 78 be
       0.5008968 0.10391059 -0.59604704 -0.24275145
000020 8b 3d 2a bf fd fc f9 3d d4 74 1f 3f f7 0c dd 3e
       -0.6650016 0.12206457 0.6228764 0.43173954
000030 41 56 3b 3f 9e f6 c2 be 5b f4 15 3f 94 c5 8c be
       0.7317849 -0.3807878 0.5857598 -0.2749449

decoder.6.bias f4 [4]
000000 e8 76 45 3e 17 48 ec bd 5e 3b d4 3c 90 41 26 be
       0.1928364 -0.115371875 0.025907215 -0.16235948

decoder.8.weight f4 [4]
000000 2b 8a 92 3f 2a c5 77 3f 95 ca 8d 3f f8 ff 61 3f
       1.1448416 0.96785223 1.1077448 0.882812

decoder.8.bias f4 [4]
000000 c8 c5 98 bd 81 a7 0f be 8d 0a 5b bf b3 97 ed be
       -0.07459599 -0.14028741 -0.85562974 -0.464048

decoder.8.running_mean f4 [4]
000000 bf bd 2e 3f d7 4e 0f 3f a0 36 fe 3e 4e 04 62 3c
       0.6825828 0.55979675 0.4965105 0.013794972

decoder.8.running_var f4 [4]
000000 ae fd 1d 3f cf 98 17 3f 1e 3a fc 3e 2b b2 c0 3b
       0.6171521 0.5921754 0.4926309 0.0058806143

decoder.9.weight f4 [4, 4]
000000 c2 dc 29 bc 66 b9 44 be ba 00 a8 bd c1 92 43 bf
       -0.010367574 -0.19211349 -0.082032636 -0.76395804
000010 ce 6c 98 bd be 3a 1f 3f 0c 67 10 bf 86 2b 33 bf
       -0.07442628 0.6219901 -0.5640724 -0.69988286
000020 cd 44 4d bf c1 72 25 3f be 6e ed be ce 51 70 be
       -0.80183107 0.64628226 -0.46373552 -0.23468706
000030 b8 b2 c7 be 4c c2 00 3f b1 6e 8c bf 39 c4 3f bf
       -0.3900354 0.50296474 -1.097128 -0.74908787

decoder.9.bias f4 [4]
000000 23 7d 4c 3e 79 e0 8e 3e 65 31 61 bb a6 89 c6 3e
       0.19969611 0.27905634 -0.0034361717 0.38776892

decoder.11.weight f4 [4]
000000 70 8b b7 3d e3 17 bc 3f e1 d0 35 3f 28 3b cc 3e
       0.089621425 1.469479 0.7102185 0.39888883

decoder.11.bias f4 [4]
000000 47 7c 9c 3d 04 01 b9 be ac 5f 0a 3f b5 eb 31 3f
       0.076408915 -0.36133587 0.54052234 0.69500285

decoder.11.running_mean f4 [4]
000000 73 4d 3d 3f a2 ff 95 3f ea a7 16 3f ca e3 ec 3f
       0.73946303 1.1718638 0.58849967 1.8507016

decoder.11.running_var f4 [4]
000000 84 e3 59 3d 00 09 4a 3f 0a 5e 03 3e bb af 79 3f
       0.05319549 0.7891998 0.12828842 0.9753377

decoder.12.weight f4 [4, 4]
000000 57 71 97 3e 1e 96 3a 3e 00 68 40 be b8 02 20 3f
       0.2957866 0.18221328 -0.18789673 0.6250415
000010 79 be 87 3e 0c 26 53 3e 26 64 93 3f de a7 ec be
       0.26512507 0.20619982 1.1514938 -0.46221823
000020 62 78 58 3d 66 db 85 be 4c d3 51 3d 6c 07 97 be
       0.05284918 -0.2614395 0.0512269 -0.2949785
000030 6e e0 31 be f1 19 b4 3d b0 ec 37 3f af 12 66 3f
       -0.1737077 0.087940104 0.7184553 0.8987226

decoder.12.bias f4 [4]
000000 32 4f a3 3e de 08 7d 3e 97 b3 45 bd 06 07 71 3e
       0.3189636 0.24710414 -0.048266973 0.23537835

decoder.14.weight f4 [4]
000000 d6 6f 05 3f 96 5e 43 3f 98 1b c6 be 49 de 68 3f
       0.52123773 0.763162 -0.38692927 0.9096418

decoder.14.bias f4 [4]
000000 27 cd a8 bf 52 8c b2 3f e2 2f cf bf 5b 52 ae bf
       -1.3187608 1.3949072 -1.6186488 -1.3618883

decoder.14.running_mean f4 [4]
000000 9f 14 1d 3f 36 3b 37 3f 0f e3 14 3e a3 1c 9f 3f
       0.6135959 0.71574724 0.14539741 1.2430614

decoder.14.running_var f4 [4]
000000 ce 0e 1b 3e fb 00 bc 3e ed f7 08 3d 50 20 51 3f
       0.15142366 0.36719498 0.033439565 0.8168993

decoder.15.weight f4 [4, 4]
000000 a0 33 57 bf 5f 9c 42 bb cd 6a d0 3e 87 66 54 3d
       -0.8406315 -0.0029695255 0.40706483 0.05185559
000010 fb fe 97 3e 54 1f 3f 3e a9 0a 38 3e fc 8e 0c bf
       0.29686722 0.18664294 0.17972817 -0.54905677
000020 40 38 73 3f 6f 0d 45 bf 29 c6 9d 3f 83 96 2d 3e
       0.95007706 -0.76973623 1.2326099 0.16951947
000030 4c 0d b3 bd fb 7c c7 bf 14 d0 94 3f a3 8b 2d 3f
       -0.087427706 -1.5585016 1.1626 0.67791194

decoder.15.bias f4 [4]
000000 4e b3 83 3e d3 d9 b5 bd b7 03 43 bf 13 cf 1c bf
       0.25722736 -0.08879437 -0.76177543 -0.6125347
