models/y02vae_D4_layers(128, 128, 128, 128)__banana_dim4_b0.02_sigma5.0.pt (torch, 449742 bytes, 54 tensors)

encoder.0.weight f4 [128, 4]
-0.32795715 0.0297839 -0.03200021 0.010004952 -0.07184055 0.10911651 0.104125105 0.33613044
-0.28337625 0.26515257 -0.16057263 -0.087839715 0.22487046 -0.10275857 -0.22480968 -0.10202257
0.068620354 0.119476505 0.047454122 0.5140096 -0.11890375 -0.25685814 -0.2297144 -0.23754956
0.09490322 0.108529165 -0.17486337 0.3239473 0.30884203 -0.14260176 -0.1481235 0.031590167
-0.27470186 0.17326984 0.15402299 0.082749434 -0.37642798 0.19030963 -0.0370368 0.015049358
0.033901975 -0.07995824 0.24516046 0.12579711 0.13923578 -0.21922833 0.19797389 0.30713597
-0.23134449 -0.026780471 0.24099213 0.17120789 -0.27763966 0.092691876 0.10895467 0.24737866
0.054734398 0.19751084 -0.20591994 0.14881606 -0.2040087 -0.2754158 0.13365705 0.38977075
-0.35877347 -0.2992764 0.008638267 0.16484389 -0.15622662 -0.17730723 -0.033543225 0.5095768
0.17712155 0.18951572 0.020939857 -0.49131972 0.009771397 -0.0398431 -0.30237436 -0.11391667
0.05777894 0.23740642 -0.23876932 -0.28383377 0.38260344 -0.24087925 -0.070518754 0.102885716
-0.2536626 0.22290525 -0.011865773 0.5113304 -0.31039935 -0.08352215 -0.066322185 0.044784084
0.2119646 0.07361278 -0.16506062 -0.27588722 0.3576494 -0.011209574 0.068656094 -0.021929879
0.28469747 -0.14360239 -0.1166759 0.3625466 -0.032954622 -0.007897103 0.293006 0.16761522
0.31881446 0.14652996 0.1815365 -0.007062745 0.059311815 0.14333326 0.22224422 0.35861683
0.34303454 -0.16691865 0.052289583 0.045569744 -0.019483874 0.17106463 0.09504043 0.31558394
-0.22229213 -0.15744916 0.24020606 -0.0664524 -0.12329759 -0.14478508 0.3030188 -0.035364572
0.20619518 0.07410618 0.11834671 -0.24426053 0.35320827 0.02864617 0.036431555 -0.13048336
-0.111970596 -0.043426644 0.057019893 0.3838411 0.29980603 -0.38073033 0.10466303 -0.42289484
-0.33948764 0.31940767 -0.030812046 -0.07286741 -0.25484702 0.31033686 0.06405248 -0.20105541
-0.08540622 0.17370208 -0.07018718 -0.5754295 0.1310594 0.076543815 -0.25882488 0.12117567
0.24161331 -0.17190501 0.10142092 0.27671868 0.0020227875 0.15237568 -0.09916945 0.60551417
-0.30625558 0.18970613 0.124151364 -0.2178205 0.37525493 -0.19104935 -0.036445983 0.19450465
0.27620712 -0.13855709 0.20290525 -0.2511239 -0.3073226 -0.012191943 -0.23884015 -0.16934836
0.15445612 0.06016255 0.243697 -0.30340454 0.27896112 -0.19806899 -0.17306304 -0.1866041
0.22438735 0.26358858 0.009000445 -0.12144133 0.27144206 0.20541938 -0.13973562 0.026648149
0.05667992 -0.1258442 -0.10494404 -0.4827012 -0.24200164 0.15279749 0.2605432 0.05819725
0.12753728 0.11910906 0.39353994 -0.11749453 -0.30370754 -0.36606473 -0.00018177937 -0.29743823
0.33149013 0.045995142 0.08355446 -0.11648177 -0.024922831 -0.0049485113 0.14401588 -0.5652641
0.21730901 -0.07171566 -0.25443506 -0.0450192 -0.2042916 -0.10811143 -0.28006315 -0.108098626
-0.115851276 0.32319024 0.09690837 0.20082164 0.2989679 0.14255482 0.060617406 0.15068352
-0.28464893 -0.27001762 -0.17788637 0.03768295 -0.22192293 -0.14415127 0.15272531 -0.38542166
00000000: 00ea a7be 5efd f33c a712 03bd cfeb 233c
00000010: 2321 93bd 7a78 df3d 8b3f d53d 4a19 ac3e
00000020: b116 91be 14c2 873e 276d 24be 4fe5 b3bd
00000030: 7144 663e 1673 d2bd 8234 66be 36f1 d0bd
00000040: d488 8c3d 19b0 f43d 415f 423d 2296 033f
00000050: cf83 f3bd e982 83be 403a 6bbe 3140 73be
00000060: 9f5c c23d 8a44 de3d 620f 33be 6cdc a53e
00000070: 8b20 9e3e 3206 12be b0ad 17be b164 013d
00000080: b9a5 8cbe a66d 313e 34b8 1d3e 8978 a93d
00000090: 2bbb c0be 87e0 423e e6b3 17bd 9591 763c
000000a0: ccdc 0a3d 25c1 a3bd 580b 7b3e f5d0 003e
000000b0: d393 0e3e 647d 60be abb9 4a3e ed40 9d3e
000000c0: 92e5 6cbe b862 dbbc a4c6 763e 1f51 2f3e
000000d0: c926 8ebe 3dd5 bd3d a023 df3d d550 7d3e
000000e0: 2d31 603d 4840 4a3e addc 52be 3d63 183e
000000f0: a8e7 50be 4d03 8dbe 65dd 083e 0890 c73e
00000100: 28b1 b7be c23a 99be 8587 0d3c d6cc 283e
00000110: dff9 1fbe 0790 35be 9f64 09bd a073 023f
00000120: 5a5f 353e 6910 423e 108a ab3c 428e fbbe
00000130: 3618 203c 8532 23bd d0d0 9abe 254d e9bd
00000140: 9ca9 6c3d ab1a 733e f27f 74be a952 91be
00000150: 99e4 c33e 0da9 76be 236c 90bd bfb5 d23d
00000160: 10e0 81be 4641 643e a968 42bc 8de6 023f
00000170: aaec 9ebe a90d abbd edd3 87bd 846f 373d
00000180: 400d 593e 4cc2 963d a705 29be 1741 8dbe
00000190: d21d b73e 5ca8 37bc 919b 8c3d 4aa6 b3bc
000001a0: dec3 913e 810c 13be c6f3 eebd b59f b93e
000001b0: 6dfb 06bd da62 01bc e204 963e 53a3 2b3e
000001c0: a63b a33e f30b 163e b4e4 393e 996e e7bb
000001d0: f2f0 723d f4c5 123e fd93 633e a09c b73e
000001e0: 39a2 af3e b9ec 2abe 9a2d 563d 57a7 3a3d
000001f0: a59c 9fbc 912b 2f3e 8fa4 c23d 3894 a13e
00000200: 8ca0 63be 5a3a 21be 94f8 753e 3218 88bd
00000210: 7283 fcbd 8a42 14be 4825 9b3e 71da 10bd
00000220: d424 533e fbc4 973d c35f f23d 6f1f 7abe
00000230: b7d7 b43e 5fab ea3c 4139 153d 6e9d 05be
00000240: d750 e5bd 23e0 31bd b18d 693d d286 c43e
00000250: 2d80 993e 16ef c2be 9259 d63d ac85 d8be
00000260: 53d1 adbe 6789 a33e 8b69 fcbc 823b 95bd
00000270: 4f7b 82be 79e4 9e3e f22d 833d 78e1 4dbe
00000280: 75e9 aebd f5de 313e 4cbe 8fbd 594f 13bf
00000290: 6f34 063e 01c3 9c3d b284 84be f32a f83d
000002a0: 7b69 773e de07 30be c5b5 cf3d 12ae 8d3e
000002b0: be90 043b 5f08 1c3e 5a19 cbbd fa02 1b3f
000002c0: 88cd 9cbe 5342 423e 1243 fe3d 560c 5fbe
000002d0: 6a21 c03e 71a2 43be 6248 15bd 3a2c 473e
000002e0: 056b 8d3e e9e1 0dbe 65c6 4f3e 5093 80be
000002f0: 6359 9dbe b7c0 47bc 8392 74be a869 2dbe
00000300: bf29 1e3e 026d 763d b58b 793e d757 9bbe
00000310: fed3 8e3e 99d2 4abe 7037 31be 2515 3fbe
00000320: ccc5 653e 15f5 863e 9a76 133c 3bb6 f8bd
00000330: 74fa 8a3e 7559 523e db16 0fbe 384d da3c
00000340: 3429 683d 4ddd 00be e7ec d6bd 9d24 f7be
00000350: 47cf 77be f276 1c3e eb65 853e 3d60 6e3d
00000360: 2299 023e 73ef f33d 117e c93e f9a0 f0bd
00000370: 8e7f 9bbe d66c bbbe 079c 3eb9 d349 98be
00000380: 13b9 a93e 6765 3c3d 9a1e ab3d ff8d eebd
00000390: f72a ccbc 1f27 a2bb e678 133e 26b5 10bf
000003a0: 4186 5e3e a9df 92bd 5045 82be 0d66 38bd
000003b0: d131 51be 8769 ddbd 7064 8fbe d062 ddbd
000003c0: 6f43 edbd 3179 a53e e577 c63d 30a4 4d3e
000003d0: 5212 993e e4f9 113e f549 783d c84c 1a3e
000003e0: 81bd 91be c03f 8abe d827 36be 7059 1a3d
000003f0: c43f 63be 649c 13be 0664 1c3e fd55 c5be

encoder.0.bias f4 [128]
0.16116406 0.04591451 0.053104024 0.0967681 0.03774175 0.04466125 0.033165704 0.0045952955
-0.033274643 0.1016958 -0.014038154 -0.015961148 0.015942588 0.004552693 -0.015475594 0.02972725
0.08002278 0.020158207 0.11922794 0.03065081 -0.046203386 0.021047674 0.023598783 0.057184402
0.006447184 0.05810306 0.045359924 -0.01623435 -0.0002938454 0.0117687695 -0.00030997046 8.881994e-05
-0.03569777 -0.027891148 0.070917025 0.020625742 0.028073383 0.067571476 0.05196499 0.048033528
0.10175067 -0.022207301 0.03670516 -0.017303582 0.025857367 0.040602785 -0.003202439 0.061403558
-0.016304385 0.039310023 -0.04370926 -0.027418246 0.039887987 0.010698323 0.011459982 0.07743347
0.113837175 0.027072307 0.0035323058 -0.0063763005 -0.04021122 0.061291914 0.11758708 0.051119205
-0.018174266 0.0039011394 0.031123923 0.0025327576 0.013082699 -0.014513109 0.07433415 0.03314169
0.08238308 0.03708844 0.012070167 0.031751208 0.11065828 0.0898945 0.07106518 -0.05520534
0.06405641 0.036163833 0.006363953 0.088031664 0.14881885 0.023533236 0.10595194 0.019448869
-0.07944042 0.11203388 0.057036333 -0.009353006 0.051481534 -0.048475333 0.015920203 0.14296262
0.056948815 0.010973624 -0.02065675 -0.032864545 -0.012451537 -0.009620654 -0.028761122 0.067349635
0.0028865957 -0.015239627 -0.047636393 0.06063143 0.056042824 -0.028082516 -0.06394918 0.068565905
-0.022999443 0.052909184 0.0017211217 0.041510683 -0.084371 0.121038444 -0.019440271 0.06419788
0.09585436 0.16259065 -0.01613049 0.019108104 0.034187395 0.042374756 0.06506813 0.19116385
00000000: 3108 253e da10 3c3d 9b83 593d 5b2e c63d
00000010: 1897 1a3d b7ee 363d c3d8 073d 2294 963b
00000020: fe4a 08bd e345 d03d 4900 66bc f4c0 82bc
00000030: 089a 823c c22e 953b 598d 7dbc 9086 f33c
00000040: fce2 a33d d322 a53c c72d f43d 6817 fb3c
00000050: c33f 3dbd 2c6c ac3c 3c52 c13c 313a 6a3d
00000060: e642 d33b 79fd 6d3d 54cb 393d e6fd 84bc
00000070: 430f 9ab9 ccd1 403c 8883 a2b9 d844 ba38
00000080: d337 12bd fa7b e4bc f23c 913d 51f7 a83c
00000090: 27fa e53c ea62 8a3d 3ed9 543d cebe 443d
000000a0: a862 d03d 16ec b5bc 2658 163d 3ec0 8dbc
000000b0: d4d2 d33c 1b4f 263d 03e0 51bb 4c82 7b3d
000000c0: c690 85bc 8c03 213d 7b08 33bd 3b9c e0bc
000000d0: 9661 233d 0548 2f3c a6c2 3b3c 7095 9e3d
000000e0: 7723 e93d bec6 dd3c 427e 673b 49f0 d0bb
000000f0: 85b4 24bd 3b0d 7b3d 7fd1 f03d 5f62 513d
00000100: 33e2 94bc 42aa 7f3b 99f7 fe3c 9ffc 253b
00000110: d158 563c 64c8 6dbc 813c 983d 95bf 073d
00000120: 76b8 a83d 0cea 173d f3c1 453c 8e0d 023d
00000130: cfa0 e23d 9c1a b83d 9f8a 913d ff1e 62bd
00000140: 0230 833d 8720 143d b588 d03b f249 b43d
00000150: f863 183e c6c8 c03c 55fd d83d 3c53 9f3c
00000160: a9b1 a2bd 0572 e53d ee9e 693d 5a3d 19bc
00000170: 4dde 523d 128e 46bd 166b 823c cb64 123e
00000180: 2943 693d b7ca 333c 5838 a9bc f99c 06bd
00000190: 8801 4cbc f39f 1dbc 729c ebbc 9bee 893d
000001a0: 0a2d 3d3b a1af 79bc 611e 43bd aa58 783d
000001b0: 298d 653d 4e0d e6bc caf7 82bd 486c 8c3d
000001c0: 5469 bcbc 4db7 583d 4397 e13a 1b07 2a3d
000001d0: b4ca acbd 01e3 f73d 3441 9fbc 2e7a 833d
000001e0: 4a4f c43d 2a7e 263e 1724 84bc 9988 9c3c
000001f0: 1508 0c3d 2791 2d3d 7142 853d 75c0 433e

encoder.2.weight f4 [128]
1.0519814 0.9855536 1.0078423 0.95115507 1.0147923 0.9505757 1.0014225 0.9878892
0.9894154 1.0055487 0.95510393 1.0048488 1.005954 0.98827356 0.947043 0.96285844
1.0559794 1.032368 1.0496802 1.0031879 0.914827 1.0088519 1.0665132 0.9956717
1.003861 1.0689582 1.0246123 1.0032475 1.0101599 0.97801495 0.98737776 0.93954957
0.9543901 0.9474448 0.9445946 1.0318694 0.9909379 0.9773875 1.0232023 0.997227
1.0374631 0.91607934 0.9857994 1.088853 1.005255 0.98523265 1.0092621 1.0162376
0.9967317 0.9861059 1.0466403 0.9777661 0.9920318 0.9591982 1.0268565 0.9752603
1.0313088 0.96503514 0.9791624 0.9857975 0.96489716 1.0116479 1.0434943 0.9737537
0.9593919 0.96178144 1.0210633 1.0689402 0.99357814 1.0401709 1.0004324 0.96061325
1.0055784 0.9523788 1.0258985 1.0009298 1.0344622 1.0589403 1.0188725 1.0520157
0.9716897 1.0516112 1.0157225 1.0226921 0.9551989 1.0100206 1.0071669 1.0285101
1.0030102 1.0276421 0.96994317 1.0225624 0.972458 1.0544162 1.0167804 0.96912915
0.9926009 1.0276755 1.0423789 0.9366874 0.95365137 0.950896 0.9590432 1.0005141
0.95852804 0.9343417 1.033289 0.9682441 0.9729092 0.94462186 1.0576894 1.0115278
1.0136313 0.98080176 1.0385989 0.9304275 1.0447212 1.0543287 1.0016466 0.95959765
1.0288006 1.0334387 0.95490026 0.9889075 1.0409993 0.9812664 1.0212265 1.0811961
00000000: 54a7 863f 3e4d 7c3f fa00 813f e67e 733f
00000010: b7e4 813f ee58 733f 9d2e 803f 4ee6 7c3f
00000020: 544a 7d3f d2b5 803f b181 743f e39e 803f
00000030: 1ac3 803f 7fff 7c3f 6971 723f e47d 763f
00000040: 552a 873f a224 843f ec5b 863f 7668 803f
00000050: 1a32 6a3f 0f22 813f 8183 883f 57e4 7e3f
00000060: 847e 803f 9fd3 883f 7f26 833f 6a6a 803f
00000070: eb4c 813f 305f 7a3f cac4 7c3f 5286 703f
00000080: e952 743f be8b 723f f4d0 713f 4c14 843f
00000090: 1bae 7d3f 1136 7a3f 4bf8 823f 454a 7f3f
000000a0: 97cb 843f 2d84 6a3f 595d 7c3f 895f 8b3f
000000b0: 32ac 803f 3538 7c3f 802f 813f 1314 823f
000000c0: cf29 7f3f 7071 7c3f 4ff8 853f e14e 7a3f
000000d0: ccf5 7d3f 038e 753f 0970 833f a9aa 793f
000000e0: ed01 843f 8b0c 773f 63aa 7a3f 3a5d 7c3f
000000f0: 8003 773f ae7d 813f 3991 853f ec47 793f
00000100: b59a 753f 4f37 763f 34b2 823f 08d3 883f
00000110: 235b 7e3f 5224 853f 2b0e 803f c0ea 753f
00000120: cbb6 803f 19cf 733f a450 833f 781e 803f
00000130: 4269 843f 5b8b 873f 6a6a 823f 73a8 863f
00000140: a8c0 783f 329b 863f 3203 823f 93e7 823f
00000150: ea87 743f 5b48 813f d8ea 803f 38a6 833f
00000160: a362 803f c789 833f 324e 783f 53e3 823f
00000170: 02f3 783f 1cf7 863f dc25 823f d918 783f
00000180: 181b 7e3f df8a 833f ac6c 853f bfca 6f3f
00000190: 7f22 743f ec6d 733f db83 753f d910 803f
000001a0: 1862 753f 0531 6f3f d042 843f d8de 773f
000001b0: 9410 793f bdd2 713f 5e62 873f be79 813f
000001c0: acbe 813f d315 7b3f cff0 843f 7f30 6e3f
000001d0: 6db9 853f 3ef4 863f f535 803f 31a8 753f
000001e0: bdaf 833f b847 843f 5874 743f 0b29 7d3f
000001f0: 773f 853f 4634 7b3f 8db7 823f a264 8a3f

encoder.2.bias f4 [128]
-0.06361492 -0.01871658 0.0077612353 0.06843473 0.022189915 0.03289734 0.04557488 0.006194576
0.0062350966 0.0077657024 -0.034112014 -0.014217336 0.01300347 0.019495163 -0.030492859 0.019801853
0.010931757 0.038752746 0.014952197 0.019441888 0.022262255 0.07649104 -0.010169723 -0.00080020877
0.037430357 -0.05182845 -0.0056136623 0.0056927516 -0.011972124 -0.019801073 -0.06418173 -3.2383166e-05
0.017119369 -0.03362397 -0.023234876 0.0019351004 0.0063967793 0.050602615 0.0028770047 -0.06499377
0.018009739 0.008994269 -0.0043240613 -0.0048508565 0.028215837 -0.03670766 0.036718987 -0.015334839
-0.025294382 0.007368473 -0.024733663 -0.046406157 0.029354628 0.045891874 0.075204864 -0.063433334
-0.017453775 0.008615221 -0.04908706 0.004483823 0.031342093 -0.00862139 0.068491064 -0.01308594
0.033805177 0.010610386 -0.017639346 -0.0019023259 0.02077407 0.006057059 0.027881853 0.0018079
-0.030213049 -0.032759383 -0.014459237 0.0058814813 0.029695893 0.03670209 0.01808489 -0.046429105
-0.013388367 -0.03498144 -0.01932216 0.04586689 0.06965208 -0.069166586 0.039481618 -0.020740252
-0.001568681 -0.02566696 0.08387593 -0.050088365 0.08833367 -0.07474831 -0.040215462 -0.02045081
-0.0011109641 0.027257515 0.016012566 0.008038109 -0.008318469 0.0135629345 0.001603501 -0.0074867075
0.008681675 0.047434926 -0.047285326 -0.05788705 0.03723859 0.008466027 0.0016395886 0.0042090593
-0.0048022885 -0.00060915615 0.014758847 0.105486885 -0.06222708 0.02795881 0.026366098 0.03008554
0.038090255 -0.014124329 0.004721191 0.010917088 -0.03037366 0.012914536 0.026191879 -0.032401666
00000000: 8a48 82bd 8353 99bc f651 fe3b 8227 8c3d
00000010: a0c7 b53c 5cbf 063d baac 3a3d dffb ca3b
00000020: c84f cc3b 6f77 fe3b 0ab9 0bbd d4ef 68bc
00000030: 820c 553c 52b4 9f3c 29cc f9bc 7f37 a23c
00000040: 1d1b 333c 33bb 1e3d 0ffa 743c 9844 9f3c
00000050: 555f b63c 56a7 9c3d e99e 26bc 1ac5 51ba
00000060: 9350 193d 124a 54bd d0f2 b7bb 438a ba3b
00000070: ba26 44bc dc35 a2bc b671 83bd 29d3 07b8
00000080: eb3d 8c3c 4ab9 09bd 1157 bebc 32a3 fd3a
00000090: 139c d13b b044 4f3d 218c 3c3b 741b 85bd
000000a0: 2989 933c b35c 133c dbb0 8dbb eff3 9ebb
000000b0: e624 e73c c55a 16bd a666 163d fa3e 7bbc
000000c0: 2a36 cfbc 3b73 f13b 409e cabc 6214 3ebd
000000d0: 1e79 f03c 1ef9 3b3d 0205 9a3d 56e9 81bd
000000e0: 38fb 8ebc db26 0d3c 830f 49bd 09ed 923b
000000f0: 9160 003d bb40 0dbc 0b45 8c3d 6966 56bc
00000100: 4c77 0a3d 2fd7 2d3c 6480 90bc 7757 f9ba
00000110: 622e aa3c 4b7a c63b 7c68 e43c 0ff7 ec3a
00000120: 5b81 f7bc b42e 06bd 70e6 6cbc 71b9 c03b
00000130: cd44 f33c ee54 163d c326 943c 722c 3ebd
00000140: e25a 5bbc b348 0fbd 8249 9ebc ecde 3b3d
00000150: c0a5 8e3d 36a7 8dbd 7ab7 213d 76e7 a9bc
00000160: 339c cdba 8443 d2bc 25c7 ab3d 7529 4dbd
00000170: 48e8 b43d a415 99bd f8b8 24bd 7588 a7bc
00000180: c59d 91ba 274b df3c c92c 833c 46b2 033c
00000190: 304a 08bc 1237 5e3c 912c d23a 0e53 f5bb
000001a0: 963d 0e3c 204b 423d 42ae 41bd f91a 6dbd
000001b0: 7e87 183d 17b5 0a3c 77e7 d63a 26ec 893b
000001c0: 845c 9dbb c7af 1fba 17cf 713c 8209 d83d
000001d0: d3e1 7ebd e009 e53c b7fd d73c f375 f63c
000001e0: 8704 1c3d bb69 67bc 38b4 9a3b 96dd 323c
000001f0: 2fd2 f8bc 7d97 533c 5a90 d63c 9cb7 04bd

encoder.2.running_mean f4 [128]
0.74363506 0.31718165 0.6844062 0.6910747 0.32001764 0.5718118 0.44565085 0.6910864
0.61634946 0.8103044 0.49057814 0.49692482 0.67643815 0.6089056 0.43826672 0.54378605
0.78139514 0.41863918 0.49367687 0.62757546 0.49694958 0.7969464 0.5805822 0.6679499
0.55532444 0.75633794 0.6652753 0.5834387 0.7321965 0.4946213 0.6955986 0.2510151
0.6406548 0.6419199 0.5218009 0.7226658 0.32140324 0.71797884 0.71889836 0.57006186
0.4100457 0.57675976 0.56005484 0.34381044 0.6838074 0.7848564 0.6884591 0.8141017
0.5782889 0.68847996 0.44946006 0.60812604 0.35136157 0.7150872 0.8319435 0.69457185
0.74218196 0.3995648 0.6736969 0.6968888 0.32610568 0.6487271 0.74715334 0.6026642
0.5472532 0.62563026 0.5958384 0.41960958 0.67202777 0.76137173 0.58102447 0.6799751
0.5341295 0.63914424 0.36843938 0.37957028 0.64804906 0.5668536 0.7284328 0.4874623
0.73825157 0.82588404 0.32350752 0.5035266 0.47130954 0.60644364 0.73967195 0.6184695
0.4304809 0.7428508 0.66730857 0.4117299 0.3772686 0.5057616 0.55155957 0.7101844
0.575403 0.3771185 0.66657037 0.41747957 0.6542865 0.5221647 0.47700086 0.60977286
0.5842676 0.51847595 0.6528968 0.55633485 0.56345075 0.53493655 0.6905689 0.5594026
0.66076577 0.43779874 0.7043102 0.59103686 0.73782504 0.81078047 0.43085602 0.4532184
0.7146263 0.74040407 0.76723796 0.7351077 0.804698 0.36772394 0.8334962 0.8843276
00000000: de5e 3e3f a265 a23e 3f35 2f3f 46ea 303f
00000010: 5ad9 a33e 4262 123f 592c e43e 0aeb 303f
00000020: 14c9 1d3f 1c70 4f3f 0f2d fb3e ee6c fe3e
00000030: 0d2b 2d3f 3de1 1b3f 7f64 e03e 9035 0b3f
00000040: 8309 483f e057 d63e 37c3 fc3e c9a8 203f
00000050: 2d70 fe3e ae04 4c3f 09a1 143f c4fe 2a3f
00000060: be29 0e3f 5d9f 413f 7b4f 2a3f 3d5c 153f
00000070: 3b71 3b3f 013f fd3e c012 323f 0d85 803e
00000080: f401 243f dd54 243f be94 053f a000 393f
00000090: f78e a43e 76cd 373f b909 383f 93ef 113f
000000a0: 83f1 d13e 87a6 133f c15f 0f3f ec07 b03e
000000b0: 000e 2f3f 59ec 483f db3e 303f f868 503f
000000c0: be0a 143f 3940 303f a11f e63e 26ae 1b3f
000000d0: aae5 b33e f40f 373f 40fa 543f 76cf 313f
000000e0: a3ff 3d3f c293 cc3e 6677 2c3f 4e67 323f
000000f0: 53f7 a63e fb12 263f 7145 3f3f 3348 1a3f
00000100: c918 0c3f 4e29 203f de88 183f 11d7 d63e
00000110: 030a 2c3f 42e9 423f 05be 143f d912 2e3f
00000120: b6bc 083f f59e 233f 16a4 bc3e 0957 c23e
00000130: 8be6 253f 511d 113f 927a 3a3f a994 f93e
00000140: 0efe 3c3f 236d 533f c7a2 a53e 1fe7 003f
00000150: 7c4f f13e e43f 1b3f 245b 3d3f 0454 1e3f
00000160: fe67 dc3e 782b 3e3f bcd4 2a3f 43ce d23e
00000170: 5a29 c13e 9879 013f 0233 0d3f a5ce 353f
00000180: 9c4d 133f ad15 c13e 5ba4 2a3f e2bf d53e
00000190: 527f 273f 96ac 053f 7539 f43e 131a 1c3f
000001a0: 9092 153f d7ba 043f 3f24 273f f66b 0e3f
000001b0: 4f3e 103f 9af1 083f 20c9 303f 0235 0f3f
000001c0: f227 293f 2827 e03e ac4d 343f 314e 173f
000001d0: 1ae2 3c3f 4f8f 4f3f 2999 dc3e 3e0c e83e
000001e0: c0f1 363f 1f8b 3d3f b569 443f 0530 3c3f
000001f0: b000 4e3f 5046 bc3e 0260 553f 4b63 623f

encoder.2.running_var f4 [128]
1.0500126 0.2816681 1.0977856 0.8756151 0.26194364 0.5482107 0.530223 0.94967884
0.93414235 1.4496361 0.58324844 0.6285504 1.0345714 0.8622353 0.4843702 0.621443
1.0123008 0.35902616 0.50832593 0.7444933 0.45222288 1.1771752 0.8372505 0.8519481
0.63757706 1.1718624 0.8924208 0.8438081 1.2468044 0.6912811 0.9343494 0.20184691
0.8404717 0.87550586 0.5479756 1.1234158 0.24015579 0.82970273 1.2823176 0.8210125
0.30061838 0.792266 0.61152124 0.37643906 1.0731336 1.155697 0.916293 1.3152168
0.63915044 0.8596883 0.5769614 0.92227054 0.18919373 1.1753694 1.3992481 0.7526875
1.1130857 0.24401738 0.9322428 0.97291446 0.33104452 0.9576317 0.9747001 0.62700814
0.7354073 0.77475864 0.82959515 0.43856874 0.96578306 1.2234327 0.80998176 0.8867983
0.5948087 0.7883785 0.2914809 0.3915092 0.69405913 0.48253757 0.91916347 0.7191715
1.2244276 1.3806154 0.33908445 0.62371427 0.32578042 0.8625828 0.9971214 0.9413874
0.61715233 1.1356522 0.98383385 0.31916037 0.250038 0.76647925 0.71607995 0.7055021
0.68022925 0.3732046 1.067725 0.4595664 0.83298045 0.6652734 0.37612462 0.80051726
0.64917153 0.51101184 1.0984955 0.7312464 0.5295397 0.6648201 1.2492666 0.72428435
0.935955 0.31109935 1.1085323 0.72462744 1.1816328 1.2547691 0.5878128 0.31634524
0.86359406 1.0768917 1.2347763 1.1379187 1.552882 0.25832132 1.1634653 1.4803008
00000000: d066 863f cd36 903e 3d84 8c3f 5028 603f
00000010: 7a1d 863e 8957 0c3f b2bc 073f 271e 733f
00000020: f423 6f3f ad8d b93f c54f 153f aee8 203f
00000030: d66c 843f 74bb 5c3f 5fff f73e e316 1f3f
00000040: 1393 813f 47d2 b73e a621 023f 1d97 3e3f
00000050: c289 e73e adad 963f 0c56 563f 4519 5a3f
00000060: 4038 233f 96ff 953f b175 643f cf03 583f
00000070: 4997 9f3f ccf7 303f 8631 6f3f f5b0 4e3e
00000080: 2729 573f 2721 603f 2148 0c3f 17cc 8f3f
00000090: 66eb 753e 6667 543f fc22 a43f e02d 523f
000000a0: a7ea 993e f2d1 4a3f a88c 1c3f 9fbc c03e
000000b0: 715c 893f e1ed 933f 2e92 6a3f 0659 a83f
000000c0: 5d9f 233f 8814 5c3f beb3 133f ec19 6c3f
000000d0: 00bc 413e 8172 963f 901a b33f 21b0 403f
000000e0: 9879 8e3f b1df 793e 77a7 6e3f ec10 793f
000000f0: ab7e a93e 5a27 753f f285 793f 9b83 203f
00000100: a743 3c3f 9556 463f 5960 543f 158c e03e
00000110: 8f3d 773f 7199 9c3f f75a 4f3f 3705 633f
00000120: 6245 183f 2cd3 493f fc3c 953e e573 c83e
00000130: dcad 313f 2a0f f73e 4c4e 6b3f a01b 383f
00000140: 0bba 9c3f 01b8 b03f 7a9c ad3e bdab 1f3f
00000150: b1cc a63e 3ad2 5c3f 5943 7f3f c4fe 703f
00000160: b2fd 1d3f 0d5d 913f 89dc 7b3f fd68 a33e
00000170: fb04 803e fc37 443f 0451 373f c99b 343f
00000180: 8123 2e3f ac14 bf3e 36ab 883f 4a4c eb3e
00000190: 353e 553f 5c4f 2a3f 6893 c03e b3ee 4c3f
000001a0: 1b30 263f acd1 023f 809b 8c3f f732 3b3f
000001b0: ea8f 073f a631 2a3f f8e7 9f3f b36a 393f
000001c0: bf9a 6f3f 6a48 9f3e 63e4 8d3f 2f81 393f
000001d0: be3f 973f 469c a03f e67a 163f 01f8 a13e
000001e0: 8014 5d3f 96d7 893f 260d 9e3f 52a7 913f
000001f0: d6c4 c63f b142 843e 6eec 943f 7f7a bd3f

encoder.3.weight f4 [128, 128]
0.018250292 0.1378748 0.14635874 -0.09121152 -0.13822944 0.041136105 0.062579475 0.002486374
0.08546423 0.177809 -0.093439244 -0.035182986 -0.09280028 -0.08682695 -0.121136144 0.03440987
-0.11785039 0.11771924 0.08591041 -0.043410804 -0.10432439 -0.1713209 0.12379435 -0.047325846
0.038090546 -0.08687858 -0.1342226 -0.0103489105 -0.038998894 -0.045478776 0.12642759 -0.10646692
0.104002245 -0.1155195 -0.16458252 -0.13930692 -0.0662476 0.14885034 0.10935475 0.06713831
-0.06546393 -0.045660194 0.084048465 0.020880032 0.018575385 -0.14288093 0.08927486 0.10814674
0.10611109 -0.14824735 0.026206763 -0.021071399 -0.13873608 0.10944119 -0.11409017 0.12924728
-0.036224406 -0.09421569 -0.14953329 0.17300239 0.099248044 -0.05668619 0.13292193 0.070519194
-0.08019121 -0.05400024 0.059032485 0.14209312 0.13098387 0.022359207 -0.056405403 0.08393242
0.05184863 0.042625386 0.08820981 -0.10921638 -0.14361349 -0.113850944 -0.08958544 -0.09379026
-0.0655851 -0.09254229 0.17438096 -0.10869982 0.15079838 0.05771875 -0.15575053 -0.08923351
0.08388002 -0.08261839 0.07824241 -0.022500878 0.034069322 0.10887756 0.16048843 -0.103812754
-0.052228637 0.10104696 -0.057349496 -0.07979388 0.092609674 -0.02745822 0.10729998 -0.050719064
0.0060827876 0.026612643 0.051337488 -0.0930396 -0.08486881 0.07878051 0.10107409 -0.05809047
-0.04124747 -0.06867185 0.05704136 0.033807743 -0.12581263 0.121418975 0.11284123 -0.15111434
-0.03076068 0.021683538 -0.033876717 0.00543655 -0.15961394 0.10992013 -0.004376843 0.13609397
0.12281822 -0.088448316 0.028634991 -0.06446848 0.027850281 0.12661232 0.047106322 -0.058421187
0.024655487 0.17181773 0.043333393 -0.14100581 0.15102673 0.15917103 -0.118437834 0.074604675
0.03866854 -0.092240006 -0.13137507 -0.005196415 -0.047513735 0.03812036 0.04329377 0.10998574
0.14950044 -0.08447617 0.10573724 -0.16224909 -0.18405472 -0.027389023 0.086982094 0.06526573
0.119671315 0.03184361 0.09211247 0.032671664 0.13014846 0.059816252 -0.014097179 0.10342833
0.18392828 0.099005744 0.063206695 -0.0066135074 0.03451044 0.11969442 0.0905443 0.020339822
0.0028392817 -0.040735014 -0.0579948 -0.13222499 -0.120530136 0.05644147 -0.04044429 -0.008274333
-0.14889401 0.024233308 -0.06694017 -0.09047022 0.04668412 -0.09845757 -0.10372937 -0.009816662
0.14351593 0.06895851 0.10357035 -0.117453165 -0.061325017 -0.096144274 0.09121634 -0.057007354
0.120833844 -0.10261462 -0.029980225 -0.01220465 -0.06516296 -0.10650358 0.07799622 0.10167583
-0.1489349 -0.13102 0.045841582 0.12759943 0.042849712 -0.11840867 0.1502753 -0.082165085
0.029887266 -0.0070301257 -0.021617671 -0.045632754 0.051908415 -0.12201417 0.15255745 0.09065369
0.114494786 -0.09298406 -0.09740599 -0.118990414 0.020015819 -0.04133305 0.037668765 -0.13328902
-0.11570935 -0.08517167 0.19900274 0.02496739 -0.0557311 -0.1264536 -0.11947443 -0.07183716
-0.12779923 -0.10558388 -0.102951325 0.15690431 -0.10631512 -0.062730744 -0.07862683 0.09055132
-0.13186927 0.0030558351 0.09076388 -0.016106324 -0.042572897 -0.0031476512 -0.07328249 0.13578172
00000000: a381 953c 0d2f 0d3e 11df 153e 1bcd babd
00000010: 058c 0dbe 557e 283d ab29 803d 6ff2 223b
00000020: df07 af3d 9013 363e 135d bfbd 091c 10bd
00000030: 130e bebd 54d2 b1bd 3a16 f8bd 5df1 0c3d
00000040: 8c5b f1bd c916 f13d ccf1 af3d 87cf 31bd
00000050: 07a8 d5bd bf6e 2fbe e487 fd3d bfd8 41bd
00000060: d504 1c3d 66ed b1bd a671 09be 7a8e 29bc
00000070: 4ebd 1fbd f447 3abd 3c76 013e 540b dabd
00000080: 21ff d43d 7d95 ecbd 5288 28be 79a6 0ebe
00000090: d2ac 87bd 396c 183e 62f5 df3d cf7f 893d
000000a0: f411 86bd 2f06 3bbd 9a21 ac3d 9a0c ab3c
000000b0: 682b 983c 614f 12be bdd5 b63d 0a7c dd3d
000000c0: c550 d93d 27ce 17be 91af d63c ed9d acbc
000000d0: d510 0ebe b422 e03d 1ba8 e9bd 6659 043e
000000e0: 0b60 14bd 28f4 c0bd 411f 19be 8a27 313e
000000f0: 8f42 cb3d c72f 68bd b01c 083e 5e6c 903d
00000100: 4a3b a4bd 5b2f 5dbd 0ccc 713d dc80 113e
00000110: a320 063e a82a b73c 5a09 67bd c3e4 ab3d
00000120: 3b5f 543d f597 2e3d 58a7 b43d d6ac dfbd
00000130: 6a0f 13be af2a e9bd 9278 b7bd 1c15 c0bd
00000140: 7b51 86bd d086 bdbd ec90 323e 039e debd
00000150: e46a 1a3e 7f6a 6c3d 117d 1fbe 0fc0 b6bd
00000160: 4ac9 ab3d d533 a9bd 8f3d a03d c353 b8bc
00000170: 468c 0b3d 33fb de3d 1457 243e c89b d4bd
00000180: b2ed 55bd b5f1 ce3d 4ee7 6abd f96a a3bd
00000190: 24aa bd3d 10f0 e0bc 18c0 db3d cbbe 4fbd
000001a0: 1f52 c73b c202 da3c 4247 523d 8c8b bebd
000001b0: b3cf adbd ad57 a13d efff ce3d 46f0 6dbd
000001c0: 1bf3 28bd d4a3 8cbd 33a4 693d fd79 0a3d
000001d0: 07d5 00be 83aa f83d 4e19 e73d b8bd 1abe
000001e0: d2fd fbbc ada1 b13c 50c2 0abd 1625 b23b
000001f0: d671 23be ce1d e13d 9f6b 8fbb 385c 0b3e
00000200: 1e88 fb3d 6424 b5bd ee93 ea3c 0d08 84bd
00000210: 4626 e43c a9a6 013e 8ff2 403d 0e4b 6fbd
00000220: 4efa c93c fdf0 2f3e 5b7e 313d d463 10be
00000230: c0a6 1a3e bbfd 223e 898f f2bd 56ca 983d
00000240: e762 1e3d 54e8 bcbd 3087 06be b046 aabb
00000250: c39d 42bd 1824 1c3d cf54 313d 3440 e13d
00000260: a516 193e d801 adbd c48c d83d a024 26be
00000270: d778 3cbe f25e e0bc ab23 b23d 0aaa 853d
00000280: 3c16 f53d 726e 023d 76a5 bc3d b9d2 053d
00000290: a345 053e e301 753d dbf7 66bc 3bd2 d33d
000002a0: b257 3c3e 86c3 ca3d 8372 813d 1fb6 d8bb
000002b0: d25a 0d3d 5922 f53d 4a6f b93d b39f a63c
000002c0: 3e13 3a3b c2d9 26bd f58b 6dbd fd65 07be
000002d0: 81d8 f6bd 2c2f 673d e9a8 25bd 1191 07bc
000002e0: ac77 18be ee84 c63c ee17 89bd 7348 b9bd
000002f0: d937 3f3d 1fa4 c9bd 1070 d4bd 11d6 20bc
00000300: d7f5 123e 1f3a 8d3d b11c d43d 498b f0bd
00000310: f12f 7bbd 4ae7 c4bd a2cf ba3d 8b80 69bd
00000320: bc77 f73d 9d27 d2bd 1799 f5bc 03f6 47bc
00000330: 2874 85bd 8d1e dabd 7bbc 9f3d 6b3b d03d
00000340: 6482 18be 1b2a 06be 62c4 3b3d 6da9 023e
00000350: 2e83 2f3d 3f80 f2bd c5e1 193e 2b46 a8bd
00000360: 24d6 f43c f85c e6bb 8b17 b1bc 69e9 3abd
00000370: eb9d 543d 91e2 f9bd 0538 1c3e a4a8 b93d
00000380: 3e7c ea3d 6d6e bebd cb7c c7bd 3fb1 f3bd
00000390: 37f8 a33c d84c 29bd 904a 1a3d eb7c 08be
000003a0: 06f9 ecbd 7c6e aebd 60c7 4b3e 6988 cc3c
000003b0: 4b46 64bd 0d7d 01be 03af f4bd 5c1f 93bd
000003c0: cddd 02be 5c3c d8bd 25d8 d2bd 86ab 203e
000003d0: bebb d9bd fa78 80bd 1a07 a1bd f872 b93d
000003e0: bd08 07be 6844 483b 6ae2 b93d 69f1 83bc
000003f0: eb60 2ebd d348 4ebb 2115 96bd 5d0a 0b3e

encoder.3.bias f4 [128]
0.009393733 -0.007961816 0.009458589 0.015325905 -0.04296879 0.06302228 0.019662721 0.026348589
0.007864509 0.010901912 0.032255918 0.0048689246 -0.014489214 0.08588614 -0.014719783 0.06361773
0.0034056476 -0.005339901 -0.023657987 0.05909897 0.04921654 0.015818365 -0.027583266 0.015830087
-0.0023722611 0.00466829 -0.012857579 0.039309267 0.00049314415 0.005314542 -0.00018653867 -0.012167407
0.016567681 0.007207624 -0.08202901 0.01725641 -0.012799984 -0.0140831545 0.07598376 0.01661327
0.055137996 -0.00186059 0.020856509 0.028961757 -0.0021439057 0.07031585 0.052373484 0.057115212
-0.047733057 0.034691427 0.021752344 0.053854942 0.039577123 0.0015583204 0.037901226 -0.016655827
-0.00092416385 -0.005863963 0.04664199 0.027730776 0.0883847 -0.0012408434 -0.07113373 0.019546267
0.041961353 0.037028637 0.02599221 0.026333595 0.023257015 -0.037817072 0.01136862 0.026579263
0.012753735 -0.021572394 0.008534296 0.010058015 -0.00616166 0.024790566 0.02516841 0.027075738
0.0018604753 0.012077862 0.04108507 0.015151779 0.0012598323 0.05714699 -0.025562493 0.019040795
0.085311264 -0.024756854 0.0005159759 0.03312568 0.015087788 0.00590598 0.006102055 0.025192538
-0.004185789 -0.011607904 0.0047423453 0.02361469 0.030921243 0.029312842 -0.012034326 0.034895636
0.03158269 -0.012845141 0.06593001 0.010151066 0.03594326 0.009888824 0.041186456 0.008130247
0.12192466 0.096551105 0.0182318 0.012636017 0.07356314 0.01549453 0.020386996 -0.052665286
0.07784688 0.035421774 0.0004091526 -0.023007307 0.015925217 0.057399545 0.01509126 0.0006283796
00000000: 2ce8 193c 4772 02bc 33f8 1a3c 8119 7b3c
00000010: 0b00 30bd d311 813d b713 a13c ffd8 d73c
00000020: 24da 003c ef9d 323c c81e 043d 808b 9f3b
00000030: 2b64 6dbc 13e5 af3d 3f2b 71bc 034a 823d
00000040: 4931 5f3b 56fa aebb 65ce c1bc c311 723d
00000050: 4897 493d 8495 813c 4df6 e1bc 19ae 813c
00000060: f077 1bbb 74f8 983b 98a8 52bc c102 213d
00000070: 5846 013a 9c25 ae3b 9899 43b9 ce59 47bc
00000080: f2b8 873c ef2d ec3b d3fe a7bd 515d 8d3c
00000090: 06b7 51bc 08bd 66bc 609d 9b3d 8d18 883c
000000a0: 61d8 613d 0adf f3ba 45db aa3c 3541 ed3c
000000b0: c580 0cbb c201 903d 9485 563d a4f1 693d
000000c0: bd83 43bd 9918 0e3d f931 b23c 0097 5c3d
000000d0: 9f1b 223d 8e40 cc3a 513e 1b3d cd71 88bc
000000e0: 9643 72ba 7d26 c0bb ac0b 3f3d a72b e33c
000000f0: 0a03 b53d cca3 a2ba 90ae 91bd 7e1f a03c
00000100: abdf 2b3d 57ab 173d 9ded d43c 8db9 d73c
00000110: 7f85 be3c 13e6 1abd 7343 3a3c c1bc d93c
00000120: 0bf5 503c 97b8 b0bc 6fd3 0b3c 5fca 243c
00000130: c0e7 c9bb 9615 cb3c fb2d ce3c f0cd dd3c
00000140: 31db f33a 3ae2 453c d248 283d 2b3f 783c
00000150: f520 a53a f612 6a3d 6f68 d1bc 71fb 9b3c
00000160: acb7 ae3d e3ce cabc 8e42 073a cbae 073d
00000170: c532 773c f386 c13b bff3 c73b 9560 ce3c
00000180: f128 89bb 142f 3ebc ad65 9b3b 9873 c13c
00000190: 8c4e fd3c 7c21 f03c 9f2b 45bc baee 0e3d
000001a0: da5c 013d 6d74 52bc 5006 873d a850 263c
000001b0: 3d39 133d bc04 223c 21b3 283d ba34 053c
000001c0: a3b3 f93d 96bc c53d db5a 953c 4c07 4f3c
000001d0: 46a8 963d c5dc 7d3c a102 a73c 8eb7 57bd
000001e0: 2f6e 9f3d 6c16 113d 8883 d639 d279 bcbc
000001f0: 9a75 823c c91b 6b3d 5541 773c d7b9 243a

encoder.5.weight f4 [128]
1.0062296 1.0276886 0.9911545 0.95292443 0.9694916 1.0333263 0.9561917 1.0478129
0.9925768 1.0193816 1.0274422 1.0134437 1.0429333 1.0291275 1.0618936 0.97950053
0.9654486 1.0170848 1.0486369 0.9987893 0.9745917 1.0346581 1.0173033 1.0407883
0.9720366 1.0012274 1.0385202 1.0198063 1.0293719 1.0269563 0.93308854 0.9203284
0.9880405 0.97412133 0.99715674 0.97261083 1.0115901 1.0907747 1.0050563 1.0021893
1.0021393 1.042318 1.0694216 1.0062593 0.948136 1.009676 1.0509771 1.0132673
0.97533166 1.0063095 1.0224047 1.0211242 0.9665087 1.1144685 1.0272634 0.97752273
0.98605335 0.9129615 1.0602273 1.0121634 1.0358032 0.9501124 1.0203848 1.020446
0.9985239 0.98676693 0.99351686 1.016674 0.9963276 0.9360418 1.0045066 1.0300565
0.9646823 0.9885694 1.0194134 1.0153681 0.95373833 0.97255147 1.0102925 0.9941935
0.92063767 0.97413576 0.9777879 0.96975106 0.9608246 0.9861757 0.97033936 0.9917231
0.9944182 0.9558312 0.9655343 0.99437064 1.0594102 0.98427385 1.0924485 0.96379113
1.048025 1.0028114 1.0009815 0.9417719 0.9725237 0.98735255 0.97914106 1.0246148
0.94848126 0.9530792 0.9773895 1.032757 1.0020902 0.950602 0.9959924 1.014917
0.95650494 0.9772833 1.0148301 0.96216935 0.9492302 0.9748287 1.0464969 0.9726885
1.0271785 1.0429678 1.0079131 0.9416012 0.9734291 1.0387827 1.015649 1.0014285
00000000: 22cc 803f 4d8b 833f 4dbc 7d3f dbf2 733f
00000010: 9a30 783f 0944 843f fbc8 743f bc1e 863f
00000020: 8319 7e3f 197b 823f 3a83 833f 86b8 813f
00000030: d77e 853f 73ba 833f 21ec 873f 8cc0 7a3f
00000040: a427 773f d62f 823f bc39 863f a8b0 7f3f
00000050: d77e 793f ad6f 843f ff36 823f 8d38 853f
00000060: 64d7 783f 3828 803f 3bee 843f 0389 823f
00000070: 75c2 833f 4e73 833f e4de 6e3f a49a 6b3f
00000080: 39f0 7c3f 0460 793f aa45 7f3f 06fd 783f
00000090: c97b 813f 819e 8b3f afa5 803f bd47 803f
000000a0: 1a46 803f ad6a 853f cfe2 883f 1bcd 803f
000000b0: 0ab9 723f 103d 813f 6b86 863f beb2 813f
000000c0: 56af 793f c0ce 803f 28de 823f 33b4 823f
000000d0: 1d6d 773f e7a6 8e3f 5e7d 833f ee3e 7a3f
000000e0: fe6d 7c3f d8b7 693f 87b5 873f 928e 813f
000000f0: 3395 843f 913a 733f f89b 823f f99d 823f
00000100: 439f 7f3f c29c 7c3f 1f57 7e3f 6022 823f
00000110: 530f 7f3f 6fa0 6f3f ac93 803f e4d8 833f
00000120: 6bf5 763f e212 7d3f 237c 823f 95f7 813f
00000130: 3228 743f 22f9 783f 4451 813f 7783 7e3f
00000140: e9ae 6b3f f660 793f 4f50 7a3f 9b41 783f
00000150: 9af8 753f 0376 7c3f 2968 783f 91e1 7d3f
00000160: 3192 7e3f 5bb1 743f 422d 773f 138f 7e3f
00000170: c19a 873f 5ff9 7b3f 5ad5 8b3f 04bb 763f
00000180: af25 863f 205c 803f 2920 803f f717 713f
00000190: 50f7 783f 23c3 7c3f fda8 7a3f 9426 833f
000001a0: abcf 723f 00fd 733f 3336 7a3f 6231 843f
000001b0: 7e44 803f a75a 733f 5cf9 7e3f cde8 813f
000001c0: 82dd 743f 3d2f 7a3f f4e5 813f bb50 763f
000001d0: c000 733f 608e 793f 9cf3 853f 1d02 793f
000001e0: 967a 833f f87f 853f 4c03 813f c70c 713f
000001f0: a632 793f d5f6 843f c900 823f cf2e 803f

encoder.5.bias f4 [128]
-0.00066518324 0.028018337 0.01932632 0.02151636 -0.04932994 -0.0040821205 -0.041339077 -0.014930589
-0.0133948745 -0.01547075 -0.028552193 0.012022823 -0.055821855 0.018456098 -0.045428846 -0.018614713
0.02560313 -0.0022597052 0.0035409725 -0.007422492 -0.0059098415 0.040773816 -0.045066126 -0.012208768
0.05437353 0.009601293 0.015010808 -0.01095608 -0.0037028664 -0.0963121 -0.021685109 -0.01946435
-0.01632575 0.05525767 -0.064689636 0.104816265 0.010415173 0.008450331 0.06060719 -0.020857126
0.012527154 -0.011259045 0.032303713 -0.05716413 0.07842435 0.029542724 -0.07342452 0.051586773
-0.03927287 -0.054254692 0.023989916 0.018219694 0.00086013513 0.10176172 -0.069523916 -0.0313411
-0.012017186 0.02047787 0.047967557 -0.047684204 0.0020992884 -0.031983584 0.049996655 -0.018759975
0.024763482 0.0047193794 -0.049593296 -0.020837342 -0.029476635 -0.07480186 0.07246021 0.07709464
0.026345348 -0.029457482 -0.050571136 -0.0034066893 0.030627653 0.04240729 -0.007473043 -0.036499165
0.014686575 -0.019631898 -0.0077599366 -0.015719226 -0.02446021 0.035050318 0.062482752 -0.04806035
0.0077101034 0.059153024 -0.022992171 -0.06798217 -0.022428947 0.0346339 -0.00057969167 0.009895721
-0.038903274 -0.03193004 -0.03299273 -0.097780235 0.09889658 0.010557804 -0.04958786 -0.04764704
-0.013045866 -0.023297392 -0.015341064 -0.034162197 0.008718755 -0.0043596607 0.031323258 -0.0042809397
-0.011686526 0.054875687 0.0422295 0.0968713 0.033896904 -0.05805767 0.014696961 -0.082778215
0.06599615 0.024977326 0.04639848 -0.010890595 -0.034645937 0.013705487 -0.0649674 -0.042298183
00000000: b15f 2eba b686 e53c 3b52 9e3c 1443 b03c
00000010: 310e 4abd 4fc3 85bb 2a53 29bd 6e9f 74bc
00000020: 2d76 5bbc 0779 7dbc 4ae6 e9bc 60fb 443c
00000030: 75a5 64bd 3e31 973c 9913 3abd e27d 98bc
00000040: a8bd d13c 9017 14bb a90f 683b 6038 f3bb
00000050: 58a7 c1bb 7202 273d 4297 38bd 4907 48bc
00000060: c7b6 5e3d be4e 1d3c e4ef 753c 2181 33bc
00000070: caab 72bb 473f c5bd f8a4 b1bc b373 9fbc
00000080: 94bd 85bc de55 623d 007c 84bd e9a9 d63d
00000090: 67a4 2a3c 4273 0a3c 3f3f 783d 90dc aabc
000000a0: b13e 4d3c dc77 38bc e650 043d ef24 6abd
000000b0: f29c a03d 9503 f23c 985f 96bd a74c 533d
000000c0: 97dc 20bd 2b3a 5ebd 8086 c43c 7841 953c
000000d0: b17a 613a 7368 d03d 8e62 8ebd 865f 00bd
000000e0: bbe3 44bc 35c1 a73c a179 443d 8350 43bd
000000f0: 3794 093b 3801 03bd 4bc9 4c3d 85ae 99bc
00000100: c9dc ca3c 06a5 9a3b 5722 4bbd 13b3 aabc
00000110: fc78 f1bc b831 99bd 0566 943d cbe3 9d3d
00000120: 33d2 d73c d150 f1bc ae23 4fbd c342 5fbb
00000130: d8e6 fa3c 44b3 2d3d 6ee0 f4bb 2680 15bd
00000140: f69f 703c 13d3 a0bc 1147 febb 9bc5 80bc
00000150: c760 c8bc ec90 0f3d eaed 7f3d eeda 44bd
00000160: 09a5 fc3b 714a 723d 145a bcbc 3c3a 8bbd
00000170: e9bc b7bc 47dc 0d3d 73f6 17ba aa21 223c
00000180: 0a59 1fbd 13c9 02bd 6323 07bd 0141 c8bd
00000190: 4a8a ca3d a4fa 2c3c a41c 4bbd 8b29 43bd
000001a0: 54be 55bc 2cda bebc 1659 7bbc a9ed 0bbd
000001b0: 1cd9 0e3c 7cdb 8ebb d14c 003d 2047 8cbb
000001c0: d878 3fbc 54c5 603d d7f8 2c3d 7664 c63d
000001d0: 7bd7 0a3d e1cd 6dbd 86cb 703c a087 a9bd
000001e0: fd28 873d 409d cc3c 550c 3e3d 776e 32bc
000001f0: e6e8 0dbd fb8c 603c a10d 85bd dc40 2dbd

encoder.5.running_mean f4 [128]
0.85227764 1.1700362 0.9583518 0.8174783 0.55875236 1.1939812 0.53577113 0.88122547
0.7318085 1.0599232 1.1214476 0.84212506 0.98639953 1.2120845 1.2395433 0.7886817
0.8104126 1.1412616 0.78795743 0.97550964 0.88631314 0.9146863 1.0891008 1.0865467
0.6628992 1.283437 0.99447036 1.0717229 1.0227131 1.1021248 0.6121396 0.6296204
0.775912 0.5843856 0.6706195 1.0369223 0.7480209 1.3626232 0.7328145 0.7917551
1.0328578 0.98856866 1.4104849 1.1260433 0.75504416 1.1775216 1.0772771 0.93471956
0.5781433 0.9711213 0.86052126 1.0830063 0.60617447 0.7335566 1.178853 0.5194688
0.6951662 0.5295319 0.72825557 0.8145177 1.2211139 0.6463203 0.40159342 0.912659
0.71352065 0.66790485 1.040862 0.9047663 0.9026747 0.52288085 0.98500043 1.0313132
0.7745241 0.61136955 0.97827816 0.9996238 0.52068037 0.7366959 0.88164526 0.91673476
0.7798718 0.67420644 0.81220317 0.55029863 0.47428265 0.8988764 0.44097048 0.7477987
0.9915714 0.56917477 0.57110953 0.7626221 1.2903508 1.0110806 1.4229035 0.8122634
1.1706944 0.67998946 0.97849244 0.78529847 0.61679965 1.0301884 0.59730613 0.78080875
0.80055875 0.62289894 0.6862625 0.94646734 0.6354286 0.5947036 0.7964184 1.0492315
0.8519625 1.033605 1.0477681 0.6321587 0.7892847 0.8156346 1.2924427 0.5761886
1.1280034 1.1741258 0.89319146 0.7709003 0.82892114 0.9458786 1.0991629 0.7302148
00000000: de2e 5a3f bfc3 953f 8b56 753f 4246 513f
00000010: 650a 0f3f 60d4 983f 4c28 093f fe97 613f
00000020: cd57 3b3f 90ab 873f 988b 8f3f 8295 573f
00000030: ae84 7c3f 9625 9b3f 5ba9 9e3f 0be7 493f
00000040: 3377 4f3f dc14 923f 94b7 493f 00bb 793f
00000050: 6be5 623f e228 6a3f a867 8b3f f613 8b3f
00000060: c3b3 293f aa47 a43f 9c95 7e3f 372e 893f
00000070: 43e8 823f 6d12 8d3f 2eb5 1c3f cd2e 213f
00000080: 2ba2 463f 4b9a 153f b8ad 2b3f dfb9 843f
00000090: 4c7e 3f3f 706a ae3f bb99 3b3f 76b0 4a3f
000000a0: af34 843f d612 7d3f c58a b43f 3022 903f
000000b0: 934a 413f 07b9 963f 37e4 893f c849 6f3f
000000c0: 3301 143f 689b 783f 1f4b 5c3f f39f 8a3f
000000d0: 402e 1b3f 5eca 3b3f a8e4 963f e8fb 043f
000000e0: 69f6 313f 678f 073f f56e 3a3f 3b84 503f
000000f0: 764d 9c3f 3f75 253f a79d cd3e 05a4 693f
00000100: 4aa9 363f d0fb 2a3f f73a 853f c49e 673f
00000110: b015 673f 85db 053f fd28 7c3f 1202 843f
00000120: 3647 463f b782 1c3f 7070 7a3f 58e7 7f3f
00000130: 4f4b 053f 1a98 3c3f 81b3 613f 21af 6a3f
00000140: aea5 473f cb98 2c3f 8cec 4f3f 5fe0 0c3f
00000150: 2dd5 f23e c41c 663f e2c6 e13e bc6f 3f3f
00000160: a0d7 7d3f 70b5 113f 3c34 123f 343b 433f
00000170: 372a a53f 176b 813f b421 b63f 7ff0 4f3f
00000180: 50d9 953f ca13 2e3f 7b7e 7a3f 5209 493f
00000190: 95e6 1d3f 37dd 833f 0ee9 183f 15e3 473f
000001a0: 6bf1 4c3f 4e76 1f3f e6ae 2f3f af4b 723f
000001b0: 73ab 223f 7f3e 183f 14e2 4b3f 384d 863f
000001c0: 371a 5a3f 2b4d 843f 441d 863f 27d5 213f
000001d0: 900e 4a3f 6ecd 503f c36e a53f 1981 133f
000001e0: 6a62 903f c149 963f 32a8 643f b959 453f
000001f0: 2d34 543f 1a25 723f 5fb1 8c3f 5bef 3a3f

encoder.5.running_var f4 [128]
1.6606069 3.3515737 2.6258647 1.4691283 1.2369685 1.6994196 1.1843467 1.830985
1.8656651 2.5315301 2.7240975 1.7957656 1.8957673 2.355116 3.2191217 1.1894622
1.6818936 1.6993797 2.0315762 2.0103154 1.5510477 2.0493395 2.947864 3.181291
1.4278076 2.2610848 2.059337 1.8808515 2.765647 2.6573946 1.5574114 0.88388205
1.5986642 1.1418383 1.2028254 2.2773845 1.2621645 3.4586203 1.2502255 2.014118
1.1496879 2.1442666 3.796254 2.4337816 1.9011286 2.4917836 1.3537856 1.5594817
0.9020431 2.1384563 1.4020606 1.8264767 0.7847729 2.253816 2.4547296 0.80982244
1.8741183 0.7417516 1.5176812 1.4696934 2.5792003 1.2777344 0.8278481 1.8873161
1.220309 1.3987871 1.9333748 2.4969032 1.503701 0.97262645 2.65158 1.2481798
1.3735683 1.0392334 2.2332172 2.0902371 0.9088646 1.5271487 1.9282273 2.1360185
1.7713057 1.370702 2.1608016 0.7565777 0.7438657 1.9632956 0.82769775 1.3521756
2.2174814 1.1471137 1.3640347 2.104755 3.1075976 2.9946158 4.211847 1.8412693
3.141836 1.72813 1.8047956 1.5767335 1.0319438 2.3575773 1.7238257 2.1859403
2.0282717 1.2611676 0.6486555 2.7179835 1.6969181 1.0889661 0.9286242 2.49787
1.1753976 1.789922 2.5016484 1.3145074 1.4164371 2.0489776 2.5188837 1.1874279
2.8801649 2.5306633 2.0411198 2.0856411 2.4568152 1.0279058 2.8601983 1.7424511
00000000: c48e d43f 2f80 5640 2b0e 2840 650c bc3f
00000010: fc54 9e3f 9586 d93f ac98 973f b75d ea3f
00000020: 1dce ee3f 9704 2240 9d57 2e40 a6db e53f
00000030: 81a8 f23f 38ba 1640 1706 4e40 4c40 983f
00000040: 4a48 d73f 4685 d93f 5805 0240 02a9 0040
00000050: bb88 c63f 6128 0340 cea9 3c40 469a 4b40
00000060: 66c2 b63f 9db5 1040 2dcc 0340 bebf f03f
00000070: 5c00 3140 c112 2a40 4259 c73f 1846 623f
00000080: 07a1 cc3f c227 923f 2ff6 993f abc0 1140
00000090: 9b8e a13f 095a 5d40 6407 a03f 4fe7 0040
000000a0: f928 933f aa3b 0940 d3f5 7240 14c3 1b40
000000b0: 2f58 f33f 6279 1f40 d948 ad3f 199d c73f
000000c0: 4cec 663f 78dc 0840 b976 b33f fdc9 e93f
000000d0: e0e6 483f 853e 1040 4a1a 1d40 8650 4f3f
000000e0: 1ce3 ef3f 6fe3 3d3f 6143 c23f ea1e bc3f
000000f0: 9e11 2540 cd8c a33f daed 533f 9393 f13f
00000100: 1633 9c3f 750b b33f d378 f73f 43cd 1f40
00000110: 4679 c03f 0cfe 783f 7db3 2940 5bc4 9f3f
00000120: 16d1 af3f 9a05 853f 08ed 0e40 72c6 0540
00000130: 5aab 683f 9c79 c33f 27d0 f63f 87b4 0840
00000140: 25ba e23f 2a73 af3f 934a 0a40 13af 413f
00000150: fc6d 3e3f 454d fb3f 00e4 533f 1714 ad3f
00000160: 37eb 0d40 9fd4 923f b098 ae3f 4eb4 0640
00000170: e1e2 4640 c9a7 3f40 73c7 8640 b6ae eb3f
00000180: d713 4940 5d33 dd3f 8b03 e73f 67d2 c93f
00000190: bc16 843f 8ce2 1640 52a6 dc3f 72e6 0b40
000001a0: 34cf 0140 f16d a13f 490e 263f 71f3 2d40
000001b0: 9d34 d93f 3e63 8b3f 51ba 6d3f 1add 1f40
000001c0: 6e73 963f 2a1c e53f 021b 2040 c741 a83f
000001d0: d04d b53f 7322 0340 6435 2140 a3fd 973f
000001e0: 9f54 3840 63f6 2140 b5a1 0240 257b 0540
000001f0: 763c 1d40 6b92 833f 7d0d 3740 a308 df3f

encoder.6.weight f4 [128, 128]
0.122939095 0.15841322 0.10230689 -0.11571703 -0.045934275 0.046313863 -0.052373808 -0.046019472
-0.01216949 -0.12478197 -0.0048651947 -0.06890925 -0.03382298 0.049289044 -0.13561834 -0.047006983
0.069967635 -0.12712513 -0.1455973 0.020409077 0.09888342 0.0898243 0.14125228 0.15798596
-0.1301621 0.1624084 -0.055833127 -0.19092092 -0.07266162 -0.008637603 -0.077955596 -0.024449766
0.057687186 0.055388015 -0.050483428 0.035704017 -0.0025624111 -0.08704238 -0.06695903 -0.166678
-0.09912165 0.0864587 0.2138595 -0.15326495 0.15411286 0.20353146 -0.026905013 -0.11137376
0.123249836 0.022290574 -0.16895878 -0.03063997 0.028410913 0.173133 0.07196912 -0.07768151
0.10595492 -0.10943531 0.113244675 -0.040020693 -0.023389455 0.039954767 -0.015851779 0.08586246
-0.046914037 -0.11672583 -0.15628731 -0.05826342 -0.052604675 -0.17766735 -0.0036479067 0.01063736
0.103808984 0.11230691 0.0695905 -0.1079956 0.0892337 0.13240774 -0.08131701 -0.07484157
0.10934369 0.1001427 -0.15636986 0.08176736 0.18575752 0.06724726 0.12854068 -0.07031049
-0.0857644 0.012214174 0.04620128 -0.04633408 -0.09376015 0.14086284 0.18260589 0.011523365
-0.07342726 0.037178088 -0.097660296 -0.01712069 -0.06334577 -0.04162695 -0.053283185 -0.09308567
0.012122281 -0.07866679 0.02351448 -0.10260974 0.06876592 0.06664142 -0.115806565 -0.1299509
-0.06434072 0.015738122 0.026925132 -0.044270642 0.13721578 -0.05559083 0.07842033 -0.13808398
0.20881721 0.10404745 -0.02063215 -0.16881116 0.031233374 0.07514716 -0.030669458 -0.11641629
0.02023126 0.078015 0.16973786 0.057837073 -0.069946766 0.023515811 0.023393638 -0.09992928
-0.03897736 0.11072997 0.012302984 -0.09537669 0.10657022 0.14564893 0.015576482 0.101808146
-0.025666585 0.093185365 -0.0036246728 0.008752822 0.025667405 -0.03713419 -0.05241388 -0.1149542
0.0032116226 -0.004402109 0.09357218 0.03936599 0.10590177 0.06282914 0.0069239126 -0.01636574
-0.13962947 -0.16016717 -0.06970861 -0.11157524 -0.066593274 0.10596015 -0.14817518 0.08016221
-0.18904656 0.008855793 -0.034420818 -0.02523771 -0.05208975 0.04771201 0.0901959 0.021252908
0.07472093 0.053417288 -0.00031639158 0.046531484 -0.10604147 0.115397446 0.14941178 -0.002430162
0.13894336 -0.041477565 -0.088292725 -0.13178349 0.05760649 0.017810153 0.061047446 -0.043657318
-0.04713375 0.08902607 0.10294179 0.00035579837 -0.12788884 0.016417362 0.12098874 -0.052017312
-0.05942778 -0.11090308 0.022434019 -0.020936733 0.07980947 0.08636392 0.07316313 -0.031851947
0.08114985 0.010506616 0.046592586 -0.19265504 -0.13339487 0.056218684 -0.09491898 -0.12246828
-0.062088795 0.050909594 0.111894675 0.097243965 0.113068394 0.011841287 0.034113217 0.13046165
0.16318844 0.013406437 0.0575581 -0.10314544 0.04551606 -0.14696136 -0.079870716 0.13892077
0.07777299 0.022579098 0.058259927 -0.035906482 -0.085299484 -0.08892726 -0.070063494 0.010139057
0.08035337 -0.115135625 -0.11586052 -0.038989596 -0.038655654 -0.09950136 -0.07453353 0.0014786264
0.036049366 0.074079484 -0.1207933 -0.1558008 -0.060755804 -0.17341283 0.16449615 0.0011655557
00000000: 7ec7 fb3d 1337 223e 4686 d13d 0dfd ecbd
00000010: 9425 3cbd 9bb3 3d3d eb85 56bd ea7e 3cbd
00000020: 8a62 47bc b18d ffbd 366c 9fbb 4b20 8dbd
00000030: f789 0abd 4fe3 493d 89df 0abe 658a 40bd
00000040: 314b 8f3d 172d 02be 7517 15be f030 a73c
00000050: 6483 ca3d cdf5 b73d 70a4 103e 12c7 213e
00000060: 3749 05be 634e 263e 47b1 64bd c680 43be
00000070: 9ecf 94bd bc84 0dbc 2fa7 9fbd e04a c8bc
00000080: 6649 6c3d 8bde 623d b6c7 4ebd 603e 123d
00000090: 20ee 27bb 4643 b2bd d121 89bd a3ad 2abe
000000a0: 4b00 cbbd 4211 b13d fcfd 5a3e 7df1 1cbe
000000b0: c3cf 1d3e 8d6a 503e e767 dcbc ed17 e4bd
000000c0: 696a fc3d b99a b63c 8803 2dbe ad00 fbbc
000000d0: 01be e83c c749 313e 8c64 933d 7c17 9fbd
000000e0: e5fe d83d 9f1f e0bd d3ec e73d bdec 23bd
000000f0: 3e9b bfbc 9ca7 233d 97db 81bc a8d8 af3d
00000100: ef28 40bd f40d efbd c809 20be a0a5 6ebd
00000110: 0078 57bd 6eee 35be b811 6fbb 5248 2e3c
00000120: ce99 d43d 2a01 e63d 7785 8e3d cc2c ddbd
00000130: 28c0 b63d e595 073e 8889 a6bd 8946 99bd
00000140: 96ef df3d 9e17 cd3d 6c1f 20be a575 a73d
00000150: 3837 3e3e eeb8 893d 2ba0 033e f2fe 8fbd
00000160: 3fa5 afbd f51d 483c 8e3d 3d3d cec8 3dbd
00000170: 5205 c0bd 593e 103e 0afd 3a3e 7fcc 3c3c
00000180: 0861 96bd 0d48 183d 1f02 c8bd b040 8cbc
00000190: 6dbb 81bd 0581 2abd 783f 5abd b3a3 bebd
000001a0: 889c 463c 0e1c a1bd 70a1 c03c 0e25 d2bd
000001b0: 26d5 8c3d 4c7b 883d fe2b edbd d911 05be
000001c0: 11c5 83bd 3ced 803c 1892 dc3c 2255 35bd
000001d0: 4b82 0c3e 36b3 63bd d79a a03d e365 0dbe
000001e0: 2ed4 553e d416 d53d c104 a9bc d5dc 2cbe
000001f0: 22dd ff3c c1e6 993d 843e fbbc aa6b eebd
00000200: 07bc a53c 54c6 9f3d c3cf 2d3e 91e6 6c3d
00000210: 4040 8fbd 3ba4 c03c 04a4 bf3c b9a7 ccbd
00000220: b9a6 1fbd 65c6 e23d 7492 493c db54 c3bd
00000230: 7d41 da3d fe24 153e 8034 7f3c ca80 d03d
00000240: bb42 d2bc f8d7 be3d eb8b 6dbb ff67 0f3c
00000250: 7344 d23c 051a 18bd f0af 56bd 1c6d ebbd
00000260: 167a 523b 913f 90bb c5a2 bf3d 3b3e 213d
00000270: 07e3 d83d 90ac 803d fde1 e23b 7211 86bc
00000280: 07fb 0ebe dd02 24be 63c3 8ebd 8f81 e4bd
00000290: 0e62 88bd a301 d93d 3cbb 17be 162c a43d
000002a0: 6c95 41be e317 113c d8fc 0cbd 50bf cebc
000002b0: 105c 55bd ab6d 433d a1b8 b83d 941a ae3c
000002c0: 4907 993d 16cc 5a3d 5ce1 a5b9 cc97 3e3d
000002d0: 452c d9bd 7f55 ec3d 67ff 183e 5a43 1fbb
000002e0: 2b47 0e3e 61e4 29bd d1d2 b4bd 40f2 06be
000002f0: c8f4 6b3d 99e6 913c e30c 7a3d 04d2 32bd
00000300: 520f 41bd 4d53 b63d 25d3 d23d 738a ba39
00000310: 4bf5 02be b47d 863c f2c8 f73d 1b10 55bd
00000320: 8b6a 73bd 2721 e3bd 8cc7 b73c 8383 abbc
00000330: 2673 a33d 91df b03d 8dd6 953d 3077 02bd
00000340: e431 a63d f123 2c3c ded7 3e3d 5d47 45be
00000350: aa98 08be 9045 663d e264 c2bd a6d0 fabd
00000360: d250 7ebd 9486 503d 0929 e53d d827 c73d
00000370: 6790 e73d f501 423c 4dba 0b3d bd97 053e
00000380: df1a 273e aca6 5b3c 0bc2 6b3d eb3d d3bd
00000390: 0c6f 3a3d 0a7d 16be 4293 a3bd 3f41 0e3e
000003a0: 7247 9f3d cdf7 b83c f6a1 6e3d ad12 13bd
000003b0: 7fb1 aebd 7f1f b6bd 737d 8fbd 4a1e 263c
000003c0: 4f90 a43d 3acc ebbd 4848 edbd 8eb3 1fbd
000003d0: 6455 1ebd 5ec7 cbbd 09a5 98bd 78ce c13a
000003e0: 80a8 133d fcb6 973d 7a62 f7bd 3f8a 1fbe
000003f0: 14db 78bd 2293 31be ae71 283e 8fc5 983a
