models/y02vae_D32_layers(128, 128, 128, 128)__banana_dim32_b0.02_sigma5.0.pt (torch, 537626 bytes, 54 tensors)

encoder.0.weight f4 [128, 32]
00000000: a3db 1a3e e179 8bbc 6d62 e2bb c247 8d3d
00000010: c5d2 9a3b d6cf 2b3e da03 b5bb eacf 3b3a
00000020: b6a7 383c 6342 d43b 6476 7a3e f128 04be
00000030: 0d8a fabc a3a6 a8bd ea4c 33be 2cb9 bf3d
00000040: b769 073e 584d bb3d 186b 743c 1d35 3a3e
00000050: ce19 6d3d 34d9 2d3b c1e5 da3b 11f6 d4bb
00000060: dd14 e0b8 eb14 873e eb8e b83a d101 f03e
00000070: 104c 06bd 8409 f63e 6950 c83d 300d 3d3d
00000080: df49 b5be 153a 9d3c 7cac 013c 3f56 273d
00000090: e4d0 cebb 7f7d 99be 1d3c 783c c79c 6cbd
000000a0: edf1 3c3c 315d fe3c b3cd b0be c35a 973d
000000b0: ccd6 a03c a057 adbd 1074 043c 5211 053c
000000c0: ceb2 603e 3a22 20bc 2746 343c b1d1 643e
000000d0: 50c3 70be 256f a03d 1e3a 7a3c 2dcc 31bc
000000e0: aeb3 a7bb 1ccd 913d eed2 07bd d1d3 e03e
000000f0: 8f23 033d 0dbf 723e 2190 37bd 6c4d e0bd
00000100: fd25 d1bd f6c8 923d e759 25bc 6f9f 8cbd
00000110: da17 aa3c a9d3 383d 52cc 13bb 4ce2 713b
00000120: 0cd8 963b 6a6a e0bc 30a3 7cbe 3b5e 71bb
00000130: 9b4d 1abe 54df 06bc 34ed d4bd 0641 82bd
00000140: 6a2c ef3d 381d 6a3c bd7a 0b3c 7838 443f
00000150: 3941 9abd 097c cebc 4562 853b 4dad 02bd
00000160: 494e ab3b ba34 d43e 7583 2a3d aa71 d73e
00000170: eadd 0abb eebe b3be 578d 093e 9c76 3b3e
00000180: 6725 e0be 5c35 1e3e a4d7 eabc b4ed f03b
00000190: b8a9 caba d43f 913d d408 d639 0df5 2cbc
000001a0: ad63 5fbb fe8c 5e3b fdf2 9e3d f8a0 9fbc
000001b0: b469 b7be d8e0 333e 3acc 0dbe 20fc a4bd
000001c0: 5085 d13d 3635 4ebd a250 33bc 4301 8b3e
000001d0: be4f b739 5be6 12bd e5c9 b4bc d0b3 f1bc
000001e0: 147e a7bc f5f3 cf3e 8a6f 6a3b 7ae7 023e
000001f0: 67d7 c03c 49ae 073e 1e34 d13c faf8 4ebd
00000200: 6300 853e 5cdb 983e d78d 793c e94b bdbd
00000210: 801d 243a 111e b5be 19ec 53bc f362 3c3d
00000220: 8085 733b 6165 ba3c 8e7c dabd ee13 203d
00000230: 6f86 53bd b05e 673d f913 77bc 4c20 4cbc
00000240: 6496 0fbd 5353 8bbd 5479 483c a747 b1bc
00000250: 2968 3b3e 0b03 0b3e 36c9 523b bcf9 c2bc
00000260: 0904 073b c6a4 de3e 213f 3d3c 992f c0bc
00000270: 90b6 fe3d 988b 783e 004e 57bc 1a9e 63be
00000280: 3a08 fbbd 0732 82bd 2954 bd3a 2c82 17bd
00000290: a4bb 93bc bc7a cdbe d8b1 8a3c 120d 14bd
000002a0: 73d8 123b d68f 80bd b7f4 1c3e 79ea d83d
000002b0: 1918 86bc 23c6 f4bc 4674 17be ec89 a7b8
000002c0: d7fd 0a3f 195c 8b3e daeb 39bc 9ae6 a2be
000002d0: 62eb e0bd 16ef 593c 9f17 9a3c b363 ba3d
000002e0: 96ec 65bc 9f76 023e 9347 b0bc 36b5 febd
000002f0: 745b b6bb a7b4 67be 0e23 083e a7e0 8dbd
00000300: 20a5 6dbe 95da 01bd 0620 4dbb bc0d 81bd
00000310: 014d 053c cb75 593e 21a5 cc3b cb08 763d
00000320: 760d 9e3b b493 f03b 4051 25be 8f37 2cbe
00000330: 8dea 12be 2a7e 433e 16e8 573d b57b 02be
00000340: 9195 f1bd 2202 41bc d8bb 663c 9be7 c43e
00000350: 60ae 0a3e 28bd 053c af04 d7bb e69e a33c
00000360: c045 883b e0c4 2b3e 67d6 7fbb 7d9c eebe
00000370: beb9 8bbc f8fe 3d3e 55a2 293e 1e1a fe3c
00000380: fc43 15be d29e 10bd 9360 543c 7e56 3bbd
00000390: 8385 3d3c 35b8 813f ff47 32bc d56f 45bc
000003a0: 24c3 42bb 39a4 32bd cd4d 6d3d fda1 0e3d
000003b0: 8e94 b33e 574e 98bd ab36 abbd 0d50 da3c
000003c0: ddb6 57bd eed3 57bd c813 2ebb c681 e1bd
000003d0: 36f8 273e f0d3 8d3b e8c9 6ebb ce13 6f3c
000003e0: 7f06 8cbc a293 0a3f 7255 9abc a554 0c3f
000003f0: af59 b63b 5f9b ea3e e449 82be e975 cebd
0.15122847 -0.01702589 -0.006908706 0.06898452 0.0047248327 0.16778502 -0.005524141 0.00071644655
0.011270454 0.0064776405 0.24459225 -0.12906243 -0.030583406 -0.082349084 -0.17509809 0.093614906
0.13223921 0.091456115 0.014918111 0.18184324 0.057885937 0.0026527168 0.006680221 -0.00649906
-0.000106850384 0.26383147 0.0014080679 0.46876386 -0.032787383 0.48054135 0.09780962 0.046155155
-0.35407922 0.019192735 0.007914659 0.040853735 -0.006311523 -0.29978558 0.015151051 -0.057766702
0.011532289 0.031050297 -0.34531936 0.07390358 0.019633673 -0.08463979 0.008084312 0.008121805
0.21943209 -0.009773785 0.011003054 0.22345616 -0.23512006 0.07833699 0.015272645 -0.010851902
-0.005117855 0.071192 -0.033160143 0.43911603 0.032016333 0.23705693 -0.044815186 -0.10952267
-0.10212324 0.071672365 -0.010092235 -0.06866347 0.020763326 0.04512373 -0.0022552204 0.0036908565
0.0046033915 -0.027394492 -0.24671626 -0.0036829847 -0.15068667 -0.0082319565 -0.103968054 -0.063600585
0.11678393 0.014289193 0.00851315 0.76648664 -0.075319715 -0.025205629 0.0040705525 -0.031903554
0.005227838 0.41446477 0.041629273 0.42078906 -0.00211894 -0.35106605 0.13432823 0.18306965
-0.43778536 0.15450042 -0.028667279 0.007352555 -0.0015461957 0.070922524 0.00040823838 -0.0105564715
-0.003408651 0.003395855 0.0776119 -0.019485936 -0.35822833 0.1756624 -0.13847438 -0.080559015
0.102305055 -0.050343715 -0.010944517 0.271494 0.00034963893 -0.035864215 -0.022068927 -0.029504687
-0.02044586 0.40615812 0.003577205 0.12783614 0.023540212 0.13250078 0.025537547 -0.05053041
0.25976858 0.29854858 0.015231571 -0.09242994 0.00062604994 -0.353745 -0.012934708 0.045992803
0.003715843 0.02275342 -0.10668288 0.039081506 -0.051641878 0.056486785 -0.015080445 -0.012458872
-0.035055533 -0.06803002 0.012235958 -0.021640612 0.18301453 0.1357538 0.0032163388 -0.023800723
0.002060177 0.43485087 0.011550696 -0.023460196 0.12437165 0.24272001 -0.013141155 -0.2222828
-0.122574285 -0.06357198 0.0014444637 -0.036989376 -0.01803381 -0.401327 0.016930506 -0.036145277
0.0022406846 -0.062774345 0.15327726 0.10591597 -0.016368913 -0.029879635 -0.14790449 -7.9888705e-05
0.5429358 0.27218702 -0.011347735 -0.3181656 -0.10982396 0.013301631 0.018810092 0.09101047
-0.014033457 0.12740563 -0.021518504 -0.12436907 -0.0055651013 -0.22627507 0.13294622 -0.06927615
-0.23207521 -0.031702597 -0.0031299605 -0.06301448 0.008136035 0.2123634 0.006245271 0.06006698
0.004823382 0.0073418263 -0.16144276 -0.16818069 -0.14347287 0.19091097 0.05271157 -0.12742503
-0.11796106 -0.011780294 0.014082871 0.3845795 0.13543081 0.008162774 -0.0065618376 0.01997323
0.0041587055 0.1677432 -0.0039037706 -0.46603766 -0.017056342 0.18554294 0.16565831 0.031018313
-0.14576715 -0.035307713 0.012962478 -0.045736782 0.011567476 1.013434 -0.010881423 -0.012050589
-0.0029718364 -0.043613646 0.057935525 0.034822453 0.35074276 -0.07436817 -0.083600365 0.0266495
-0.052664626 -0.052692346 -0.0026562084 -0.110110804 0.16403279 0.0043282434 -0.0036436263 0.014592124
-0.017092941 0.5413152 -0.018839572 0.5481666 0.0055648903 0.45821664 -0.25447 -0.10081083

encoder.0.bias f4 [128]
00000000: 7037 753e 4bcf 183e 05d3 9f3e 4af6 483e
00000010: af11 2a3e 4252 1c3e cfc8 233e ed3a 8c3d
00000020: d43d 8c3d 2121 ee3d 97d0 963d deec 3b3e
00000030: 9d4e cd3d cb46 683d b677 e83d 61b5 d83d
00000040: 9bed 673e 6eb7 ac3e 1769 a33c 2007 353e
00000050: 4a8a 763e f48d 1f3e 7a35 723d 6c91 d53d
00000060: 9edb 283e 608f 0d3e 7297 193e f027 ef3c
00000070: ce77 283e 9e35 653e 67d0 813e e984 813e
00000080: 4afd 613e 923c 0f3e 8490 ab3d bc1a fe3d
00000090: b2fb 013d 6e66 953e 5584 6a3d e62d 4a3e
000000a0: 73b3 9a3d f1a2 173e 366d 933e b3b0 ae3d
000000b0: c8e2 913e 9309 ac3e 1c37 773e bba8 8a3e
000000c0: 2c7b 723e 8f41 92bc ca1c 993e 26b1 2e3e
000000d0: bdfb b63d 8191 a8bc 19ee 1b3d db89 d73d
000000e0: 8e38 303e f1bd f13d 1c8b 043e ccd3 3f3e
000000f0: 361e 713e b960 003e 92f4 c63d 9d3e c33d
00000100: a1db f23d 8bad aa3d 6f3e c83d 5d4f 883e
00000110: e656 013d 6c36 363e ad79 083e c4e5 3ebb
00000120: fa7e a23e 6641 f53d 6fe7 0e3e 904a 5b3e
00000130: 3ac8 963d 369f ac3e 70f8 e53d 54e6 b3bc
00000140: 3c7f 433e dceb 373e 198b 9d3d 6f6e bbba
00000150: 7eae db3d 0aa5 b73d fdd6 293e 9324 683d
00000160: 5cb4 b53d c44c 5e3e 8203 8a3d 9bf0 073e
00000170: 1671 1e3e 08d6 483e 6ea8 963d 1d72 213e
00000180: 497d d43d 07e1 2d3d b78e ab3d 0af5 853e
00000190: d93f 463d 8702 8e3e b368 ef3d de06 293d
000001a0: 491b 3c3e 2d13 673d 06d7 a43e fe1b 383e
000001b0: 2660 073e a609 433e 4316 203e da57 743d
000001c0: 1aa8 f33d b7af a23e 2016 9a3d 1668 203e
000001d0: c241 043e a9ac 153e b4f3 fc3d 5500 0b3d
000001e0: 54e2 0f3e 5cf3 ed3d 27dc 073e 8c19 e43d
000001f0: a599 7b3e c3f9 1c3e 62e2 0c3e cf4f a33e
0.23946929 0.14922826 0.31215683 0.19625202 0.16608308 0.15265754 0.15994571 0.06847177
0.0684773 0.116274126 0.07364004 0.18352076 0.1002476 0.05670814 0.11350958 0.1058147
0.22649233 0.33733696 0.019947572 0.17678499 0.2407619 0.15581495 0.05913303 0.10428128
0.16490027 0.13824224 0.14999178 0.029193848 0.16451952 0.22383735 0.2535431 0.25296715
0.22069278 0.1398795 0.083771735 0.12407443 0.031734176 0.2917971 0.057255108 0.19744071
0.075537585 0.14808251 0.2879426 0.085297965 0.28493333 0.33601055 0.24142116 0.27081856
0.23679799 -0.017853526 0.29904777 0.17059764 0.08934734 -0.020577194 0.038068864 0.10524341
0.17209074 0.118038066 0.12943691 0.18733138 0.23546681 0.12536897 0.09714617 0.09533427
0.11858297 0.08333882 0.09777533 0.2662305 0.031577013 0.17794198 0.13327666 -0.002912865
0.317375 0.119753644 0.13955472 0.21415162 0.07362409 0.33715218 0.11229026 -0.021960415
0.19091505 0.17961067 0.076925464 -0.001429988 0.10726641 0.089670256 0.16585918 0.056675505
0.088722914 0.21708971 0.0673895 0.13275377 0.15472826 0.19612896 0.07356344 0.15766187
0.10375459 0.04245093 0.0837683 0.26163512 0.048400734 0.27736303 0.11689892 0.041266315
0.18369783 0.05641477 0.321953 0.17979428 0.13220271 0.1904665 0.15633492 0.059654094
0.11897297 0.31774685 0.07523751 0.15664706 0.1291571 0.14616646 0.1235117 0.033935864
0.14051181 0.11618683 0.13267575 0.11137685 0.2457033 0.15329652 0.13758233 0.31896827

encoder.2.weight f4 [128]
00000000: 7f8d 4c3f 8d4c 4b3f 538c 693f 6d6c 763f
00000010: 6a1b 4d3f 947d 6d3f 99a5 403f 2a6a 963f
00000020: 963a 873f 9d3a 593f 858c 783f 9782 6e3f
00000030: 26df 813f c63f 5d3f 733b 8c3f 3abc 363f
00000040: f477 803f 5d2f 3f3f 5dca 8a3f e6fa 433f
00000050: 96dc 563f 3c5a 723f 494a 893f ce25 6f3f
00000060: cfb2 563f 8fe6 5a3f a478 653f b0f1 9c3f
00000070: 5404 553f d827 6b3f 7adb 683f de2e 803f
00000080: 274d 543f 9c70 853f d690 953f ea8a 4a3f
00000090: 71f4 9f3f 33a6 513f bfd2 343f 6b41 6a3f
000000a0: 619f 423f a816 6c3f 7d38 813f 450d 803f
000000b0: 257b 483f 577f 853f cbef 523f 4175 523f
000000c0: 66cd 4d3f 8c34 863f c965 763f 9a58 4b3f
000000d0: d795 773f de07 873f 771a 893f c7dd 513f
000000e0: 2c81 6c3f e333 603f c0eb 723f b51e 753f
000000f0: d151 693f c46d 683f d7f2 603f 4578 863f
00000100: b040 823f 1e80 783f 2978 683f a8d2 583f
00000110: 77a4 973f d814 5c3f b87b 603f 589b 8b3f
00000120: abd8 7a3f 9fd0 913f ae14 5c3f a24c 503f
00000130: 9985 553f a4c2 623f 3cb0 6e3f 7b5e 893f
00000140: 1f6f 6f3f 512e 5c3f d09c 903f 1aa2 9d3f
00000150: 972d 353f fe39 6d3f 3829 673f 7362 833f
00000160: 1a0b 7d3f a088 543f 0c4f 7b3f b17b 6e3f
00000170: 4e7b 603f 65a2 6f3f 661e 813f eaf5 613f
00000180: 47bc 723f e4c0 823f dce5 8c3f ed54 6e3f
00000190: 9435 853f 7b21 803f c5f8 613f ad1f 553f
000001a0: 179a 683f 2f05 673f 4b6f 753f aa6d 583f
000001b0: 3b86 583f 16f4 5f3f 69f4 703f 5fd0 4b3f
000001c0: 4eb6 6d3f c7d0 683f 967b 853f 55b0 4c3f
000001d0: 92e6 873f b4dd 573f e3c5 3d3f 5bd6 9c3f
000001e0: 5bda 603f 72f4 6e3f a775 513f ba18 5b3f
000001f0: 4af8 7a3f 5a78 8e3f 6661 8c3f 4133 643f
0.79903406 0.7941368 0.9122974 0.96259195 0.80119956 0.9276974 0.7525268 1.1751149
1.0564754 0.8485506 0.97089416 0.93168014 1.0146224 0.86425436 1.0955642 0.7138096
1.0036607 0.74681646 1.0843006 0.76554716 0.8393034 0.94668937 1.0725795 0.9341706
0.8386659 0.85508054 0.8963721 1.2261257 0.8320973 0.9185767 0.90959895 1.0014303
0.82930225 1.0424991 1.1684825 0.79118216 1.2496473 0.81894225 0.70634073 0.9150607
0.7602444 0.9222207 1.0095364 1.000405 0.78312904 1.0429486 0.82397145 0.82210165
0.8039154 1.0484786 0.9624906 0.7943207 0.9671301 1.0549276 1.0711201 0.8197903
0.923846 0.8757917 0.94890976 0.9574998 0.91140467 0.9079249 0.87870544 1.0505453
1.0175991 0.9707049 0.9080835 0.84696436 1.1847066 0.85969305 0.8768878 1.0906782
0.9798686 1.1391791 0.85969055 0.8136693 0.8340698 0.8857825 0.9323766 1.0731958
0.9352893 0.86008173 1.1297855 1.2315094 0.7077269 0.92666614 0.9029727 1.0264419
0.98845065 0.83020973 0.9816749 0.9315749 0.8768815 0.9360717 1.0087402 0.8826586
0.9481854 1.0215116 1.1007648 0.93098336 1.0406976 1.0010217 0.8827022 0.8325146
0.9086012 0.90242285 0.95872945 0.84542334 0.8457982 0.8748182 0.9412294 0.79614824
0.928563 0.9094357 1.042834 0.7995656 1.061724 0.8432267 0.74130076 1.2252916
0.87833184 0.93341744 0.8182015 0.85584605 0.9803511 1.1130478 1.0967224 0.8914071

encoder.2.bias f4 [128]
00000000: 1b53 1d3e ed45 623e debb 9b3e 5d62 f13d
00000010: 581c 083d f71a 223c de2e 26be e612 6c3d
00000020: 63ee a73e 482c 0b3f 7634 63bc 6017 363d
00000030: c150 b63e 25a2 bbbd 6c61 e53e bff6 423e
00000040: 1aa5 ae3d d645 1b3f 4ea1 bb3b 827d 063e
00000050: 00ff c03d 3ba6 d53e 731b 77bd 5a9c fabc
00000060: 4a35 4c3f 1235 9d3c 1a01 31bd 3df1 103e
00000070: 4522 e73d 1092 b93d 2b84 a03e d6f0 0c3e
00000080: 1a3c 563e b72a 2a3d 254c 083f 78c9 1b3d
00000090: f022 45be 038b 15bf 1c88 433e 7983 3f3e
000000a0: 1e53 34bd 9a5f 85bd 180a 823d f8a7 68be
000000b0: 0d09 723d 758c 2cbd 6f23 58be 4468 453e
000000c0: 323f 553c aeaf 98be 0055 08be 3665 d63e
000000d0: aa6b babd 81a8 9f3d 1021 633e 48d8 b9be
000000e0: b613 a63e 0ac6 ba3e d742 c13e 2abf a8bc
000000f0: 29bf 4cbe ca21 223e 2836 a53e c3d8 4ebe
00000100: f29a fa3e 7adc edbc b215 87be a6cf 01be
00000110: 7bfc 6b3e af98 94bd fe63 943c 869c b3bd
00000120: 3823 643e df44 dd3d d946 003e 95c4 cc3e
00000130: ff79 bc3e eb49 cf3e 0c0d 4a3f 2201 853e
00000140: 7870 6fbe 3764 a63e 3697 36be a397 2e3e
00000150: 595f f13d 5461 1abe 8976 02be a5fa 233f
00000160: 4a56 74bd 57d6 27bf 0447 89ba 58c7 353e
00000170: ae69 853e 368c 6cbe 68ad 6ebe 601e d53d
00000180: 664c 903e 080c 1b3f e89e 78be 5af9 963e
00000190: 3d18 cc3d 3ac3 c83e 05f0 cc3b 9b28 e73d
000001a0: bfee 873d 207b 84bd 0374 fdbc a150 6f3e
000001b0: ba7b ef3e 2324 1d3f 5cd2 58be 1d46 843e
000001c0: 31bc 3bbe 2d0a bebe d5c2 963e 8196 a13d
000001d0: 8bf1 40bd 5e92 5f3c 2bce b2be 2c0e 723e
000001e0: 117a 233e 3ea8 dcbe a55a 9a3e 80e9 aabc
000001f0: bbc7 9d3e 541e 123e 7311 bfbd 151b 023f
0.15363733 0.22096987 0.3041677 0.117863394 0.033230156 0.009894124 -0.16228816 0.05763521
0.32799062 0.5436444 -0.013867488 0.044455886 0.35608485 -0.09161786 0.4480089 0.19039439
0.085275844 0.60653436 0.005726016 0.13133815 0.094236374 0.41728386 -0.060328912 -0.030592132
0.7976881 0.019190345 -0.04321394 0.14154525 0.11285833 0.09061062 0.31350836 0.13763747
0.20921364 0.041544642 0.5324119 0.038033932 -0.19251609 -0.5841524 0.1909489 0.18702497
-0.04402458 -0.06512375 0.063495815 -0.22720325 0.059090663 -0.042126138 -0.21107267 0.19278055
0.013015555 -0.29821533 -0.13313675 0.41874093 -0.091025665 0.077958114 0.22180581 -0.36297822
0.32436913 0.36479217 0.37746307 -0.020598967 -0.19994797 0.15833202 0.3226788 -0.20199876
0.4894634 -0.029035795 -0.2638374 -0.12676868 0.23045532 -0.072556846 0.018114086 -0.08770089
0.2227906 0.10804152 0.12527026 0.3999373 0.36811826 0.40486082 0.7892616 0.25977427
-0.23382747 0.32498333 -0.1783112 0.17050032 0.11785764 -0.1507619 -0.1274053 0.6405433
-0.059652604 -0.6556143 -0.0010473435 0.17751825 0.2605719 -0.23100361 -0.23308337 0.10406184
0.28183287 0.60565233 -0.24279368 0.29487115 0.099655606 0.39211446 0.0062541985 0.11287042
0.06637334 -0.06468797 -0.030939108 0.23370601 0.46774083 0.61383265 -0.21173996 0.25834742
-0.18333508 -0.37117139 0.2944552 0.078900345 -0.047105353 0.0136457365 -0.3492292 0.23638219
0.15964533 -0.4309711 0.3014728 -0.020863295 0.30816445 0.14269382 -0.093295 0.50822574

encoder.2.running_mean f4 [128]
00000000: 35cf 7c3f 15d7 a73f 735a 8a3f 13ce ab3f
00000010: 4213 683f 42a9 ab3f 8d2c 7c3f 838b 9c3f
00000020: 05d1 923f f3ca 8d3f 40d1 a33f 50a9 ab3f
00000030: f022 763f 3e9d a83f bd53 c23f 3456 7f3f
00000040: 04c0 bd3f 0e84 893f 5f7b 7d3f da10 a13f
00000050: 67d4 453f 34f8 b03f 473f c33f 852f 973f
00000060: a157 c23f 2690 8c3f a4ab 993f a400 a03f
00000070: 9ae9 963f efed 763f ce83 a63f 228f 983f
00000080: f08f 983f 18a8 b13f f931 b13f 7014 933f
00000090: ec4c a63f 0586 723f 8bfe a53f 8c87 983f
000000a0: 39fc 4b3f de89 a53f 85a1 953f 3229 b83f
000000b0: 2eec 983f 0059 a53f 30bd b93f 20de 983f
000000c0: ca5f 683f 1e36 8d3f d899 af3f 6d81 533f
000000d0: c236 7e3f b108 863f 9c56 7d3f 9726 953f
000000e0: b815 993f 6cb1 ba3f d7b1 b73f c67f 903f
000000f0: d5e0 a23f e08f 4d3f 5807 a73f d0b8 8f3f
00000100: 5ddd c83f 5fe1 913f a3da 8e3f b1e9 9b3f
00000110: 6286 af3f 6469 5d3f 5223 8e3f fe3c 763f
00000120: 7128 803f 2e39 b13f 103e 893f c63f 773f
00000130: 6571 8f3f d7b8 6f3f 16af d53f 7057 cb3f
00000140: 78c3 963f 0276 923f ea5d 803f e5ff b03f
00000150: 9c86 683f 3108 b13f 0aef 973f 190b 983f
00000160: f80a b73f 6294 943f b505 693f b9fb a43f
00000170: e2d9 8f3f fae6 a23f ebce 8c3f bbb2 843f
00000180: 9040 bd3f d95f 943f 9db6 c93f 4632 a33f
00000190: 588e a93f b820 b43f b2ff 793f 3951 593f
000001a0: b172 903f e406 b93f 39ab 873f ae81 643f
000001b0: 1551 883f fe88 763f 88ea a73f d799 4d3f
000001c0: a0ec b83f 4975 913f 8591 ca3f 5a15 953f
000001d0: fa6d e23f 35e8 8e3f 68b4 a63f a180 a63f
000001e0: d050 8f3f 87e1 b23f 22ec a73f 2412 5e3f
000001f0: 43b4 bc3f 35e0 f13f ee6c 953f dd16 a03f
0.9875367 1.3112513 1.0808853 1.3422264 0.90654385 1.3411028 0.9850548 1.2230076
1.1470038 1.107756 1.2798233 1.3411045 0.9614706 1.3172987 1.5181805 0.9974091
1.4824224 1.0743425 0.99016374 1.2583268 0.77277225 1.3825746 1.5253686 1.1811377
1.5182992 1.0981491 1.2005506 1.2500196 1.179004 0.9645681 1.3008974 1.1918681
1.1918926 1.3879423 1.3843375 1.1490612 1.2992225 0.9473575 1.2968305 1.1916366
0.79681736 1.2932699 1.1689917 1.4387572 1.1947076 1.2917786 1.451086 1.1942787
0.9077116 1.103214 1.3718824 0.82619363 0.99302304 1.0471402 0.9896028 1.1652402
1.1959753 1.4585395 1.4351147 1.1288993 1.2724863 0.8029766 1.3049116 1.1228275
1.5692555 1.1396903 1.1160473 1.2180692 1.3712885 0.8648894 1.1104529 0.96186817
1.0012342 1.3845575 1.0722065 0.96581686 1.120648 0.9364142 1.6694057 1.5886059
1.1778402 1.1442263 1.002866 1.3828093 0.908304 1.3830625 1.1869824 1.1878387
1.4300222 1.1607783 0.91024333 1.288932 1.1238368 1.2726738 1.1000646 1.0367044
1.4785328 1.159175 1.5758854 1.2749717 1.3246565 1.4072485 0.97655785 0.8488956
1.1285001 1.4455228 1.0599128 0.89260375 1.0649744 0.96302783 1.3118448 0.80312866
1.4447212 1.1363918 1.5825659 1.1647141 1.7689812 1.1164614 1.3023806 1.3008004
1.1196537 1.3975075 1.3118937 0.8674643 1.4742512 1.8896548 1.1673868 1.2506977

encoder.2.running_var f4 [128]
00000000: 9a04 e83f 5408 6140 4a82 0840 7d83 6c40
00000010: d6de df3f 0b89 7940 44f4 eb3f 436c 4640
00000020: 583e 3840 10d3 2a40 9a18 5640 6895 7040
00000030: 2459 f93f 3c8b 7a40 a320 9640 4d8c 0240
00000040: 4f8b 8640 8417 0640 8efc 0440 aea0 5740
00000050: 33bf 913f 109f 8140 f54a 9e40 5a47 4040
00000060: 9db4 9740 a624 2040 21df 4e40 8983 5540
00000070: 23e9 3340 a15d 1640 136a 5c40 e59a 5640
00000080: c945 3740 778c 8140 5aee 8340 87c3 3240
00000090: 8f9e 6240 a0fb d73f 8bca 6a40 82d5 2c40
000000a0: 95f3 b33f 35db 5a40 6092 4740 b6e0 8c40
000000b0: b9cd 2c40 7150 6740 30e1 8440 e522 3640
000000c0: 5078 c63f 4285 2040 385d 6b40 26b2 ec3f
000000d0: df21 1a40 ca92 1440 0cab 0e40 77fd 3840
000000e0: c005 3940 1edf 9040 f007 8b40 1bc6 1a40
000000f0: 7c3f 4440 8191 d63f a6bd 6740 77be 2040
00000100: fb00 a240 6f02 3140 0ade 2440 b715 3640
00000110: 3b0e 7c40 71a9 b83f d9d9 2740 8515 f93f
00000120: b2d9 d33f ee50 7c40 5a64 2040 413e e73f
00000130: 5067 2540 f4ba b63f 726e bf40 3249 b140
00000140: 2052 3940 ef62 3840 e861 0940 961d 7f40
00000150: 447a d63f f232 7f40 7208 3740 f962 4440
00000160: 4835 8c40 1642 3340 9ec5 d53f 0d32 6540
00000170: 9b3d 2640 6b31 5740 745e 2340 caff 1d40
00000180: 1ad3 9240 0933 3640 dc35 a840 832b 6240
00000190: 3aa6 7640 a103 8e40 7f5a 1c40 77d5 bd3f
000001a0: 38e2 2240 39b1 9140 3d79 0140 0593 fa3f
000001b0: c1c9 1440 3bf7 f43f 7453 7440 3776 b53f
000001c0: 5eea 8d40 ce04 1240 d74b a940 1ffd 2b40
000001d0: 7c58 d440 0564 2840 6a57 5f40 6ace 6740
000001e0: 7ffa 3040 3d96 7c40 f934 7440 48e1 fa3f
000001f0: 3bdc 8e40 67a0 eb40 fe16 3740 59f0 4d40
1.8126404 3.5161333 2.1329522 3.6955254 1.7489879 3.8989894 1.8433919 3.1003578
2.8788052 2.6691322 3.3452516 3.759119 1.9480329 3.9147482 4.691484 2.0398133
4.2045054 2.0951853 2.0779147 3.369182 1.1386474 4.050667 4.94665 3.004355
4.7407975 2.5022368 3.2323687 3.3361533 2.8111045 2.3494647 3.4439743 3.353204
2.8636343 4.0483966 4.1228456 2.793184 3.5409276 1.6873665 3.6686122 2.7005315
1.405871 3.4196293 3.118309 4.4024305 2.7000563 3.6142848 4.1524887 2.8458798
1.5505466 2.5081334 3.6775646 1.8491867 2.4083173 2.3214593 2.2291899 2.8904703
2.890976 4.527236 4.344719 2.4183414 3.0663748 1.6763154 3.6209502 2.511625
5.0626197 2.7657735 2.5760522 2.8450754 3.9383686 1.442671 2.6226714 1.9459692
1.655081 3.9424396 2.506125 1.8065873 2.5844307 1.4275804 5.982232 5.540185
2.8956375 2.8810384 2.1466007 3.9861808 1.6756063 3.9874845 2.8598905 3.0685408
4.381504 2.8009086 1.6700933 3.5811799 2.59751 3.3623912 2.55264 2.4687371
4.588269 2.846865 5.2565746 3.5339057 3.8538957 4.437943 2.4430234 1.4830769
2.5450573 4.5528836 2.0230248 1.9576117 2.324814 1.9137949 3.8175936 1.4176701
4.4348593 2.2815433 5.290508 2.6873243 6.6358013 2.6311047 3.4897103 3.6219735
2.765289 3.9466698 3.8157332 1.96 4.4643836 7.3633304 2.8607783 3.2177947

encoder.3.weight f4 [128, 128]
00000000: 0fda cf3d 8548 b93c cc48 febd 7721 2fbd
00000010: 6d8a 9a3d 0c3b f9bd d7a8 2dbd af0c 13be
00000020: cdbf 743d 1bf4 a23b 7d03 1a3c 3e0a 7b3d
00000030: d8ee 97bc ad02 d13c 069e abbd 44e6 f93b
00000040: 4c3f 5a3e fe40 c43c ad9f c33d f16e 0e3d
00000050: 1118 693d 943d 153e 02e5 083d 9cc5 6cbd
00000060: 27af 0cbe b92c 8fbd 8947 fe3c dd4c 623e
00000070: ac7e aebd 86ec c4bd dcfa 9e3d 4092 d43c
00000080: 87c4 bbbc 28ab f13c 0b25 ebbd 8f45 98bc
00000090: aa34 8b3d 028f a53b aba3 c8bd a177 55bc
000000a0: 7dca 08be f072 8a3e 3007 46bd 70f3 1c3e
000000b0: f31f 8abd ba7e 0fbc 6339 bebc 6584 3e3d
000000c0: 47e8 7f3d 6d96 4dbd 7c0e 87bd 47c2 083e
000000d0: c5bc 2b3d 85ea 26bd bc9c a2bd 3ec6 e8bd
000000e0: eb43 dabd d41e 90bd ef38 3bbc bc83 a4bd
000000f0: c71a 98bd ad4d 03bc fad3 9b3d dc6d fcbc
00000100: a315 a13d 7772 6cbd 6a87 84bd a526 48be
00000110: 06ac b23e 4a08 c2bd 630d fdbd 389e 003e
00000120: c99a b13c 9681 29bd 4bb1 203d af1a f0bd
00000130: ed52 1e3e 479b 0f3e fe00 443e 412c 0e3d
00000140: e0ab fe3c 9dc1 db3d 3f4c fbbd f83b a83d
00000150: fb49 81bd 267b dfbd 259c a8bd 872b 7dbd
00000160: ba53 03bd cb59 d1bb a8a3 7dbd 4d8c 193e
00000170: 1137 5cbc 2317 58bc 157b 8b3d cb19 e3bd
00000180: 410e 233d 6adb d33d 2168 10be 2c12 f53d
00000190: 936b 523d 3163 07be 3968 2e3e b54e bd3d
000001a0: 4859 8d3d d3a8 c3bc 5a52 ee3e 545c 6ebd
000001b0: eac6 bdbd 15cf 0e3d 760e b63d 5e88 333d
000001c0: f0bb 4dbd e152 95bd 9d8e 16be 6278 b6bd
000001d0: 5c37 68bd 71ff 56bc 79b7 d1bd 4062 cc3d
000001e0: 511b dfbc c8d9 2bbe 796f 853d 9364 6d3c
000001f0: 7210 553d 3d4b 20bd 62e8 19bd 49fd c43d
00000200: e8c1 84bd 80f6 cabc 55ec f53d 4b2a b23c
00000210: 6d0f ebbb 9638 f93c 8602 c73b 1444 4c3d
00000220: 6188 82bd aa5a c23c 060f 20be 8849 cbbc
00000230: 03e1 54bc abed c5bd acf2 38be 3484 12bc
00000240: 64a5 cfbd 0aff e7bc cb07 86bd 6c25 a5bd
00000250: 48eb 173d 5b03 8ebd 7438 4a3e 61a9 d63d
00000260: 7ae7 7dbd ec66 5d3e a7f5 283e f787 9cbd
00000270: 01fd 7fbd 0d5c 7fbd a1af 813e a9ab 873d
00000280: d42c 913d 1184 393e a83d 3e3d 18fa abbd
00000290: 8624 92bc f482 483d c39d 533a 8a61 5d3d
000002a0: 850a 873d d0cc 96bb 766c e3bd 91fe 3abd
000002b0: 98a6 7c3b 1d2d 513d 918d e23c c4ee 87bd
000002c0: 413a 9a3c 8247 bebd 3016 42be 9a2a 6e3d
000002d0: c965 883d 04d9 d23c 132b e23c 9432 5ebd
000002e0: cf9f c7bd 3906 01be cac2 bcbd b1e5 94ba
000002f0: 4ad6 c5bc fe83 d0bd fed5 1b3d 6b2a 87bd
00000300: dd68 1ebe 786f 083e 303d 73bd ada4 84bc
00000310: b7a7 48bc cfb7 293d ddfb 19be fa72 0fbe
00000320: c667 17be 30a7 a439 4518 eebd 5006 cdbd
00000330: 0deb 523c 40e7 e53c b046 94bd d339 803e
00000340: e4a9 e7bd 4f5c fabd d86d 00bc 93c2 003e
00000350: 5758 083d 1aca 8f3b e1eb d13d e5a0 fe3d
00000360: b06d f4bc 42c1 193e 3375 80ba 20d4 803d
00000370: 48bb 123e b5a4 113d 6eaa 28bd 3315 84bd
00000380: 3660 9f3d 599b a23d 9ff9 8dbe 34ac 0b3d
00000390: 334a 3dbd e911 e33d 8740 e6bd ef19 3dbc
000003a0: d904 1d3e 4ed7 db3d be0a 0bbb 94da c73d
000003b0: 9065 acbd 666c 9c3e 2da7 76bd 5437 913d
000003c0: 999a 713d b638 cbbd ea4f df3d dc4b 80bd
000003d0: 915d 9f3d 349e 22bc cbac 1a3d 937f 883c
000003e0: e004 f23d 6663 69bd b37c 3b3b c341 cbbc
000003f0: a74e 553d ea93 c3bd 5b30 983c b118 883d
0.10149013 0.022617588 -0.12416229 -0.042756524 0.07545934 -0.121694654 -0.042397346 -0.14360307
0.059753228 0.0049729473 0.009400246 0.061289065 -0.018546507 0.025513971 -0.0837975 0.0076263268
0.21313208 0.023956772 0.0955194 0.03477377 0.056907717 0.14574271 0.033421524 -0.057805642
-0.1373869 -0.06990952 0.03103997 0.22099634 -0.085202545 -0.09615426 0.077626914 0.025948644
-0.02292086 0.029500559 -0.11481675 -0.018587856 0.06797154 0.0050524483 -0.09796842 -0.01302901
-0.13358493 0.27040815 -0.0483467 0.15327239 -0.06744375 -0.008758241 -0.023220723 0.04651298
0.062477376 -0.050192285 -0.065945596 0.13355361 0.04192807 -0.040751 -0.07940051 -0.11365937
-0.106574856 -0.0703713 -0.011427148 -0.08032939 -0.074269824 -0.008014125 0.07608791 -0.030814104
0.07865455 -0.05772635 -0.06471141 -0.19545992 0.34896868 -0.09474237 -0.12356069 0.12560356
0.021680253 -0.04138335 0.03923158 -0.117238395 0.15461321 0.14024077 0.19141003 0.034710173
0.031087816 0.10730288 -0.12270402 0.08214563 -0.06312939 -0.109121606 -0.08232907 -0.06180909
-0.03206227 -0.006388878 -0.061923653 0.14994927 -0.013440863 -0.01318911 0.068105854 -0.11088904
0.039808515 0.10344584 -0.14102222 0.11966357 0.051372122 -0.13221432 0.17031945 0.09243528
0.06901795 -0.023884213 0.46547204 -0.05819352 -0.092664555 0.034865458 0.08889477 0.04383122
-0.05022806 -0.072911985 -0.1470284 -0.0890968 -0.05669342 -0.013122425 -0.10240073 0.09979677
-0.027234705 -0.16782296 0.06515402 0.014489311 0.052017637 -0.039134253 -0.037575133 0.09618623
-0.06482297 -0.024775743 0.120079674 0.021748682 -0.0071734698 0.03042249 0.006073299 0.04986961
-0.063736685 0.023724873 -0.15630731 -0.024815336 -0.0129931 -0.09664472 -0.18061322 -0.0089426525
-0.10138968 -0.028319854 -0.06544455 -0.08063778 0.037089616 -0.06934234 0.19748098 0.10481525
-0.06198833 0.21621293 0.16499959 -0.07643121 -0.062497143 -0.062343646 0.25329307 0.066245385
0.070886284 0.18116786 0.04644552 -0.08397311 -0.017839681 0.04895301 0.00080725196 0.0540481
0.06593803 -0.0046020523 -0.11104672 -0.04565293 0.0038551446 0.051068414 0.027655395 -0.06637338
0.018826606 -0.09290983 -0.18953776 0.058146097 0.06660039 0.025738247 0.02760843 -0.054247454
-0.09747278 -0.1260003 -0.092168406 -0.0011359957 -0.024150033 -0.101814255 0.038045876 -0.065998875
-0.1546969 0.13323772 -0.059384525 -0.016191805 -0.012247018 0.04143506 -0.15037484 -0.14008704
-0.1478568 0.00031405082 -0.11625723 -0.1001097 0.012873423 0.02806437 -0.07240045 0.25044116
-0.11311701 -0.12224638 -0.007838689 0.12574224 0.033287372 0.004388106 0.102500685 0.12433032
-0.02983746 0.15015128 -0.0009800553 0.0629046 0.14329255 0.035557467 -0.04117816 -0.06449356
0.07782023 0.079397865 -0.27729508 0.034099773 -0.04621334 0.110874005 -0.11242776 -0.011541828
0.1533388 0.107344255 -0.002121612 0.09758487 -0.08417809 0.3055145 -0.060218025 0.07090631
0.058985326 -0.09922926 0.10903914 -0.06264469 0.07781518 -0.009925414 0.037762444 0.016662395
0.11817336 -0.05697956 0.0028608262 -0.024811631 0.05207696 -0.09549697 0.018577745 0.066453345

encoder.3.bias f4 [128]
00000000: 5e53 7a3e b3fa 873e 9c40 843e 9d7f ee3d
00000010: f69a 0d3e bab4 133e c7a3 2f3e 6bc4 3f3e
00000020: 4c51 923e 6fa6 453e 578a 293e 8ac7 6d3e
00000030: 66c8 0b3e 6d2b 493e 956a 963e bd3e 5e3e
00000040: 1651 ac3d 28f9 2e3e 2815 7f3e e133 2c3e
00000050: 81a9 1e3e f3dc 203e 608d 2d3e 72f0 443e
00000060: 3cae 493e a10b 863e 0ae3 973e 4e2f 273e
00000070: 18c1 343e 85b2 d23e 5d38 eb3d 4935 ee3e
00000080: 756f 643e d016 4d3e 41ea 233e 0914 433e
00000090: 0001 333e 7071 343e 4456 003e e9e6 0f3e
000000a0: 52bf 6c3e fd9f 223e a94b 533e 127a 4d3e
000000b0: 5767 fa3d 798f 093e 3dd2 143e afc7 813e
000000c0: 2d6e 153e 1f57 073e f529 173e 64d3 533e
000000d0: e196 1e3e 2151 823e 9939 773e 0840 2a3e
000000e0: 7401 0e3e 4be9 463e 2604 503e 0139 ef3d
000000f0: 0ac1 283e c0b8 223d 41d2 723e 7665 0a3e
00000100: dabf 523e ac14 6c3e 835a d43e 0b39 a03d
00000110: 7f68 3d3e f858 3a3e 9770 4b3e e3bb 2f3e
00000120: 858f 7f3e 7854 843e 7eaf 263e 335f 4b3e
00000130: c0a7 183e 8844 363e b94f 973e 20b5 113e
00000140: ee70 163f d019 873e 2a65 013e 500e 9d3e
00000150: 79a1 423e c917 0a3e 5edb 823e e523 1d3e
00000160: 0731 4f3e 988a 273d 53f1 513e 3ddf 003e
00000170: 0810 fd3d 371f 063e 8d7c 153e 4b80 1b3e
00000180: 8759 563e 3d3e 413e ceba 283e 02bc 5e3e
00000190: 98bb 173e 9206 b93e e702 043e 393c 5b3e
000001a0: 09c5 353e 5cc7 473e 288f 043e 754b 793e
000001b0: 6673 663e 314f 7b3e e6c9 843e 236c 693e
000001c0: 1302 603e ef1b 833e 01d9 bb3d bc2b 893e
000001d0: 65b6 c33e 9cc7 a53e a6bd 623e 63ea e73d
000001e0: d8df 063e 06bc 553e 7544 4e3e 4f51 9c3e
000001f0: 8692 233e a5bc 613e f5b6 7d3e 797a 093e
0.24445865 0.26558456 0.25830543 0.11645434 0.13828644 0.1442441 0.1715232 0.18727271
0.2857765 0.1930177 0.16556679 0.2322065 0.13650665 0.19645472 0.2937819 0.2170362
0.084139034 0.17087233 0.24910414 0.16816665 0.15494348 0.15709285 0.16948462 0.19232348
0.19695371 0.26180747 0.29665405 0.16326639 0.17651784 0.41151825 0.1148536 0.46525028
0.22308142 0.20028234 0.1600733 0.19050612 0.1748085 0.17621398 0.12532908 0.14052929
0.23119858 0.15881343 0.20634331 0.20066097 0.12226742 0.13433637 0.14533325 0.2534766
0.1459281 0.13216828 0.14762099 0.20686108 0.15487243 0.2545252 0.24143066 0.16625988
0.13867742 0.19424932 0.20314083 0.116807945 0.16479889 0.039726973 0.23713018 0.13515267
0.20580998 0.2305476 0.41475305 0.0782338 0.18496893 0.18198001 0.19867168 0.17161517
0.24957092 0.25845695 0.16277882 0.19860534 0.14907742 0.1779958 0.2955301 0.1422925
0.5876607 0.2638688 0.12636247 0.30674982 0.1900691 0.13485636 0.2555799 0.15345724
0.20233546 0.040903658 0.20502214 0.12585159 0.12356573 0.13097845 0.14598294 0.15185659
0.2093259 0.18871398 0.1647751 0.21751407 0.14817655 0.36137825 0.12891732 0.21409692
0.17750944 0.19509643 0.12945235 0.24345191 0.22504959 0.24541928 0.25935286 0.22795157
0.21875791 0.2560725 0.091722496 0.2679118 0.38225093 0.32378852 0.22142658 0.113240026
0.13171327 0.20872506 0.20143302 0.30530784 0.15973863 0.22044618 0.24776824 0.13425626

encoder.5.weight f4 [128]
00000000: 1957 7a3f a81c 783f ba2e 663f 8520 5d3f
00000010: c5a2 773f 9f7e 733f ddf3 653f 068c 5e3f
00000020: 0e2c 553f e39f 833f 390c 6d3f a3db 643f
00000030: 3739 5b3f e2d3 903f b333 803f 9f9d 673f
00000040: 26c0 823f acf8 7a3f 3c9f 603f 90fa 653f
00000050: c1fc 6f3f 2a3e 613f 3536 753f 1dac 593f
00000060: 6fca 773f 7bc8 703f 7fe2 5c3f 58a9 703f
00000070: dccf 773f 2298 883f 3cd6 523f ab34 853f
00000080: db51 883f d6fc 6d3f 6885 6d3f a9bb 7f3f
00000090: d798 723f 13b6 823f 90bc 653f e9a5 863f
000000a0: 5cf2 853f 7042 743f 6efe 673f c474 7b3f
000000b0: 022b 5b3f 08b6 853f 3585 793f d579 6e3f
000000c0: 45ec 473f fb28 873f 64e2 853f 4f23 633f
000000d0: 6061 843f 64cf 6a3f b3c8 703f 9384 723f
000000e0: bcbf 763f f067 743f d3c4 663f b8a7 5c3f
000000f0: faf1 593f aa34 783f aea7 693f ada8 513f
00000100: 4dc4 6b3f 35bd 743f fe4f 8f3f 6a81 633f
00000110: d212 603f 03fa 4e3f d370 5b3f 123f 5e3f
00000120: de96 843f 2681 543f 3f72 793f f85d 523f
00000130: 3ef2 613f 67e7 8b3f 9f9b 6e3f c472 6f3f
00000140: 9e61 993f 604b 8b3f 6e4b 753f 8e7f 653f
00000150: cb9e 653f aac6 4d3f 83a7 733f 056d 813f
00000160: 9f8b 733f 5629 743f d974 723f b038 6a3f
00000170: 7565 5e3f 5377 813f 0458 823f 688b 913f
00000180: 30d5 713f dff2 7b3f 9000 643f 3f6c 833f
00000190: 5ef6 683f fac1 8a3f c41d 7b3f 87d9 6f3f
000001a0: 074b 6d3f 2e2f 5b3f 976c 673f c88f 7e3f
000001b0: 6cc8 743f 2135 6c3f 371c 713f 10a2 793f
000001c0: 33c2 6b3f 34fa 7b3f 2855 573f 12a0 6c3f
000001d0: 65b4 843f ffc3 683f 71df 633f 2e8e 713f
000001e0: 6180 5d3f 3f84 633f 6572 763f af62 653f
000001f0: 27fc 643f 5b3d 923f 29db 4c3f 3b4f 793f
0.9778915 0.96918726 0.8991505 0.86377746 0.9673274 0.95115083 0.8982523 0.8693241
0.8327035 1.0283169 0.92596775 0.8939764 0.8563418 1.1314662 1.0015777 0.90474886
1.0214889 0.98035693 0.8774297 0.89835453 0.93745047 0.8798548 0.9578584 0.8502825
0.96793264 0.9405591 0.86283106 0.940084 0.96801543 1.0671427 0.82358146 1.0406698
1.064998 0.9296392 0.92781687 0.9989572 0.94764465 1.0211815 0.8974085 1.0519382
1.0464587 0.95413876 0.90622604 0.98225045 0.856125 1.0446177 0.9746888 0.9315465
0.78094894 1.0559381 1.0459714 0.8872575 1.0342216 0.917227 0.9405624 0.9473354
0.96386313 0.95471096 0.9014408 0.8619342 0.8513485 0.9695536 0.91271484 0.81898004
0.92096406 0.95601207 1.1196287 0.88869345 0.8752872 0.8085024 0.8571903 0.8681499
1.0358541 0.83009565 0.9743995 0.82174635 0.8826026 1.0929993 0.9320621 0.93534493
1.1982915 1.0882378 0.9581822 0.8964776 0.89695424 0.8038126 0.9517748 1.0111395
0.9513492 0.95375574 0.94709545 0.9149275 0.8687356 1.011454 1.018311 1.1370668
0.94465923 0.98417467 0.8906336 1.0267409 0.91000926 1.0840447 0.98092294 0.93691295
0.9269261 0.85618865 0.9040007 0.9943814 0.9561832 0.9226857 0.9418368 0.9751291
0.920932 0.98428655 0.84114313 0.9243175 1.0367552 0.90924066 0.8901282 0.94357574
0.86524016 0.88873667 0.962683 0.89603704 0.89447254 1.1424974 0.8002191 0.9738652

encoder.5.bias f4 [128]
00000000: 5e8b 8d3e 5525 9a3e 95fb 183e aef5 b3be
00000010: f9a0 4ebe eb73 c33e 46de 0b3e cfdf 603e
00000020: 8e49 d9bd 5c58 8c3d d7a3 913e 4f21 193e
00000030: 8938 ddbe e4c4 363e 5467 a23d 4da7 8e3e
00000040: 599c 55bd cd3d 873c 2e4b 49bd 9cc1 67bd
00000050: 041b e33c 9f29 363e 477d 133e 2b15 b93e
00000060: afb6 91be f7e5 dd3d 883d 503d 9444 a43d
00000070: 5350 ccbd 11b5 79bd 6510 8cbe e88a fa3e
00000080: 7e74 33bd 3ce5 cb3d 944f cebd cb26 b83d
00000090: eb21 9bbc b109 253e 79a3 45be 3799 56be
000000a0: fc47 683e a8ba 953b d3c3 3abe a0bb 6abe
000000b0: 6e36 79be 40bd 0d3d 25a0 0c3e 3dc9 abbd
000000c0: 356c debe d8eb 8a3d ebea 303d e958 af3e
000000d0: 1319 d5be 43d9 b53e 41e6 4f3e f108 953e
000000e0: 3791 933e d22b 753e bc90 bb3d 7a35 ffbe
000000f0: 429a 553f 1de0 b63e 8edc cb3e ac17 7d3d
00000100: e8a8 88bb 9f3f cbbd 50f1 1739 5bf5 8b3e
00000110: 7373 953d 2f79 213f 9eeb 01bc 7b2f d93d
00000120: 8766 163e dde4 22bd 767c a03e cb5d ef3e
00000130: 32e9 07be 9947 3bbc 592a 853e 790b 2abe
00000140: 7f7f 82bc 3a0c 593e 1275 ccbd 60c0 223e
00000150: 363c 0d3e 7704 47bf 9350 d23e 258b d0bd
00000160: e985 b43e 6b25 febd 0ec5 33be 2b41 43bf
00000170: d819 603e 4520 ee3c a57c 2e3e fef7 8e3d
00000180: 7b00 9a3c 446f 00bd 65b0 033e eee6 6d3d
00000190: fafc 0bbe b012 6e3e b9e2 8e3e 15e2 afb8
000001a0: 193e 433d b378 df3e 6acb ca3d 0842 543e
000001b0: 9688 373e 287a d53e 8835 a13e ac96 83be
000001c0: 8f11 973e 8ef1 37be 901d adbe d22c e23e
000001d0: 8418 333e 1b22 5dbe ba1a 823e 0ffe f3bc
000001e0: 4577 b1be 8043 423e 9050 43be f89e cb3d
000001f0: ca19 9bbc 0393 f23d e46a f43e ca07 b1bc
0.2764539 0.30106607 0.14939721 -0.35148376 -0.20178594 0.38174376 0.1365901 0.21960376
-0.106097326 0.06852791 0.28445312 0.14954112 -0.43207195 0.17848545 0.079298645 0.27862015
-0.052151058 0.016508961 -0.049143963 -0.056581125 0.027722843 0.17789315 0.14403258 0.36148962
-0.2845969 0.10834878 0.05083993 0.08020893 -0.09976258 -0.060963694 -0.27356258 0.48934102
-0.043812267 0.09955832 -0.10073772 0.08991774 -0.018937072 0.16116978 -0.19300641 -0.20956884
0.2268371 0.0045693703 -0.18238764 -0.22923136 -0.2433717 0.03460431 0.13732965 -0.083879925
-0.4344193 0.06783265 0.043192785 0.3424752 -0.41620693 0.3551732 0.20302679 0.29108384
0.28821728 0.23942497 0.09158465 -0.49845487 0.83438504 0.3571786 0.39816707 0.061790153
-0.004170526 -0.09924244 0.00014490378 0.2733563 0.07297411 0.63075536 -0.007929711 0.10604759
0.14687549 -0.039769042 0.31344956 0.46751246 -0.1327255 -0.011430644 0.2600887 -0.16605939
-0.015929936 0.2119607 -0.09983267 0.15893698 0.137925 -0.7774119 0.41077098 -0.1018279
0.35258415 -0.12409481 -0.17555639 -0.76271313 0.21884859 0.029068122 0.17039736 0.069808945
0.018799057 -0.03135611 0.12860258 0.05808156 -0.13670722 0.23249316 0.2790735 -8.386761e-05
0.047666643 0.43646774 0.099020794 0.20728314 0.17923197 0.4169476 0.31486154 -0.2570089
0.29505584 -0.1796324 -0.33811617 0.4417482 0.1748982 -0.21595041 0.25411016 -0.02978423
-0.34661308 0.18971062 -0.19073701 0.0994243 -0.018933196 0.118444465 0.477378 -0.02161016

encoder.5.running_mean f4 [128]
00000000: 7798 a93f 6503 953f adce b93f 7ef8 8f3f
00000010: b7ab 973f b62b 843f a607 703f 0f93 903f
00000020: 0f3d 933f 16ab 7c3f 9528 893f 0bdd 943f
00000030: 81f5 8c3f 4bfb 993f 0712 0740 da93 4b3f
00000040: 6553 723f c043 983f becc 913f cc81 943f
00000050: 2be7 933f 209f 783f 4f4d 863f 9571 923f
00000060: 3a0e a03f fe83 a63f 7f11 a43f 01b8 803f
00000070: b4eb bd3f 15cc f73f 6392 8b3f d927 fe3f
00000080: a63b 993f 1f2c 913f ea70 943f a548 a93f
00000090: 3882 863f 2609 953f 3a2a 753f e1ec 893f
000000a0: b593 913f 624c 823f cf54 a03f ae72 cd3f
000000b0: 06ee a33f 9991 963f 429e a13f 40c5 993f
000000c0: 670d 993f a34a 933f 03d8 983f f5cf 6a3f
000000d0: e1c4 b73f 1d5b 9f3f 2770 7a3f 7f19 9f3f
000000e0: bbe7 563f 4090 9d3f 56fb 9e3f 87cc af3f
000000f0: 6197 463f 793f 893f 6af1 9a3f d3c6 733f
00000100: 68df a23f 2b20 ca3f 6b07 1340 1182 2a3f
00000110: f27e 713f 4100 843f d29c 843f 5318 913f
00000120: 42c4 9c3f 9124 7e3f b8bd 8d3f 99b6 a33f
00000130: 8cbb 943f fc2a 933f b4a1 9f3f 2124 963f
00000140: 6af1 2d40 cb7f b13f c996 863f db89 883f
00000150: 7af9 983f cddf 9f3f 9504 903f 97d7 b63f
00000160: ec6a 903f a49c 803f a8b3 be3f 1084 813f
00000170: 21d8 a43f d6f6 a13f 4f4f 993f 5b23 8f3f
00000180: 2412 c53f d354 b23f 8bec 953f 4aba 933f
00000190: 830c ac3f e5ec 1840 45fa 9b3f 200d b33f
000001a0: 16a4 a43f 8e25 9a3f ce9e 753f 9337 8c3f
000001b0: 3a6d b73f 8655 973f 1dff ae3f 1cf2 8c3f
000001c0: e32c 5c3f e8e7 8c3f 08c8 ac3f d831 9e3f
000001d0: b113 f83f 5c5b e33f d539 cd3f bfa7 a53f
000001e0: 1bca 7d3f 30c2 513f 92da b03f 1b72 a73f
000001f0: 8e2c 8a3f d65d a73f ead0 943f 9a3c 903f
1.3249654 1.1641661 1.4516197 1.1247709 1.1849278 1.032584 0.9376167 1.1294879
1.1503009 0.98698556 1.071551 1.1629957 1.1012422 1.2029814 2.1104753 0.7952248
0.946585 1.1895676 1.1390607 1.1602111 1.1554922 0.97117805 1.0492343 1.1440912
1.2504342 1.3009031 1.2817839 1.0056154 1.4837556 1.9359156 1.0904049 1.985591
1.1971328 1.134159 1.1596959 1.3225294 1.050849 1.1643417 0.9576756 1.0775415
1.1373202 1.017956 1.2525882 1.6050622 1.2807014 1.1763183 1.2626421 1.2013321
1.1957215 1.1507152 1.1940922 0.9172357 1.4356958 1.244968 0.9782738 1.2429656
0.8394734 1.2309647 1.2420452 1.3734292 0.77574736 1.0722495 1.2104924 0.95225257
1.2724428 1.5791067 2.2973278 0.66604716 0.9433433 1.0312577 1.0360358 1.1335548
1.2247393 0.99274546 1.1073523 1.2790099 1.1619735 1.1497493 1.2471223 1.1729776
2.7178597 1.3867124 1.0514766 1.066707 1.1951134 1.2490174 1.1251398 1.4284543
1.128263 1.0047803 1.4898577 1.0118427 1.2878457 1.2653453 1.1977328 1.1182665
1.5396161 1.3932136 1.1712812 1.1541226 1.3441318 2.389459 1.2185751 1.398838
1.2862575 1.2042711 0.9594544 1.095446 1.4330208 1.1822975 1.3671604 1.1011386
0.8600599 1.1008272 1.3498545 1.2358961 1.9381009 1.7762256 1.6033274 1.2941817
0.99136513 0.8193693 1.3816702 1.3081697 1.0794847 1.3075511 1.1626256 1.1268494

encoder.5.running_var f4 [128]
00000000: b75d 2d40 42fa 1c40 b03a 0940 6301 1340
00000010: 7279 1640 4f2c eb3f 4d54 cf3f dda4 c53f
00000020: 4855 af3f 356d e33f 6a09 0840 ca83 e63f
00000030: 87d7 1140 ea74 2a40 56fe 4840 cb02 a23f
00000040: 2855 d43f ada4 1840 8ed4 f73f 12fc 1d40
00000050: bbe4 2240 d380 d23f 34db 1240 7ce4 0d40
00000060: 8623 1740 3749 1640 610b 0040 9058 dc3f
00000070: c7a8 5840 5c63 0940 e615 0540 c2e2 d03f
00000080: 8823 1940 4b12 1d40 4bfd bf3f d08d 1640
00000090: 745b 0640 0dbd 1740 47ad fa3f 448a 0940
000000a0: d943 1740 2e14 f83f 8ca8 1e40 fb47 4c40
000000b0: 51b2 0b40 24fa 1040 abc0 3040 0f46 0840
000000c0: cc11 1540 a791 1b40 8e17 3f40 c06b ed3f
000000d0: a819 5a40 d96a 0a40 982e fc3f b034 3240
000000e0: 7d80 c93f 60a0 1040 0d64 1340 15ed cb3f
000000f0: 3f93 d93f 3ad8 1940 0421 2840 bec3 d43f
00000100: da61 e13f 0aae 3140 a9bd 0a40 1756 923f
00000110: 9b71 e63f e07b da3f 892b c33f 76d0 ee3f
00000120: 83d6 2240 f9b1 e83f 6c8c 1140 1786 1b40
00000130: 902f 1840 3ba1 3240 86f1 bb3f f288 0840
00000140: f2ac 2340 2de6 3b40 9b04 1040 fbcf b43f
00000150: c99b fb3f 8a24 0540 bb0f 0f40 d169 5140
00000160: 1ebe 2240 bfd2 0640 a9ca 1740 8d5c ff3f
00000170: cb11 2840 39ec 2a40 fda0 1840 c63c 2a40
00000180: 80c1 2e40 44cc 1c40 72ff f83f 2e4e 0740
00000190: 337f 1c40 e0ef ba3f 40e1 3b40 ab74 3040
000001a0: 3c1e 1640 eb45 fa3f d692 f63f d560 1d40
000001b0: 20a2 1340 6f9e dd3f dffb 2640 b75b 1540
000001c0: 993e bc3f fd52 ff3f 7605 e03f f514 0740
000001d0: adce 1c40 a066 f73f 7ed4 0c40 19a6 1740
000001e0: c45a db3f 6548 b33f 3ed4 2d40 d021 fe3f
000001f0: 5a09 0840 433b 6340 a264 0340 22ad 2340
2.708845 2.4527745 2.144207 2.2969596 2.3511624 1.8372897 1.6197602 1.5440937
1.3697901 1.7767702 2.1255746 1.8008969 2.2787797 2.6633859 3.1405234 1.2657102
1.6588488 2.385051 1.9361742 2.4685102 2.5452106 1.6445564 2.294629 2.2170706
2.3615432 2.3482187 2.0006945 1.7214527 3.3853014 2.1466894 2.0794616 1.6319201
2.3927937 2.4542415 1.4999174 2.3524055 2.0993319 2.3709137 1.958413 2.149064
2.363516 1.9381158 2.4790373 3.1918933 2.1827586 2.2652674 2.7617595 2.129276
2.3292112 2.430765 2.9858127 1.8548508 3.407816 2.1627715 1.9701719 2.7844658
1.5742337 2.2597885 2.3029816 1.5931727 1.6998061 2.4038224 2.627015 1.6622236
1.7607987 2.7762475 2.167826 1.1432523 1.800342 1.7069054 1.5247661 1.8657367
2.5443428 1.8179313 2.2741957 2.4300592 2.377903 2.7910907 1.4683082 2.1333585
2.5574307 2.9359238 2.250281 1.4125971 1.9656917 2.0803552 2.235335 3.2720835
2.5428538 2.106613 2.3717444 1.9950119 2.626086 2.670668 2.384826 2.6599593
2.7305603 2.4499674 1.9452956 2.1141467 2.4452636 1.4604454 2.9356232 2.7571208
2.3455954 1.9552587 1.9263561 2.4590352 2.3067703 1.7313975 2.609123 2.3337228
1.4706603 1.9947201 1.7501667 2.110654 2.4501145 1.9328194 2.2004695 2.3695128
1.7137074 1.4006468 2.7160792 1.9854069 2.1255708 3.550492 2.0530171 2.5574422

encoder.6.weight f4 [128, 128]
00000000: 2269 a43d 4602 02bc cc6c c0bd fd0e c33c
00000010: cb68 80bc f454 07bd 6515 32be 7fe2 abbc
00000020: f52f 2a3c 0ddd c0bd 85da c43d 1455 313e
00000030: 23e7 22be ffc3 ac3e 8237 d53c d9bc 143e
00000040: 060b d6bc 0245 d93c 905e b4bd 9f32 dfbd
00000050: 705a c0bd b8f3 8c3d 3822 533d 2752 10bd
00000060: f625 0a3d 0a0b 7c3e 6bfc 4e3e 03f1 733d
00000070: 26b8 403c 3868 b1bd 8029 063c d13c 3b3e
00000080: f37a bb3d fecd 20be 1f9b b0bc 47a5 48bd
00000090: ac5b fcbd 45e0 253c 93ed 453d 5b74 603c
000000a0: ec38 0ebd 0abb 2a3e 1342 b8bd 7d3b 5c3d
000000b0: f479 aabd 34c3 ed3d f486 05be 7724 b33d
000000c0: 70b8 1dbd 2540 393c b1d8 c3bc 207a 0c3e
000000d0: d9f8 47be a311 cbbc 18f2 62bd 5e46 c33c
000000e0: 6e3c bb3d 8a3f 283e 16a5 7abd 2307 483d
000000f0: a04d 813d 04cb 2c3c 0927 b3bc 234c 023e
00000100: 36b1 273d 62aa debc 6a86 f03c 13ea b8bd
00000110: 2a1c 0bbd db73 a0bd c7e3 d13d 1d10 9abd
00000120: 5a90 5e3d 7d63 fcbc bcb5 d03d 0bc4 ee3d
00000130: ee2e 003d 5903 0cbe ae2e e33b a9cd c1bd
00000140: 61ab 46bd e1f1 7a3d e79d c23c ac3c a2bd
00000150: ae26 84bd 1dab 91bd e750 bfbd 783c 8b3b
00000160: 0ee9 223e 303c ad3d 7aae 98bd 0600 ebbd
00000170: 5ee4 c3bd 1603 61bd 802d 033c 7e45 a83c
00000180: 1d26 96bd be9b 503d 1f5a a8bd b9ee d93d
00000190: c65a 8f3d a8f0 4fbd d47f 863d 31f1 45bc
000001a0: 2f13 d23c e847 493e aa82 68bd 959c acbd
000001b0: 1d1f 1d3e 6bf6 23be 7021 dc3d ec1e 593b
000001c0: d43d 123d 5520 bbbb d001 08be 2d4b e83d
000001d0: b77c 1dbc 2a6d 82bd 062f 46bc db81 083e
000001e0: fec3 8d3d 5ac7 fb3c 6f14 0b3e 2963 d83d
000001f0: 6b40 fabd f871 c7bd f964 0c3e 4552 913e
00000200: ec62 493d 97b0 823b df3e e8bc 4cff f63c
00000210: f6db 8fbd a24a 0bbe 2740 d93d d6dd 4f3b
00000220: b358 003e 6d16 713e 1bd4 9d3e 3d0e 333d
00000230: 64ca c6bc e660 083e beca 8a3e 0470 82bd
00000240: 1c83 92bc e855 1ebd ae03 993c 2499 9a3d
00000250: 6456 b23d 0949 4cbd 674e 8fbb f635 043e
00000260: dac6 44bd bdb9 c9bd bed6 89bd cd0e ad3d
00000270: 0b04 e7bd 4ce0 63bd 8030 cf3c 90ba 5abd
00000280: c1d9 cebd f37d 993d 6f02 2ebe 048e 2c3e
00000290: 8d44 b53c 1b8c 11be 986b 8bbd 2934 833d
000002a0: fbed 30bc 486d a8bb b678 dd3d d5af efbc
000002b0: f574 d4bd ab94 17bb 479c 4bbd 3b3d eb3c
000002c0: e84c 0bbc 88d2 1b3b 92d0 83bd e3a2 11be
000002d0: 0e63 8cbd 6c5b 6a3d c632 a0bc d222 71bd
000002e0: ba8f d9bd c231 e83d 02f3 a6bb 86c9 ae3d
000002f0: 17ce 963d 8235 1d3c a9b5 353e 1ffd f3bc
00000300: 2c87 d1bd ccf9 9cbd 9852 61bd 1ac7 123c
00000310: bb6b 5a3e 25f8 0b3e 660d 09bc 0b46 19be
00000320: 82ed 053c 1a74 353d 88bf b93d ec3f 0a3d
00000330: 6d3b ecbd f4aa 47be fb15 7e3d 6c0f 463a
00000340: e7cd 803d 91a0 993d 9316 c83c f493 2d3d
00000350: 3281 3abd 2c41 eb3d f6e8 49bc 0453 0ebe
00000360: 67c4 0e3c 607b b8bd 87d0 8abd b256 4dbe
00000370: 637d 683e 3297 123c 03b3 08be 03df 113e
00000380: 2262 213e 9a29 62bd 7344 d43d 0a05 47bb
00000390: 455a 003e 47a0 a5bd 3e4a 1dbb 5633 9f3e
000003a0: aa6c 04bc 951a 0c3e 90c9 053e 3b9c 4f3d
000003b0: 7daa 273d f8d0 20bd 3186 91bd d5af 22be
000003c0: e4f8 8bbd 9e8e fd3c 7199 09be cbd8 0abe
000003d0: feef 43be 51d7 04be e937 59bd b3cd ebbd
000003e0: 69ba 1ebd cc88 0bbd 3902 ae3d f116 593d
000003f0: 0620 aabc ed79 29bd e8e9 223e 0ce9 2f3d
0.08027865 -0.007935112 -0.09395751 0.023810858 -0.01567497 -0.033040002 -0.17390974 -0.020982025
0.01038741 -0.09417162 0.09611992 0.17317611 -0.15908484 0.33743283 0.026027445 0.14525165
-0.026128303 0.026522163 -0.08807099 -0.10898327 -0.093922496 0.06882423 0.051546305 -0.035234597
0.03372761 0.24613586 0.20213477 0.05955602 0.011762654 -0.08662456 0.008188605 0.18284918
0.0915431 -0.1570358 -0.021558343 -0.048985746 -0.123221725 0.010124271 0.04832227 0.013699616
-0.034722254 0.16672912 -0.08996978 0.05376767 -0.08324042 0.11609498 -0.13039762 0.087471895
-0.03850597 0.011306797 -0.023907037 0.13718462 -0.19528522 -0.024788683 -0.05540666 0.023837265
0.091423854 0.16430488 -0.061192594 0.04883493 0.06313634 0.01054645 -0.0218692 0.12724356
0.040940486 -0.027180854 0.029360969 -0.09029021 -0.033962406 -0.07834598 0.10248523 -0.075226046
0.054336883 -0.030809158 0.10190913 0.11658486 0.031294756 -0.13673152 0.006933055 -0.09463055
-0.048503283 0.06126583 0.023756934 -0.079217285 -0.0645269 -0.071127154 -0.09341603 0.004249152
0.15909216 0.084587455 -0.07455154 -0.11474614 -0.09565042 -0.054934584 0.0080064535 0.020540949
-0.07331488 0.050929777 -0.08220314 0.10641236 0.069997355 -0.050766617 0.0656735 -0.01208143
0.025643913 0.19656336 -0.056765236 -0.08428303 0.153439 -0.1601197 0.10748565 0.0033130003
0.035703495 -0.0057106414 -0.13281941 0.11342464 -0.009612254 -0.06368478 -0.012096172 0.13330786
0.06922148 0.030734707 0.13582014 0.10565788 -0.12219318 -0.09738535 0.13710393 0.2838308
0.049166605 0.0039883363 -0.028350292 0.030151032 -0.07024376 -0.13602689 0.10607939 0.0031717918
0.12533836 0.23543711 0.30825886 0.04371475 -0.02426643 0.13318214 0.27107805 -0.063690215
-0.017884783 -0.038656145 0.018678512 0.075487405 0.08707884 -0.04987434 -0.00437336 0.1291121
-0.048041202 -0.0984988 -0.06730412 0.08450089 -0.11280068 -0.055633828 0.025291681 -0.053400576
-0.10100127 0.07494726 -0.16993116 0.1685105 0.022127414 -0.14213602 -0.06807631 0.06406433
-0.010798926 -0.0051399805 0.108140394 -0.029258648 -0.1037387 -0.0023129384 -0.049709585 0.02871572
-0.008502223 0.002377661 -0.06436266 -0.14222293 -0.06854831 0.057216093 -0.01955546 -0.058871098
-0.10623117 0.113376155 -0.0050948868 0.08534531 0.07363527 0.009595277 0.17745079 -0.029783783
-0.1023086 -0.076648325 -0.05501041 0.008958602 0.21330158 0.13668878 -0.008365011 -0.14968126
0.008174302 0.044300176 0.09069735 0.033752367 -0.11534772 -0.19498807 0.06203268 0.00075553986
0.06289273 0.07501329 0.024424827 0.042377427 -0.045533367 0.1148704 -0.012323609 -0.13898855
0.008713818 -0.09007907 -0.06778055 -0.20052603 0.22704081 0.008947181 -0.13349538 0.14245228
0.15760091 -0.055215456 0.10364618 -0.0030367994 0.12534435 -0.08087211 -0.002400055 0.31093854
-0.008082548 0.13682015 0.13065171 0.050686102 0.040934075 -0.039261788 -0.07105673 -0.15887387
-0.068345815 0.030951794 -0.1343744 -0.13559262 -0.19134519 -0.12972762 -0.053031836 -0.115138434
-0.038751993 -0.034066007 0.08496518 0.053000394 -0.020767223 -0.041376043 0.1590954 0.04294686
