models/y02vae_D2_layers(128, 128, 128, 128)__banana_dim2_b0.02_sigma5.0.pt (torch, 443598 bytes, 54 tensors)

encoder.0.weight f4 [128, 2]
0.18651716 -0.6947959 0.06799695 0.2587678 -0.18911482 0.23819357 -0.038765814 -0.49223426
-0.17773177 -0.071541056 0.035166852 0.082624584 0.0019048244 0.036640592 0.21389768 -0.09931082
0.17877626 0.08628247 0.07054833 0.23850462 0.14176053 0.16361645 0.18699269 -0.060664285
0.00438923 0.024695328 0.22861485 -0.118817486 -0.20063709 0.30237198 0.09542872 0.2101526
0.057682652 0.20665888 0.055251855 0.20838146 0.06470613 0.062999845 -0.22552776 -0.09183001
0.20593192 0.051392958 0.04206332 0.08083873 -0.094100825 -0.39608753 -0.14508608 0.20679204
0.0014154623 0.50989634 -0.12285271 -0.48252088 -0.25052097 -0.074247055 0.10300904 0.24068958
0.034473494 0.048529465 -0.12372505 0.19943279 0.114415996 0.19142851 0.19024669 0.15650658
-0.19005105 -0.046056505 -0.0073827635 0.16909808 0.044157937 0.0810185 -0.010764487 -0.0027209728
-0.11636151 0.24891716 -0.16510767 -0.0014317969 0.18319073 -0.27090898 0.09281682 0.23064952
-0.21135032 0.1022517 0.16898991 0.07010714 -0.18316194 0.057834946 0.15962762 -0.3539634
-0.053613342 0.36720932 0.003146005 0.05035334 0.08692361 0.24217866 0.20919724 -0.19542935
-0.15669362 0.060554355 0.19631329 0.12616181 0.23861785 -0.18720803 -0.20151845 0.20880376
-0.22054121 -0.079026885 -0.13942368 0.053121284 -0.14426261 0.3365283 0.14464653 0.055639222
-0.08464006 0.40442947 -0.21724266 -0.16311267 -0.13506575 0.31551757 0.12030536 0.32449037
0.13909094 -0.029162362 -0.17851542 0.117386065 -0.18999408 -0.17745227 0.13111623 0.003445051
-0.16780294 -0.43907085 -0.25197822 -0.0007892681 0.2068663 -0.06103879 0.17806481 -0.12638015
0.04469747 0.09587114 -0.14424838 0.31536135 0.15666297 0.2203335 0.071974576 0.17152163
0.092418894 0.2299561 -0.26125544 -0.112692975 0.058768563 0.1828275 0.15159623 0.05117027
0.09156837 0.23647897 0.030945795 0.13573126 0.08027598 0.22615111 -0.12455961 -0.2820085
0.16362227 0.092082605 0.11800089 0.29704022 -0.14107484 0.2345138 -0.13858932 -0.17562783
0.022378322 0.2622498 -0.093091264 0.119982064 0.18394673 0.057533283 -0.10823911 0.41545543
-0.017235579 -0.031718202 0.077510715 0.27156508 0.25149846 -0.27114108 0.16600588 0.042532366
0.04426246 0.160252 -0.21465316 0.23283835 0.20303224 0.129047 0.14160843 0.18830232
0.095206164 -0.003929254 0.057095136 0.15653707 -0.13902867 0.29312754 -0.24778856 0.10595961
0.25243375 -0.14965306 0.17228886 -0.23312114 0.14253235 0.2003647 0.17814861 0.116630025
0.13828929 0.26333532 0.12956743 0.21087275 0.028279014 0.17077824 -0.1688912 0.26912183
-0.171471 0.24292673 -0.2308029 0.21255569 0.06968068 0.04665062 0.097163446 0.1754295
-0.20772746 -0.15842119 0.14400874 0.2043993 0.06916018 0.15821454 0.20567508 -0.42624816
-0.12938732 -0.088693514 0.18158878 0.15758216 -0.1685502 0.0033112024 0.13383102 0.3171829
0.24334659 -0.07345436 0.070641816 0.17750181 -0.24547149 0.16804524 -0.21775985 0.2001846
-0.20611985 0.17123318 0.12296517 0.2757039 0.14147094 0.058623526 0.21032113 0.08124046
00000000: 5bfe 3e3e 25de 31bf fc41 8b3d 377d 843e
00000010: 51a7 41be 04e9 733e e7c8 1ebd 2106 fcbe
00000020: 51ff 35be 1e84 92bd 1e0b 103d 1437 a93d
00000030: 4dab f93a 7214 163d fe07 5b3e 7963 cbbd
00000040: 2011 373e ddb4 b03d a57b 903d 8e3a 743e
00000050: ac29 113e 128b 273e 037b 3f3e 1d7b 78bd
00000060: 88d3 8f3b db4d ca3c 031a 6a3e 9556 f3bd
00000070: cf73 4dbe 80d0 9a3e 2270 c33d 3e32 573e
00000080: a544 6c3d 639e 533e c54f 623d f361 553e
00000090: a684 843d 1006 813d c0f0 66be 5f11 bcbd
000000a0: d1df 523e 6c81 523d 964a 2c3d c78e a53d
000000b0: efb7 c0bd fccb cabe 7291 14be 4bc1 533e
000000c0: 0987 b93a 9188 023f 349a fbbd fa0c f7be
000000d0: 4944 80be d70e 98bd 67f6 d23d 5477 763e
000000e0: 1434 0d3d d5c6 463d 8f63 fdbd 1c38 4c3e
000000f0: ef52 ea3d d605 443e 07d0 423e 4343 203e
00000100: be9c 42be bfa5 3cbd 1ceb f1bb 0c28 2d3e
00000110: f4de 343d 07ed a53d 885d 30bc 5952 32bb
00000120: f14e eebd 24e4 7e3e fc11 29be 22ab bbba
00000130: 5a96 3b3e 95b4 8abe bf16 be3d 632f 6c3e
00000140: 386c 58be 5769 d13d b10b 2d3e 5594 8f3d
00000150: ce8e 3bbe 56e4 6c3d 6c75 233e b13a b5be
00000160: aa99 5bbd dc02 bc3e 352d 4e3b 4e3f 4e3d
00000170: 0105 b23d affd 773e cd37 563e a21e 48be
00000180: 4b74 20be d807 783d 5a06 493e 9030 013e
00000190: 3d58 743e 76b3 3fbe da5a 4ebe a7d0 553e
000001a0: 8ed5 61be d9d8 a1bd 15c5 0ebe b495 593d
000001b0: 94b9 13be 704d ac3e 381e 143e f4e5 633d
000001c0: c557 adbd 6111 cf3e dc74 5ebe 0207 27be
000001d0: ad4e 0abe 858b a13e a862 f63d 9a23 a63e
000001e0: db6d 0e3e e8e5 eebc bfcc 36be 1b68 f03d
000001f0: cf8d 42be 0cb6 35be 5543 063e 5dc6 613b
00000200: 89d4 2bbe e5cd e0be 4a03 81be e3e6 4eba
00000210: c2d4 533e cf03 7abd 9f56 363e cc69 01be
00000220: b214 373d 1758 c43d d9b5 13be 0b77 a13e
00000230: 426c 203e 1b9f 613e 6867 933d 5ea3 2f3e
00000240: 1e46 bd3d 9d79 6b3e 46c3 85be 93cb e6bd
00000250: 4eb7 703d 2237 3b3e 0b3c 1b3e eb97 513d
00000260: 3388 bb3d 8b27 723e 0982 fd3c 23fd 0a3e
00000270: bc67 a43d 2894 673e 1c19 ffbd 6b63 90be
00000280: 998c 273e ce95 bc3d 73aa f13d a815 983e
00000290: ec75 10be 6324 703e 5cea 0dbe c8d7 33be
000002a0: be52 b73c 9b45 863e a2a6 bebd 28b9 f53d
000002b0: 885c 3c3e 05a8 6b3d 77ac ddbd 93b6 d43e
000002c0: a131 8dbc f2ea 01bd f0bd 9e3d 940a 8b3e
000002d0: 68c4 803e 01d3 8abe 72fd 293e 6b36 2e3d
000002e0: 8e4c 353d 1a19 243e 0ace 5bbe 2d6d 6e3e
000002f0: afe7 4f3e e624 043e cd01 113e 53d2 403e
00000300: 73fb c23d f9c0 80bb 97dc 693d 414b 203e
00000310: 885d 0ebe d014 963e 49bc 7dbe 5a01 d93d
00000320: ff3e 813e a73e 19be 7e6c 303e 4fb7 6ebe
00000330: 00f4 113e 672c 4d3e 976c 363e b9db ee3d
00000340: b59b 0d3e e3d3 863e 53ad 043e 07ef 573e
00000350: 64a9 e73c 7ee0 2e3e d1f1 2cbe 56ca 893e
00000360: 1896 2fbe c9c1 783e 9857 6cbe 33a8 593e
00000370: bfb4 8e3d b814 3f3d a1fd c63d caa3 333e
00000380: 82b6 54be 2a39 22be 0777 133e 0d4e 513e
00000390: daa3 8d3d fe02 223e 7d9c 523e 333d dabe
000003a0: 1c7e 04be f2a4 b5bd 69f2 393e 385d 213e
000003b0: 6c98 2cbe c200 593b 000b 093e cc65 a23e
000003c0: d92f 793e 3d6f 96bd a8ac 903d 09c3 353e
000003d0: e15c 7bbe 0d14 2c3e 70fc 5ebe 31fd 4c3e
000003e0: 1511 53be c057 2f3e 2ad5 fb3d 1029 8d3e
000003f0: c2dd 103e 391f 703d 6c5e 573e 6661 a63d

encoder.0.bias f4 [128]
0.08926952 0.11960811 0.10072614 0.17783622 -0.0077498206 -0.5751454 -0.4102369 -0.03394493
-0.017887386 0.063625105 -0.21204671 -0.12521178 -0.29824257 -0.012247154 0.22072232 -0.037756365
-0.22168843 -0.15713273 -0.16258545 0.06559426 -0.08637101 -0.41087633 0.28334638 0.009671977
0.23269044 0.07788063 -0.07411059 -0.042778213 -0.30995527 -0.063895226 -0.012376159 -0.025711311
-0.20146069 0.29998937 -0.3963808 -0.33063176 0.23339358 0.05385074 -0.038787894 -0.08212965
-0.032845203 -0.19360512 0.096446306 0.1486883 0.31642297 -0.5834125 0.044832934 -0.12875025
0.04468452 0.045142677 0.026065812 0.19810662 0.012696954 0.027922705 0.011565641 -0.02732383
-0.03174763 -0.020010052 -0.008752751 0.057832748 -0.2651061 -0.0072645345 0.06639975 -0.14543262
-0.05292072 -0.006526255 -0.09244407 -0.02348966 -0.3923223 0.09089892 0.028764581 -0.066698276
-0.117382385 -0.006401574 -0.24704674 0.009094073 -0.12664539 -0.23986769 -0.012582762 0.032392465
-0.17725568 0.00051846274 -0.0005327982 0.08491033 -0.14256966 -0.37044722 -0.028188288 -0.039651792
-0.3238239 0.013984809 -0.08646265 -0.072395466 -0.14805631 0.031623133 -0.038965836 -0.10158613
-0.24311852 -0.085555 0.061539143 -0.006306969 -0.06059195 0.04676842 -0.19128272 -0.061111767
-0.007641987 -0.14197944 -0.23851573 0.0661928 0.04462887 0.07667734 -0.46152556 -0.100791775
0.08091658 -0.101605184 -0.2070512 -0.018421696 0.10050123 0.03451543 -0.0447351 -0.037573177
-0.09862165 -0.09286669 -0.074503824 0.044158917 0.082731634 -0.006004079 -0.16075043 0.024251347
00000000: f0d2 b63d 19f5 f43d 8249 ce3d b31a 363e
00000010: 35f2 fdbb bb3c 13bf 920a d2be d709 0bbd
00000020: 9188 92bc e14d 823d c622 59be 8437 00be
00000030: 40b3 98be 49a8 48bc 0805 623e 6ba6 1abd
00000040: 4b02 63be 67e7 20be cd7c 26be 4956 863d
00000050: 49e3 b0bd 625e d2be c712 913e 3677 1e3c
00000060: 6746 6e3e e17f 9f3d 4bc7 97bd 3538 2fbd
00000070: 75b2 9ebe 80db 82bd 60c5 4abc 87a0 d2bc
00000080: b64b 4ebe 3598 993e 6df2 cabe 9148 a9be
00000090: bafe 6e3e 9892 5c3d 0ee0 1ebd 9733 a8bd
000000a0: b188 06bd 6c40 46be a485 c53d bf41 183e
000000b0: 3102 a23e 865a 15bf bda2 373d 1bd7 03be
000000c0: 1e07 373d 87e7 383d f887 d53c 76dc 4a3e
000000d0: e306 503c 28be e43c d07d 3d3c 3ad6 dfbc
000000e0: ce09 02bd 1fec a3bc b367 0fbc 08e2 6c3d
000000f0: fdbb 87be 550b eebb 98fc 873d 4aec 14be
00000100: 66c3 58bd 32da d5bb 5153 bdbd 636d c0bc
00000110: 78de c8be 3729 ba3d b3a3 eb3c 1b99 88bd
00000120: 2d66 f0bd 4bc4 d1bb d2f9 7cbe 4fff 143c
00000130: 54af 01be e09f 75be ee27 4ebc f6ad 043d
00000140: 8382 35be 72e9 073a 7bab 0bba 78e5 ad3d
00000150: c8fd 11be 42ab bdbe 20eb e6bc eb69 22bd
00000160: 3fcc a5be 8a20 653c 5413 b1bd 1344 94bd
00000170: 139c 17be 4287 013d a49a 1fbd 640c d0bd
00000180: 10f4 78be 7637 afbd 7810 7c3d b1aa cebb
00000190: 442f 78bd 3e90 3f3d 9edf 43be 5550 7abd
000001a0: a269 fabb 0f63 11be 783d 74be 1790 873d
000001b0: c3cc 363d 0209 9d3d 144d ecbe eb6b cebd
000001c0: 98b7 a53d 6116 d0bd 3b05 54be 19e9 96bc
000001d0: 97d3 cd3d 0d60 0d3d 273c 37bd 55e6 19bd
000001e0: 26fa c9bd e430 bebd 7695 98bd fbdf 343d
000001f0: 346f a93d ddbd c4bb c39b 24be c3aa c63c

encoder.2.weight f4 [128]
1.0758133 0.99979496 1.0266933 0.9065172 0.98837465 1.1040039 1.00834 0.9955717
0.98061514 0.99406695 0.9984323 0.99275434 1.0012816 0.98873013 1.0488555 0.9761208
1.016075 1.0049073 1.0044637 0.9561673 0.97935313 1.0282726 0.98562753 0.9897617
1.0360091 0.9981438 1.0049545 1.0176712 1.0150275 0.9625138 1.0025381 0.959579
0.9481439 0.9685148 1.0308095 1.0310831 1.0222336 0.9403393 0.98994344 1.0065882
0.98161566 1.0041692 0.97148216 1.0027211 1.02337 1.0605226 1.0237565 0.9742773
0.9743367 1.0095191 0.9915643 1.0218887 0.9532895 0.9443716 0.9901163 0.98246974
1.0028942 0.92190284 1.0123876 1.0173657 0.98349404 0.9782611 0.926797 0.973615
0.94221646 0.99436927 0.96531403 0.96028066 1.018364 0.9967242 0.9661959 0.99531746
0.9925856 0.9957083 1.0280128 0.9934615 1.0068791 1.0241 1.0128963 0.9506428
1.030267 1.0204917 0.99387753 0.9623428 1.0017769 1.0205389 0.9944501 0.999696
1.0009154 1.0328082 1.0042506 0.99265236 0.9979725 0.99357396 1.0074258 0.9904933
0.9562007 1.0006697 0.99560875 1.0040082 0.9779187 0.97880584 0.98741436 0.9992195
1.0027277 1.016029 1.0184261 1.0073997 0.96025574 1.024349 1.0171763 0.993095
0.9803422 0.98980725 0.99078417 0.98448586 0.9808094 0.9868749 0.9542596 1.0142374
0.9895826 0.99341977 1.0165012 1.001093 0.9819426 1.001197 0.99688303 0.9910636
00000000: 40b4 893f 90f2 7f3f b06a 833f 8311 683f
00000010: 1f06 7d3f 0050 8d3f 4911 813f c9dd 7e3f
00000020: 9809 7b3f 2c7b 7e3f 4299 7f3f 2625 7e3f
00000030: ff29 803f 6b1d 7d3f e640 863f 0ee3 793f
00000040: bf0e 823f cda0 803f 4492 803f 61c7 743f
00000050: e3b6 7a3f 709e 833f 1652 7c3f 0661 7d3f
00000060: f29b 843f 5a86 7f3f 59a2 803f 0d43 823f
00000070: 6cec 813f 4e67 763f 2b53 803f f8a6 753f
00000080: 8fb9 723f 96f0 773f 91f1 833f 88fa 833f
00000090: 8dd8 823f 14ba 703f ef6c 7d3f e2d7 803f
000000a0: 2a4b 7b3f 9e88 803f 0eb3 783f 2a59 803f
000000b0: cafd 823f 34bf 873f 740a 833f 3d6a 793f
000000c0: 216e 793f ec37 813f 28d7 7d3f 40cd 823f
000000d0: c80a 743f 56c2 713f 4378 7d3f 2383 7b3f
000000e0: d65e 803f d301 6c3f eb95 813f 0a39 823f
000000f0: 44c6 7b3f 526f 7a3f 9142 6d3f d53e 793f
00000100: 1935 713f fc8e 7e3f d21e 773f f4d4 753f
00000110: c059 823f 5129 7f3f 9d58 773f 20cd 7e3f
00000120: 171a 7e3f bde6 7e3f ec95 833f 7e53 7e3f
00000130: 6ae1 803f b515 833f 96a6 813f 545d 733f
00000140: cadf 833f 799f 823f c26e 7e3f 195c 763f
00000150: 3a3a 803f 05a1 823f 4894 7e3f 14ec 7f3f
00000160: ff1d 803f 0f33 843f 498b 803f 771e 7e3f
00000170: 207b 7f3f dd5a 7e3f 54f3 803f f890 7d3f
00000180: 92c9 743f f215 803f 37e0 7e3f 5783 803f
00000190: e158 7a3f 0593 7a3f 30c7 7c3f d9cc 7f3f
000001a0: 6259 803f 3d0d 823f c95b 823f 79f2 803f
000001b0: 52d3 753f de1d 833f d532 823f 793b 7e3f
000001c0: b5f7 7a3f 0264 7d3f 08a4 7d3f 4407 7c3f
000001d0: 5316 7b3f d5a3 7c3f 5b4a 743f 88d2 813f
000001e0: 4955 7d3f c250 7e3f b61c 823f d123 803f
000001f0: 9760 7b3f 3927 803f ba33 7f3f 58b6 7d3f

encoder.2.bias f4 [128]
-0.10547592 -0.022732127 -0.062850975 0.064752355 0.024942903 -0.12714228 0.008252517 -0.06417113
0.07200403 -0.0072903023 -0.07812951 -0.093845546 -0.08369144 -0.098454006 -0.022822514 -0.0032545093
-0.08014625 -0.1439042 0.0033818812 -0.04835134 -0.07100917 -0.0890039 -0.031248927 0.023278104
0.07345883 -0.07961581 -0.021213086 -0.10206875 -0.04791687 0.004260416 -0.008575346 -0.025429608
-0.013838841 -0.03276941 -0.07864629 -0.18901989 -0.10059649 -0.16887036 -0.07932605 -0.19960025
-0.043534946 -0.15232103 0.08475264 0.030151177 -0.014075751 -0.16751891 0.0026271823 -0.116395764
-0.005189295 -0.06783214 -0.10888581 -0.013094444 0.092134185 -0.009608514 -0.04706784 -0.02178413
0.041110646 -0.013031952 0.07487416 0.06728834 -0.19357114 0.019706465 0.12137988 -0.08741207
0.021336852 0.045477908 -0.12200889 -0.015794339 -0.21680874 -0.10297211 0.037015583 0.005926536
-0.09463994 0.031155128 -0.17893787 0.0056260824 -0.0731083 -0.18351963 -0.06839362 0.021477422
-0.08290392 -0.15435314 0.016910765 -0.06643831 -0.081354104 -0.16982469 0.034760315 -0.028439045
-0.07544122 0.005505728 -0.21557279 -0.020539178 -0.005448164 0.05976829 -0.115499675 -0.06752735
-0.0916626 -0.12855811 -0.103622764 0.039763544 -0.12427895 -0.10843532 -0.08684216 -0.01610221
0.023118084 -0.06372624 -0.05745524 -0.10644108 -0.05189594 0.017751655 -0.11275864 -0.1362094
-0.030207912 -0.057988424 -0.16197398 -0.1023646 -0.14923096 -0.0055001294 -0.030813236 -0.10396463
-0.16387345 -0.15158969 -0.0037253671 -0.03004784 0.036070082 -0.029223196 -0.09228152 -0.006071622
00000000: c203 d8bd ba38 babc 03b8 80bd e29c 843d
00000010: 0f55 cc3c 9631 02be 9135 073c 276c 83bd
00000020: d976 933d 7de3 eebb 5d02 a0bd 1832 c0bd
00000030: 6b66 abbd 41a2 c9bd 48f6 babc 9b49 55bb
00000040: b823 a4bd 9f5b 13be 8da2 5d3b 0e0c 46bd
00000050: 416d 91bd ad47 b6bd c0fd ffbc b9b1 be3c
00000060: 9571 963d 9d0d a3bd 11c7 adbc 6c09 d1bd
00000070: 7b44 44bd f69a 8b3b 9c7f 0cbc c151 d0bc
00000080: 4ebc 62bc 3839 06bd 4e11 a1bd 6e8e 41be
00000090: 8805 cebd 5aec 2cbe b275 a2bd 0264 4cbe
000000a0: b351 32bd 0bfa 1bbe cb92 ad3d 9aff f63c
000000b0: fb9d 66bc 148a 2bbe ce2c 2c3b e760 eebd
000000c0: f60a aabb 94eb 8abd 86ff debd 148a 56bc
000000d0: d9b0 bc3d 076d 1dbc 35ca 40bd a274 b2bc
000000e0: a363 283d f883 55bc a057 993d 78ce 893d
000000f0: 8337 46be 746f a13c 0496 f83d 1905 b3bd
00000100: 9fca ae3c 0b47 3a3d ccdf f9bd 2163 81bc
00000110: 1c03 5ebe 0be3 d2bd a79d 173d 6333 c23b
00000120: 96d2 c1bd 0a39 ff3c 7d3b 37be 005b b83b
00000130: ceb9 95bd 92ec 3bbe f411 8cbd 6bf1 af3c
00000140: 88c9 a9bd c00e 1ebe 7288 8a3c cf10 88bd
00000150: fb9c a6bd 86e6 2dbe d560 0e3d 00f9 e8bc
00000160: ed80 9abd 6569 b43b 1dbf 5cbe c741 a8bc
00000170: 8386 b2bb 98cf 743d 188b ecbd c74b 8abd
00000180: 9ab9 bbbd bda4 03be 2c38 d4bd 19df 223d
00000190: f685 febd 5613 debd 4dda b1bd c8e8 83bc
000001a0: 2362 bd3c e782 82bd 3056 6bbd c8fd d9bd
000001b0: d690 54bd eb6b 913c 00ee e6bd 7a7a 0bbe
000001c0: 9576 f7bc 4585 6dbd 82dc 25be 88a4 d1bd
000001d0: 00d0 18be 6e3a b4bb 0a6c fcbc 68eb d4bd
000001e0: 71ce 27be 543a 1bbe 4a25 74bb e326 f6bc
000001f0: 39be 133d 7c65 efbc 18fe bcbd 75f4 c6bb

encoder.2.running_mean f4 [128]
0.5333775 0.23042831 0.44269887 0.35031483 0.35401836 0.0017076766 6e-45 0.40768543
0.34500387 0.20010032 0.20151804 0.30945668 6e-45 0.44875976 0.5332716 0.19104393
0.0721367 0.08528919 0.06975036 0.4890686 0.36525583 0.008599805 0.44118735 0.31028312
0.36767337 0.37078774 0.46665293 0.20808187 0.0067779757 0.23653123 0.23295419 0.367654
0.2876182 0.30343345 0.010946619 6e-45 0.37707788 0.3591991 0.361828 0.17330268
0.4115125 0.24897383 0.417936 0.4422737 0.38559347 6e-45 0.218036 0.35767904
0.33813313 0.41124237 0.49368596 0.5147147 0.4505022 0.294868 0.33027473 0.27249217
0.2337293 0.4310759 0.3008094 0.29745463 0.16033709 0.35918808 0.4252645 0.19256768
0.35638154 0.5026012 0.3637546 0.344648 0.01311762 0.36278975 0.3340754 0.1317467
0.16006085 0.52324796 0.06298376 0.30351982 0.15685372 0.023126557 0.17834687 0.2966607
0.24692082 0.26296103 0.30182585 0.33670738 0.07468136 0.07513711 0.34930274 0.26691833
6e-45 0.19673581 0.46752265 0.29314208 0.060694914 0.4587376 0.38457504 0.24586655
0.090242304 0.097381525 0.3355334 0.4971038 0.47262278 0.38324544 0.21557643 0.32545307
0.28938806 0.21195623 0.028693357 0.3904367 0.38185176 0.5103458 0.019626234 0.16375414
0.46651044 0.25236216 0.08116395 0.43977407 0.3185362 0.3791755 0.31648016 0.27831227
0.4327324 0.12141815 0.46467924 0.4678138 0.4614101 0.264588 0.20896327 0.42705002
00000000: 6e8b 083f 66f5 6b3e 6da9 e23e 775c b33e
00000010: e541 b53e 1ed4 df3a 0400 0000 25bc d03e
00000020: 59a4 b03e 19e7 4c3e bf5a 4e3e 1b71 9e3e
00000030: 0400 0000 d7c3 e53e 7d84 083f 05a1 433e
00000040: 68bc 933d 19ac ae3d 47d9 8e3d 3367 fa3e
00000050: d002 bb3e 32e6 0c3c 4fe3 e13e 6edd 9e3e
00000060: af3f bc3e e4d7 bd3e 22ed ee3e 6a13 553e
00000070: c819 de3b 3e35 723e 8b8b 6e3e 253d bc3e
00000080: b142 933e a15b 9b3e 7359 333c 0400 0000
00000090: 5a10 c13e f2e8 b73e 8541 b93e 4276 313e
000000a0: c4b1 d23e fff2 7e3e b5fb d53e b371 e23e
000000b0: 826c c53e 0400 0000 d444 5f3e b521 b73e
000000c0: c91f ad3e 5c8e d23e 68c4 fc3e 58c4 033f
000000d0: 39a8 e63e f0f8 963e c519 a93e 1884 8b3e
000000e0: bc56 6f3e fbb5 dc3e b103 9a3e f94b 983e
000000f0: 682f 243e 80e7 b73e 45bc d93e 7630 453e
00000100: a477 b63e 79aa 003f 0b3e ba3e b475 b03e
00000110: 49eb 563c 94bf b93e ee0b ab3e 9be8 063e
00000120: fee6 233e 94f3 053f a1fd 803d f366 9b3e
00000130: 439e 203e e873 bd3c 90a0 363e e9e3 973e
00000140: d0d8 7c3e d4a2 863e eb88 9a3e e964 ac3e
00000150: 8af2 983d 7ce1 993d cfd7 b23e 85a9 883e
00000160: 0400 0000 1d75 493e 215f ef3e b816 963e
00000170: 3b9b 783d a8df ea3e 05e7 c43e 71c4 7b3e
00000180: f5d0 b83d f76f c73d 09cb ab3e 6484 fe3e
00000190: 9dfb f13e bf38 c43e 11c0 5c3e c9a1 a63e
000001a0: ac2a 943e 0e0b 593e 550e eb3c 52e7 c73e
000001b0: 1382 c33e 06a6 023f 32c7 a03c 2aaf 273e
000001c0: 75da ee3e 9d35 813e 4939 a63d 112a e13e
000001d0: 2d17 a33e 4b23 c23e b009 a23e f27e 8e3e
000001e0: 1a8f dd3e 14aa f83d 70ea ed3e 4a85 ef3e
000001f0: f23d ec3e 1478 873e 78fa 553e 4da6 da3e

encoder.2.running_var f4 [128]
0.39723936 0.12441327 0.47375053 0.15211768 0.24598965 0.0003803304 6e-45 0.3309393
0.29135343 0.11096514 0.16215357 0.22684716 6e-45 0.38461065 0.6244623 0.12530482
0.038152486 0.04353341 0.024786282 0.429174 0.3378234 0.0024376097 0.17050315 0.2677788
0.22008646 0.18470863 0.4692286 0.1509706 0.0013884671 0.18395683 0.16418707 0.358406
0.22308382 0.041000415 0.0032244725 6e-45 0.27768317 0.25225356 0.21555428 0.11749876
0.42015794 0.19868195 0.34967777 0.2311928 0.1984803 6e-45 0.13926587 0.25880253
0.2476463 0.39291555 0.41965112 0.5502684 0.39184037 0.19230321 0.3379307 0.18218742
0.19749063 0.34059888 0.28966823 0.25965974 0.089360304 0.32194242 0.2842702 0.10788581
0.19956656 0.5429888 0.29686907 0.22155899 0.004200076 0.35470626 0.3025024 0.068111934
0.109080486 0.5309518 0.031751875 0.20930856 0.107895866 0.007597255 0.10814251 0.12031752
0.19789614 0.2225373 0.26660055 0.15675795 0.03097377 0.04325524 0.29175898 0.25989324
6e-45 0.12519303 0.39880344 0.21894123 0.02452282 0.5426327 0.38327953 0.20276047
0.03591766 0.042960946 0.31386262 0.5854864 0.4408334 0.21813384 0.18417065 0.28686824
0.25754142 0.17179592 0.010459333 0.402093 0.38644347 0.6222582 0.0066888807 0.10300547
0.3510846 0.21570727 0.04105272 0.29205197 0.15091965 0.35336623 0.23079729 0.262774
0.41471422 0.063518 0.5800367 0.5399827 0.49124444 0.2228287 0.13957246 0.41281486
00000000: f562 cb3e 62cc fe3d 6e8f f23e bdc4 1b3e
00000010: b6e4 7b3e 1567 c739 0400 0000 e070 a93e
00000020: 472c 953e b141 e33d 960b 263e 9f4a 683e
00000030: 0400 0000 b0eb c43e c3dc 1f3f e84f 003e
00000040: c845 1c3d 1750 323d 9a0c cb3c b2bc db3e
00000050: 30f7 ac3e 4ec0 1f3b 6198 2e3e 4e1a 893e
00000060: 585e 613e 4224 3d3e bb3e f03e 0998 1a3e
00000070: 3afd b53a 2e5f 3c3e a820 283e fe80 b73e
00000080: 1670 643e 0df0 273d ac51 533b 0400 0000
00000090: 7d2c 8e3e 6127 813e 43ba 5c3e 31a3 f03d
000000a0: f11e d73e 4873 4b3e f708 b33e cebd 6c3e
000000b0: 6b3e 4b3e 0400 0000 b69b 0e3e c481 843e
000000c0: fe96 7d3e 3a2c c93e 83dc d63e 64de 0c3f
000000d0: 4d9f c83e 22eb 443e 4105 ad3e 578f 3a3e
000000e0: fc3a 4a3e fa62 ae3e 654f 943e 1ff2 843e
000000f0: 8902 b73d a3d5 a43e dd8b 913e 3cf3 dc3d
00000100: 2d5b 4c3e 5001 0b3f 39ff 973e 5ce0 623e
00000110: cba0 893b 0f9c b53e 98e1 9a3e 457e 8b3d
00000120: 9765 df3d 75ec 073f 410e 023d fc54 563e
00000130: 82f8 dc3d 65f2 f83b d279 dd3d 0869 f63d
00000140: 49a5 4a3e d1e0 633e de7f 883e 2885 203e
00000150: b4bc fd3c 682c 313d 6f61 953e ba10 853e
00000160: 0400 0000 9a32 003e f72f cc3e 2132 603e
00000170: 15e4 c83c fae9 0a3f 373d c43e 71a0 4f3e
00000180: 651e 133d d1f7 2f3d 9ab2 a03e 70e2 153f
00000190: eab4 e13e 7a5e 5f3e 3b97 3c3e 65e0 923e
000001a0: 78dc 833e 45eb 2f3e 9f5d 2b3c 22df cd3e
000001b0: ebdb c53e 504c 1f3f 662e db3b 88f4 d23d
000001c0: 5cc1 b33e 5ee2 5c3e e626 283d d687 953e
000001d0: ae8a 1a3e 6bec b43e 2056 6c3e 508a 863e
000001e0: 6c55 d43e ba15 823d 497d 143f 4e3c 0a3f
000001f0: 6484 fb3e 352d 643e 15ec 0e3e 785c d33e

encoder.3.weight f4 [128, 128]
-0.07278802 0.08455159 0.13479982 -0.06523567 -0.05721175 -0.12591091 -0.03544521 -0.03575565
-0.10164085 -0.040061835 -0.036686476 -0.16103993 0.07046996 0.018774 0.03692194 -0.11701609
0.01965873 0.07797796 -0.05742236 0.036880285 -0.07782743 -0.020308748 -0.10089434 -0.08480064
0.097429544 0.042568535 0.11635509 0.14323288 0.13471507 -0.044409037 -0.13647987 -0.06790566
0.04288181 -0.024612524 -0.035073914 0.07121729 0.06431632 -0.15269922 0.090198964 0.06557847
0.16021053 0.035484962 -0.00860122 -0.02990981 0.17819062 0.06014312 0.037598204 -0.052504815
-0.0110936025 0.071442395 -0.053440902 -0.10290378 0.05813788 0.07186402 -0.04009304 -0.08394048
0.14438118 0.03990454 0.14053206 -0.08145701 0.06307817 0.1380685 0.102885135 -0.13434562
0.11481467 -0.12677473 -0.09231936 -0.017701339 -0.017302439 0.1294516 0.06334704 0.08875694
-0.11326818 0.05669947 0.013263599 -0.020597821 0.14383705 -0.0506188 0.0341596 -0.03207441
-0.040392533 0.09562217 -0.106655106 -0.14310378 -0.13217884 -0.1362485 0.003711726 0.057069298
0.1352653 0.13098332 -0.17482187 0.12704746 -0.053802963 0.15791713 0.044237427 -0.017082138
-0.06281363 0.075644165 -0.029388867 -0.10087156 -0.15173317 -0.00092558935 0.0027709093 -0.14791463
0.05564851 0.07536876 0.03413319 -0.073558144 0.004252226 0.15671755 -0.06608152 0.06099094
-0.03844363 0.08758739 -0.021323938 -0.038510963 -0.11565281 -0.054803792 -0.048745044 -0.08085694
-0.12633437 -0.13230148 0.08242584 -0.11878672 0.10102729 -0.12784974 -0.09413491 0.068147466
0.015153498 -0.09741325 -0.13363053 0.011350747 -0.009356799 -0.15529592 -0.086949274 -0.032650612
-0.031293605 -0.14456813 -0.07695941 -0.15028846 0.0055804034 -0.10230483 -0.1727088 0.0444531
-0.118863374 -0.041851617 -0.04917945 -0.08389924 0.08595126 -0.026379034 0.0962897 -0.02070097
0.02529727 0.044130158 0.0034912624 -0.01718196 -0.050679393 -0.04072715 0.026453132 -0.13243563
-0.1373513 -0.013146388 -0.058773693 -0.17370541 -0.056968685 0.13188978 0.025209524 -0.032036882
-0.094616115 -0.1468716 0.07942706 0.034810986 0.045157637 -0.111601785 0.13746001 0.034932356
-0.07349645 -0.095240794 -0.06884712 -0.06358437 0.009751474 0.027499843 -0.08164541 0.009854065
-0.013004555 -0.020717766 0.06715584 0.16614342 -0.15239939 0.062394395 0.04440641 0.107312486
-0.021433463 -0.1246362 -0.075963855 0.08238477 0.018301211 -0.12076821 -0.11376748 0.0418603
0.1511998 0.062088728 -0.10675661 -0.1455926 -0.031562444 0.049280852 -0.0071489485 0.14197285
0.0021492078 0.022276383 0.11192751 -0.10612177 -0.052821487 -0.042052973 0.08187961 0.101845555
-0.13134931 -0.079672575 -0.14192012 -0.16570805 0.13760987 -0.07250113 -0.15109646 -0.0087816175
-0.029357491 0.104957335 -0.13304392 -0.045106683 -0.004974036 0.061808243 -0.13319127 0.07864867
-0.115227334 0.013685988 0.05452275 -0.15863673 -0.025327306 0.10275308 -0.17579176 0.004111816
-0.05919134 -0.071520664 -0.14249332 -0.12164437 0.072265536 0.040552344 -0.03156966 -0.12532568
-0.037311282 0.12886046 0.10797098 -0.11558343 0.05307429 0.14124952 -0.033346623 0.017802767
00000000: e311 95bd 6229 ad3d f708 0a3e 479a 85bd
00000010: de56 6abd caee 00be ff2e 11bd 8474 12bd
00000020: 1429 d0bd e117 24bd 8f44 16bd a7e7 24be
00000030: 8e52 903d efcb 993c 763b 173d 22a6 efbd
00000040: 580b a13c e9b2 9f3d b533 6bbd c80f 173d
00000050: fd63 9fbd 885e a6bc b1a1 cebd f5ab adbd
00000060: 2489 c73d 585c 2e3d 944b ee3d a4ab 123e
00000070: bff2 093e 40e6 35bd 61c1 0bbe 1f12 8bbd
00000080: d6a4 2f3d 34a0 c9bc aaa9 0fbd 5fda 913d
00000090: 46b8 833d 2f5d 1cbe 3cba b83d 014e 863d
000000a0: 3b0e 243e ae58 113d 22ec 0cbc 6b05 f5bc
000000b0: 9a77 363e a258 763d 9300 1a3d 4a0f 57bd
000000c0: f1c1 35bc 6450 923d d9e4 5abd 38bf d2bd
000000d0: fc21 6e3d 712d 933d 9938 24bd fde8 abbd
000000e0: a9d8 133e f172 233d a3e7 0f3e efd2 a6bd
000000f0: 212f 813d d461 0d3e 71b5 d23d e691 09be
00000100: f423 eb3d 3cd1 01be ef11 bdbd 6602 91bc
00000110: d8bd 8dbc f68e 043e 18bc 813d 33c6 b53d
00000120: 26f9 e7bd b43d 683d 914f 593c c3bc a8bc
00000130: 054a 133e a955 4fbd f0ea 0b3d 7560 03bd
00000140: a472 25bd 8ed5 c33d fe6d dabd cc89 12be
00000150: e459 07be ba84 0bbe 6e40 733b 7fc1 693d
00000160: fd82 0a3e 7e20 063e 8104 33be bb18 023e
00000170: 7f60 5cbd 07b5 213e 4e32 353d d7ef 8bbc
00000180: 6fa4 80bd 54eb 9a3d ecc0 f0bc c095 cebd
00000190: f15f 1bbe 40a3 72ba 2598 353b ef76 17be
000001a0: b1ef 633d f05a 9a3d 3ecf 0b3d a7a5 96bd
000001b0: 4256 8b3b 917a 203e bf55 87bd a3d1 793d
000001c0: 1177 1dbd 0461 b33d 8aaf aebc acbd 1dbd
000001d0: 61db ecbd f179 60bd e2a8 47bd 5398 a5bd
000001e0: cc5d 01be 0a7a 07be e1ce a83d 7446 f3bd
000001f0: 65e7 ce3d 0beb 02be cec9 c0bd e690 8b3d
00000200: 6146 783c 9980 c7bd 71d6 08be 7cf8 393c
00000210: 424d 19bc e505 1fbe 7612 b2bd a6bc 05bd
00000220: b92d 00bd ab09 14be e59c 9dbd 38e5 19be
00000230: d1db b63b 3285 d1bd 93da 30be 7414 363d
00000240: a46e f3bd 9a6c 2bbd 6470 49bd 5dd3 abbd
00000250: 3707 b03d d818 d8bc 8933 c53d 1595 a9bc
00000260: 383c cf3c d3c1 343d aacd 643b 2fc1 8cbc
00000270: 3295 4fbd 83d1 26bd 3db4 d83c 359d 07be
00000280: d2a5 0cbe f363 57bc afbc 70bd d5df 31be
00000290: ff57 69bd 1d0e 073e 3484 ce3c 1b39 03bd
000002a0: 18c6 c1bd 8265 16be a8aa a23d f795 0e3d
000002b0: 37f7 383d 7a8f e4bd 51c2 0c3e 3b15 0f3d
000002c0: 4f85 96bd 9b0d c3bd b8ff 8cbd 8638 82bd
000002d0: a5c4 1f3c 5a47 e13c b535 a7bd f272 213c
000002e0: 0f11 55bc 4eb8 a9bc 0089 893d 8021 2a3e
000002f0: 960e 1cbe 4491 7f3d 7fe3 353d a6c6 db3d
00000300: 3b95 afbc 4441 ffbd f092 9bbd 59b9 a83d
00000310: 6cec 953c 5355 f7bd edfe e8bd b575 2b3d
00000320: 1fd4 1a3e c050 7e3d 36a3 dabd 3a16 15be
00000330: 9f47 01bd b8da 493d ba41 eabb 5561 113e
00000340: b9d9 0c3b f67c b63c 403a e53d 5f56 d9bd
00000350: 585b 58bd bd3f 2cbd 7fb0 a73d 6794 d03d
00000360: 6f80 06be 602b a3bd 8253 11be 5faf 29be
00000370: 9ae9 0c3e 797b 94bd 08b9 1abe c6e0 0fbc
00000380: 1f7f f0bc dff3 d63d aa3c 08be c9c1 38bd
00000390: 3dfd a2bb a42a 7d3d 4b63 08be 8e12 a13d
000003a0: 4ffc ebbd 323b 603c 3f53 5f3d ab71 22be
000003b0: 367b cfbc 3570 d23d c102 34be 6abc 863b
000003c0: 9e72 72bd 6d79 92bd c5e9 11be af20 f9bd
000003d0: f4ff 933d 371a 263d 304f 01bd 6055 00be
000003e0: b7d3 18bd fff3 033e e41f dd3d 01b7 ecbd
000003f0: 6d64 593d b7a3 103e 7896 08bd 1cd7 913c

encoder.3.bias f4 [128]
0.022425555 0.0947315 0.05157439 0.0071704946 -0.07532333 -0.024125107 0.012542283 -0.067477785
-0.003608635 0.00949678 -0.01525729 -0.003653064 0.016036967 -0.057660352 0.0013684944 0.025368119
-0.027931152 0.04730594 -0.02014933 0.08640307 -0.07406415 -0.027634125 0.017717913 -0.033088192
-0.046792846 -0.0014772243 -0.012784079 0.1332 0.057890594 -0.023319207 -0.029544605 -0.02281387
0.0066582663 -0.028959261 -0.059130315 -0.017870171 0.009122028 -0.008688468 -0.03395297 0.027427483
0.08494899 -0.002714594 -0.058847032 0.024949146 -0.013763709 0.009756245 0.05102837 0.03223255
0.032355845 0.15602413 0.0026596948 0.003945238 -0.020866234 0.030387096 -0.0014628604 0.019488115
-0.06560277 -0.025636347 0.029528795 -0.017375033 0.0027984728 -0.037358925 0.009480232 0.12697925
0.03899267 0.04272416 0.15705533 0.00896614 0.049098987 -0.003095326 -0.037547745 0.03778577
0.0037542684 0.006655055 0.046758216 0.016049972 -0.024410622 0.009145685 0.014734407 0.005898274
-0.07694548 -0.01778793 0.08498123 -0.010676079 0.049158428 0.035577092 -0.026257345 0.04945746
0.013897655 0.024196533 0.042573534 -0.08332471 -0.38912427 0.002236141 0.12307214 0.04561903
0.05024212 0.023658156 0.056732323 0.022764077 0.0805865 0.107581064 0.087989986 0.018821582
-0.07278587 -0.025235461 0.087999634 0.005591736 0.006620187 -0.025959011 -0.023813969 -0.0064728586
0.019838452 -0.034439642 -0.0011619701 0.07667827 -0.026933832 0.013087854 0.043375455 -0.05149365
0.0051888693 0.0685905 0.005658645 0.061595872 0.020769099 0.07573386 -0.010410924 0.0032790708
00000000: ccb5 b73c 9702 c23d ab3f 533d 78f6 ea3b
00000010: 1e43 9abd 04a2 c5bc 267e 4d3c cb31 8abd
00000020: d97e 6cbb 6298 1b3c b6f9 79bc 3e68 6fbb
00000030: f55f 833c 432d 6cbd 0d5f b33a cdd0 cf3c
00000040: dfcf e4bc e0c3 413d 3510 a5bc 18f4 b03d
00000050: f2ae 97bd f660 e2bc 2825 913c 7c87 07bd
00000060: dba9 3fbd 6c9f c1ba 5074 51bc 9565 083e
00000070: b01e 6d3d ec07 bfbc 8707 f2bc 27e4 babc
00000080: 962d da3b f93b edbc a132 72bd 7764 92bc
00000090: 8f74 153c 135a 0ebc 4512 0bbd 9aaf e03c
000000a0: bcf9 ad3d 54e7 31bb 9609 71bd 2762 cc3c
000000b0: 2e81 61bc a8d8 1f3c 2003 513d 4706 043d
000000c0: 9087 043d cac4 1f3e 464e 2e3b 0e47 813b
000000d0: aaef aabc 5cee f83c 73bd bfba 8aa5 9f3c
000000e0: bf5a 86bd 5103 d2bc 5fe6 f13c 1656 8ebc
000000f0: 9566 373b ac05 19bd fa52 1b3c d906 023e
00000100: c7b6 1f3d 87ff 2e3d 1dd3 203e b8e6 123c
00000110: 051c 493d f4da 4abb aacb 19bd 40c5 1a3d
00000120: 2c0a 763b a612 da3b 8b85 3f3d 3b7b 833c
00000130: c9f8 c7bc c8d7 153c 9568 713c 4f46 c13b
00000140: 9895 9dbd feb7 91bc a40a ae3d b9ea 2ebc
00000150: 595a 493d 49b9 113d a519 d7bc e893 4a3d
00000160: fdb2 633c cf37 c63c 9661 2e3d 25a6 aabd
00000170: 4c3b c7be 388c 123b 3f0d fc3d 05db 3a3d
00000180: aeca 4d3d c0ce c13c 2760 683d bb7b ba3c
00000190: 890a a53d 7653 dc3d 1834 b43d b82f 9a3c
000001a0: c210 95bd 99ba cebc 2739 b43d e23a b73b
000001b0: 27ee d83b fea7 d4bc 8315 c3bc 461a d4bb
000001c0: 4084 a23c 9510 0dbd 3f4d 98ba 7f09 9d3d
000001d0: 57a4 dcbc 706e 563c 76aa 313d 01eb 52bd
000001e0: 6407 aa3b 2d79 8c3d 286c b93b f44b 7c3d
000001f0: f523 aa3c 5b1a 9b3d 9592 2abc aee5 563b

encoder.5.weight f4 [128]
0.98946786 1.0019052 0.9810648 0.98469853 1.0656309 0.9766341 1.027806 1.0141884
0.99798816 0.9944001 1.0398133 1.007166 1.0173453 0.95001507 0.9761603 1.027443
0.982602 0.98579365 0.9902883 0.9695749 1.0313036 0.9504387 0.99218875 0.97821563
1.063483 0.97550243 0.96959203 0.9834004 0.9572203 0.97882366 0.9922115 1.0297002
1.0022998 1.0428514 0.99020016 0.9757018 1.025486 1.0060711 0.9888869 1.0012523
0.9555908 1.0350972 1.024766 1.0540948 0.98865604 1.0038898 0.9640348 1.0341758
1.0057906 1.0260987 0.9404515 0.9995816 1.005289 0.98256075 0.97066784 1.0152174
1.0254997 1.0173281 0.9858567 0.9708602 0.99643487 1.023219 1.0139065 1.0270476
1.019479 0.9678408 0.99500245 0.9753975 1.0124806 0.9735763 1.0289959 0.9529087
1.0039434 0.99311197 1.0008521 0.9954557 0.99794245 0.988301 1.0043049 1.0109195
1.024394 0.9685862 0.99820083 0.97328866 1.0144124 0.9863786 1.0280037 0.97025347
1.0144992 1.0301017 0.98644453 1.081429 0.9168489 1.008005 0.96211576 1.0328679
1.0006746 0.98709273 0.9975701 1.0149554 0.9762821 0.98267055 1.0179583 0.986702
1.0068966 0.9898954 0.98526925 1.0063632 0.9701924 1.0260888 0.99256134 0.9794887
1.0186383 1.0025142 0.9975069 0.98097587 1.0275332 0.9993865 0.9601143 0.98335004
1.0279665 1.0082196 1.0163517 0.9827775 0.987389 0.9932889 1.007372 1.0169854
00000000: c44d 7d3f 6e3e 803f 1027 7b3f 3415 7c3f
00000010: 9866 883f b104 7a3f 268f 833f edd0 813f
00000020: 277c 7f3f 0191 7e3f 9a18 853f d1ea 803f
00000030: 5f38 823f 3034 733f a4e5 793f 4183 833f
00000040: ce8b 7b3f f95c 7c3f 8983 7d3f 1036 783f
00000050: c201 843f f34f 733f 1500 7e3f 576c 7a3f
00000060: 3620 883f 87ba 793f 2f37 783f 21c0 7b3f
00000070: 640c 753f 3094 7a3f 9301 7e3f 37cd 833f
00000080: 5c4b 803f 287c 853f c27d 7d3f 98c7 793f
00000090: 2043 833f f0c6 803f b127 7d3f 0929 803f
000000a0: 99a1 743f 117e 843f 882b 833f 94ec 863f
000000b0: 9018 7d3f 767f 803f fcca 763f df5f 843f
000000c0: bfbd 803f 3457 833f 6ec1 703f 94e4 7f3f
000000d0: 4fad 803f 1a89 7b3f b07d 783f a5f2 813f
000000e0: 9343 833f cf37 823f 1b61 7c3f 4b8a 783f
000000f0: 5b16 7f3f d7f8 823f b0c7 813f 4c76 833f
00000100: 4a7e 823f 6ac4 773f 7bb8 7e3f a7b3 793f
00000110: f798 813f 4c3c 793f 23b6 833f d3f1 733f
00000120: 3881 803f 963c 7e3f ec1b 803f 2fd6 7e3f
00000130: 2879 7f3f 4b01 7d3f 108d 803f cf65 813f
00000140: 581f 833f 44f5 773f 178a 7f3f 7229 793f
00000150: 44d8 813f 4f83 7c3f a095 833f 8862 783f
00000160: 1cdb 813f 5fda 833f a187 7c3f 446c 8a3f
00000170: 9cb6 6a3f 4f06 813f 384d 763f 0435 843f
00000180: 1b16 803f 1cb2 7c3f c160 7f3f 0fea 813f
00000190: a0ed 793f 4c90 7b3f 754c 823f 8198 7c3f
000001a0: fde1 803f c969 7d3f 9b3a 7c3f 82d0 803f
000001b0: 875e 783f e156 833f 8018 7e3f c5bf 7a3f
000001c0: bd62 823f 6352 803f 9d5c 7f3f 3c21 7b3f
000001d0: 3586 833f cbd7 7f3f 0dca 753f d4bc 7b3f
000001e0: 6894 833f 570d 813f d017 823f 4e97 7b3f
000001f0: 87c5 7c3f 2e48 7e3f 91f1 803f 942c 823f

encoder.5.bias f4 [128]
-0.021094399 0.0731045 -0.012053389 -0.018920854 -0.08743833 0.007916931 -0.05256594 -0.09441597
-0.032937337 0.024866022 -0.082085654 -0.01855243 -0.020420128 -0.007944353 -0.018665925 -0.07405516
-0.023001809 0.0786703 -0.04869866 0.08590268 0.008707955 0.044154402 0.010447558 0.015098297
-0.064402975 -0.0064097024 0.022383278 0.107931435 0.046749912 -0.030823728 -0.008498235 -0.0566136
-0.009146262 -0.028633319 0.00067593204 0.0040331883 0.02404507 -0.064526625 0.010050015 -0.04737907
0.027423408 -0.047475044 -0.040993687 0.09989724 0.08612767 -0.07825884 0.10683294 0.008441372
-0.041112863 0.1232201 -0.022981118 -0.05049341 -0.060855187 0.030983347 0.0064170533 0.08954274
0.0041581886 -0.045230202 -0.0064218706 -0.03445773 0.031446263 -0.007801427 -0.060135234 0.11634946
0.047522593 0.040668827 0.08230449 0.021076633 -0.001616169 -0.06983468 -0.022889335 0.026802108
0.03712893 0.09166517 -0.012445089 -0.06153831 -0.047233958 -0.054684535 0.03578271 0.0046927053
0.021586081 0.010075216 0.1029304 0.013403219 0.10022669 0.04269051 0.0050346265 0.06336361
-0.046404704 -0.03488306 0.04518907 0.0032566758 -0.048066325 -0.026797047 0.04794775 0.017006706
0.0015908548 0.09212185 0.011761285 0.101952836 -0.015877727 0.08725008 0.030812073 0.010644244
0.028327065 -0.016106654 0.0121662095 -0.030100212 -0.039969187 0.006005428 -0.03485452 -0.064838104
0.041947745 -0.042513937 0.09817135 0.049970813 -0.070808716 -0.03515649 0.012529192 -0.109589934
-0.10358003 0.03701855 0.00410266 0.07182352 -0.0110221775 -0.011941764 0.05790741 -0.05349518
00000000: 29ce acbc d0b7 953d 947b 45bc e8ff 9abc
00000010: de12 b3bd 04b6 013c 624f 57bd 295d c1bd
00000020: 4de9 06bd d4b3 cb3c 861c a8bd 44fb 97bc
00000030: 1d48 a7bc 0829 02bc 48e9 98bc 3baa 97bd
00000040: 4a6e bcbc e51d a13d 3f78 47bd bfed af3d
00000050: cfab 0e3c 3fdb 343d 3c2c 2b3c d95e 773c
00000060: b5e5 83bd 7b08 d2bb 235d b73c 280b dd3d
00000070: d67c 3f3d 0b82 fcbc 2e3c 0bbc aae3 67bd
00000080: 34da 15bc 6c90 eabc 0831 313a d628 843b
00000090: 2bfa c43c 8926 84bd d1a8 243c 8e10 42bd
000000a0: 0ea7 e03c 3175 42bd ffe8 27bd ed96 cc3d
000000b0: b463 b03d 2c46 a0bd 3acb da3d ae4d 0a3c
000000c0: f665 28bd d25a fc3d e642 bcbc 2ed2 4ebd
000000d0: 4a43 79bd cad0 fd3c 2546 d23b 2f62 b73d
000000e0: 6a41 883b 4e43 39bd 8e6e d2bb 8c23 0dbd
000000f0: cccd 003d 1da3 ffbb 5d50 76bd a048 ee3d
00000100: 0da7 423d 5b94 263d 428f a83d e7a8 ac3c
00000110: a2d5 d3ba 7c05 8fbd 6a82 bbbc 1890 db3c
00000120: 8114 183d f3ba bb3d 7de6 4bbc 980f 7cbd
00000130: 6578 41bd e4fc 5fbd e490 123d 44c5 993b
00000140: 4bd5 b03c 8512 253c 2ccd d23d 2d99 5b3c
00000150: a743 cd3d 3fdc 2e3d 82f9 a43b c8c4 813d
00000160: dc12 3ebd 8ae1 0ebd 2d18 393d f46d 553b
00000170: 32e1 44bd 7b85 dbbc dc64 443d a651 8b3c
00000180: 3b84 d03a 61aa bc3d 68b2 403c a6cc d03d
00000190: 0212 82bc 2cb0 b23d 9a69 fc3c 3265 2e3c
000001a0: 290e e83c 1af2 83bc c854 473c b894 f6bc
000001b0: bbb6 23bd 2ec9 c43b 9dc3 0ebd d7c9 84bd
000001c0: 66d1 2b3d 1823 2ebd 100e c93d 32ae 4c3d
000001d0: 2904 91bd 4000 10bd 3d47 4d3c b070 e0bd
000001e0: c421 d4bd c3a0 173d 9b6f 863b 3618 933d
000001f0: 5d96 34bc 63a7 43bc 5230 6d3d c31d 5bbd

encoder.5.running_mean f4 [128]
0.7146286 0.91879165 1.2059826 0.5844229 0.1273087 1.0167696 0.6326515 0.21069844
0.798985 0.5101347 0.5660015 0.7335004 0.78557014 0.7190339 0.5506469 1.0337898
0.8474413 1.1289222 0.5913563 1.2510049 0.2310237 0.8886591 0.78833294 0.38364154
0.28395236 0.48917174 0.5341291 0.69980896 1.1658114 0.26098326 0.458724 0.382917
0.7301539 0.45075086 0.17637527 0.42485124 0.6015952 0.37023923 0.47703305 0.47766292
1.2561488 0.55972695 0.38130105 1.28151 0.28600788 0.52728343 1.0270114 1.0783253
0.75337696 1.0654984 0.858544 0.64058036 0.5730027 1.26141 0.7682198 0.9288129
0.42843643 0.60833883 0.8385345 0.9299642 0.8805402 0.5964306 0.6658708 0.5641838
0.85984117 0.83489543 0.94550395 0.60226524 1.2509887 0.6709988 0.38228014 0.7472149
0.78205377 0.85807765 1.0371697 0.7678654 0.56710494 1.0922785 1.0309805 0.6303013
0.19880368 0.67026275 0.8506381 0.57965595 0.6358728 0.7263515 0.64816785 1.2685708
0.5151802 1.0534787 0.87438595 0.3535046 0.022091184 0.51515347 1.0956936 1.017184
0.7219115 0.80986154 1.2070754 1.1257428 1.1156579 1.0839849 1.1240624 1.1365936
0.50624907 0.5628454 0.9643222 0.59121996 0.96906215 1.1478343 0.46369222 0.8269046
0.9637418 0.24671173 0.6991841 1.1584451 0.5266447 0.30003786 0.9594313 0.51604027
0.6167772 1.2605027 0.9327609 1.2116816 1.0510168 1.1855421 0.51212114 0.79111606
00000000: e6f1 363f ee35 6b3f a35d 9a3f bd9c 153f
00000010: 365d 023e 8225 823f 73f5 213f 55c1 573e
00000020: 488a 4c3f 3098 023f 79e5 103f afc6 3b3f
00000030: 201b 493f 9b12 383f 32f7 0c3f 3953 843f
00000040: eaf1 583f 8680 903f 2063 173f ee20 a03f
00000050: 7a91 6c3e 2a7f 633f 30d0 493f aa6c c43e
00000060: 3462 913e b874 fa3e afbc 083f ae26 333f
00000070: 4f39 953f 999f 853e dfdd ea3e b20d c43e
00000080: 5eeb 3a3f d1c8 e63e b89b 343e 1a86 d93e
00000090: 2502 1a3f ff8f bd3e ad3d f43e 3c90 f43e
000000a0: 7cc9 a03f 444a 0f3f e439 c33e 8508 a43f
000000b0: a06f 923e 0cfc 063f 1c75 833f 9006 8a3f
000000c0: 50dd 403f 4062 883f 8ac9 5b3f 13fd 233f
000000d0: 4eb0 123f e275 a13f 0eaa 443f afc6 6d3f
000000e0: 055c db3e 18bc 1b3f 32aa 563f 2212 6e3f
000000f0: 156b 613f adaf 183f 8276 2a3f 596e 103f
00000100: 8d1e 5c3f b5bb 553f 8c0c 723f 0e2e 1a3f
00000110: 6620 a03f 94c6 2b3f 39ba c33e 7a49 3f3f
00000120: ad34 483f faaa 5b3f fac1 843f d492 443f
00000130: ca2d 113f c8cf 8b3f 2bf7 833f 6d5b 213f
00000140: 3193 4b3e 5796 2b3f 6bc3 593f 5564 143f
00000150: 8fc8 223f 2cf2 393f 54ee 253f 8760 a23f
00000160: d9e2 033f 64d8 863f c2d7 5f3f 8efe b43e
00000170: 92f8 b43c 19e1 033f b03f 8c3f 1633 823f
00000180: 31cf 383f 1653 4f3f 7281 9a3f 5718 903f
00000190: e1cd 8e3f 04c0 8a3f 47e1 8f3f e67b 913f
000001a0: 8a99 013f a316 103f d2dd 763f 315a 173f
000001b0: 7514 783f 3cec 923f 1169 ed3e 05b0 533f
000001c0: c8b7 763f 00a2 7c3e bbfd 323f ee47 943f
000001d0: 30d2 063f 909e 993e 4a9d 753f 371b 043f
000001e0: 1ce5 1d3f 2758 a13f 6bc9 6e3f 6218 9b3f
000001f0: b887 863f d8bf 973f 5f1a 033f 9586 4a3f

encoder.5.running_var f4 [128]
0.8518175 0.5795714 1.0358318 1.2636483 0.3426609 0.86623234 1.2866421 0.64122987
0.69116616 0.81934464 2.0418432 1.7108113 1.1034832 0.8687232 1.8862342 2.0911813
0.66597056 0.779556 1.8748105 0.9325445 0.7282152 1.2466896 1.6782477 1.4150891
0.53941816 0.73701113 1.413214 0.7700837 1.1853863 0.6923499 1.134961 1.2599045
1.7919567 0.8753277 0.19564411 1.5447376 1.3540813 1.3687768 0.8346174 0.8579069
1.0056056 1.9267048 1.0834839 2.3567522 0.55422175 1.6845127 0.6105418 1.7734308
1.2257564 0.62630534 0.87298054 1.460852 2.4802222 1.3540945 1.8849144 1.9464875
1.316299 2.5911977 1.4013659 2.4427626 2.9478931 1.9576421 1.0921243 0.4126622
1.2885946 1.0315264 0.41375893 1.2994419 1.0080041 1.0124083 1.3068876 0.46017814
1.8718151 1.788862 1.1939973 1.3685181 2.699324 3.3609896 1.3583428 1.4601156
0.743062 1.2163457 0.36159235 1.9397225 0.97125095 1.1875077 2.2066047 1.1796929
1.3558062 2.0102537 2.124315 0.9854886 0.014807762 0.65076226 0.8117677 2.5557659
1.4140639 1.7355566 1.5896372 1.8876218 1.1135274 0.89010745 0.568431 1.2929804
1.4782044 1.1391739 0.35986024 1.2098882 1.3861 1.1752129 2.0530944 2.3660269
1.7659303 0.72242635 1.8025514 0.91862345 1.4492754 0.94758743 1.4714448 1.4865078
1.5237852 1.0418996 1.0676636 1.37001 1.4831483 1.4835807 1.5051886 3.4465902
00000000: b610 5a3f cb5e 143f 2396 843f 3abf a13f
00000010: 4071 af3e 67c1 5d3f b0b0 a43f a427 243f
00000020: 44f0 303f 92c0 513f 8fad 0240 ddfb da3f
00000030: f03e 8d3f a564 5e3f 1f70 f13f ead5 0540
00000040: 0c7d 2a3f fb90 473f caf9 ef3f 3dbb 6e3f
00000050: 506c 3a3f 8693 9f3f d2d0 d63f a421 b53f
00000060: 4f17 0a3f c3ac 3c3f 32e4 b43f 3524 453f
00000070: bdba 973f d83d 313f 6746 913f 8d44 a13f
00000080: d65e e53f 7a15 603f ee56 483e f6b9 c53f
00000090: 8952 ad3f 1434 af3f 7ca9 553f c99f 5b3f
000000a0: afb7 803f 439e f63f 9aaf 8a3f 07d5 1640
000000b0: 7ae1 0d3f 1d9e d73f 784c 1c3f c8ff e23f
000000c0: 96e5 9c3f 8c55 203f a77b 5f3f 33fd ba3f
000000d0: f6bb 1e40 f852 ad3f e044 f13f 8126 f93f
000000e0: 7c7c a83f 2fd6 2540 f55f b33f 3956 1c40
000000f0: 48aa 3c40 0494 fa3f bbca 8b3f 7648 d33e
00000100: abf0 a43f 0f09 843f 36d8 d33e 1d54 a63f
00000110: 4706 813f 9896 813f 1848 a73f 789c eb3e
00000120: a397 ef3f 6ef9 e43f e7d4 983f 9a2b af3f
00000130: b9c1 2c40 741a 5740 2dde ad3f 11e5 ba3f
00000140: 5039 3e3f 37b1 9b3f a222 b93e d448 f83f
00000150: e7a3 783f 4100 983f 0339 0d40 2d00 973f
00000160: 0f8b ad3f ffa7 0040 c7f4 0740 fb48 7c3f
00000170: 419c 723c 5b98 263f 02d0 4f3f ab91 2340
00000180: 0c00 b53f b826 de3f 3b79 cb3f 979d f13f
00000190: 1188 8e3f 15de 633f b284 113f 6280 a53f
000001a0: cd35 bd3f 73d0 913f 9a3f b83e 9edd 9a3f
000001b0: ba6b b13f 606d 963f e665 0340 fc6c 1740
000001c0: 010a e23f eff0 383f 01ba e63f e82a 6b3f
000001d0: db81 b93f 1795 723f 4e58 bc3f e345 be3f
000001e0: 650b c33f f75c 853f 33a9 883f 7d5c af3f
000001f0: ced7 bd3f f9e5 bd3f 05aa c03f ef94 5c40

encoder.6.weight f4 [128, 128]
-0.08955912 0.045857847 0.07319829 0.08740284 -0.0166936 -0.037265852 -0.11413633 -0.1819995
-0.087934546 0.07829307 -0.08827904 0.052723125 -0.17496036 -0.060007006 -0.084655106 0.0027431545
-0.039467253 0.16481091 -0.08944404 0.029371817 -0.12496051 0.008888785 0.038231518 -0.02827994
0.03943516 -0.011175498 -0.011950288 0.03710673 -0.030323895 -0.17353922 -0.13238949 -0.17183316
0.08327704 -0.18392284 0.003824896 -0.037180685 -0.118089475 -0.10887559 -0.12178751 -0.08667546
-0.11049074 -0.09247644 -0.07656923 0.13072528 -0.15543163 -0.040190514 0.12811424 -0.1014451
-0.09573673 -0.015136953 -0.035910334 -0.17238893 0.0853852 0.038926274 0.016754692 -0.10771462
-0.0434857 -0.028933683 -0.13730612 -0.16656266 0.060115274 0.014554071 0.05700159 0.12328042
-0.03433349 0.20249385 -0.023046838 -0.031936865 0.11871163 -0.050727338 -0.06659149 0.104960166
-0.13585427 0.014858963 -0.023907192 0.11220804 0.0734095 -0.088084035 -0.08525749 0.100850806
-0.16470896 -0.012340589 -0.14528848 0.020830229 -0.1617222 0.12892969 -0.14837803 -0.057165746
0.021827146 -0.027148383 -0.0047618225 -0.0029275354 0.09616617 -0.025767554 -0.014084415 0.026918238
-0.18977107 -0.13119176 0.10795707 0.13188587 -0.073829964 -0.045051705 0.13926478 0.00770123
0.08984251 0.007042008 -0.024266733 0.034859058 0.029571721 0.116933465 0.0049735126 -0.0478113
-0.01903033 -0.12743223 -0.0004857896 0.05082448 0.0119950855 -0.16304432 0.17268726 -0.113228336
-0.1724659 0.14184174 0.1477446 0.1585646 -0.0338784 -0.023214085 0.07125526 -0.16461332
0.065971345 -0.033837188 -0.12765317 0.03515229 -0.06846997 0.09327098 -0.036316793 -0.096234806
-0.13969101 -0.0034993845 0.117507085 0.0061429217 0.13025005 -0.14029 0.016660292 -0.11973239
-0.12629837 0.12613443 -0.07836615 0.113424875 0.11004681 0.06497611 -0.0069218604 -0.053175673
0.009329556 -0.07038803 -0.060113955 0.1490768 0.094124764 -0.1293639 0.1243778 0.09199321
0.14068043 -0.109254025 -0.06667885 -0.06762733 0.13539417 0.049869165 0.12973583 0.056187388
-0.003293689 0.080715366 0.12680437 0.045676522 -0.055453934 -0.093115784 0.07621937 0.113878414
0.07055432 0.029140785 -0.02273224 -0.016266175 -0.053209543 0.09043784 -0.12819955 0.07793643
-0.0015450567 -0.12790531 -0.11166133 0.106125355 0.079787195 0.030975025 0.08811124 -0.14196539
0.09195213 -0.043709993 0.00919429 0.13038352 -0.08670568 -0.04192948 -0.14756367 -0.10424169
0.11058278 0.099713705 -0.11786661 -0.14580488 0.011466799 -0.08021812 -0.022574006 0.12160983
0.07118902 -0.10693916 0.06363428 -0.024831066 0.19307359 0.026962044 -0.12251712 -0.034343455
0.08722415 0.1180749 0.0735395 0.10397302 0.08971115 -0.007107894 0.11637703 0.18433943
0.22639662 0.13574392 -0.16484426 -0.049614653 -0.030089585 0.005697607 0.03948183 0.00026700317
0.119976036 -0.08320872 0.05489913 -0.1104882 -0.10483252 0.08679537 0.07963675 -0.031420328
-0.022109905 0.09027503 0.17485842 -0.026842859 -0.17330022 -0.013148096 0.0198768 0.050436888
-0.14815071 -0.15340059 0.055615656 -0.10515975 -0.036728486 -0.07984636 0.12185649 -0.16496053
00000000: c66a b7bd 70d5 3b3d fce8 953d 4300 b33d
00000010: 04c1 88bc 14a4 18bd 4fc0 e9bd 145e 3abe
00000020: 0717 b4bd 1e58 a03d a4cb b4bd 34f4 573d
00000030: cf28 33be e8c9 75bd a85f adbd 7fc6 333b
00000040: 6aa8 21bd 31c4 283e 702e b7bd 2a9d f03c
00000050: 4ceb ffbd 44a2 113c a798 1c3d 55ab e7bc
00000060: c386 213d 7019 37bc 24cb 43bc 3afd 173d
00000070: d169 f8bc 44b4 31be 1c91 07be 08f5 2fbe
00000080: 278d aa3d 4556 3cbe 1bab 7a3b c64a 18bd
00000090: e5d8 f1bd 2afa debd bb6b f9bd e782 b1bd
000000a0: f848 e2bd 4a64 bdbd 54d0 9cbd d9dc 053e
000000b0: 7829 1fbe cf9e 24bd 6130 033e 73c2 cfbd
000000c0: 9e11 c4bd fc00 78bc b716 13bd b986 30be
000000d0: 70de ae3d 2871 1f3d 2341 893c 7c99 dcbd
000000e0: 101e 32bd 5506 edbc fa99 0cbe 678f 2abe
000000f0: 6f3b 763d 3374 6e3c 807a 693d 727a fc3d
00000100: 46a1 0cbd 8c5a 4f3e b9cc bcbc 3bd0 02bd
00000110: 151f f33d 78c7 4fbd 1e61 88bd 5bf5 d63d
00000120: 621d 0bbe 0273 733c 04d9 c3bc 54cd e53d
00000130: b857 963d 6765 b4bd 7b9b aebd de8a ce3d
00000140: 77a9 28be 2f30 4abc 81c6 14be 28a4 aa3c
00000150: 819a 25be 2506 043e 69f0 17be a126 6abd
00000160: d8ce b23c 4966 debc 1009 9cbb e5db 3fbb
00000170: c5f2 c43d 7a16 d3bc 51c2 66bc a383 dc3c
00000180: 5953 42be 2257 06be 9918 dd3d 170d 073e
00000190: 2a34 97bd 2388 38bd 6d9b 0e3e 995a fc3b
000001a0: 5aff b73d a5c0 e63b 07cb c6bc 5fc8 0e3d
000001b0: 6540 f23c d07a ef3d d9f8 a23b c8d5 43bd
000001c0: 7fe5 9bbc 987d 02be 94b1 feb9 542d 503d
000001d0: 0987 443c 17f5 26be eed4 303e 42e4 e7bd
000001e0: e79a 30be f63e 113e 5c4a 173e c25e 223e
000001f0: 14c4 0abd 772b bebc 47ee 913d 6590 28be
00000200: fc1b 873d dd98 0abd 83b7 02be d9fb 0f3d
00000210: fc39 8cbd db04 bf3d ebc0 14bd c116 c5bd
00000220: 290b 0fbe ee55 65bb 8ea7 f03d 904a c93b
00000230: 4560 053e 2fa8 0fbe 2a7b 883c 4136 f5bd
00000240: 5c54 01be 6229 013e 6f7e a0bd 4d4b e83d
00000250: 3960 e13d 3212 853d c6d0 e2bb bcce 59bd
00000260: feda 183c 9927 90bd 0d3a 76bd 97a7 183e
00000270: 7cc4 c03d f877 04be cab9 fe3d f066 bc3d
00000280: 880e 103e 93c0 dfbd ec8e 88bd 3380 8abd
00000290: c5a4 0a3e 9c43 4c3d 78d9 043e bf24 663d
000002a0: efda 57bb 194e a53d 01d9 013e 4e17 3b3d
000002b0: aa23 63bd 7db3 bebd e718 9c3d 1639 e93d
000002c0: c97e 903d a8b8 ee3c f638 babc a440 85bc
000002d0: 40f2 59bd 7937 b93d be46 03be 239d 9f3d
000002e0: 8083 caba 9cf9 02be b2ae e4bd 4058 d93d
000002f0: 7867 a33d 56bf fd3c aa73 b43d 605f 11be
00000300: 6651 bc3d 4009 33bd a6a3 163c 4283 053e
00000310: bf92 b1bd 3fbe 2bbd ee1a 17be ab7c d5bd
00000320: 3979 e23d b336 cc3d 0d64 f1bd e04d 15be
00000330: 3edf 3b3c 6649 a4bd 1fed b8bc 930e f93d
00000340: 8dcb 913d eb02 dbbd b052 823d 856a cbbc
00000350: 15b5 453e 81df dc3c 41ea fabd b9ab 0cbd
00000360: 93a2 b23d 41d1 f13d e19b 963d cfef d43d
00000370: 7bba b73d 56e9 e8bb 1557 ee3d 7ac3 3c3e
00000380: 84d4 673e 7400 0b3e efcc 28be bc38 4bbd
00000390: 6f7e f6bc feb2 ba3b b3b7 213d 8ffc 8b39
000003a0: ffb5 f53d 5569 aabd e9dd 603d a347 e2bd
000003b0: 6fb2 d6bd c5c1 b13d 9818 a33d 9ab2 00bd
000003c0: d51f b5bc 1de2 b83d 160e 333e 8ee5 dbbc
000003d0: 9d75 31be 1d6b 57bc acd4 a23c e996 4e3d
000003e0: d2b4 17be 0b15 1dbe 3ecd 633d ff5d d7bd
000003f0: 9c70 16bd 7d86 a3bd e58f f93d 6aeb 28be
