models/y02vae_D8_layers(128, 128, 128, 128)__banana_dim8_b0.02_sigma5.0.pt (torch, 462030 bytes, 54 tensors)

encoder.0.weight f4 [128, 8]
0	0xbdbb2dec	-0.09139618
1	0x3e3dfe22	0.18553975
2	0xbdb3e845	-0.08784536
3	0xbe585c4e	-0.21128961
4	0xbd5e1012	-0.054214545
5	0xbf1f413f	-0.6220893
6	0xbda66abc	-0.08125827
7	0xbddd1bb0	-0.107962966
8	0xbd61ca3b	-0.055124503
9	0x3caa959c	0.020823292
10	0xbe8f2461	-0.27957442
11	0x3eb24165	0.34815517
12	0xbe2dd3fe	-0.169754
13	0x3e0e7252	0.13910797
14	0xbdc59b67	-0.09648781
15	0xbc8305a3	-0.015993899
16	0xbe9fa639	-0.31181505
17	0xbe2c660e	-0.16835806
18	0xbe321dae	-0.17394134
19	0xbec4ea28	-0.38459897
20	0xbdc2817d	-0.09497354
21	0xbea44d76	-0.32090348
22	0x3e262766	0.16225967
23	0x3db7efb8	0.089812696
24	0x3dcec03f	0.10095262
25	0xbef2746b	-0.47354445
26	0x3e2b3721	0.16720249
27	0x3e2d4c02	0.16923526
28	0x3e0ec3dc	0.13941902
29	0xbcdadfcb	-0.02671804
30	0xbe28b636	-0.16475758
31	0x3dc6b7c2	0.09703018
32	0x3c71b717	0.014753125
33	0xbef96036	-0.48706216
34	0x3ba14c69	0.004922439
35	0xbd09af61	-0.03361452
36	0xbe1e2d3a	-0.1544694
37	0xbe8deb6d	-0.27718678
38	0xbdc258c4	-0.09489587
39	0x3bb0f6df	0.005400523
40	0x3d7c08a0	0.061531663
41	0x3e576130	0.21033168
42	0xbea3b36d	-0.31972829
43	0x3e94881e	0.290101
44	0xbda7b6f7	-0.08189195
45	0xbeb1f555	-0.34757486
46	0x3e1b838f	0.15186904
47	0x3c2de231	0.01061301
48	0x3dcf9fd8	0.1013791
49	0xbec6b8e1	-0.38812926
50	0xbd67fb42	-0.056636102
51	0xbdeae7b9	-0.11469979
52	0x3deed250	0.11661208
53	0x3f2095c9	0.62728554
54	0xbd3cb7d6	-0.046073757
55	0xbdc1e2d2	-0.09467091
56	0x3c955fe5	0.018234203
57	0xbe8f492c	-0.27985513
58	0x3e41c55d	0.18922944
59	0x3e2d6296	0.16932139
60	0xbe5c267c	-0.21499056
61	0xbe7dbb0c	-0.24778384
62	0x3e490471	0.196306
63	0xbd6fc0c0	-0.05853343
64	0x3dd77161	0.10519672
65	0x3e008337	0.12550054
66	0x3e0fa544	0.14027888
67	0x3e45ed82	0.19328883
68	0xbe414ef4	-0.18877774
69	0x3f0f3416	0.5593885
70	0x3da134ce	0.078714
71	0x3d64f4bf	0.05589747
72	0xbe3f9974	-0.18710881
73	0xbd9e5906	-0.077318236
74	0xbe935899	-0.28778532
75	0x3d331caf	0.043728527
76	0xbd7385d5	-0.059453804
77	0x3e9b8249	0.30372837
78	0xbd95d8cd	-0.07316742
79	0xbd8b6795	-0.06806866
80	0xbd67069f	-0.0564028
81	0xbe1cc3f9	-0.15309133
82	0x3eb33ef2	0.3500896
83	0x3db8d59c	0.09025118
84	0xbd35eb55	-0.044413883
85	0x3e1de3b2	0.1541889
86	0xbe0f5777	-0.13998209
87	0x3e17ea49	0.14835466
88	0x3d5044c3	0.050846826
89	0xbe090114	-0.13379318
90	0xbd9a8e6a	-0.075466946
91	0xbe98a1c7	-0.29810926
92	0xbe30f629	-0.17281403
93	0x3e805963	0.25068197
94	0xbe8dda53	-0.2770563
95	0x3e440563	0.1914268
96	0x3e82f944	0.255808
97	0xbe8ab0a2	-0.27087885
98	0xbe184ca1	-0.14872982
99	0xbe8c0b6c	-0.27352464
100	0xbc8724e7	-0.016497089
101	0x3ddde413	0.10834517
102	0xbdffc2a3	-0.12488296
103	0x3db548a0	0.08851743
104	0x3de2cb7d	0.110739686
105	0x3eb947b8	0.3618753
106	0x3de83afb	0.11339375
107	0xbee0225e	-0.4377622
108	0x3de740a3	0.11291625
109	0xbe15509c	-0.14581531
110	0x3e580ec3	0.21099381
111	0x3e16f31a	0.14741173
112	0x3deba41c	0.11505911
113	0x3ee0abdf	0.43881127
114	0xbe5fd8b5	-0.21860011
115	0x3d4c5a64	0.04989089
116	0x3d8c5c61	0.068535574
117	0xbe7fa8b1	-0.24966694
118	0xbd5762a4	-0.052584305
119	0xbd8a8a6d	-0.06764684
120	0xbd0192db	-0.031634193
121	0x3f0d5235	0.5520356
122	0xbe2813d0	-0.16413808
123	0xbe7f3426	-0.24922237
124	0x3ea06547	0.31327268
125	0xbcf44539	-0.029818164
126	0xbc6ee967	-0.014582015
127	0xbd3c2465	-0.045933146
128	0xbe33bafe	-0.175518
129	0xbcb89ad7	-0.02253477
130	0xbd82e65e	-0.06391595
131	0xbcc8c348	-0.02450718
132	0x3e31b3e1	0.17353775
133	0x3e9b47ea	0.30328304
134	0x3e3f6d9d	0.18694158
135	0x3e187401	0.14888002
136	0x3da91b80	0.08257198
137	0x3ed3eab3	0.4139
138	0xbcbfe8b3	-0.02342639
139	0x3ea5ac88	0.32358193
140	0xbd06baea	-0.0328931
141	0xbf1d0976	-0.6134256
142	0xbe1be80f	-0.15225242
143	0x3d24ff78	0.040282696
144	0x3e30e912	0.1727641
145	0xbeac7663	-0.33684072
146	0xbcfdfd1c	-0.031004481
147	0x3d20fe7b	0.03930519
148	0x3e79aaee	0.24381611
149	0xbdfc9592	-0.12333216
150	0x3d6c1ead	0.057646442
151	0xbd0210a3	-0.031754147
152	0xbd511176	-0.051042043
153	0x3d3d7957	0.046258297
154	0x3d7f38d5	0.06231006
155	0xbe1b7290	-0.15180421
156	0xbe69d6c0	-0.22835827
157	0xbf24fc95	-0.6444791
158	0x3e032394	0.1280654
159	0x3cd982d4	0.026551642
160	0xbd4cb966	-0.049981497
161	0x3ee04c0b	0.43808016
162	0xbea2ea00	-0.31819153
163	0x3d877f65	0.066160955
164	0xbc2c77c3	-0.0105266
165	0x3ec3fa48	0.38276887
166	0x3dac1b81	0.084036835
167	0xbd4d941a	-0.05019007
168	0x3d788192	0.060670443
169	0xbdd3d5ae	-0.103434905
170	0x3df3cb9a	0.11904068
171	0x3db1ee96	0.08688085
172	0x3e07a307	0.13245784
173	0xbf0ba9d2	-0.54556
174	0xbdec5186	-0.11538987
175	0x3d14045a	0.036136962
176	0xbd31fde1	-0.04345501
177	0xbf3f146f	-0.74640554
178	0x3abfbad2	0.001462782
179	0x3ea9320b	0.33045992
180	0x3dd43efc	0.10363576
181	0xbaf00550	-0.001831213
182	0xbe162588	-0.14662755
183	0xbc70afdd	-0.014690367
184	0x3e40f72b	0.18844287
185	0xbe9679c9	-0.2938979
186	0xbe2331b8	-0.15936935
187	0x3ed037a4	0.4066745
188	0x3e2889b5	0.16458781
189	0x3eadfed6	0.33983487
190	0xbcbf9312	-0.023385558
191	0x3cb11e71	0.02162096
192	0xbc2bab81	-0.010477901
193	0x3d40b048	0.047043115
194	0xbeb34de4	-0.35020363
195	0xbdc87539	-0.097879834
196	0xbd8ee136	-0.06976549
197	0x3e97fd36	0.29685372
198	0x3e368fe0	0.17828321
199	0x3e10b7a0	0.14132547
200	0x3c3b698a	0.011438737
201	0xbd9f595d	-0.077807166
202	0xbd8c13e6	-0.06839733
203	0xbddc29e0	-0.107501745
204	0x3e5c5967	0.2151848
205	0xbf0b968e	-0.54526603
206	0xbdaabc2b	-0.083366714
207	0xbd54d909	-0.051964793
208	0xbd9be41e	-0.07611869
209	0xbee900b2	-0.45508343
210	0xbe9f4644	-0.31108296
211	0xbe4b2743	-0.19839196
212	0xbce4a93c	-0.027912728
213	0x3e302b90	0.17204118
214	0xbd79e9dd	-0.061014045
215	0xbd3c862d	-0.046026397
216	0xbe1f3555	-0.15547688
217	0xbe2e0593	-0.16994314
218	0xbe67ecfb	-0.22648995
219	0x3ec12443	0.37722978
220	0x3d5feb35	0.05466767
221	0xbe5fa987	-0.21842013
222	0xbd8ad428	-0.06778747
223	0x3dfdaacc	0.123860925
224	0xbcd91069	-0.026497083
225	0x3ca547c1	0.020175816
226	0xbe90a562	-0.28251177
227	0x3c9dba20	0.01925379
228	0x3c4eea83	0.012629154
229	0xbf0d4c2b	-0.5519435
230	0x3e2296b4	0.15877801
231	0x3d8acdb5	0.06777517
232	0xbd977c4f	-0.07396757
233	0xbf170f8a	-0.59008086
234	0xbcb5fdcd	-0.022215748
235	0xbee01d2d	-0.4377226
236	0xbe25a48b	-0.1617605
237	0x3ea1830a	0.31545287
238	0x3ca034fe	0.019556519
239	0xbcb345a2	-0.02188379
240	0x3e05145a	0.12996045
241	0xbecb6b04	-0.39730084
242	0xbb39e5d3	-0.0028365746
243	0xbede4540	-0.4341221
244	0x3ebde60c	0.37089574
245	0xbf0381cb	-0.51369923
246	0x3d43b88e	0.047783427
247	0xbc728522	-0.014802249
248	0x3bf92842	0.007603676
249	0xbbe98ada	-0.007127148
250	0xbe17b1c9	-0.14813913
251	0x3b65b947	0.003505306
252	0x3e3f7e34	0.18700486
253	0x3eeaa808	0.45831323
254	0x3e0e215a	0.1387991
255	0xbda0a7ea	-0.07844527

encoder.0.bias f4 [128]
0	0x3e21aa44	0.15787607
1	0xbcc06601	-0.02348614
2	0x3c5d61fa	0.013512129
3	0xbcc7e1fe	-0.024399754
4	0x3e25d55f	0.16194676
5	0xbc7b3580	-0.01533258
6	0x3e8b67e2	0.27227694
7	0x3de001a0	0.1093781
8	0x3d9fd97b	0.07805153
9	0x3d8cec25	0.068809785
10	0x3da04d50	0.07827246
11	0x3db86afe	0.09004782
12	0x3dc46f94	0.09591594
13	0x3de2341b	0.110450946
14	0x3da4f63c	0.08054778
15	0x3e218932	0.15774992
16	0x3d8dd111	0.06924642
17	0x3c886628	0.016650274
18	0x3d7c3610	0.061574996
19	0xbc07c22d	-0.008286041
20	0x3a01565d	0.00049338286
21	0x3dbea51e	0.09308837
22	0x3e160cef	0.14653371
23	0x3d0c1e1d	0.034208406
24	0x3d3f8218	0.046754926
25	0x3ca6bd3c	0.020353906
26	0x3db3e329	0.08783562
27	0x3d46fc10	0.04858023
28	0x3ccd31c3	0.025048142
29	0x3d662488	0.056187183
30	0x3dcf99ab	0.10136732
31	0x3d761c93	0.060085844
32	0xbcf7b66c	-0.030238353
33	0x3e1088f1	0.14114739
34	0x3c9bd074	0.019020297
35	0x3dd75c50	0.10515654
36	0x3d93e38b	0.07221135
37	0xbcfd9a0d	-0.030957246
38	0x3dffb78a	0.12486179
39	0x3ce23de6	0.027617406
40	0x3dd5b670	0.10435188
41	0x3df415f5	0.119182505
42	0x3dd7e54b	0.10541781
43	0x3d6872be	0.05675005
44	0x3cfe9c55	0.031080404
45	0x3c1cd5cf	0.00957246
46	0x3d4976f6	0.049185716
47	0x3d57814d	0.052613545
48	0x3d817fbe	0.06323193
49	0x3dde4167	0.10852318
50	0x3da3f78e	0.08006202
51	0x3e1c6cbd	0.15275855
52	0xbd3164ea	-0.04330913
53	0x3d44aa1c	0.04801379
54	0x3e2c5f5d	0.16833253
55	0x3d364544	0.04449965
56	0xbdb773dc	-0.08957645
57	0x3ddd95c6	0.10819583
58	0x3df39d73	0.118952654
59	0x3ddd2ab3	0.1079916
60	0x3d99d998	0.07512206
61	0x3c81a4e0	0.015825689
62	0x3d8f2249	0.06988961
63	0x3d8db84a	0.06919916
64	0x3e485795	0.1956466
65	0x3da25b6b	0.07927593
66	0x3dd919bf	0.10600614
67	0x3e58df09	0.21178831
68	0x3cab4636	0.020907503
69	0x3e0e807b	0.13916199
70	0x3e07eb76	0.13273415
71	0x3dbb9b5d	0.091604926
72	0x3dcd1645	0.10014013
73	0x3d6be279	0.057589028
74	0x3d9d5344	0.07681897
75	0x3d8f9502	0.07010843
76	0x3d4e1553	0.050313305
77	0x3cebd251	0.02878681
78	0x3e165e8b	0.14684503
79	0x3e170689	0.14748587
80	0x3c929e1f	0.017897664
81	0x3d8e44bc	0.06946704
82	0x3d8fb6d7	0.07017296
83	0x3d38498d	0.04499202
84	0x3da822c2	0.082097545
85	0x3da0e30f	0.07855808
86	0x3e003914	0.12521774
87	0x3e0dabb5	0.13835032
88	0x3e0b6181	0.13611414
89	0x3dc47ac7	0.095937304
90	0x3de5c4d3	0.11219182
91	0x3e9f779f	0.3114595
92	0x3e7d5f36	0.24743351
93	0x3d8c91dd	0.06863759
94	0x3d004e06	0.03132441
95	0x3d81e00e	0.06341563
96	0xbc2ec4fc	-0.010667082
97	0x3c940c91	0.018072398
98	0x3ce32196	0.027725976
99	0x3d801ed5	0.06255881
100	0x3d6250d8	0.05525288
101	0x3d8fbea2	0.07018782
102	0xbbada0ad	-0.005298695
103	0x3ddb4a1d	0.10707495
104	0x3e2206ad	0.15822859
105	0x3d9f8b59	0.0779025
106	0x3d966b0e	0.07344638
107	0x3d6a349a	0.05717907
108	0x3e03d56e	0.12874386
109	0x3ea0c29f	0.31398484
110	0xbd308137	-0.04309198
111	0x3d888307	0.066656165
112	0x3e376bd4	0.17912227
113	0x3be83ae9	0.0070871008
114	0x3de328b1	0.11091746
115	0x3d4d437d	0.05011319
116	0x3e1ef939	0.15524758
117	0xbcde4a33	-0.02713499
118	0x3e1af066	0.15130767
119	0x3e3d531c	0.18488735
120	0x3ce65448	0.02811636
121	0x3d311d66	0.043240927
122	0xbc637b39	-0.013884359
123	0x3e6f0163	0.23340373
124	0x3deaee7c	0.114712685
125	0x3da6a5f6	0.08137123
126	0x3ddc5c5b	0.10759803
127	0x3e00da81	0.12583353

encoder.2.weight f4 [128]
0	0x3f818bae	1.0120752
1	0x3f78477f	0.96984094
2	0x3f839a2a	1.0281422
3	0x3f7e68c4	0.9937861
4	0x3f7abe1e	0.97946346
5	0x3f84fa14	1.0388818
6	0x3f8002d1	1.000086
7	0x3f75a192	0.9594966
8	0x3f80c90c	1.0061355
9	0x3f6aaad8	0.91666937
10	0x3f712bfd	0.94207746
11	0x3f8090b3	1.0044159
12	0x3f62afd3	0.88549536
13	0x3f75defd	0.9604338
14	0x3f766288	0.96244097
15	0x3f810415	1.0079371
16	0x3f771f0f	0.96531767
17	0x3f84f5f4	1.0387559
18	0x3f6e579b	0.93102425
19	0x3f7237f9	0.9461666
20	0x3f8a626b	1.0811285
21	0x3f7dfa92	0.99210465
22	0x3f804573	1.0021194
23	0x3f8013e6	1.0006073
24	0x3f770d42	0.96504605
25	0x3f6bd1da	0.92117083
26	0x3f7836c0	0.9695854
27	0x3f7572ed	0.9587849
28	0x3f848825	1.0354048
29	0x3f812979	1.0090781
30	0x3f882329	1.063573
31	0x3f78aa25	0.9713462
32	0x3f7a3162	0.977316
33	0x3f71f672	0.9451667
34	0x3f7972fc	0.9744108
35	0x3f70e4c3	0.9409906
36	0x3f758572	0.95906746
37	0x3f7040d9	0.9384895
38	0x3f856b8a	1.0423443
39	0x3f749b0c	0.9554908
40	0x3f7d8355	0.9902852
41	0x3f77d905	0.9681552
42	0x3f7ac1c0	0.9795189
43	0x3f813f20	1.0097389
44	0x3f8b723b	1.0894235
45	0x3f6fd201	0.93679816
46	0x3f81522d	1.0103203
47	0x3f72fb2d	0.94914514
48	0x3f78658e	0.9702996
49	0x3f8e3b63	1.1111873
50	0x3f763fdc	0.9619119
51	0x3f83ab34	1.0286622
52	0x3f89d9b4	1.0769563
53	0x3f831f7f	1.0243987
54	0x3f8100fc	1.0078425
55	0x3f74621c	0.95462203
56	0x3f7a16f7	0.9769129
57	0x3f82c561	1.0216485
58	0x3f8dea93	1.1087211
59	0x3f7b2642	0.9810525
60	0x3f85655d	1.0421559
61	0x3f6e3dda	0.9306313
62	0x3f76020c	0.96096873
63	0x3f746aea	0.9547564
64	0x3f7b4441	0.9815102
65	0x3f75eec3	0.96067446
66	0x3f6d710a	0.9275061
67	0x3f827afc	1.0193782
68	0x3f711760	0.9417629
69	0x3f895ec9	1.0732051
70	0x3f842645	1.0324179
71	0x3f72b96e	0.94814193
72	0x3f808ec2	1.0043566
73	0x3f7e8df8	0.9943538
74	0x3f6c77ef	0.92370504
75	0x3f7d7d45	0.9901927
76	0x3f863f22	1.0488017
77	0x3f7b3bee	0.9813832
78	0x3f6c3f69	0.92284256
79	0x3f837169	1.0268985
80	0x3f85b28e	1.0445116
81	0x3f75afe7	0.9597153
82	0x3f74c8c6	0.95618856
83	0x3f78ba22	0.97159016
84	0x3f774487	0.9658894
85	0x3f74e99b	0.95668954
86	0x3f704d7a	0.9386822
87	0x3f73682a	0.95080817
88	0x3f76a0a8	0.9633889
89	0x3f6d99c2	0.9281274
90	0x3f79eb5e	0.97624767
91	0x3f85a3d0	1.0440617
92	0x3f8c3d27	1.0956162
93	0x3f7b594c	0.9818313
94	0x3f7d85c8	0.9903226
95	0x3f70096c	0.93764377
96	0x3f854dcf	1.041437
97	0x3f839b57	1.0281781
98	0x3f6fc94b	0.93666524
99	0x3f72872e	0.9473752
100	0x3f85f5e5	1.0465666
101	0x3f6eafaf	0.9323682
102	0x3f7109e7	0.94155735
103	0x3f758070	0.95899105
104	0x3f781c39	0.96918064
105	0x3f878036	1.0586002
106	0x3f6d9b35	0.9281495
107	0x3f82a402	1.0206301
108	0x3f8525b0	1.0402126
109	0x3f7b4bb8	0.9816241
110	0x3f82a03f	1.0205153
111	0x3f76d365	0.9641631
112	0x3f729d46	0.9477123
113	0x3f800cfd	1.0003964
114	0x3f81ed65	1.0150572
115	0x3f8feb42	1.124367
116	0x3f7e922b	0.99441785
117	0x3f81fa11	1.0154439
118	0x3f8dd54e	1.108072
119	0x3f78a5c0	0.97127914
120	0x3f6be754	0.92149854
121	0x3f7114f1	0.9417258
122	0x3f77cada	0.967939
123	0x3f733d54	0.95015454
124	0x3f85661b	1.0421785
125	0x3f813494	1.009417
126	0x3f7767e2	0.9664289
127	0x3f7b26ee	0.98106277

encoder.2.bias f4 [128]
0	0x3e6a4273	0.22876911
1	0xbe04c26e	-0.12964794
2	0xbd2012bd	-0.03908037
3	0xbdfb3b06	-0.12267117
4	0xbc05da47	-0.008169717
5	0xbe3d6326	-0.18494853
6	0x3e1ce717	0.15322529
7	0xbcbda1c1	-0.02314842
8	0x3d5dc2ad	0.054140735
9	0xbe6d6bfe	-0.23185727
10	0x3e12e014	0.14343292
11	0xbc8f9751	-0.017528208
12	0x3e03b4b8	0.12861907
13	0x3d8d85ff	0.06910323
14	0x3bc73553	0.006079355
15	0xbd576a17	-0.05259141
16	0xbd9ea9f8	-0.07747263
17	0x3a97e32b	0.0011588087
18	0x3d85d472	0.06534661
19	0x3e03dbf8	0.1287688
20	0xbdd7b998	-0.10533446
21	0x3cb463a8	0.022020176
22	0xbccd11cb	-0.025032898
23	0x3d83c68e	0.06434356
24	0xbda3d928	-0.08000404
25	0xbd91af29	-0.07113487
26	0xbdc70c0a	-0.09719093
27	0x3dd9cc16	0.106346294
28	0xbd087f94	-0.033324793
29	0x3d3156e8	0.04329577
30	0x3dc0b9b0	0.09410417
31	0x3e0c494c	0.13699836
32	0xbe0b6ca8	-0.13615668
33	0xbddb31ee	-0.10702883
34	0xbc16e3f8	-0.009209625
35	0xbdb795fd	-0.08964155
36	0xbd992767	-0.074782185
37	0xbd979be1	-0.074027784
38	0xbc91dd3c	-0.017805688
39	0x3dcc9ce9	0.09990866
40	0xbe4959f8	-0.19663227
41	0x3b5e73fd	0.0033943646
42	0x3dfdb591	0.12388147
43	0x3d4c354e	0.049855523
44	0x3bca6d67	0.0061775926
45	0x3db38b32	0.08766784
46	0x3cc1cb51	0.02365652
47	0x3d430732	0.047614284
48	0xbda219d9	-0.07915086
49	0x3e244851	0.16043212
50	0x3b87f9f9	0.004149672
51	0x3d3e51c8	0.04646471
52	0xbd0f728d	-0.035021354
53	0xbb807164	-0.003919767
54	0xbd83b7be	-0.064315304
55	0xbec4e971	-0.38459352
56	0x3c480ea8	0.012210526
57	0x3e0ad15b	0.13556425
58	0xbd0d0fdb	-0.03443895
59	0x3e5a9064	0.21344143
60	0x3cb513ab	0.022104105
61	0x3dce1c07	0.100639395
62	0xbd99eb14	-0.07515541
63	0xbd30040c	-0.04297261
64	0xbe2db981	-0.16965295
65	0xbce0c772	-0.027438853
66	0xbde342a4	-0.11096695
67	0x3da7ef7c	0.08199975
68	0xbcd2fbd8	-0.025754854
69	0xbd47b0e3	-0.048752677
70	0x3cac0bd7	0.02100174
71	0x3dc4b9ae	0.09605728
72	0x3dce5374	0.10074511
73	0xbd7e4e7b	-0.062086564
74	0x3dea812a	0.11450417
75	0xbd30d681	-0.043173317
76	0x3e26623f	0.16248415
77	0xbd616972	-0.0550322
78	0x3e67570f	0.22591804
79	0x3cf607da	0.03003304
80	0xbe1473f2	-0.14497355
81	0x3bb77a79	0.0055993167
82	0x3d4edf9f	0.05050623
83	0xbc7d36b5	-0.015454938
84	0xbe45d310	-0.19318795
85	0xbd550990	-0.052011073
86	0xbe03442c	-0.12818974
87	0x3dce5ffb	0.100769006
88	0x3c9635ac	0.01833614
89	0x3e06ff00	0.13183212
90	0x3c0aa0f5	0.008461227
91	0x3e4ac743	0.19802575
92	0x3d8a7978	0.067614496
93	0xbe299be7	-0.16563378
94	0xbd90967d	-0.07059953
95	0x3cc79502	0.024363045
96	0xbe232582	-0.15932277
97	0x3c192079	0.009346121
98	0xbda2dbde	-0.079520926
99	0xbe02f5ba	-0.1278905
100	0x3e14398c	0.14475077
101	0x3da403f3	0.08008566
102	0xbca5384c	-0.020168446
103	0x3de8b60a	0.11362846
104	0x3e4cc3f3	0.19996624
105	0x3c7262ba	0.014794046
106	0x3dd6c401	0.104866035
107	0x3e101718	0.1407131
108	0x3e756dbb	0.2396764
109	0xbbba3df8	-0.005683657
110	0xbd5fae32	-0.054609485
111	0xbe5b49f3	-0.21414928
112	0xbd89f6d6	-0.06736533
113	0x3cb7362d	0.0223647
114	0x3e64b958	0.22336328
115	0x3c78fefa	0.01519751
116	0x3e2459a1	0.16049816
117	0xbe2497da	-0.16073552
118	0xbd3c111f	-0.045914765
119	0xbd898da3	-0.06716468
120	0x3d0c7317	0.034289446
121	0xbd216bd0	-0.03940946
122	0xbddde706	-0.1083508
123	0x3e33152c	0.17488545
124	0xbcf93ce0	-0.030424535
125	0x3d6640aa	0.056214012
126	0x3cb1030d	0.0216079
127	0x3d5f1311	0.054461543

encoder.2.running_mean f4 [128]
0	0x3f0d4a24	0.55191255
1	0x3f359c5f	0.7094173
2	0x3f575d79	0.84127
3	0x3f1bc4e9	0.60847336
4	0x3f0a4140	0.54005814
5	0x3f4690a9	0.77564484
6	0x3f216ecc	0.6305969
7	0x3f43b630	0.7644987
8	0x3f2071ba	0.6267353
9	0x3f434137	0.76271385
10	0x3f4eaafe	0.80729663
11	0x3f3ed31b	0.7454087
12	0x3f39d1ba	0.7258564
13	0x3f2e7d7b	0.6816022
14	0x3f21527d	0.6301649
15	0x3f5a2bb8	0.8522296
16	0x3f2d6e45	0.6774638
17	0x3f09ec46	0.5387615
18	0x3f2bb223	0.6706869
19	0x3f1c6932	0.61098015
20	0x3f39ba70	0.72550106
21	0x3f0dee0b	0.5544135
22	0x3f1e71a4	0.6189215
23	0x3f2fbd3c	0.68648124
24	0x3f5625c0	0.8365135
25	0x3f0f9924	0.5609305
26	0x3f420742	0.75792325
27	0x3f266a19	0.6500564
28	0x3f3a3a25	0.7274497
29	0x3f09ac05	0.53778106
30	0x3f6dbfc0	0.9287071
31	0x3f1ef4be	0.62092197
32	0x3f527f4c	0.8222549
33	0x3f4a7129	0.7907892
34	0x3efcc168	0.49366307
35	0x3f545491	0.8294154
36	0x3f6de983	0.92934436
37	0x3f3ebf56	0.74510705
38	0x3f2c795e	0.6737269
39	0x3f255650	0.6458483
40	0x3f25e32b	0.64799756
41	0x3f0c0924	0.5470145
42	0x3f2a9ae4	0.66642594
43	0x3f0a4d6a	0.54024374
44	0x3f278eb4	0.6545212
45	0x3f21d45e	0.6321467
46	0x3f2aca11	0.6671458
47	0x3f19d133	0.6008484
48	0x3f4d4f73	0.80199355
49	0x3f1c404c	0.6103561
50	0x3f50deb0	0.81589794
51	0x3f35ceb7	0.71018547
52	0x3ef96826	0.4871227
53	0x3f1052e2	0.5637647
54	0x3f2d3a6e	0.6766728
55	0x3f434ff3	0.7629387
56	0x3f2a40fc	0.6650541
57	0x3f731362	0.9495145
58	0x3f2f0f78	0.6838298
59	0x3f57792d	0.84169275
60	0x3f3591fc	0.7092588
61	0x3f3b7eb7	0.73240227
62	0x3f25d0c7	0.64771694
63	0x3f2b1eb7	0.6684374
64	0x3f175f6e	0.5912999
65	0x3f583d19	0.8446823
66	0x3f4a7d37	0.7909731
67	0x3f53e9ec	0.8277881
68	0x3f3317e8	0.69958353
69	0x3f623b74	0.8837197
70	0x3f235c39	0.63812596
71	0x3f66488a	0.89954436
72	0x3f42c1d3	0.76077
73	0x3f42c776	0.76085603
74	0x3f5d6633	0.8648407
75	0x3f3f95e6	0.748381
76	0x3f4e39ec	0.8055713
77	0x3f1b8bf0	0.607604
78	0x3f4cc90b	0.7999427
79	0x3f2a67a0	0.6656437
80	0x3f337a5a	0.7010857
81	0x3f3ef036	0.7458528
82	0x3f5801f4	0.8437798
83	0x3f589d62	0.8461515
84	0x3f4bfd53	0.7968342
85	0x3f04557b	0.5169293
86	0x3f36f29e	0.71463954
87	0x3f2d74b7	0.6775622
88	0x3f50e43f	0.81598276
89	0x3f21a816	0.63147104
90	0x3f34586e	0.70447433
91	0x3f29b230	0.6628752
92	0x3f501955	0.81288654
93	0x3f35e54f	0.7105302
94	0x3f492ce9	0.7858415
95	0x3f64b30e	0.89335716
96	0x3f402187	0.7505116
97	0x3f2988aa	0.6622416
98	0x3f2c9ad0	0.67423725
99	0x3f282dbf	0.65694803
100	0x3f78039a	0.96880496
101	0x3f29930a	0.6623999
102	0x3f248775	0.6426919
103	0x3f2768c9	0.65394264
104	0x3f3a6868	0.7281556
105	0x3f6938ff	0.91102594
106	0x3f007c5a	0.50189745
107	0x3f754f12	0.95823777
108	0x3f4c740f	0.7986459
109	0x3f5def79	0.8669353
110	0x3f16b8fc	0.58876014
111	0x3f52e2a1	0.8237706
112	0x3f348b1a	0.7052475
113	0x3f2f436e	0.68462265
114	0x3f4faced	0.8112324
115	0x3f1aadd0	0.60421467
116	0x3f530d75	0.8244241
117	0x3ec27e98	0.37987208
118	0x3f463046	0.7741741
119	0x3f35e6cf	0.7105531
120	0x3f3d752b	0.7400691
121	0x3f58d9ee	0.84707534
122	0x3f34cef5	0.7062829
123	0x3f5b9695	0.85776645
124	0x3f857e72	1.0429213
125	0x3f4f7640	0.8103981
126	0x3f54410b	0.8291175
127	0x3f327fda	0.69726336

encoder.2.running_var f4 [128]
0	0x3eff2b42	0.4983769
1	0x3f9ed636	1.2409122
2	0x3faf5384	1.3697362
3	0x3f596ddc	0.8493326
4	0x3ee26b52	0.44222504
5	0x3fbb6b85	1.4642187
6	0x3f3e5934	0.74354863
7	0x3f937e72	1.1522963
8	0x3f837654	1.0270486
9	0x3f964464	1.1739621
10	0x3fb5ee40	1.4213333
11	0x3f9d38b8	1.2282934
12	0x3f674795	0.903436
13	0x3f7a4661	0.9776364
14	0x3f59b6be	0.8504447
15	0x3fac1efd	1.3446957
16	0x3f80eee7	1.0072907
17	0x3f22f9a9	0.636622
18	0x3f4da120	0.8032398
19	0x3f282d2a	0.65693915
20	0x3f945885	1.1589514
21	0x3f10210c	0.56300426
22	0x3f2cfd86	0.67574346
23	0x3f89f8b3	1.0779022
24	0x3fb31e26	1.3993576
25	0x3efa774c	0.4891914
26	0x3f7ce930	0.98793316
27	0x3f7965ce	0.97420967
28	0x3f8daf82	1.1069186
29	0x3f2232f8	0.6335902
30	0x3fb00b08	1.3753366
31	0x3f66b787	0.9012379
32	0x3fae0203	1.3594364
33	0x3f9a2a17	1.2044095
34	0x3f2c15bb	0.6722066
35	0x3fb7a94e	1.4348543
36	0x3fd680ce	1.6758058
37	0x3f9f21bc	1.243217
38	0x3f66b1f5	0.9011529
39	0x3f53fed2	0.828107
40	0x3f5c53cf	0.8606538
41	0x3ef3a0b0	0.47583532
42	0x3f834517	1.025546
43	0x3f0df866	0.5545715
44	0x3f7a17ea	0.9769274
45	0x3f8bf209	1.0933238
46	0x3f528167	0.822287
47	0x3f6d99c7	0.9281277
48	0x3fa6d100	1.3032532
49	0x3f54815e	0.830099
50	0x3f9f7569	1.2457706
51	0x3f8b5591	1.0885488
52	0x3f089c01	0.53363043
53	0x3f2b65a7	0.66951984
54	0x3f4a1f37	0.7895388
55	0x3f978a65	1.183911
56	0x3f870317	1.0547818
57	0x3fdd475d	1.7287403
58	0x3f6336bf	0.8875541
59	0x3fcaa11d	1.5830418
60	0x3f8450b4	1.0337129
61	0x3f96e66a	1.1789067
62	0x3f4c8f23	0.7990591
63	0x3f831f5e	1.0243948
64	0x3f2ec30f	0.68266386
65	0x3fbac90f	1.4592608
66	0x3fa011be	1.2505414
67	0x3f936b67	1.1517152
68	0x3f925ac2	1.1433947
69	0x3f92c644	1.1466756
70	0x3f333952	0.7000934
71	0x3fcd3240	1.603096
72	0x3f6dec63	0.9293882
73	0x3f9f76bf	1.2458113
74	0x3fbc8f04	1.4731145
75	0x3fa281d3	1.2695869
76	0x3fc03445	1.5015951
77	0x3f48f4bf	0.7849845
78	0x3f88a8f2	1.0676558
79	0x3f78e091	0.9721766
80	0x3fa51ef7	1.2900075
81	0x3fa41663	1.2819332
82	0x3fbb85d6	1.4650218
83	0x3fc66c5b	1.5501817
84	0x3f843345	1.0328146
85	0x3f24e4a9	0.6441141
86	0x3f62da8b	0.8861472
87	0x3f52f8b1	0.8241072
88	0x3fab9184	1.3403783
89	0x3f2e3806	0.68054235
90	0x3f8ce30c	1.1006789
91	0x3f47119d	0.7776125
92	0x3f826f30	1.0190182
93	0x3f8b3ad6	1.087733
94	0x3fa7f343	1.3121113
95	0x3fd1767e	1.6364286
96	0x3fb784bc	1.4337382
97	0x3f5b3a14	0.85635495
98	0x3f8b9186	1.0903785
99	0x3f82cc2a	1.0218556
100	0x40058c58	2.086691
101	0x3f83006d	1.0234505
102	0x3f759e8d	0.95945054
103	0x3f67ccc1	0.90546805
104	0x3f874717	1.056857
105	0x3fd82543	1.6886371
106	0x3efa4041	0.48877147
107	0x3ff38414	1.9024682
108	0x3f9c27fd	1.2199703
109	0x3f945d77	1.1591023
110	0x3f769e78	0.96335554
111	0x3fc568c9	1.5422603
112	0x3f86a4eb	1.0519079
113	0x3f85c88f	1.0451831
114	0x3fc0f4ee	1.5074747
115	0x3f4f5cd2	0.8100101
116	0x3face39c	1.3506961
117	0x3ee41243	0.44545183
118	0x3fa56610	1.2921772
119	0x3f764be5	0.96209556
120	0x3f99048c	1.1954513
121	0x3fcd5a0d	1.6043106
122	0x3f903d5b	1.1268724
123	0x3f863342	1.0484393
124	0x400e404d	2.2226746
125	0x3f9c7e6e	1.2226083
126	0x3f9db27e	1.2320096
127	0x3f8b3798	1.0876341

encoder.3.weight f4 [128, 128]
0	0xbcfd2969	-0.030903535
1	0xbe04bd63	-0.1296287
2	0xbe1bd52b	-0.15218036
3	0xbbaad61a	-0.005213511
4	0xbd86b170	-0.06576812
5	0x3d99cdea	0.07509978
6	0xbcce949c	-0.025217347
7	0x3d94898f	0.072528
8	0x3d621bbe	0.05520224
9	0x3ce4e62b	0.027941784
10	0xbb0451e9	-0.0020190424
11	0xbd90f09d	-0.07077143
12	0x3e0f4147	0.13989745
13	0x3da78631	0.08179892
14	0xbdbaeea7	-0.091275506
15	0x3e0dd559	0.13850917
16	0xbd6711cd	-0.05641346
17	0xbd564a27	-0.05231681
18	0x3d2735a2	0.040822633
19	0xbdf21e6e	-0.1182221
20	0xbd20ef27	-0.039290573
21	0x3d8a892d	0.067644455
22	0xbe450161	-0.19238807
23	0xbdb8514b	-0.089998804
24	0x3dc080e3	0.09399583
25	0x3e0995e6	0.13436088
26	0xbd2c6321	-0.042086724
27	0x3d87e797	0.06635969
28	0xbe130524	-0.1435743
29	0xbdc83e3d	-0.09777496
30	0x3ccb9b24	0.02485425
31	0x3d940646	0.07227759
32	0x3d1d9b12	0.038477965
33	0x3d54a10f	0.05191141
34	0xbdad1986	-0.08452134
35	0xbcbd656b	-0.023119649
36	0x3d162f8e	0.036666445
37	0xbad1da7a	-0.0016010546
38	0xbdb1a08b	-0.08673199
39	0xbc29836a	-0.010346273
40	0xbcd514e8	-0.026010945
41	0xbde67ca7	-0.11254244
42	0xbddc47f5	-0.10755912
43	0x3e014b19	0.12626304
44	0xbd34997a	-0.04409168
45	0x3da75c9e	0.08171962
46	0x3d50ee10	0.051008284
47	0x3df03ee9	0.11730749
48	0xbc8e7f57	-0.017394705
49	0xbe241edb	-0.16027395
50	0x3e30a3d5	0.17249997
51	0xbe0c02a9	-0.1367289
52	0x3d5b166d	0.053488184
53	0x3d53007e	0.05151414
54	0x3d049537	0.032368865
55	0x3dca1025	0.098663606
56	0xbc3b02e7	-0.011414266
57	0x3d90ea29	0.070759125
58	0xbe14c3a3	-0.14527754
59	0xbd0c1d08	-0.034207374
60	0x3dc030bc	0.09384295
61	0x3e0a2ac6	0.1349288
62	0xbccb0a7a	-0.024785269
63	0xbdd7e57b	-0.10541817
64	0x3cb66b11	0.02226785
65	0xba7c1a8c	-0.0009616993
66	0x3cad26cc	0.021136664
67	0x3e052fbd	0.13006492
68	0x3c778c33	0.01510911
69	0xbd9ee848	-0.07759148
70	0xbdd487e7	-0.10377484
71	0xbc487ca8	-0.012236752
72	0xbde88039	-0.113525815
73	0x3e064b29	0.13114609
74	0x3e12b09b	0.14325182
75	0xbccf27ef	-0.025287597
76	0x3c8e1dd7	0.017348213
77	0xbdd4e5d0	-0.10395396
78	0x3dabc128	0.08386451
79	0xbb1aaef9	-0.0023602827
80	0x3d792c4e	0.060833268
81	0xbd54b340	-0.05192876
82	0xbbd03555	-0.006354014
83	0x3e0e2a04	0.13883215
84	0xbde98905	-0.114030875
85	0xbd3c50b6	-0.04597541
86	0x3d48e4b2	0.049046226
87	0x3e1f6ff0	0.15570045
88	0xbd661e33	-0.056181144
89	0xbdac2f4c	-0.08407459
90	0xbe19d040	-0.15020847
91	0xbd481d6a	-0.048856176
92	0xbdbaf75a	-0.0912921
93	0x3e35782f	0.17721628
94	0x3dda77d7	0.10667389
95	0x3e14e93a	0.14542094
96	0xbc361e0f	-0.011115565
97	0xbe01e338	-0.12684333
98	0xbd31f73f	-0.043448683
99	0xbba04684	-0.0048912186
100	0x3d833a20	0.06407571
101	0x3d03c353	0.032168698
102	0xbdff4a63	-0.1246536
103	0xbca25a28	-0.01981838
104	0xbd499a97	-0.049219694
105	0xbe4a948c	-0.19783229
106	0x3d93023a	0.07178159
107	0x3d9e3078	0.077240884
108	0x3c369208	0.011143215
109	0xbdfeebf0	-0.12447345
110	0xbd449d9f	-0.04800188
111	0xbcc7eab9	-0.024403917
112	0x3d1b51cd	0.03791981
113	0x3e1c61e2	0.15271714
114	0xbdb82cb2	-0.089929
115	0xbdc73a11	-0.09727872
116	0x3d9019c7	0.07036167
117	0xbd99dd44	-0.07512906
118	0x3d10012f	0.03515738
119	0xbdc605b8	-0.096690595
120	0x3dfd1d01	0.12359048
121	0xbd9b91c0	-0.07596159
122	0x3cb9a9c3	0.022663957
123	0x3e1415b0	0.14461398
124	0xbdc503e4	-0.09619883
125	0x3c909009	0.017646806
126	0xbdb849f7	-0.08998483
127	0x3e13a3c8	0.14417946
128	0xbc817658	-0.015803501
129	0xbda2a71f	-0.07942032
130	0xbdff2c24	-0.12459591
131	0xbc60ae8a	-0.013713488
132	0x3d2f6cd2	0.04282839
133	0x3c73508f	0.01485075
134	0x3e2f3951	0.17111708
135	0x3dcb1361	0.099158056
136	0xbc2d9583	-0.010594728
137	0x3c707308	0.014675863
138	0xbb4a18e3	-0.0030837588
139	0x3e2a6d79	0.16643323
140	0x3e231c99	0.15928878
141	0xbd853c7e	-0.065056786
142	0x3cbd6eeb	0.023124179
143	0xbd932ff8	-0.07186884
144	0xbe0f2918	-0.1398052
145	0x3df53086	0.11972146
146	0x3e01b8f2	0.12668207
147	0xbdf8c24a	-0.12146433
148	0x3e1d7bc1	0.1537924
149	0x3db95e18	0.0905115
150	0xbd8d10b8	-0.068879545
151	0xbc40a3ff	-0.01175785
152	0x3d4a9b57	0.04946455
153	0xbb63a962	-0.0034738411
154	0x3d52df0a	0.051482238
155	0xbd57a991	-0.052651946
156	0x3c155383	0.009114149
157	0x3e142051	0.14465453
158	0x3cee7974	0.029110648
159	0xbdd2afa1	-0.10287405
160	0xbd2e87d6	-0.042610012
161	0xbde9d54a	-0.11417635
162	0x3d90369f	0.07041668
163	0xbda1960e	-0.07889949
164	0xbd231311	-0.039813105
165	0xbdf32337	-0.11871951
166	0xbd43b529	-0.04778019
167	0x3e0e677c	0.13906664
168	0x3d94182d	0.07231174
169	0xbd98fecb	-0.07470473
170	0x3dd6f167	0.104952626
171	0x3d6a5547	0.057210233
172	0x3dbee4e0	0.09320998
173	0x3d298b7e	0.041392796
174	0xbc1092e8	-0.008824088
175	0xbe1a61cc	-0.15076369
176	0x3c160dc8	0.009158559
177	0x3cb45ad1	0.02201596
178	0xbe25016b	-0.16113822
179	0xbd19dcaa	-0.037563957
180	0x3d2ef286	0.042711757
181	0xbdbb8c34	-0.09157601
182	0xbd00e1ce	-0.031465344
183	0xbcbacbc3	-0.02280224
184	0x3c00ba02	0.007856848
185	0xbd234ef3	-0.039870214
186	0xbdde8a26	-0.108661935
187	0x3cb3c2aa	0.021943409
188	0xbcdbdf4a	-0.026839871
189	0xbe07966e	-0.13240978
190	0x3d4983a3	0.049197804
191	0xbca9594f	-0.020672468
192	0x3cc655d3	0.024210846
193	0x3dce45e9	0.10071928
194	0xbe127ec3	-0.14306168
195	0xbd114e45	-0.035475034
196	0xbe257306	-0.16157159
197	0xbcf445dc	-0.029818468
198	0xbd3bebea	-0.045879282
199	0x3de32694	0.110913426
200	0xbd90c5d6	-0.07068984
201	0x3e10d57a	0.14143935
202	0x3e031a5b	0.12803023
203	0x3e169f7a	0.14709273
204	0x3c8ef831	0.017452331
205	0xbd4be036	-0.04977437
206	0x3d9c1794	0.07621685
207	0xbd3397e5	-0.04384603
208	0xbd449d9e	-0.048001878
209	0x3dbd59c5	0.09245638
210	0x3d780652	0.060552903
211	0x3e2ce123	0.16882758
212	0xbd8aa848	-0.06770378
213	0x3e18d2af	0.1492412
214	0x3d6db2ca	0.058031835
215	0x3e0f13fb	0.13972466
216	0x3d8ce8c5	0.06880335
217	0x3cfa4409	0.03055002
218	0xbcaaaf48	-0.020835534
219	0x3d71d0e5	0.059037108
220	0xbb8a03c4	-0.0042118747
221	0xbc0aec12	-0.008479135
222	0x3dbef02f	0.09323155
223	0xbd808dff	-0.062770836
224	0xbe02273f	-0.12710284
225	0x3d8460dc	0.06463787
226	0xbe1f9b49	-0.1558658
227	0x3cf9fab0	0.030515045
228	0x3d95bf87	0.073119216
229	0x3e2f89c2	0.17142394
230	0xbd02465d	-0.031805385
231	0x3dc70990	0.09718621
232	0xbd5854ef	-0.052815374
233	0xbdab0175	-0.08349887
234	0xbdcd267c	-0.10017106
235	0x3d275763	0.040854823
236	0xbdb812d5	-0.08987967
237	0xbe2caace	-0.16862032
238	0xbcd49337	-0.025949104
239	0xbdd989df	-0.10622
240	0xbe436390	-0.19080949
241	0xbca8c9b2	-0.020603988
242	0xbd3fdef1	-0.046843473
243	0xbde39681	-0.11112691
244	0xbd660ede	-0.056166522
245	0xbdb5ae15	-0.08871094
246	0xbdb74d54	-0.08950296
247	0x3df1283b	0.117752515
248	0x3d02f3fa	0.031970955
249	0x3ddef291	0.108861096
250	0x3cdd20ca	0.026993174
251	0x3d74e400	0.05978775
252	0xbe17cbba	-0.1482381
253	0xbe0c3b70	-0.13694549
254	0x3ddda0db	0.10821696
255	0xbd0f6e28	-0.035017163

encoder.3.bias f4 [128]
0	0x3dcaee99	0.0990879
1	0x3d3c5e7a	0.045988537
2	0x3e0a8f0d	0.13531132
3	0x3e178213	0.14795713
4	0x3d45faae	0.04833477
5	0x3e0651b1	0.131171
6	0x3eb1c6d7	0.34722015
7	0x3d8d7928	0.06907874
8	0x3d47d8ab	0.048790615
9	0x3db7fcf1	0.089837916
10	0x3ae559b1	0.0017498044
11	0x3da48205	0.08032612
12	0x3e2c2f9b	0.16815035
13	0x3df63458	0.120217025
14	0x3daa03c0	0.083014965
15	0x3d8767e5	0.06611613
16	0x3d18eb89	0.037334
17	0x3ddfd374	0.10929003
18	0x3dde82b1	0.10864771
19	0x3e2df5b9	0.16988267
20	0x3db0833b	0.0861878
21	0x3e04b91f	0.12961243
22	0x3d617b5e	0.055049293
23	0x3dc57a71	0.096424945
24	0x3e5edece	0.2176468
25	0x3e32ec66	0.17472991
26	0x3dc6eaa1	0.09712721
27	0x3e207469	0.15669407
28	0x3dfb64b6	0.122750685
29	0x3e015dd7	0.12633453
30	0x3dec6f96	0.11544721
31	0x3d8ac9f8	0.06776804
32	0x3d54d66c	0.0519623
33	0x3d06fada	0.032954074
34	0x3d3be974	0.045876935
35	0x3d23a9bf	0.039956804
36	0x3dcb30c2	0.09921409
37	0x3d3493de	0.04408633
38	0x3d97be59	0.07409353
39	0x3d34c444	0.044132486
40	0x3dbbc826	0.09169035
41	0x3e0145eb	0.12624328
42	0x3de8c169	0.11365015
43	0x3df5a94a	0.1199518
44	0x3dc15b47	0.09441238
45	0x3dacab33	0.08431091
46	0x3dc4cce5	0.09609393
47	0x3d9e6835	0.0773472
48	0x3d771531	0.060322944
49	0x3de63c7a	0.11242004
50	0x3cfd9b70	0.030957907
51	0x3e29de72	0.16588762
52	0x3cb5592c	0.022137247
53	0x3e342b74	0.17594701
54	0x3db7ac6d	0.089684345
55	0x3e099f0d	0.1343958
56	0x3de3979f	0.11112904
57	0x3e016c96	0.12639078
58	0x3d74fceb	0.059811514
59	0x3df1946f	0.117958896
60	0x3d265987	0.040612724
61	0x3e49dd8c	0.1971342
62	0x3db1b65b	0.0867736
63	0x3e08a027	0.13342343
64	0x3e267f7f	0.16259573
65	0x3dfcfcd7	0.12352913
66	0x3bca1f13	0.006168255
67	0x3d899fe1	0.067199476
68	0x3db46d2d	0.08809886
69	0x3e4065d4	0.18788844
70	0x3d9da953	0.07698312
71	0x3d9f0640	0.07764864
72	0x3d8ad2a3	0.06778457
73	0x3db21b36	0.08696596
74	0x3db3feb1	0.08788813
75	0x3e120966	0.14261398
76	0x3d16bf4b	0.036803525
77	0x3d9f032c	0.07764277
78	0x3d8667b0	0.065627456
79	0x3e1875c4	0.14888674
80	0x3e0d8327	0.13819562
81	0x3e0be6d3	0.13662271
82	0x3e0a99e1	0.13535263
83	0x3da604b3	0.08106365
84	0x3db35a60	0.08757472
85	0x3deedcdc	0.11663219
86	0x3e1bc071	0.1521013
87	0x3df874a1	0.1213162
88	0x3dbbaf57	0.09164303
89	0x3dbdf68a	0.09275539
90	0x3e007ba3	0.12547164
91	0x3cc62e13	0.024191892
92	0x3d95d2f2	0.07315625
93	0x3db42b5c	0.08797333
94	0x3e4726cd	0.19448395
95	0x3e195c79	0.14976682
96	0x3e007d17	0.12547718
97	0x3e5c1f1a	0.2149624
98	0xbc57d92f	-0.013174339
99	0x3d14ba17	0.03631028
100	0x3dccba21	0.09996439
101	0x3d8a726f	0.06760108
102	0x3d93861d	0.072033145
103	0x3de1f981	0.11033917
104	0x3dcdb663	0.10044553
105	0x3d45bfbb	0.04827855
106	0x3de81ea6	0.11333971
107	0x3dde82cc	0.10864791
108	0x3dc3d93e	0.0956292
109	0x3e077aa6	0.1323038
110	0x3e5460d2	0.20740059
111	0x3e025eb2	0.12731436
112	0x3bf1000e	0.007354743
113	0xbba1d9e5	-0.004939305
114	0x3dbbec09	0.091758795
115	0x3d702d13	0.058636736
116	0x3db9efe2	0.09078957
117	0x3cc8a002	0.02449036
118	0x3de047fc	0.1095123
119	0x3d577297	0.052599516
120	0x3d971ff0	0.073791385
121	0x3e0585cc	0.1303932
122	0x3d33b358	0.043872207
123	0x3e2fc638	0.17165458
124	0x3e0f4938	0.13992774
125	0x3d81559f	0.06315159
126	0x3e0a0845	0.13479717
127	0x3e06c445	0.13160808

encoder.5.weight f4 [128]
0	0x3f750f86	0.9572681
1	0x3f7701b1	0.96486956
2	0x3f7a616f	0.9780492
3	0x3f80e5bc	1.0070109
4	0x3f8623ff	1.0479735
5	0x3f7d6ab0	0.9899092
6	0x3f83b497	1.0289487
7	0x3f791db8	0.9731097
8	0x3f844216	1.0332668
9	0x3f80549b	1.002582
10	0x3f744bf5	0.954284
11	0x3f822e60	1.0170403
12	0x3f810df7	1.0082387
13	0x3f789311	0.97099406
14	0x3f7f39f6	0.99697816
15	0x3f827822	1.0192912
16	0x3f7b6f37	0.98216575
17	0x3f804ca5	1.002339
18	0x3f7a4cb3	0.97773284
19	0x3f6a532d	0.91533166
20	0x3f74f302	0.956833
21	0x3f6e56b8	0.9310107
22	0x3f6e13f9	0.92999226
23	0x3f86096f	1.0471629
24	0x3f8cb364	1.0992246
25	0x3f746ab8	0.9547534
26	0x3f7ec60c	0.99520946
27	0x3f860dda	1.0472977
28	0x3f81dfb5	1.0146395
29	0x3f8046ac	1.0021567
30	0x3f8389b9	1.0276405
31	0x3f815b1a	1.0105927
32	0x3f861a47	1.0476769
33	0x3f7fbf45	0.9990123
34	0x3f8070f4	1.003447
35	0x3f6f74f8	0.93537855
36	0x3f728198	0.94728994
37	0x3f715318	0.94267416
38	0x3f814b91	1.0101186
39	0x3f803bfe	1.0018308
40	0x3f7d5c82	0.9896928
41	0x3f835bc5	1.0262381
42	0x3f86ed34	1.0541139
43	0x3f7e59a3	0.99355525
44	0x3f82a87b	1.0207666
45	0x3f7578b4	0.95887303
46	0x3f791df6	0.9731134
47	0x3f84acfa	1.0365288
48	0x3f8348a3	1.0256542
49	0x3f81fb9d	1.0154911
50	0x3f70e462	0.94098485
51	0x3f6c53f8	0.92315626
52	0x3f834fad	1.025869
53	0x3f7df802	0.99206555
54	0x3f896593	1.0734123
55	0x3f756fde	0.9587382
56	0x3f75f128	0.960711
57	0x3f79f0fe	0.9763335
58	0x3f6d8435	0.92779857
59	0x3f7cd23c	0.9875829
60	0x3f670c4b	0.9025313
61	0x3f82244c	1.0167327
62	0x3f7c5de3	0.9858076
63	0x3f814807	1.0100106
64	0x3f811deb	1.0087255
65	0x3f7a76c6	0.97837484
66	0x3f7772db	0.9665963
67	0x3f779855	0.96716815
68	0x3f7443ca	0.9541594
69	0x3f81e244	1.0147176
70	0x3f791e30	0.9731169
71	0x3f7067e8	0.9390855
72	0x3f868b3f	1.0511245
73	0x3f7c8e23	0.98654383
74	0x3f7d78fe	0.99012744
75	0x3f7b31cb	0.98122853
76	0x3f78983e	0.97107303
77	0x3f74b828	0.955935
78	0x3f79932c	0.9749019
79	0x3f7bfab2	0.98429406
80	0x3f76c4cb	0.9639403
81	0x3f7e572b	0.9935176
82	0x3f7f9c86	0.9984821
83	0x3f7371d5	0.9509557
84	0x3f60da11	0.8783274
85	0x3f8468d5	1.0344492
86	0x3f780d93	0.9689571
87	0x3f7ad61c	0.97982955
88	0x3f8000b5	1.0000216
89	0x3f735538	0.9505191
90	0x3f7ce223	0.9878256
91	0x3f764325	0.96196204
92	0x3f7acbee	0.9796742
93	0x3f6fde90	0.9369898
94	0x3f809b67	1.0047425
95	0x3f82442f	1.0177058
96	0x3f8354b6	1.0260227
97	0x3f7feee5	0.999739
98	0x3f74f370	0.95683956
99	0x3f815fa0	1.0107307
100	0x3f816cc5	1.0111319
101	0x3f72c4b4	0.94831395
102	0x3f7e231f	0.9927234
103	0x3f7b6d6b	0.98213834
104	0x3f829f9c	1.0204959
105	0x3f79705d	0.9743708
106	0x3f6e87a9	0.9317575
107	0x3f863974	1.0486283
108	0x3f705590	0.9388056
109	0x3f7e2ca3	0.9928686
110	0x3f869d47	1.0516747
111	0x3f83ed81	1.0306855
112	0x3f779074	0.9670479
113	0x3f6ad4c0	0.9173088
114	0x3f71841f	0.94342226
115	0x3f8037d2	1.0017035
116	0x3f7f8855	0.998174
117	0x3f76fa06	0.96475255
118	0x3f839f60	1.0283012
119	0x3f79a0f0	0.97511196
120	0x3f7a35ac	0.97738147
121	0x3f85ee27	1.0463303
122	0x3f73911c	0.95143294
123	0x3f896c75	1.0736223
124	0x3f83164a	1.0241177
125	0x3f7ba672	0.9830085
126	0x3f737507	0.95100445
127	0x3f82fb24	1.0232892

encoder.5.bias f4 [128]
0	0xbe69b064	-0.22821194
1	0xbe59db90	-0.21275163
2	0x3e107841	0.14108373
3	0x3e18d552	0.14925125
4	0x3de92218	0.11383456
5	0x3cfff68b	0.03124549
6	0x3e600619	0.21877326
7	0x3d8b02b8	0.06787628
8	0xbca89b93	-0.020581996
9	0x3e0d998f	0.13828109
10	0xbd93f4fd	-0.07224462
11	0xbd77f212	-0.06053359
12	0x3be70fe9	0.007051457
13	0x3de79ced	0.11309228
14	0xbdd8ae6b	-0.105801426
15	0x3d905de1	0.07049156
16	0x3c417319	0.011807227
17	0x3da4d311	0.0804807
18	0x3e026808	0.12734997
19	0xbdfb92b5	-0.122838415
20	0x3e1e85cf	0.15480731
21	0xbdf7007b	-0.120606385
22	0xbd561a13	-0.05227096
23	0xba80b07c	-0.0009818221
24	0x3e189cae	0.14903519
25	0x3de50cee	0.11184107
26	0xbd3ce49b	-0.046116453
27	0x3dcfecdb	0.101525985
28	0xbca874d8	-0.020563528
29	0x3e88bfdd	0.2670888
30	0x3e4e0c92	0.20121983
31	0x3e2d38ed	0.16916247
32	0xbdf45373	-0.11929979
33	0x3d8291a3	0.06375434
34	0xbe2d0673	-0.16896991
35	0x3e4c870a	0.19973388
36	0x3da37b10	0.07982457
37	0x3d73a65e	0.059484832
38	0xbd6db886	-0.058037303
39	0xbc336dec	-0.0109515
40	0x3d2df045	0.042465467
41	0x3cddb3ef	0.027063338
42	0xbd43f0e8	-0.047837168
43	0xbd9c8a4e	-0.07643567
44	0x3d3a64ad	0.04550617
45	0xbc80a179	-0.015701996
46	0xbd69a17e	-0.057038777
47	0xbe0a0c3f	-0.13481234
48	0x3e8b2c3c	0.27182186
49	0x3db78512	0.08960928
50	0xbd222747	-0.03958824
51	0xbd80aee7	-0.0628336
52	0xbd532f49	-0.051558767
53	0xbd8d9cec	-0.06914696
54	0xbd9c5fb9	-0.07635445
55	0x3db1416b	0.086550556
56	0x3db835dd	0.089946486
57	0xbde50508	-0.111826
58	0x3d5586ba	0.05213044
59	0x3dce6c12	0.100792065
60	0xbcf1b025	-0.029502938
61	0x3e2d7e13	0.16942625
62	0x3e1b83c6	0.15186986
63	0x3ca768dd	0.020435745
64	0x3d888015	0.06665055
65	0xbd537459	-0.05162463
66	0x3d030db0	0.031995475
67	0xbdef9276	-0.11697857
68	0x3e62c1fd	0.22144313
69	0x3e101574	0.14070684
70	0x3de777e9	0.11302168
71	0x3df1f86f	0.11814963
72	0x3e29b381	0.16572382
73	0xbdab3203	-0.08359148
74	0xbdcd4d54	-0.10024515
75	0xbe431853	-0.19052248
76	0xbd463613	-0.048391413
77	0x3b1f411d	0.0024300285
78	0xbd6496d6	-0.05580791
79	0xbafd79db	-0.0019338684
80	0x3e26c1cb	0.16284864
81	0xbe40d35a	-0.18830624
82	0x3d75ab15	0.05997761
83	0xbdcc806a	-0.099854305
84	0x3dae1ecd	0.085019685
85	0x3dbb89db	0.09157153
86	0x3d291b85	0.04128601
87	0x3d5b36cc	0.053519055
88	0xbc183c2d	-0.009291691
89	0x3e1a2c2f	0.15055917
90	0x3cb79a08	0.022412315
91	0x3bad4e46	0.005288872
92	0xbd95706c	-0.072968334
93	0xbcc96dfd	-0.02458858
94	0xbdefd7a7	-0.11711054
95	0xbd86c8ec	-0.065812916
96	0xbdfd227b	-0.12360092
97	0x3dfff102	0.124971405
98	0x3db3d92e	0.08781658
99	0xbc241089	-0.010013708
100	0x3df68e36	0.12038843
101	0xbdbaf1c7	-0.091281466
102	0x3e129409	0.14314283
103	0x3b75686c	0.0037446273
104	0x3cf5092e	0.029911604
105	0xbdc94b1d	-0.0982878
106	0x3e528bb0	0.20561099
107	0xbbbb6fb1	-0.0057201018
108	0xbdc5948f	-0.09647476
109	0x3e51409a	0.204348
110	0x3daafef5	0.083494104
111	0x3dc2a368	0.095038235
112	0xbdd293a9	-0.1028207
113	0xbe86fd55	-0.26365152
114	0xbd8bd94f	-0.06828558
115	0xbda1f3bb	-0.07907816
116	0x3c752d14	0.014964361
117	0xbdf56c3e	-0.11983536
118	0xbd8c9258	-0.0686385
119	0xbe26ae02	-0.16277316
120	0x3d86530e	0.0655881
121	0xbd0a5807	-0.033775356
122	0xbdc2527a	-0.094883874
123	0x3ddf3d08	0.10900313
124	0x3d867d4e	0.06566869
125	0xbd571ad3	-0.052515816
126	0x3cd7ba07	0.026333822
127	0xbd14d1a8	-0.036332756

encoder.5.running_mean f4 [128]
0	0x3f5a71f5	0.85330135
1	0x3f4e0247	0.80472225
2	0x3f857a66	1.0427978
3	0x3f9d1154	1.2270913
4	0x3f3eabdd	0.7448099
5	0x3f869457	1.051402
6	0x3fd8e05a	1.6943467
7	0x3f4ce603	0.8003847
8	0x3f4e9bab	0.8070628
9	0x3f5e6491	0.868722
10	0x3f44d21c	0.768831
11	0x3f86cedd	1.053188
12	0x3f92bdfb	1.1464227
13	0x3f687c4a	0.9081465
14	0x3f896654	1.0734353
15	0x3f821e51	1.0165502
16	0x3f4d6108	0.8022618
17	0x3f734ffd	0.9504393
18	0x3f430210	0.7617502
19	0x3f4d6d16	0.80244577
20	0x3f54eb4c	0.83171535
21	0x3f53d54e	0.8274735
22	0x3f869dce	1.0516908
23	0x3f72cdf7	0.9484553
24	0x3fad8ff8	1.3559561
25	0x3f5c344a	0.86017287
26	0x3f6fbe32	0.9364959
27	0x3f8141bd	1.0098187
28	0x3f81ca09	1.0139781
29	0x3f8c3f34	1.0956788
30	0x3f6478ad	0.89246637
31	0x3f72a43c	0.9478185
32	0x3f6d1083	0.9260332
33	0x3f5e433d	0.8682135
34	0x3f21e8cd	0.6324585
35	0x3f6d5fde	0.92724407
36	0x3f524210	0.82132053
37	0x3f5926a9	0.84824616
38	0x3f691b5a	0.9105736
39	0x3f74c012	0.95605576
40	0x3f5ba6f0	0.858016
41	0x3f8a11ff	1.0786742
42	0x3f7b0443	0.9805338
43	0x3f808e67	1.0043458
44	0x3f928e62	1.1449702
45	0x3f34f853	0.7069141
46	0x3f86fd92	1.0546134
47	0x3f5f3ede	0.872053
48	0x3f72a9a7	0.9479012
49	0x3f68a276	0.90872896
50	0x3f208bbc	0.6271322
51	0x3f72ad8b	0.94796056
52	0x3f585ae9	0.8451372
53	0x3f88d5dc	1.0690265
54	0x3f934914	1.1506677
55	0x3f865fe4	1.0498013
56	0x3f7127f6	0.942016
57	0x3f5a2d3f	0.8522529
58	0x3f60297b	0.87563294
59	0x3f665eb3	0.8998825
60	0x3f2d8006	0.67773473
61	0x3f8cbe30	1.0995541
62	0x3f895404	1.0728765
63	0x3f84c37c	1.0372157
64	0x3f83cf3c	1.0297618
65	0x3f6859f2	0.90762246
66	0x3f4a0550	0.78914356
67	0x3f67baf5	0.9051965
68	0x3f6a026a	0.91409934
69	0x3f931a49	1.1492397
70	0x3f497591	0.7869502
71	0x3f692ad3	0.9108097
72	0x3f97545a	1.1822617
73	0x3f822b7e	1.0169523
74	0x3f741a0f	0.9535226
75	0x3f87e793	1.0617546
76	0x3f45950e	0.77180564
77	0x3f604598	0.8760619
78	0x3f3bc8a9	0.7335306
79	0x3f7e0808	0.99231005
80	0x3f81c04f	1.0136813
81	0x3f5177e0	0.8182354
82	0x3f80697c	1.0032191
83	0x3f4f5ff6	0.810058
84	0x3f41a8dc	0.75648284
85	0x3f76b5c4	0.963711
86	0x3f8c1d10	1.0946369
87	0x3f775e37	0.96628135
88	0x3f70bb0f	0.9403543
89	0x3f669c9d	0.9008272
90	0x3f888462	1.06654
91	0x3f2c2b5a	0.6725365
92	0x3f3c37a2	0.7352239
93	0x3f3cc241	0.7373391
94	0x3f6811cd	0.9065216
95	0x3f938280	1.15242
96	0x3f903dde	1.126888
97	0x3f8d9d91	1.106371
98	0x3f20935a	0.6272484
99	0x3f505c78	0.81391096
100	0x3f77fab3	0.9686691
101	0x3f5b671b	0.857042
102	0x3f5d30d3	0.86402625
103	0x3f4ce226	0.80032575
104	0x3f839ba3	1.0281872
105	0x3f412d7d	0.75460035
106	0x3f702b62	0.93816197
107	0x3f8ca71c	1.0988498
108	0x3f615528	0.88020563
109	0x3f709dde	0.93990886
110	0x3f9d22ba	1.2276223
111	0x3f5a04a4	0.8516333
112	0x3f529cd9	0.8227058
113	0x3f19fd1c	0.6015184
114	0x3f81d27a	1.0142357
115	0x3f3ce5bc	0.73788047
116	0x3f84028f	1.0313281
117	0x3f56fe91	0.8398219
118	0x3f7fda89	0.99942833
119	0x3f537ab8	0.8260913
120	0x3f600e53	0.8752186
121	0x3f5a0005	0.8515628
122	0x3f4d4a86	0.8019184
123	0x3f8ad140	1.0845108
124	0x3f57c274	0.84281087
125	0x3f5e0147	0.867207
126	0x3f8da2bb	1.1065286
127	0x3f9b2a82	1.2122347

encoder.5.running_var f4 [128]
0	0x3fcd5ee0	1.6044579
1	0x3fb14449	1.3848964
2	0x400c4434	2.1916628
3	0x40254005	2.5820324
4	0x3fcdbc30	1.6073055
5	0x3ff7dcac	1.9364219
6	0x4035c5d4	2.8401995
7	0x3f9b68be	1.214134
8	0x3fce2126	1.6103866
9	0x3fda4a0f	1.7053851
10	0x3fdcb0b2	1.7241423
11	0x400b06ca	2.1722894
12	0x400b6bf9	2.1784651
13	0x3fc01007	1.5004891
14	0x3ff9b12c	1.9507194
15	0x401043e7	2.2541444
16	0x40059cd2	2.0876966
17	0x401e2de6	2.4715514
18	0x3fba3d39	1.4549934
19	0x3fc578f9	1.5427543
20	0x3fdb2ac4	1.7122426
21	0x3fb17a72	1.3865492
22	0x3fdf1153	1.7427162
23	0x3fd6af93	1.6772331
24	0x4035f6ee	2.8431964
25	0x3fa78564	1.3087583
26	0x3fd4df7a	1.66307
27	0x3ff14753	1.8849891
28	0x40029297	2.0401971
29	0x402a9a64	2.6656733
30	0x4001c651	2.0277293
31	0x3ff18d92	1.8871329
32	0x3ffee442	1.9913409
33	0x3fadf761	1.3591119
34	0x3fa0de45	1.2567831
35	0x4002fcf0	2.046688
36	0x3fa5c85f	1.2951773
37	0x3fcff0d8	1.6245375
38	0x3fc38724	1.5275617
39	0x3fffc4f4	1.998198
40	0x3faaac62	1.3333857
41	0x3ffe1d5f	1.9852713
42	0x401343f0	2.3010216
43	0x3ff81b49	1.9383327
44	0x40261e4b	2.595599
45	0x3faef206	1.366761
46	0x3faec392	1.3653433
47	0x3fc69a6f	1.5515879
48	0x3fed0664	1.8517575
49	0x3fe6ff5b	1.8046678
50	0x3fad14ef	1.3522013
51	0x3fb07eb8	1.3788671
52	0x3ffd96d6	1.9811656
53	0x401d8bb4	2.4616518
54	0x403cd61b	2.950568
55	0x3ffcc866	1.9748657
56	0x4003c023	2.058602
57	0x3fd3cca9	1.6546832
58	0x3ff7a26c	1.9346442
59	0x3fcf76b0	1.6208096
60	0x3f8ba148	1.0908594
61	0x40080979	2.1255782
62	0x4009a00e	2.150394
63	0x400abc26	2.1677337
64	0x3fff47c8	1.9943781
65	0x3ffcb19d	1.9741703
66	0x3fb0391d	1.376743
67	0x3f956ca0	1.1673775
68	0x3fe59ad8	1.793788
69	0x40131f9c	2.2988043
70	0x3f6ea10b	0.9321448
71	0x4003cad8	2.0592556
72	0x402a6c8a	2.6628747
73	0x4008c98c	2.1373014
74	0x3fd03094	1.6264825
75	0x400ad9bb	2.1695392
76	0x3fdbb73f	1.7165297
77	0x3ff9778e	1.948961
78	0x3fc8d947	1.5691308
79	0x3ff1221d	1.8838536
80	0x3fd8db5c	1.6941943
81	0x3fb9edc2	1.4525683
82	0x3ffc0ecd	1.9692017
83	0x3faee9f4	1.3665147
84	0x3f87b4d1	1.0602056
85	0x3fe59b75	1.7938067
86	0x3ff613c0	1.9224777
87	0x3fdd22d9	1.727626
88	0x3ff4572b	1.9089102
89	0x3fdf5007	1.7446297
90	0x3ff873fe	1.9410398
91	0x3fc2b890	1.5212574
92	0x3f99ac5d	1.2005726
93	0x3fb76244	1.4326863
94	0x3fe9a648	1.825387
95	0x3fff135c	1.9927783
96	0x400db031	2.2138789
97	0x400ede00	2.2322998
98	0x3fb49c13	1.411013
99	0x3feb4e77	1.838332
100	0x4013c0e4	2.308648
101	0x3fd384c4	1.6524892
102	0x3fb6c76a	1.4279606
103	0x3fd6a26e	1.676832
104	0x3f9d647f	1.2296294
105	0x3fbb657f	1.4640349
106	0x3fede62f	1.8585871
107	0x40176c20	2.3659744
108	0x3fe21d32	1.766516
109	0x40221e4c	2.5330992
110	0x40074009	2.1132834
111	0x3fb9e0f2	1.4521773
112	0x3fe7f4fe	1.8121641
113	0x3f96f992	1.1794913
114	0x3ff7631e	1.9327123
115	0x3fb2d30c	1.3970656
116	0x4005b116	2.0889335
117	0x40016090	2.0215187
118	0x402fbd3b	2.7459247
119	0x3fd38202	1.652405
120	0x3feb1d9e	1.8368413
121	0x3fd8c242	1.6934283
122	0x3fcf5a1e	1.6199377
123	0x4005529d	2.0831673
124	0x3fc1d848	1.5144129
125	0x3fa7702a	1.3081105
126	0x40134c45	2.3015301
127	0x403d597e	2.9585872
