models/y02vae_D2_layers(8, 8, 8, 8, 8, 8)__mog50_2d_vlim(0.0005, 0.005)_seed43.pt (torch, 41550 bytes, 76 tensors)

encoder.0.weight f4 [8, 2]
0	0xbf30ce2e	-0.69064605
1	0x3f242389	0.6411672
2	0x3ee2f19f	0.44324967
3	0xbedfdc98	-0.43722987
4	0x3f4166d8	0.7554755
5	0x3df906a3	0.12159469
6	0xbeb31b0f	-0.34981582
7	0x3e7d7a44	0.24753672
8	0x3c88d6f6	0.016704064
9	0x3ea27e90	0.31737185
10	0xbe3bfb31	-0.1835754
11	0xbec95a37	-0.3932664
12	0xbc864168	-0.01638861
13	0x3ef3fea0	0.476552
14	0x3eb16f11	0.3465505
15	0x3e846aa8	0.25862622

encoder.0.bias f4 [8]
0	0x3d1d7662	0.038442977
1	0x3f2c5b5d	0.6732691
2	0xbefa3b2f	-0.48873278
3	0xbe330fb6	-0.17486462
4	0x3f043be8	0.5165391
5	0xbe8ddd45	-0.27707878
6	0x3dffe509	0.12494857
7	0x3e992203	0.2990876

encoder.2.weight f4 [8]
0	0x3f835153	1.0259193
1	0x3f815c3d	1.0106274
2	0x3f6c6b2b	0.92351025
3	0x3f7df855	0.9920705
4	0x3f8471ff	1.0347289
5	0x3f800000	1.0
6	0x3f73e865	0.9527648
7	0x3f7f89aa	0.99819434

encoder.2.bias f4 [8]
0	0x3d7d792b	0.061883133
1	0x3e218738	0.15774238
2	0x3e24ad35	0.16081698
3	0xbe5bfbba	-0.21482745
4	0x3d604c4f	0.054760274
5	0x3d7fdbbe	0.06246542
6	0xbe39ce32	-0.18145064
7	0xbe1cafe7	-0.15301476

encoder.2.running_mean f4 [8]
0	0x3de1a103	0.11017039
1	0x3f32b1d6	0.69802606
2	0x3d919a69	0.071095295
3	0x3a98ece8	0.0011667283
4	0x3f2df76c	0.6795566
5	0x00000000	0.0
6	0x3eb1cdff	0.34727475
7	0x3f1c2b56	0.61003625

encoder.2.running_var f4 [8]
0	0x3d00196d	0.031274248
1	0x3d20ca94	0.039255694
2	0x3c3acedf	0.011401861
3	0x384e8da8	4.9246155e-05
4	0x3c066fa6	0.00820533
5	0x00000004	6e-45
6	0x3c9e4148	0.019318238
7	0x3c31d939	0.010855013

encoder.3.weight f4 [8, 8]
0	0xbcdebbca	-0.027189154
1	0x3e1ace3e	0.15117738
2	0x3e2b8898	0.16751325
3	0xbead3571	-0.33829835
4	0xbd03f5bb	-0.03221677
5	0x3f11b975	0.5692361
6	0xbeac668c	-0.33671987
7	0xbe978a73	-0.29597816
8	0x3e87f06b	0.26550612
9	0x3e411b7e	0.18858144
10	0x3dafca19	0.08583469
11	0xbbcff267	-0.0063460353
12	0x3e24c1a8	0.16089499
13	0xbe6906ff	-0.22756575
14	0xbe625b3a	-0.22105113
15	0x3e19d742	0.1502352
16	0xbd918d0f	-0.07106983
17	0xbea861c7	-0.32887098
18	0xbbfd6ef1	-0.0077341725
19	0x3ea76e15	0.32701173
20	0x3e1b03ae	0.15138122
21	0xbd754ffb	-0.05989073
22	0x3eb08aac	0.34480798
23	0x3e9609f4	0.2930447
24	0x3e85cc51	0.26132444
25	0xbda81fcc	-0.0820919
26	0x3e773202	0.2414017
27	0xbd1e8fc3	-0.03871132
28	0x3dda8c6c	0.106713146
29	0x3e7605ed	0.24025698
30	0xbdcf333b	-0.10117193
31	0xbe55ca52	-0.2087796
32	0x3e2338da	0.15939656
33	0xbec48410	-0.38382006
34	0x3dfbda04	0.122974426
35	0x3d69168d	0.05690627
36	0xbd6fba37	-0.058527198
37	0x3d87dbfc	0.066337556
38	0x3e80234b	0.25026926
39	0x3e2b2d72	0.16716555
40	0x3ebff11c	0.3748864
41	0x3e3aaa3d	0.18229003
42	0x3e3ba42e	0.18324348
43	0x3e7bc860	0.24588156
44	0x3d40627c	0.046968922
45	0xbe125641	-0.14290716
46	0xbe69f34e	-0.2284672
47	0xbe4d03b6	-0.20020947
48	0xbe90452d	-0.28177777
49	0xbe867f52	-0.26269013
50	0xbc0e1b1b	-0.008673455
51	0x3dd7a14b	0.10528811
52	0xbe8dafdf	-0.27673241
53	0x3ba097fd	0.004900931
54	0x3e866fea	0.2625726
55	0x3dee5b98	0.11638564
56	0x3e99b619	0.30021742
57	0xbd4c6d5d	-0.049908984
58	0xbe0fe75c	-0.140531
59	0x3ec22112	0.37915856
60	0x3d4d82db	0.05017362
61	0x3cbb1638	0.022837743
62	0x3dbc3639	0.0919003
63	0x3d320484	0.043461338

encoder.3.bias f4 [8]
0	0xbcf6478d	-0.030063415
1	0xbd01f1ae	-0.031724624
2	0xbdc985d5	-0.098399796
3	0x3eb35672	0.3502689
4	0x3e24601a	0.16052285
5	0xbe3848fa	-0.17996588
6	0xbe818bf1	-0.2530208
7	0xbe04598d	-0.12924786

encoder.5.weight f4 [8]
0	0x3f84fe3c	1.0390086
1	0x3f7ae418	0.98004293
2	0x3f80138b	1.0005964
3	0x3f7866c8	0.9703183
4	0x3f66613e	0.8999213
5	0x3f82d12c	1.0220084
6	0x3f822053	1.0166115
7	0x3f7ba6f4	0.98301625

encoder.5.bias f4 [8]
0	0xbda5b5e1	-0.08091331
1	0x3dd8760e	0.10569392
2	0xbb05721c	-0.0020362204
3	0xbc8b041c	-0.016969733
4	0xbd36a373	-0.04458947
5	0xbc9c3c40	-0.019071698
6	0x3a83ecf5	0.0010065126
7	0xbcc7efe2	-0.024406377

encoder.5.running_mean f4 [8]
0	0x3edffb87	0.43746588
1	0x3df78aca	0.12087019
2	0x3e77f921	0.24216129
3	0x3ef1a137	0.4719331
4	0x3ea4d5fe	0.32194513
5	0x3df7b583	0.120951675
6	0x3a2ebea5	0.00066659815
7	0x3e395489	0.18098654

encoder.5.running_var f4 [8]
0	0x3e74497b	0.23856156
1	0x3cedef5d	0.029044801
2	0x3e682bb7	0.22672926
3	0x3db51cc8	0.0884338
4	0x3e578df7	0.21050249
5	0x3da86542	0.082224384
6	0x39476dab	0.00019018973
7	0x3e8d28d2	0.27570206

encoder.6.weight f4 [8, 8]
0	0xbe1831f0	-0.148628
1	0x3be568e6	0.0070010303
2	0x3e39fc06	0.18162546
3	0x3e10b3b3	0.1413105
4	0xbe473a66	-0.19455871
5	0xbe8aaa8e	-0.27083248
6	0x3e18a969	0.14908375
7	0xbeb49ee7	-0.35277483
8	0xbeabcbcb	-0.3355392
9	0xbe58492c	-0.21121663
10	0x3c839600	0.016062737
11	0x3e4129c2	0.18863586
12	0x3d247679	0.040152047
13	0x3dc49d69	0.09600336
14	0xbd1928c2	-0.037392385
15	0xbe53b294	-0.20673591
16	0x3e68c9fb	0.227333
17	0xbc2f4780	-0.010698199
18	0xbe6db4b9	-0.23213471
19	0xbc588825	-0.013216053
20	0xbdc98fb2	-0.09841861
21	0x3ca9b0d3	0.0207142
22	0x3ebab5ff	0.36466977
23	0x3e128380	0.14307976
24	0x3e28d371	0.16486908
25	0xbe445d7d	-0.19176288
26	0x3c36614c	0.011131596
27	0xbd8e0665	-0.069348134
28	0x3e45860a	0.19289413
29	0x3e4b2079	0.19836606
30	0x3e5361a2	0.20642713
31	0x3e10a99c	0.14127201
32	0x3ebe4893	0.37164745
33	0x3df1234a	0.11774309
34	0xbe5dea58	-0.21671426
35	0x3e76b178	0.24091136
36	0x3d723de9	0.059141073
37	0xbd03649d	-0.032078374
38	0xbe01b3ea	-0.12666288
39	0xbd9f929c	-0.077916354
40	0xbedbc05f	-0.42920205
41	0x3bbe3e05	0.005805733
42	0xbe8ee385	-0.2790796
43	0x3dc24dac	0.09487471
44	0x3e9860a5	0.29761234
45	0x3e049722	0.12948278
46	0xbb6e4bea	-0.0036361166
47	0xbd54fb43	-0.051997434
48	0xbea484ba	-0.32132512
49	0x3da5caf9	0.080953546
50	0x3eb6b2a1	0.35683158
51	0xbb0eea8d	-0.0021807284
52	0x3e8ef6cc	0.27922666
53	0x3e15a7dd	0.14614816
54	0xbd096a73	-0.033548784
55	0x3ec1c0c0	0.3784237
56	0x3e389714	0.18026382
57	0x3e24d28e	0.16095945
58	0x3d6f97f5	0.058494527
59	0xbe7a64fc	-0.24452585
60	0xbe08910d	-0.13336582
61	0x3e8120e1	0.25220397
62	0xbe86eff2	-0.2635494
63	0xbec1ab85	-0.37826172

encoder.6.bias f4 [8]
0	0x3e48d4ae	0.19612381
1	0xbd9fe9f8	-0.07808298
2	0xbdf71a39	-0.120655484
3	0xbe800e01	-0.25010684
4	0xbea0c021	-0.31396583
5	0x3e02ceb0	0.12774158
6	0x3e69117a	0.22760573
7	0xbe3c6c7e	-0.18400761

encoder.8.weight f4 [8]
0	0x3f79361f	0.9734821
1	0x3f82e37b	1.0225672
2	0x3f7e8126	0.99415815
3	0x3f738c67	0.9513611
4	0x3f81ea70	1.014967
5	0x3f8c49ba	1.096
6	0x3f847ade	1.0349996
7	0x3f7d2c0f	0.98895353

encoder.8.bias f4 [8]
0	0xbd161267	-0.036638644
1	0xbd73a137	-0.05947992
2	0xbe37a615	-0.17934449
3	0xbdc43422	-0.09580256
4	0x3d921eca	0.07134779
5	0xbdff187b	-0.12455841
6	0xbc099a66	-0.008398628
7	0xbd0dd257	-0.034624424

encoder.8.running_mean f4 [8]
0	0x3e98a826	0.29815787
1	0x3e1bc90a	0.15213409
2	0x3de00d87	0.1094008
3	0x3d7f385c	0.062309608
4	0x3db14f67	0.08657723
5	0x3e9b5283	0.3033639
6	0x3f01cb21	0.50700575
7	0x3e2115c7	0.15730964

encoder.8.running_var f4 [8]
0	0x3d20355a	0.03911338
1	0x3d2aba6a	0.041681685
2	0x3de2fe68	0.110836804
3	0x3e4ab7c5	0.19796665
4	0x3d032e6b	0.03202669
5	0x3df7900e	0.12088023
6	0x3f897517	1.0738858
7	0x3d8d2637	0.068920545

encoder.9.weight f4 [8, 8]
0	0x3cec9ff9	0.028884875
1	0x3e82129a	0.25404817
2	0x3e7c06e5	0.24612005
3	0xbe8a61a1	-0.2702761
4	0x3db21b8e	0.08696662
5	0xbea29690	-0.31755495
6	0xbe934cdd	-0.2876958
7	0xbe71a550	-0.23598218
8	0x3e5199bc	0.20468801
9	0xbe014d96	-0.12627253
10	0xbe46469d	-0.19362874
11	0xbe702698	-0.23452222
12	0xbd910077	-0.07080167
13	0x3dbb0419	0.09131641
14	0x3e712565	0.23549421
15	0xbe9a3220	-0.30116367
16	0xbe8fbc2c	-0.2807325
17	0x3dc08181	0.09399701
18	0x3d0d8af9	0.034556363
19	0x3d8c7626	0.068584725
20	0x3e1e9684	0.15487105
21	0xbe8a7d84	-0.27048886
22	0x3d87ec87	0.06636911
23	0x3ddd1f23	0.107969545
24	0xbe2456bf	-0.16048716
25	0xbec71424	-0.38882554
26	0xbd64bcc6	-0.05584409
27	0xbe3533b7	-0.17695509
28	0x3ce5ed1a	0.02806716
29	0xbecbbe00	-0.39793396
30	0x3da50daa	0.08059247
31	0x3e77ea8a	0.24210563
32	0x3e8f1e0d	0.27952614
33	0x3e840967	0.25788423
34	0x3e724ee5	0.23662908
35	0x3d5bd2fc	0.053668007
36	0xbe460d94	-0.19341117
37	0x3e46d54a	0.19417301
38	0x3dce9361	0.10086704
39	0x3e9baa78	0.30403495
40	0x3cc0063a	0.023440469
41	0x3eaf5b11	0.34249166
42	0xbd6e45b3	-0.05817194
43	0xbe917024	-0.2840587
44	0x3dbf705b	0.09347602
45	0x3d58f909	0.052971873
46	0x3e858e91	0.26085332
47	0xbecbff50	-0.39843225
48	0x3de03e3d	0.10949371
49	0xbbff2905	-0.0077868723
50	0xbe5ba67a	-0.21450225
51	0xbe730ef2	-0.2373617
52	0x3c803e14	0.015654601
53	0xbe14aff8	-0.14520252
54	0xbcc6912d	-0.024239147
55	0xbcf17111	-0.02947286
56	0xbda59e60	-0.08086848
57	0x3ce070fb	0.027397623
58	0xbe40b0f5	-0.18817504
59	0xbe516be3	-0.20451312
60	0xbe7dc86c	-0.24783486
61	0x3d812a9c	0.06306955
62	0x3ea438e0	0.32074642
63	0xbe4c5e7f	-0.19957922

encoder.9.bias f4 [8]
0	0x3e6ebbee	0.23313877
1	0x3e80218c	0.25025594
2	0xbe7039bb	-0.23459522
3	0xbe80e8a5	-0.25177494
4	0x3d00583c	0.031334147
5	0x3e8d5533	0.27604064
6	0x3e33c327	0.17554913
7	0x3e51ca1d	0.20487256

encoder.11.weight f4 [8]
0	0x3f6728e3	0.90296763
1	0x3f810b3c	1.0081553
2	0x3f781eef	0.969222
3	0x3f8dde7d	1.1083523
4	0x3f862aa6	1.0481765
5	0x3f821977	1.0164021
6	0x3f7363c3	0.950741
7	0x3f81c5cb	1.0138487

encoder.11.bias f4 [8]
0	0x3d169cc9	0.036770616
1	0x3e14f81e	0.14547774
2	0xbddf47b5	-0.10902349
3	0xbca2e5e1	-0.019885005
4	0xbe10ff0f	-0.14159797
5	0x3d1b884b	0.037971776
6	0x3c5fc0cd	0.013656807
7	0x3a4bc5d8	0.00077733165

encoder.11.running_mean f4 [8]
0	0x3eb18c6f	0.34677455
1	0x3ef3e2df	0.47634026
2	0x3e32fee7	0.1748005
3	0x3eafabdc	0.34310806
4	0x3e281605	0.1641465
5	0x3ef665f0	0.48124647
6	0x3e9d9b9c	0.30782783
7	0x3ed1e8d0	0.40997934

encoder.11.running_var f4 [8]
0	0x3d6d030f	0.057864245
1	0x3dfbf45c	0.12302467
2	0x3df60150	0.12011969
3	0x3e51af46	0.20477018
4	0x3de48895	0.111588635
5	0x3e9dc3f5	0.30813566
6	0x3d14c3a0	0.036319375
7	0x3e2d0991	0.1689818

encoder.12.weight f4 [8, 8]
0	0x3dcff85d	0.101547934
1	0xbd9cc7b7	-0.0765528
2	0xbe36f8e5	-0.17868383
3	0xbec36093	-0.38159618
4	0xbd75d26e	-0.060015135
5	0x3dae9058	0.08523625
6	0xbea8f995	-0.33002916
7	0x3dc3ac28	0.095543206
8	0xbd5fce2a	-0.054639973
9	0x3e951b05	0.29122177
10	0x3e80b0ef	0.2513499
11	0xbef4cd7c	-0.47813022
12	0xbcbb4b9f	-0.022863207
13	0xbe53ec60	-0.20695639
14	0x3e450180	0.19238853
15	0x3e86ee29	0.26353577
16	0xbdaea323	-0.085272096
17	0xbe534ed3	-0.20635538
18	0x3e830247	0.25587675
19	0x3e8a2841	0.26983836
20	0x3eded357	0.43520615
21	0xbdf235e0	-0.11826682
22	0xbdd52c6e	-0.10408865
23	0x3e36ddbc	0.17858022
24	0x3e9015d3	0.2814165
25	0xbea34630	-0.31889486
26	0x3d501e2c	0.050810024
27	0xbe38c92f	-0.18045495
28	0x3e9960b2	0.29956585
29	0xbe5bd7c6	-0.2146903
30	0xbdca5efc	-0.09881398
31	0xbe7c92d7	-0.2466539
32	0xbe9ece92	-0.31016976
33	0xbe68ba8e	-0.22727415
34	0x3c0dcc9a	0.008654738
35	0x3e27a0fb	0.16370003
36	0x3e8da3ac	0.27663934
37	0xbe43f401	-0.19136049
38	0xbe559071	-0.20855881
39	0xbe11e998	-0.14249265
40	0xbe753b09	-0.23948301
41	0x3d7942a6	0.060854577
42	0xbe31873e	-0.17336747
43	0xbe80ca5f	-0.25154397
44	0xbb7720b0	-0.0037708692
45	0x3eaa5aa0	0.33272266
46	0xbe492cd3	-0.19646005
47	0x3eaf9a16	0.34297246
48	0x3db2a4bc	0.08722827
49	0xbe9bf10d	-0.30457345
50	0x3e53b20a	0.20673385
51	0x3d846a65	0.06465606
52	0xbe917faa	-0.28417712
53	0xbe9ceb08	-0.30648065
54	0xbd1e6317	-0.03866872
55	0xbdc06e84	-0.09396079
56	0x3e0c4d06	0.13701257
57	0x3e4515ee	0.19246647
58	0xbde3f447	-0.111305766
59	0x3ea0667f	0.31328198
60	0xbde70304	-0.11279872
61	0xbe1a5886	-0.15072832
62	0xbe99476e	-0.2993731
63	0xbe3948a8	-0.18094122

encoder.12.bias f4 [8]
0	0x3e7eafab	0.248717
1	0x3e403d04	0.18773276
2	0x3dc14a09	0.09437949
3	0x3e7291ac	0.23688382
4	0xbc4cec1a	-0.012507463
5	0x3e940a09	0.28913906
6	0xbdfc75c9	-0.12327153
7	0x3eaf3a84	0.3422433

encoder.14.weight f4 [8]
0	0x3f6d6407	0.92730755
1	0x3f74456c	0.9541843
2	0x3f78a7fa	0.9713131
3	0x3f73e720	0.95274544
4	0x3f813342	1.0093768
5	0x3f85e357	1.0460004
6	0x3f85b655	1.0446268
7	0x3f601959	0.8753868

encoder.14.bias f4 [8]
0	0xbe1c667a	-0.15273467
1	0x3e3e493b	0.18582623
2	0xbda8e321	-0.082464464
3	0xbc24aa47	-0.010050363
4	0xbdaff796	-0.08592145
5	0xbe8bdff2	-0.27319294
6	0xbc71ee94	-0.014766354
7	0x3e2f5e35	0.17125781

encoder.14.running_mean f4 [8]
0	0x3ec3f4af	0.38272616
1	0x3ee8ffec	0.45507753
2	0x3e90f0d3	0.28308734
3	0x3eac07c0	0.33599663
4	0x3e5777aa	0.21041742
5	0x3f2b8ac8	0.6700864
6	0x3ebd68a8	0.3699391
7	0x3ee1198a	0.43964797

encoder.14.running_var f4 [8]
0	0x3e3ea5c1	0.18617918
1	0x3e406311	0.18787791
2	0x3eb685e0	0.35649014
3	0x3e67e974	0.22647649
4	0x3e448b70	0.19193816
5	0x3f4c30c9	0.7976194
6	0x3e8deda3	0.27720365
7	0x3e6163f6	0.22010788

encoder.15.weight f4 [8, 8]
0	0xbcff5d51	-0.031172426
1	0xbbaab165	-0.0052091354
2	0xbe40643a	-0.18788233
3	0x3c8a5e67	0.016890718
4	0xbd53c455	-0.05170091
5	0xbde40c29	-0.11135132
6	0xbb6bee2f	-0.0036000123
7	0x3e16a19c	0.14710087
8	0xbd87e971	-0.06636322
9	0xbe1af849	-0.15133776
10	0x3d588ee4	0.052870646
11	0x3d994085	0.07483009
12	0xbdb0be4e	-0.08630048
13	0x3da3ae15	0.07992188
14	0x3e9b457e	0.30326456
15	0x3da74eff	0.08169364
16	0x3d33cd4a	0.04389695
17	0x3d08eab2	0.033426948
18	0x3d147cd0	0.036251843
19	0x3e343565	0.17598493
20	0xbe1c6d5c	-0.15276092
21	0xbe6875ec	-0.22701234
22	0xbdaa994c	-0.0833002
23	0x3e3328d0	0.17496037
24	0x3dcfcb62	0.10146214
25	0x3d408eac	0.047011063
26	0xbe7563f3	-0.23963909
27	0x3eb53894	0.35394728
28	0x3eb07349	0.34462956
29	0xbe25239d	-0.16126867
30	0xbe20a69f	-0.15688561
31	0xbe8cfcd4	-0.27536643
32	0xbe1ba48b	-0.15199487
33	0xbcd6acbd	-0.026205415
34	0x3dcd28fc	0.10017583
35	0x3da7fc81	0.08202458
36	0x3e2c2e25	0.16814478
37	0xbebdc66b	-0.37065443
38	0x3e63149b	0.22175829
39	0xbe38fc51	-0.18065001
40	0xbdd1d30c	-0.10245332
41	0xbc63ed83	-0.013911608
42	0x3d9282c4	0.07153848
43	0xbe81e5b1	-0.25370553
44	0x3dd2642e	0.10273014
45	0xbe38df46	-0.18053922
46	0x3eb4a057	0.3527858
47	0x3d203681	0.03911448
48	0xbe10af39	-0.14129342
49	0xbd0597a0	-0.032615304
50	0xbe1e75df	-0.15474652
51	0xbe29e477	-0.16591059
52	0x3dcaf915	0.0991079
53	0xbe37f711	-0.17965342
54	0xbe3f2ac5	-0.18668659
55	0x3da27597	0.07932585
56	0x3dd9f079	0.1064157
57	0x3ec521e7	0.38502428
58	0xbea7abfc	-0.327484
59	0x3ded0ebb	0.11575075
60	0x3e6b219d	0.22962041
61	0x3e2ebc49	0.17064013
62	0xbbf8c60f	-0.00759197
63	0xbe83f0f4	-0.2576977

encoder.15.bias f4 [8]
0	0x3f011785	0.5042651
1	0xbe5f6bfd	-0.21818538
2	0x3f164488	0.5869832
3	0xbe9cd2f1	-0.30629686
4	0xbe53ea09	-0.20694746
5	0xbd2c81b6	-0.04211589
6	0x3ebb2955	0.3655497
7	0xbdd98acd	-0.10622177

encoder.17.weight f4 [8]
0	0x3f7eef67	0.9958405
1	0x3f73706a	0.95093405
2	0x3f899b23	1.0750469
3	0x3f562869	0.8365541
4	0x3f617b8e	0.88079154
5	0x3f868878	1.0510397
6	0x3f6409fb	0.8907773
7	0x3f82879b	1.0197634

encoder.17.bias f4 [8]
0	0xbe702ecf	-0.23455356
1	0x3e8bfe6d	0.2734255
2	0xbcaa0cda	-0.020758081
3	0x3ef22a95	0.47298113
4	0xbeff30ff	-0.4984207
5	0x3f146fed	0.57983285
6	0x3f2c1cd2	0.67231476
7	0x3f499f67	0.78758854

encoder.17.running_mean f4 [8]
0	0x3f172e78	0.5905528
1	0x3e0d5a7e	0.13804051
2	0x3f30361f	0.6883258
3	0x3c459b70	0.012060985
4	0x3e6819df	0.22666119
5	0x3e61dc4a	0.2205669
6	0x3ef1a5fc	0.4719695
7	0x3e624aa3	0.22098784

encoder.17.running_var f4 [8]
0	0x3d77c2ac	0.060488388
1	0x3d7fe336	0.062472545
2	0x3dd0721b	0.10178014
3	0x3d79e904	0.061013237
4	0x3e279f12	0.16369274
5	0x3e22d072	0.15899828
6	0x3d96894b	0.07350405
7	0x3db0ba8e	0.086293325

encoder.18.weight f4 [4, 8]
0	0x3da90a7e	0.08253954
1	0xbd652c9c	-0.055950746
2	0xbccdaabf	-0.025105832
3	0x3df66d61	0.12032581
4	0xbe43b642	-0.19112495
5	0x3e3ff00a	0.18743911
6	0xbd5bfc69	-0.053707514
7	0x3c865ad4	0.016400732
8	0x3ebe6787	0.3718836
9	0x3e57504e	0.21026728
10	0x3ebdf50a	0.37101012
11	0xbe0457f3	-0.12924175
12	0x3dcfbb38	0.10143131
13	0x3e46fbb5	0.19431956
14	0xbd87adb3	-0.06624927
15	0x3d1f39c4	0.03887345
16	0xbe02041d	-0.12696882
17	0xbe258ef1	-0.16167809
18	0x3e2640db	0.16235678
19	0xbe37f83a	-0.17965785
20	0x3e6e1f35	0.23254092
21	0xbdc069cb	-0.093951784
22	0xbcbbcea8	-0.02292569
23	0x3ca20250	0.019776493
24	0x3d81916f	0.063265674
25	0xbdf9cde8	-0.121974766
26	0x3c98fb47	0.018674506
27	0xbebd2a1d	-0.36946192
28	0x3ed8122e	0.4220137
29	0xbf0ebeb6	-0.5575975
30	0xbf26e4cb	-0.6519286
31	0xbf02e42b	-0.51129407

encoder.18.bias f4 [4]
0	0xbe4d5283	-0.20051007
1	0x3d4991c5	0.049211282
2	0x3e885445	0.26626793
3	0xbf694b86	-0.91130865

decoder.0.weight f4 [8, 2]
0	0xbe466d11	-0.19377543
1	0xbeee0e07	-0.46495077
2	0x3f04d580	0.51888275
3	0xbe746818	-0.23867834
4	0x3dd7d5d8	0.10538834
5	0xbf372163	-0.7153532
6	0x3e903419	0.28164747
7	0xbe53ba6c	-0.20676583
8	0xbed87089	-0.42273358
9	0x3ec9de5a	0.39427453
10	0xbd246225	-0.04013266
11	0x3e929615	0.28630129
12	0xbdf35081	-0.11880589
13	0x3ea3331c	0.3187493
14	0xbe8aeb16	-0.2713248
15	0xbd267097	-0.040634718

decoder.0.bias f4 [8]
0	0xbb0f27ea	-0.002184386
1	0x3e186dcc	0.14885634
2	0x3f0f2064	0.559088
3	0xbdd4bc3d	-0.10387466
4	0x3ec8754b	0.39151987
5	0x3c94f4b6	0.018183094
6	0xbf114622	-0.5674764
7	0xbe9ba9e7	-0.30403063

decoder.2.weight f4 [8]
0	0x3f77438c	0.96587443
1	0x3f80bc80	1.0057526
2	0x3f8a438e	1.0801866
3	0x3f6df828	0.9295678
4	0x3f6032b1	0.8757735
5	0x3f8059ad	1.0027367
6	0x3f99bafa	1.2010186
7	0x3f45830f	0.77153105

decoder.2.bias f4 [8]
0	0x3cb781d4	0.022400774
1	0xbe16d888	-0.14731038
2	0xbe875c35	-0.26437536
3	0xbe7ec08c	-0.24878138
4	0xbe0ef448	-0.13960373
5	0x3ca77688	0.020442262
6	0xbddfcac8	-0.10927349
7	0xbe83d94e	-0.25751728

decoder.2.running_mean f4 [8]
0	0x3e4c1986	0.19931611
1	0x3e9f8ed1	0.31163648
2	0x3f26c20e	0.65139854
3	0x3dc0dccd	0.094171144
4	0x3ef37314	0.47548735
5	0x3e0017d5	0.12509091
6	0x3bf865df	0.0075805034
7	0x3c9369d4	0.017994799

decoder.2.running_var f4 [8]
0	0x3dad9654	0.084759384
1	0x3e16e5ae	0.14736053
2	0x3eb2281b	0.34796223
3	0x3ce88780	0.028384924
4	0x3e58362a	0.21114412
5	0x3d00a0ad	0.031403232
6	0x3af21a10	0.0018470902
7	0x3b8235c4	0.0039736945

decoder.3.weight f4 [8, 8]
0	0xbe37bd0b	-0.17943208
1	0xbe9d4f30	-0.30724478
2	0x3e73ba69	0.23801579
3	0x3e27b49e	0.16377494
4	0x3e838d23	0.25693616
5	0x3df9499c	0.12172243
6	0x3e9aba59	0.30220297
7	0xbe0339b6	-0.12814984
8	0xbe1df1e5	-0.15424307
9	0x3e837b2c	0.2567991
10	0xbe7362fd	-0.2376823
11	0xbe765867	-0.2405716
12	0xbe9c304c	-0.30505598
13	0xbe7adbc7	-0.24497901
14	0xbe65b643	-0.22432809
15	0xbe6e8995	-0.23294671
16	0xbc843060	-0.016136348
17	0xbeb1bbc3	-0.34713563
18	0xbde6e6de	-0.11274503
19	0xbed30b1f	-0.41219422
20	0x3eb97d39	0.3622835
21	0x3b3fff04	0.0029296288
22	0x3e5b5e25	0.21422632
23	0xbbbfd8e9	-0.005854715
24	0xbe8ff601	-0.28117374
25	0x3e5b702c	0.21429509
26	0x3d62be66	0.05535736
27	0x3d0d75e6	0.034536265
28	0xbe5f6c3e	-0.21818635
29	0x3ea13ff2	0.314941
30	0x3ed28850	0.41119623
31	0x3e41b55e	0.18916842
32	0x3e506ccf	0.20354007
33	0x3ddb6d9a	0.10714264
34	0xbed5e0c5	-0.41773048
35	0x3c1159a0	0.008871466
36	0xbe789f39	-0.24279489
37	0x3eceaa86	0.40364474
38	0x3e10afd4	0.14129573
39	0x3e078b65	0.13236769
40	0x3e199dcd	0.15001602
41	0xbe949331	-0.29018548
42	0xbedc6b76	-0.43050736
43	0xbeb3879a	-0.35064393
44	0x3bb4880a	0.005509381
45	0x3df75c89	0.120781966
46	0x3d8fdced	0.0702456
47	0xbdfa4578	-0.12220281
48	0x3e50eaa5	0.2040201
49	0x3e381ff4	0.17980939
50	0xbc40f8dc	-0.011778083
51	0xbea72665	-0.3264648
52	0x3ec7ffaa	0.39062244
53	0xbe37b719	-0.1794094
54	0x3e586454	0.21132022
55	0x3dd9e14f	0.10638677
56	0xbe9eb1d8	-0.3099506
57	0x3da28918	0.07936305
58	0xbd6f1912	-0.05837352
59	0x3e1af375	0.15131934
60	0x3e8d40c1	0.27588466
61	0xbea02152	-0.3127542
62	0x3ed34860	0.41266155
63	0x3db381b0	0.0876497

decoder.3.bias f4 [8]
0	0xbed2aaed	-0.4114603
1	0x3eab2da0	0.33433247
2	0xbdd8a04f	-0.105774514
3	0xbd7d202d	-0.061798263
4	0x3eb2c794	0.3491789
5	0x3e57b389	0.21064581
6	0xbe86e5c2	-0.26347166
7	0xbe5a5a33	-0.21323471

decoder.5.weight f4 [8]
0	0x3f9f982e	1.2468317
1	0x3f75db78	0.9603801
2	0x3f7a097a	0.9767071
3	0x3f855590	1.0416737
4	0x3f856e51	1.0424291
5	0x3f7ca27e	0.98685443
6	0x3f75169a	0.9573761
7	0x3f57ec0e	0.84344566

decoder.5.bias f4 [8]
0	0xbe337d69	-0.17528309
1	0xbdd8d934	-0.10588303
2	0xbe166bcc	-0.14689559
3	0x3ddc9add	0.10771725
4	0xbe8735ee	-0.26408333
5	0xbd1db1d4	-0.03849967
6	0xbe8556a9	-0.2604268
7	0xbe0ca6ca	-0.137355

decoder.5.running_mean f4 [8]
0	0x3d9c42f0	0.07629955
1	0x3f24bb71	0.6434851
2	0x3ee1e9f4	0.44123805
3	0x3e1ce4e0	0.15321684
4	0x3ee70d32	0.45127255
5	0x3f358811	0.70910746
6	0x3daaead2	0.0834557
7	0x3d896be1	0.067100294

decoder.5.running_var f4 [8]
0	0x3e379d9f	0.17931221
1	0x3e3280d1	0.17431952
2	0x3eb145f0	0.3462367
3	0x3e97ca0b	0.29646334
4	0x3e9e5845	0.3092672
5	0x3eb65e27	0.35618708
6	0x3dab0bbe	0.08351849
7	0x3e18fa0e	0.14939138

decoder.6.weight f4 [8, 8]
0	0x3ddd3d22	0.10802676
1	0xbebdfef3	-0.37108573
2	0x3de2ad43	0.11068203
3	0x3e02a7ec	0.1275937
4	0xbd953050	-0.072846055
5	0xbecdaf49	-0.40172794
6	0x3dd309c9	0.10304601
7	0xbe8f03db	-0.2793263
8	0xbef9d921	-0.4879847
9	0xbe75da59	-0.24009074
10	0xbe88a892	-0.2669111
11	0x3c403bca	0.011733005
12	0xbeb73518	-0.35782695
13	0xbdeef3b3	-0.11667576
14	0xbeea55d6	-0.45768613
15	0xbe34e0d5	-0.17663892
16	0x3ddf108f	0.1089183
17	0xbecaf0f5	-0.3963696
18	0xbeb1d475	-0.34732404
19	0xbb9c976a	-0.004778792
20	0xbdf13669	-0.11777956
21	0xbe35cffa	-0.17755118
22	0x3d0627ad	0.03275268
23	0xbdac5518	-0.08414668
24	0x3da48997	0.08034056
25	0xbe0dfba6	-0.13865528
26	0x3d8916fd	0.06693838
27	0xbe5131b7	-0.20429121
28	0x3e894685	0.26811615
29	0xbea8bc7c	-0.32956302
30	0x3e9e6b07	0.3094103
31	0x3e36c4bd	0.17848487
32	0x3e9b2727	0.30303308
33	0xbdf21f6c	-0.118223995
34	0x3e019df0	0.12657905
35	0x3e43dfac	0.19128293
36	0x3e5ff3ae	0.218703
37	0xbe0a8a9a	-0.13529435
38	0x3e2c0b1e	0.16801116
39	0x3d254926	0.040352963
40	0x3d3c1b77	0.04592463
41	0xbea42351	-0.32058194
42	0xbe781b6a	-0.24229208
43	0xbd9657a3	-0.07340934
44	0x3e0ba042	0.13635352
45	0xbdc8fea6	-0.09814195
46	0xbdc52cb0	-0.09627664
47	0xbd179061	-0.037002925
48	0x3e8389c0	0.25691032
49	0x3e0d7191	0.13812853
50	0x3d8db164	0.069186
51	0x3e9674c5	0.29385963
52	0xbe15f1a2	-0.14642957
53	0xbdeab1ec	-0.11459717
54	0x3dd039bd	0.10167263
55	0x3e31edb8	0.17375839
56	0x3eec884d	0.4619774
57	0x3e6daa76	0.23209557
58	0x3df4824a	0.11938913
59	0x3e564c58	0.2092756
60	0xbc09f405	-0.008419995
61	0x3e6a8008	0.22900403
62	0xbccd3868	-0.02505131
63	0x3e93c921	0.28864387

decoder.6.bias f4 [8]
0	0x3da50a7d	0.08058641
1	0x3d821490	0.06351578
2	0x3d9b560f	0.07584774
3	0x3c961065	0.018318364
4	0xbe2f7dac	-0.17137784
5	0x3d43c811	0.04779822
6	0xbe7b5040	-0.24542332
7	0x3e04cbab	0.12968318

decoder.8.weight f4 [8]
0	0x3f7a6e0a	0.97824156
1	0x3f74577d	0.95445997
2	0x3f9084ef	1.1290568
3	0x3f619de6	0.8813156
4	0x3f7d6785	0.98986083
5	0x3f697b79	0.9120403
6	0x3f6ad022	0.91723835
7	0x3f75b510	0.95979404

decoder.8.bias f4 [8]
0	0xbc396029	-0.01131443
1	0x3e029391	0.12751605
2	0xbd79337c	-0.060840115
3	0xbce28f60	-0.027656257
4	0xbcad0c16	-0.021123927
5	0xbe080175	-0.13281806
6	0xbdad2e36	-0.0845608
7	0x3d3fa790	0.04679066

decoder.8.running_mean f4 [8]
0	0x3e7fd550	0.24983716
1	0x3f35fc37	0.71087974
2	0x3e915530	0.28385305
3	0x3dcd0352	0.10010399
4	0x3e2462e7	0.16053353
5	0x3e15b174	0.14618474
6	0x3dcef0ac	0.10104498
7	0x3e526505	0.20546348

decoder.8.running_var f4 [8]
0	0x3de47c4c	0.1115652
1	0x3e79e43d	0.24403472
2	0x3e0aa2c4	0.13538653
3	0x3e2ec85e	0.17068622
4	0x3f3bdd77	0.73384804
5	0x3d1fbee3	0.039000403
6	0x3ed71f44	0.4201604
7	0x3f962082	1.1728671

decoder.9.weight f4 [8, 8]
0	0xbe4a7233	-0.19770126
1	0x3dec3527	0.115335755
2	0xbeb7f21b	-0.359269
3	0xbe9e44c0	-0.30911827
4	0x3e2a88bc	0.16653723
5	0x3d97e4db	0.074166976
6	0x3c9a5d2e	0.01884326
7	0x3e9cc406	0.30618304
8	0x3e6fc167	0.23413621
9	0x3d20df7b	0.039275628
10	0x3f0090b8	0.50220823
11	0x3d686440	0.05673623
12	0x3e343b1a	0.1760067
13	0x3e833cc9	0.25632313
14	0x3d9ce249	0.07660348
15	0xbe47e942	-0.19522575
16	0xbe05a872	-0.13052538
17	0x3eae9d6c	0.34104478
18	0xbd04afbf	-0.032394167
19	0xbdb89fec	-0.09014878
20	0xbe7af79d	-0.2450852
21	0xbe86e23a	-0.26344472
22	0x3e900388	0.28127694
23	0x3d96ab87	0.07356935
24	0xbe477f1c	-0.19482082
25	0xbe7f9eb4	-0.24962884
26	0x3e748e60	0.23882437
27	0xbe3b9e1f	-0.18322037
28	0xbd83844d	-0.06421719
29	0x3cbb27f4	0.0228462
30	0x3c17c705	0.009263759
31	0x3d07a4a3	0.033115994
32	0x3e097704	0.13424307
33	0xbb0ca80e	-0.0021462473
34	0x3d814a5d	0.06313012
35	0xbd11e6ff	-0.035620686
36	0x3ed051fb	0.40687546
37	0x3e49f7ec	0.19723481
38	0xbdae5225	-0.085117616
39	0x3db7641d	0.08954642
40	0xbdaec7a4	-0.08534172
41	0xbe576cfd	-0.2103767
42	0xbe7356fb	-0.23763649
43	0xbe11e5d5	-0.1424783
44	0x3e21ff8f	0.15820144
45	0x3cc94f1f	0.02457386
46	0x3d223455	0.03960069
47	0xbe90a150	-0.28248072
48	0xbe17ba9e	-0.14817283
49	0xbebe3c8a	-0.37155563
50	0xbe88ef3d	-0.26745024
51	0xbcea2f6b	-0.028587064
52	0xbcff8fd6	-0.031196516
53	0xbe79a063	-0.24377589
54	0xbe5294c1	-0.20564558
55	0xbe055bdc	-0.13023323
56	0xbe0f2162	-0.13977578
57	0xbe94d146	-0.29065913
58	0x3ab01f8e	0.0013437138
59	0x3bdb83df	0.00669907
60	0x3e419260	0.18903494
61	0x3e4de04d	0.20105095
62	0x3d6a3da2	0.057187684
63	0x3e11b6ba	0.14229861

decoder.9.bias f4 [8]
0	0xbda3d237	-0.0799908
1	0x3e7dcb10	0.24784493
2	0x3edae1ba	0.4275034
3	0xbec25098	-0.37952113
4	0x3db0d411	0.086341985
5	0xbe8a2370	-0.26980162
6	0x3f33da32	0.70254815
7	0xbe8620ac	-0.26196802

decoder.11.weight f4 [8]
0	0x3f6f3bf3	0.9345085
1	0x3f8084a6	1.0040481
2	0x3f6def79	0.9294353
3	0x3f831de6	1.0243499
4	0x3f6bb74f	0.9207658
5	0x3f71ea7d	0.94498426
6	0x3f71b014	0.944093
7	0x3f8c2e7a	1.0951684

decoder.11.bias f4 [8]
0	0x3dfa7ad0	0.12230456
1	0xbe8b49d9	-0.2720478
2	0xbe82a7d1	-0.2551866
3	0x3d82e80b	0.06391915
4	0xbe10090e	-0.14065954
5	0xbe2b56b8	-0.167323
6	0x3e2221fe	0.1583328
7	0x3d6bf09e	0.057602517

decoder.11.running_mean f4 [8]
0	0x3e492925	0.19644602
1	0x3eeb864c	0.46000898
2	0x3f091815	0.5355237
3	0x00000004	6e-45
4	0x3e4f7592	0.20259693
5	0x3d74cf75	0.05976816
6	0x3f61ae5b	0.8815667
7	0x3d9098dd	0.07060406

decoder.11.running_var f4 [8]
0	0x3d80ebb7	0.06294959
1	0x3f2b470d	0.6690529
2	0x3ddc33db	0.10752078
3	0x00000004	6e-45
4	0x3e478f45	0.19488247
5	0x3c0aee89	0.008479723
6	0x3eb516c9	0.35368946
7	0x3df5fcab	0.12011083

decoder.12.weight f4 [8, 8]
0	0xbe3d6110	-0.18494058
1	0xbdd37071	-0.10324181
2	0x3e36ad49	0.1783954
3	0xbe280ff5	-0.16412337
4	0x3e2ca9b6	0.16861615
5	0x3e608e6e	0.21929333
6	0xbe43b67f	-0.19112585
7	0xbdbc8044	-0.09204152
8	0xbe447a0a	-0.19187179
9	0x3edd3816	0.43206853
10	0x3e88cfef	0.2672114
11	0x3e994ff0	0.299438
12	0xbdab4f48	-0.08364731
13	0x3e36028c	0.17774409
14	0xbe01d387	-0.12678348
15	0xbdaf5f27	-0.08563071
16	0x3d38952b	0.045064133
17	0xbea85268	-0.3287537
18	0xbe61d218	-0.220528
19	0xbe341fee	-0.17590305
20	0x3c469d13	0.01212241
21	0x3b0c64b0	0.002142232
22	0x3cfccd30	0.03085956
23	0x3e2dc4d6	0.16969618
24	0xbdd203ef	-0.102546565
25	0x3db9c437	0.09070628
26	0x3cdcbc8f	0.02694538
27	0xbe718f07	-0.23589717
28	0x3db9c679	0.09071059
29	0x3e0035bf	0.12520503
30	0x3dd395d7	0.10331314
31	0xbe5fd0dd	-0.21857019
32	0x3d271570	0.04079193
33	0xbe3f18ce	-0.18661806
34	0x3aa650c2	0.0012688863
35	0x3e19194b	0.14951055
36	0x3d8c075d	0.06837342
37	0x3e0b23dd	0.135879
38	0x3dd2bbcc	0.10289726
39	0xbe942d0e	-0.28940624
40	0x3eaffbac	0.34371698
41	0x3e2ad210	0.16681695
42	0x3caf72d0	0.021417052
43	0xbe8d1f8c	-0.2756313
44	0x3e769de6	0.24083671
45	0xbe145425	-0.14485224
46	0xbd53e428	-0.05173126
47	0x3e5f2622	0.2179189
48	0x3e8c5c1c	0.27414024
49	0xbe3d1081	-0.18463327
50	0xbe7c0309	-0.24610533
51	0x3cc01f88	0.023452535
52	0xbe29db9c	-0.1658768
53	0x3db55f89	0.088561125
54	0x3e82ffd6	0.25585812
55	0x3eb31f31	0.34984735
56	0xbd80e3f3	-0.06293478
57	0xbe6854c7	-0.2268859
58	0xbe237ea4	-0.15966278
59	0x3d743548	0.059621125
60	0xbee70e7a	-0.45128232
61	0x3e529aac	0.20566815
62	0x3e6306be	0.2217054
63	0x3e2db7e5	0.16964681

decoder.12.bias f4 [8]
0	0xbee0e8c1	-0.43927577
1	0xbc584e62	-0.013202282
2	0x3efb722e	0.4911055
3	0xbeb99093	-0.36243114
4	0xbce37b21	-0.027768673
5	0xbe305ba9	-0.17222466
6	0x3eea7494	0.45792067
7	0xbea142be	-0.31496233

decoder.14.weight f4 [8]
0	0x3f8e3c64	1.111218
1	0x3f5151be	0.81765354
2	0x3f79a06c	0.9751041
3	0x3f5e06b2	0.86728966
4	0x3f6f5673	0.93491286
5	0x3f8d7b27	1.1053208
6	0x3f78ff2f	0.9726438
7	0x3f67134d	0.90263826

decoder.14.bias f4 [8]
0	0x3df5acd1	0.11995853
1	0xbe7a93d6	-0.24470457
2	0x3e883d88	0.26609445
3	0xbdc1d787	-0.09464937
4	0x3e5edad1	0.2176316
5	0x3daa723d	0.083225705
6	0xbeb38b70	-0.3506732
7	0xbe7e1df8	-0.2481612

decoder.14.running_mean f4 [8]
0	0x00000004	6e-45
1	0x3de8d17e	0.113680825
2	0x3f267be7	0.6503281
3	0x00000004	6e-45
4	0x3e1de4d9	0.1541933
5	0x3e0e5ece	0.13903353
6	0x3f3e14f4	0.7425072
7	0x3e632548	0.2218219

decoder.14.running_var f4 [8]
0	0x00000004	6e-45
1	0x3d45f090	0.04832512
2	0x3e3637c4	0.1779471
3	0x00000004	6e-45
4	0x3cfca843	0.030841952
5	0x3ed2da99	0.41182402
6	0x3f096575	0.53670436
7	0x3ded59fc	0.11589429

decoder.15.weight f4 [8, 8]
0	0xbe8d4e9e	-0.27599043
1	0x3e5f6dec	0.21819276
2	0xbd126fc0	-0.035751104
3	0x3e271338	0.16315925
4	0x3e67ed0c	0.2264902
5	0x3eb381fa	0.35060102
6	0x3e604240	0.21900272
7	0xbe402411	-0.18763758
8	0x3e7c79a9	0.24655785
9	0xbe0a615f	-0.13513707
10	0x3e8018a1	0.2501879
11	0xbbc8cb8e	-0.0061277812
12	0x3e287a10	0.16452813
13	0x3e0d1008	0.13775647
14	0xbe47296a	-0.19449392
15	0xbe5145ec	-0.2043683
16	0xbe650406	-0.22364816
17	0xbcf19546	-0.029490124
18	0x3ea4360c	0.32072484
19	0xbe3d62cf	-0.18494724
20	0x3d552ff3	0.05204768
21	0x3eb39605	0.35075393
22	0xbe3c5869	-0.18393101
23	0xbd4f09be	-0.0505464
24	0xbe1b0f81	-0.15142633
25	0xbdb9876e	-0.09059034
26	0xbd48358e	-0.0488792
27	0xbe7d3b13	-0.24729566
28	0x3be16291	0.006878205
29	0x3e172986	0.14761934
30	0xbe8fb9aa	-0.28071338
31	0xbdd84b41	-0.105612285
32	0x3ea76fb9	0.32702425
33	0xbda811ad	-0.082064964
34	0x3e77711c	0.24164242
35	0xbcdd33e2	-0.027002279
36	0x3e4628a9	0.19351448
37	0x3e16ff62	0.14745858
38	0xbde7a4a6	-0.11310701
39	0xbe7ac1ff	-0.24488066
40	0xbdd4581f	-0.1036837
41	0x3e34629f	0.17615746
42	0x3e9c8146	0.30567378
43	0xbe447a1a	-0.19187203
44	0xbce46665	-0.027880857
45	0x3ec8263a	0.39091665
46	0x3de1d8fd	0.11027715
47	0xbcfa5c05	-0.030561456
48	0x3ebd6e32	0.36998135
49	0xbc65f09b	-0.014034416
50	0x3e666952	0.22501114
51	0x3da78e9e	0.08181499
52	0xbd7b8a79	-0.061411355
53	0x3ed1a6fb	0.40947708
54	0x3e8625f3	0.26200828
55	0x3de9f3af	0.11423432
56	0x3bf06fcb	0.0073375455
57	0xbd6da95b	-0.058022838
58	0x3e323b9e	0.17405555
59	0x3e1a1984	0.15048796
60	0x3e34f9ea	0.1767346
61	0xbd594a84	-0.05304958
62	0xbe596f59	-0.21233882
63	0x3ce03de9	0.027373271

decoder.15.bias f4 [8]
0	0x3d5074be	0.050892584
1	0x3cd51521	0.026011052
2	0x3e35411c	0.17700619
3	0x3f371a86	0.71524847
4	0x3c7ea665	0.015542601
5	0xbebfca7e	-0.37459177
6	0xbe943b19	-0.28951338
7	0x3e8a1d4f	0.26975486

decoder.17.weight f4 [8]
0	0x3f707881	0.93933874
1	0x3f82d4f7	1.0221242
2	0x3f5f2ce5	0.8717788
3	0x3f8c2175	1.094771
4	0x3f7e5fe3	0.9936506
5	0x3f7b53ab	0.9817454
6	0x3f50d4f3	0.81574935
7	0x3f49a709	0.787705

decoder.17.bias f4 [8]
0	0x3f1d84b4	0.61530614
1	0x3f167bd1	0.5878268
2	0xbf277db9	-0.6542621
3	0xbf4da26e	-0.80325973
4	0xbf06011e	-0.52345455
5	0x3f1df648	0.6170392
6	0xbf2d370c	-0.6766212
7	0xbf253cac	-0.645457

decoder.17.running_mean f4 [8]
0	0x3deed4ac	0.11661658
1	0x3ea9652e	0.33085006
2	0x3ec15e6b	0.37767348
3	0x3f5e242a	0.8677393
4	0x3e9ba73a	0.3040102
5	0x3dc95e77	0.09832471
6	0x3e17424c	0.14771384
7	0x3ed886b2	0.42290264

decoder.17.running_var f4 [8]
0	0x3e54970b	0.20760743
1	0x3d6d9d3b	0.058011275
2	0x3e669a85	0.22519882
3	0x3dc08963	0.094012044
4	0x3d9e73e2	0.07736947
5	0x3eb47a97	0.3524978
6	0x3ee572f7	0.44814274
7	0x3d1edbcb	0.03878383

decoder.18.weight f4 [4, 8]
0	0x3dc68ec9	0.09695203
1	0x3eec910d	0.46204415
2	0xbe291a10	-0.16513848
3	0x3aa01bb7	0.0012215291
4	0xbec1f6a5	-0.37883487
5	0x3e29aca0	0.16569757
6	0xbe4a8b6e	-0.1977975
7	0x3e5ef4e5	0.21773107
8	0xbcbf0820	-0.023319304
9	0x3c92f08a	0.017936964
10	0xbe2df15e	-0.16986606
11	0x3e5596bb	0.2085828
12	0xbe2c472a	-0.16824022
13	0x3e40dd12	0.18834332
14	0x3d9dcc43	0.077049755
15	0x3d023e4f	0.031797703
16	0xbf332f83	-0.6999437
17	0xbf0a5051	-0.54028803
18	0x3f07d3d5	0.53057605
19	0x3ef837c4	0.48480046
20	0x3f282c6b	0.65692776
21	0xbeb764a5	-0.35818973
22	0x3f0ebf41	0.5576058
23	0x3f764dde	0.96212566
24	0xbf200c82	-0.62519085
25	0xbf7a59bf	-0.9779319
26	0x3ef69ce6	0.4816658
27	0x3f5eb68e	0.86997306
28	0x3f855b7c	1.0418544
29	0xbf1e90b0	-0.61939526
30	0x3f6b0eb1	0.9181929
31	0x3f4b8e18	0.7951369

decoder.18.bias f4 [4]
0	0xbe484b7e	-0.19560048
1	0x3ed3b67f	0.4135017
2	0xbecf20ef	-0.40454814
3	0xbf17eb20	-0.5934315
