models/y02vae_D2_layers(4, 4, 4, 4, 4, 4)__gaussian_lattice(2, 2)_var0.01.pt (torch, 38274 bytes, 76 tensors)

encoder.0.weight f4 [4, 2]
0	0xbe854deb	-0.2603601
1	0xbe8673ca	-0.26260215
2	0x3f442b04	0.76628137
3	0x3e53d819	0.20687903
4	0x3ed3894a	0.4131568
5	0x3ed76d17	0.42075416
6	0x3e2e1565	0.17000349
7	0x3f0cc06e	0.54981124

encoder.0.bias f4 [4]
0	0x3ea06bcb	0.3133224
1	0x3e2f4ff4	0.17120343
2	0xbf05892b	-0.52162427
3	0xbe77af45	-0.24187954

encoder.2.weight f4 [4]
0	0x3f7be931	0.98402697
1	0x3f820c67	1.0160035
2	0x3f7e2d05	0.99287444
3	0x3f81838c	1.011827

encoder.2.bias f4 [4]
0	0xbb8b6e28	-0.004255075
1	0x3a91e383	0.0011130426
2	0x3c87e5a9	0.016589003
3	0x3bb61614	0.005556831

encoder.2.running_mean f4 [4]
0	0x3dd75214	0.10513702
1	0x3f285d76	0.6576761
2	0x3da1c7ce	0.07899438
3	0x3e4a40ff	0.19751357

encoder.2.running_var f4 [4]
0	0x3c8270df	0.015922962
1	0x3e28365e	0.1642699
2	0x3c9dfd3c	0.01928579
3	0x3d33eba3	0.043925893

encoder.3.weight f4 [4, 4]
0	0xbea8eb56	-0.32992047
1	0x3e3b444c	0.18287772
2	0x3efc71d7	0.49305603
3	0x3dee183e	0.116257176
4	0xbe7e80a0	-0.24853754
5	0xbee7a638	-0.45244002
6	0xbea1085a	-0.31451684
7	0x3d9d9e7a	0.07696243
8	0x3dda6f82	0.106658
9	0x3d4b44e6	0.049626254
10	0xbc80a00d	-0.015701318
11	0xbe062afc	-0.13102335
12	0xbec48867	-0.38385317
13	0xbed9d730	-0.42546988
14	0x3e57ac1d	0.2106175
15	0x3ec9dd54	0.39426672

encoder.3.bias f4 [4]
0	0xbdf08a56	-0.117451355
1	0x3e282ee6	0.1642414
2	0x3edf5ac6	0.43623942
3	0xbeccb45b	-0.3998135

encoder.5.weight f4 [4]
0	0x3f7d9f9c	0.9907167
1	0x3f7621b4	0.96145177
2	0x3f9cda84	1.2254186
3	0x3f6db557	0.9285483

encoder.5.bias f4 [4]
0	0xbe1547a3	-0.14578108
1	0xbc7abd0d	-0.015303862
2	0xbd63a47a	-0.05557678
3	0xbd223c21	-0.039608125

encoder.5.running_mean f4 [4]
0	0x3eb061e5	0.34449688
1	0x3ea0bad2	0.31392533
2	0x3ede990c	0.4347614
3	0x3deec7b5	0.11659185

encoder.5.running_var f4 [4]
0	0x3ebdb1ee	0.37049812
1	0x3dd6690f	0.10469257
2	0x3d1efbb6	0.03881427
3	0x3cceaac3	0.02522791

encoder.6.weight f4 [4, 4]
0	0x3c6cb97c	0.01444852
1	0xbeaa977f	-0.33318707
2	0xbebcbef3	-0.36864433
3	0xbe3171f3	-0.17328624
4	0x3e02af5c	0.12762207
5	0xbdd02fae	-0.10165344
6	0xbea1384c	-0.31488264
7	0xbee8fb08	-0.45504022
8	0xbe51247f	-0.20424078
9	0xbe616c29	-0.22013916
10	0x3ee25bda	0.44210702
11	0xbe620260	-0.22071218
12	0xbeaa5829	-0.33270386
13	0x3eeb7a53	0.45991763
14	0x3e23b9b9	0.15988816
15	0x3e690f57	0.22759758

encoder.6.bias f4 [4]
0	0xbe9233e7	-0.28555223
1	0xbe43f5cf	-0.19136737
2	0x3e62f997	0.22165523
3	0x3d021401	0.03175736

encoder.8.weight f4 [4]
0	0x3f639367	0.88896793
1	0x3f620621	0.882906
2	0x3f9f0285	1.2422644
3	0x3f88f2df	1.0699118

encoder.8.bias f4 [4]
0	0x3dbcc557	0.09217327
1	0xbd825fac	-0.06365904
2	0xbe222816	-0.15835604
3	0x3ce70044	0.028198369

encoder.8.running_mean f4 [4]
0	0x3ddc6367	0.10761147
1	0x3d45a46b	0.048252504
2	0x3f09d324	0.538378
3	0x3ea64218	0.324723

encoder.8.running_var f4 [4]
0	0x3d10e749	0.03537682
1	0x3c765576	0.015035024
2	0x3e924400	0.28567505
3	0x3e07e653	0.13271455

encoder.9.weight f4 [4, 4]
0	0x3e361c99	0.17784347
1	0xbd247b07	-0.04015639
2	0xbdd8c303	-0.105840705
3	0xbe91c893	-0.28473338
4	0xbeb303d6	-0.34963864
5	0x3eecac51	0.46225217
6	0x3e4812e7	0.1953846
7	0xbe750139	-0.23926248
8	0xbecdb0aa	-0.40173846
9	0xbd472f94	-0.04862936
10	0xbefaca45	-0.48982444
11	0x3e48bd21	0.19603397
12	0xbe36e381	-0.17860223
13	0xbc9618ef	-0.018322436
14	0xbe808f66	-0.25109404
15	0xbec50c61	-0.38486007

encoder.9.bias f4 [4]
0	0x3e1258e3	0.1429172
1	0x3d1fddff	0.03903007
2	0xbeb15ae0	-0.34639645
3	0xbe779547	-0.24178039

encoder.11.weight f4 [4]
0	0x3f808c45	1.0042807
1	0x3f5bdffd	0.85888654
2	0x3f79f875	0.9764474
3	0x3f4b683b	0.7945592

encoder.11.bias f4 [4]
0	0x3dcb78ed	0.09935174
1	0xbcb131ac	-0.02163013
2	0xbd5a1310	-0.053240836
3	0xbdd9ed96	-0.10641019

encoder.11.running_mean f4 [4]
0	0x3e870adc	0.26375473
1	0x3e3279e6	0.17429313
2	0x3e4ec6c1	0.20193006
3	0x3d2a0f63	0.04151858

encoder.11.running_var f4 [4]
0	0x3ddf82d9	0.10913629
1	0x3d485feb	0.0489196
2	0x3e034c17	0.12821995
3	0x3bcca834	0.0062456373

encoder.12.weight f4 [4, 4]
0	0xbe3c975b	-0.18417113
1	0x3e190aff	0.14945601
2	0x3f05d6ab	0.5228068
3	0x3df61a06	0.12016682
4	0x3ec5587e	0.38544077
5	0x3e03232a	0.12806383
6	0xbf044054	-0.51660657
7	0xbc8ec741	-0.017428996
8	0xbbfa9e19	-0.0076482412
9	0xbe23676e	-0.15957424
10	0xbea04c86	-0.31308383
11	0x3e06bb64	0.13157421
12	0x3e9def7e	0.3084678
13	0x3eb7f1c9	0.35926655
14	0xbe169809	-0.14706434
15	0xbd8b3d88	-0.067988455

encoder.12.bias f4 [4]
0	0x3cc55743	0.024089461
1	0x3ef05129	0.4693692
2	0xbebdf4ef	-0.37100932
3	0xbebca1ea	-0.3684228

encoder.14.weight f4 [4]
0	0x3f7171ea	0.94314444
1	0x3f904056	1.1269634
2	0x3f811ce7	1.0086945
3	0x3f4d8584	0.80281854

encoder.14.bias f4 [4]
0	0xbcbc9efb	-0.023025027
1	0x3d91d718	0.07121104
2	0xbd23c979	-0.03998706
3	0x3d25598e	0.04036861

encoder.14.running_mean f4 [4]
0	0x3e53433c	0.20631117
1	0x3f360fcd	0.7111786
2	0x3c9fb9c3	0.019497758
3	0x3da03910	0.07823384

encoder.14.running_var f4 [4]
0	0x3e0e0b33	0.1387146
1	0x3e920b0f	0.28524062
2	0x3b203da9	0.0024450815
3	0x3d70d422	0.058796056

encoder.15.weight f4 [4, 4]
0	0xbee20a10	-0.44148302
1	0xbe44e9ab	-0.19229762
2	0x3d3b96e4	0.045798197
3	0x3cc21f42	0.023696546
4	0xbdf73fe3	-0.12072732
5	0x3ee6ceb1	0.45079568
6	0x3e82bfd6	0.25536984
7	0xbe59dbb1	-0.21275212
8	0xbe3882cf	-0.1801865
9	0x3e9d7fa8	0.30761456
10	0xbf07f0f9	-0.5310207
11	0x3e5472bd	0.20746894
12	0xbc4373c9	-0.011929461
13	0xbe827273	-0.25477943
14	0xbecfefbb	-0.40612587
15	0xbdf8ec2f	-0.121544234

encoder.15.bias f4 [4]
0	0xbf08c38d	-0.53423387
1	0x3dd88bff	0.10573577
2	0x3f212b45	0.6295665
3	0xbeb3d12b	-0.3512052

encoder.17.weight f4 [4]
0	0x3f73b8fb	0.9520413
1	0x3f911f3f	1.133766
2	0x3f2f288d	0.6842125
3	0x3f7f72b0	0.99784374

encoder.17.bias f4 [4]
0	0xbf8fc987	-1.1233376
1	0xbf61be95	-0.8818143
2	0xbf1a9fdc	-0.60400176
3	0xbf19275c	-0.5982568

encoder.17.running_mean f4 [4]
0	0x00000004	6e-45
1	0x3eac7dbd	0.3368968
2	0x3f392b9c	0.7233217
3	0x3d4aee76	0.04954382

encoder.17.running_var f4 [4]
0	0x00000004	6e-45
1	0x3e7fd6ea	0.24984327
2	0x3eaf7e29	0.3427594
3	0x3bf33530	0.007422112

encoder.18.weight f4 [4, 4]
0	0xbee528e1	-0.4475775
1	0x3f297f63	0.6621
2	0x3eda5e6f	0.42650172
3	0xbe970b2c	-0.2950071
4	0xbead0ac6	-0.33797282
5	0xb8903cf3	-6.877808e-05
6	0x3cc647c4	0.024204142
7	0x3c55ac5b	0.013041581
8	0x3fb1145e	1.383434
9	0x3f0bc0b5	0.5459092
10	0xbd4a7f92	-0.049438067
11	0x3f4cfc1c	0.8007219
12	0x3d046bb1	0.032329265
13	0xbb180f4b	-0.0023202475
14	0xbb33e10a	-0.0027447366
15	0xbb02ed6c	-0.001997794

encoder.18.bias f4 [4]
0	0x3e1ce46c	0.15321511
1	0xbeb7a51e	-0.35868162
2	0xbf85e544	-1.0460591
3	0x3cf5c225	0.029999802

decoder.0.weight f4 [4, 2]
0	0x3e4cc065	0.19995268
1	0x3d0f25e6	0.034948252
2	0xbe4e5a61	-0.20151664
3	0xbbadfad2	-0.005309441
4	0xbf46049e	-0.77350795
5	0x3e2da0e1	0.16955902
6	0x3e2773c8	0.16352761
7	0xbcae7b87	-0.021299137

decoder.0.bias f4 [4]
0	0x3e15ebb5	0.14640696
1	0x3e219311	0.15778758
2	0xbee1860a	-0.44047576
3	0x3eda8d4e	0.42685932

decoder.2.weight f4 [4]
0	0x3f48bb66	0.7841095
1	0x3f99f1e1	1.202694
2	0x3f73c94a	0.9522902
3	0x3f8b9384	1.0904393

decoder.2.bias f4 [4]
0	0x3e024189	0.12720312
1	0xbdc40544	-0.09571317
2	0xbdfd077d	-0.12354944
3	0x3e15d25a	0.14631024

decoder.2.running_mean f4 [4]
0	0x3e32fa7a	0.17478362
1	0x3e3fe205	0.18738563
2	0x3e1ac491	0.15114047
3	0x3ed9be86	0.4252817

decoder.2.running_var f4 [4]
0	0x3cd9791e	0.026547011
1	0x3cd6cd8a	0.026221056
2	0x3dabf69d	0.08396647
3	0x3cdce144	0.026962884

decoder.3.weight f4 [4, 4]
0	0x3ecc0e78	0.3985479
1	0xbe5c69ea	-0.21524778
2	0xbda1c316	-0.07898538
3	0x3f0afcdf	0.542921
4	0xbce87626	-0.02837665
5	0x3ee2ca4e	0.4429497
6	0xbc0e0dd0	-0.008670285
7	0xbe4b4e8f	-0.19854186
8	0x3e8b9bb3	0.27267227
9	0xbeb48a81	-0.3526192
10	0xbefea637	-0.49736187
11	0x3ed2ec15	0.4119574
12	0x3e333004	0.17498785
13	0x3eecb691	0.46233037
14	0x3e906a2c	0.28206003
15	0x3e74dcb8	0.23912323

decoder.3.bias f4 [4]
0	0xbe068fd2	-0.131408
1	0x3df4d377	0.11954396
2	0xbe9069f3	-0.28205833
3	0xbeec2ee3	-0.46129522

decoder.5.weight f4 [4]
0	0x3f490d13	0.78535575
1	0x3f8af06f	1.0854625
2	0x3f8eaab8	1.1145849
3	0x3f6f005f	0.9335994

decoder.5.bias f4 [4]
0	0x3cc45a32	0.02396879
1	0xbd7cf616	-0.061758123
2	0x3e1a5a0a	0.1507341
3	0xbdfa55b8	-0.12223381

decoder.5.running_mean f4 [4]
0	0x3f0225b8	0.50838804
1	0x3eae5331	0.34047845
2	0x3f064dd7	0.52462524
3	0x3d996fce	0.07492028

decoder.5.running_var f4 [4]
0	0x3ef4b469	0.47793892
1	0x3e6e9300	0.23298264
2	0x3edb1ef4	0.42797053
3	0x3d13e81a	0.03611002

decoder.6.weight f4 [4, 4]
0	0x3e9efa14	0.3105017
1	0x3f0f57de	0.5599345
2	0xbec40250	-0.38283014
3	0x3f016518	0.5054488
4	0xbdbe05d5	-0.09278456
5	0x3ef5e961	0.48029616
6	0x3e97aae8	0.2962258
7	0xbe8307d4	-0.2559191
8	0xbeb36bab	-0.35043082
9	0x3ec1d1d0	0.37855387
10	0xbe1cb7a3	-0.15304427
11	0xbd9b94da	-0.075967506
12	0xbe00a045	-0.12561138
13	0x3eebc948	0.46052003
14	0xbed594a3	-0.41714963
15	0xbe67465b	-0.22585432

decoder.6.bias f4 [4]
0	0x3e14e360	0.14539862
1	0x3db6157e	0.08890818
2	0x3d347c95	0.044064123
3	0x3e931501	0.28726962

decoder.8.weight f4 [4]
0	0x3f84598f	1.0339831
1	0x3f84a7a0	1.0363655
2	0x3f84165e	1.0319326
3	0x3f70ed18	0.94111776

decoder.8.bias f4 [4]
0	0x3bc5fe46	0.0060422746
1	0x3e025776	0.12728676
2	0x3dd15d68	0.10222894
3	0xbe234b5d	-0.15946718

decoder.8.running_mean f4 [4]
0	0x3edbbbf5	0.42916837
1	0x3e4372bc	0.19086736
2	0x3e996d9e	0.29966444
3	0x3ef3dba6	0.47628516

decoder.8.running_var f4 [4]
0	0x3f4999f3	0.7875053
1	0x3d497843	0.049186956
2	0x3e178364	0.14796215
3	0x3e86433c	0.2622317

decoder.9.weight f4 [4, 4]
0	0xbe8f5a1f	-0.27998444
1	0x3e7662e1	0.24061157
2	0xbef72863	-0.48273
3	0xbde8097d	-0.11329935
4	0x3e4f00d8	0.20215166
5	0x3e27f21f	0.16400956
6	0xbe27eeef	-0.1639974
7	0x3e8bd97e	0.2731437
8	0xbcb5dd4c	-0.02220025
9	0x3e8c7107	0.27429983
10	0x3ed80cd0	0.42197275
11	0xbea3070d	-0.31841317
12	0xbec17590	-0.37785006
13	0xbdac8c8f	-0.08425247
14	0x3f075f1c	0.528795
15	0xbe9b6a26	-0.30354422

decoder.9.bias f4 [4]
0	0xbe918fe9	-0.28430107
1	0x3e9da5f5	0.30790678
2	0x3c2b1b7b	0.010443564
3	0x3eaf3b8d	0.3422512

decoder.11.weight f4 [4]
0	0x3f8b6155	1.0889078
1	0x3f770b52	0.9650165
2	0x3f87556c	1.0572944
3	0x3f57d2ee	0.8430623

decoder.11.bias f4 [4]
0	0x3ebc198f	0.3673825
1	0x3ceb83c7	0.02874936
2	0x3c87b31b	0.016564896
3	0x3b5bbfa2	0.003353097

decoder.11.running_mean f4 [4]
0	0x3e0a85fc	0.13527673
1	0x3e92cc9b	0.28671727
2	0x3e700ec3	0.23443131
3	0x3ee03538	0.43790603

decoder.11.running_var f4 [4]
0	0x3d06facd	0.032954026
1	0x3e0c18bf	0.13681315
2	0x3dda4873	0.1065835
3	0x3ccb8f6a	0.024848659

decoder.12.weight f4 [4, 4]
0	0x382de70b	4.146159e-05
1	0xbe155e46	-0.14586744
2	0xbe8d2675	-0.27568403
3	0xbd4c4e53	-0.049879383
4	0x3eb93df5	0.36180082
5	0xbeccf626	-0.40031546
6	0xbec577ea	-0.3856805
7	0xbdf8c009	-0.12146003
8	0xbef085fd	-0.46977225
9	0xbe256fb5	-0.16155894
10	0xbf059964	-0.5218718
11	0x3c580993	0.013185876
12	0xbe0c9a1d	-0.13730665
13	0xbeceefad	-0.40417233
14	0x3d963c74	0.07335749
15	0xbe1f8c64	-0.15580899

decoder.12.bias f4 [4]
0	0xbec7d999	-0.390332
1	0xbe9ad89d	-0.30243388
2	0xbce6d9a2	-0.028179947
3	0xbebab9e6	-0.36469954

decoder.14.weight f4 [4]
0	0x3f78b58b	0.9715201
1	0x3f8e7487	1.1129311
2	0x3f52ea97	0.82389206
3	0x3f7155d7	0.94271606

decoder.14.bias f4 [4]
0	0xbb72e523	-0.0037062846
1	0xbd203fc9	-0.03912333
2	0x3d04f782	0.032462604
3	0xbd847c95	-0.06469075

decoder.14.running_mean f4 [4]
0	0x00000004	6e-45
1	0x3e7f11fe	0.24909207
2	0x3e8029bc	0.2503184
3	0x00000004	6e-45

decoder.14.running_var f4 [4]
0	0x00000004	6e-45
1	0x3da15a74	0.07878581
2	0x3d948335	0.07251588
3	0x00000004	6e-45

decoder.15.weight f4 [4, 4]
0	0x3ea3e39d	0.32009593
1	0xbe5b0e2e	-0.21392128
2	0xbe34f236	-0.17670521
3	0x3d348d6a	0.044080175
4	0x3eacc82e	0.33746475
5	0xbeeccd3f	-0.4625034
6	0xbe14e114	-0.14538985
7	0xbe53c037	-0.20678793
8	0x3d7739d1	0.060357872
9	0x3f14cec4	0.58128
10	0x3e7e88a1	0.24856807
11	0x3ed75616	0.42057866
12	0xbcf7dd3d	-0.030256862
13	0x3e6413a0	0.22273111
14	0x3c4ae9b2	0.012384819
15	0x3e89d2ca	0.26918632

decoder.15.bias f4 [4]
0	0xbe0144d7	-0.12623917
1	0x3dfe2a79	0.12410445
2	0xbf09f5ed	-0.5389088
3	0x3e69cf30	0.22832942

decoder.17.weight f4 [4]
0	0x3f06c96c	0.52651095
1	0x3f8e4e6c	1.1117682
2	0x3e0bb1a1	0.13641979
3	0x3f96f977	1.1794881

decoder.17.bias f4 [4]
0	0x3f805da4	1.0028577
1	0x3f1be24d	0.6089218
2	0x3fc910c0	1.5708237
3	0x3efd82fe	0.49514002

decoder.17.running_mean f4 [4]
0	0x3d5dde5f	0.054167148
1	0x3e935fcd	0.28784028
2	0x3d6353fd	0.05550002
3	0x3e570f59	0.21001948

decoder.17.running_var f4 [4]
0	0x3c11e392	0.008904355
1	0x3dbc4b15	0.09194008
2	0x3c2c1cf9	0.0105049545
3	0x3d65b4f8	0.05608079

decoder.18.weight f4 [4, 4]
0	0x3ee6aeb9	0.45055178
1	0xbf0de25f	-0.5542354
2	0xbe2de902	-0.16983417
3	0x3d54a3a2	0.051913865
4	0x3e9ae768	0.30254674
5	0x3f13c1e0	0.57717705
6	0xbe0b3e77	-0.13598047
7	0x3f2d529e	0.6770419
8	0xbf96bad0	-1.1775761
9	0xbedfa338	-0.43679214
10	0xbf5b9a04	-0.85781884
11	0xbf46d1b9	-0.7766376
12	0xbf23e37e	-0.64019
13	0x3cdb16d8	0.026744291
14	0xbfd908b3	-1.695578
15	0xbe7f2386	-0.24915895

decoder.18.bias f4 [4]
0	0x3f1fb5f7	0.6238703
1	0xbe8b168d	-0.27165642
2	0xbf64da85	-0.89395934
3	0xbf8d1dc0	-1.1024704
