models/y02vae_D64_layers(128, 128, 128)__banana_dim64_b0.02_sigma5.0.pt (torch, 493438 bytes, 42 tensors)

encoder.0.weight f4 [128, 64]
0	0x3e373b7f	0.1789379
1	0x3d1eac87	0.038738754
2	0x393d618f	0.00018060788
3	0x3f522708	0.82090807
4	0x3aff10b4	0.0019459934
5	0xbcc23f8c	-0.023711942
6	0xbbdf24e2	-0.0068098167
7	0xbda25f45	-0.079283275
8	0x3c334132	0.010940837
9	0xbc80eeb5	-0.015738824
10	0x3b666472	0.0035155085
11	0xbd3ae9fd	-0.045633305
12	0x3da3c01d	0.07995627
13	0xbcbebbae	-0.023282852
14	0xbc91e535	-0.01780949
15	0x3d353fb8	0.04425022
16	0xbba0241b	-0.0048871166
17	0xbf1f8d00	-0.62324524
18	0x3c03c4c7	0.008042521
19	0x3ea9ac58	0.331393
20	0x3d53a411	0.051670138
21	0xbe570bef	-0.21000646
22	0xbb0e731a	-0.0021736086
23	0xbd675152	-0.056474037
24	0xbd0a3afc	-0.033747658
25	0xbdc6dd47	-0.09710174
26	0xbe1b982f	-0.15194772
27	0x3bd04fa2	0.006357149
28	0x3d05b009	0.032638583
29	0x3d991a68	0.0747574
30	0xbc034fef	-0.008014663
31	0x3c8db5d0	0.017298609
32	0x3db518e6	0.088426396
33	0xbd33c06b	-0.043884676
34	0xbd1d57f9	-0.038413975
35	0xbec76083	-0.3894082
36	0xbb849ac4	-0.00404677
37	0xbde617a9	-0.112349816
38	0x3c810e5c	0.015753917
39	0xbd70ac17	-0.058757868
40	0x3bf0e48e	0.0073514646
41	0xbd4b293f	-0.049599882
42	0xbc187b24	-0.009306703
43	0x3c6cbfb5	0.014450003
44	0x3aaf017e	0.0013351885
45	0x3f72f997	0.94912094
46	0x3cd5a8f5	0.026081542
47	0xbc9696f4	-0.018382527
48	0xbd0033d2	-0.03129942
49	0xbb658e8a	-0.0035027587
50	0xbdd04042	-0.10168506
51	0x3d954343	0.0728822
52	0xbcab95f4	-0.020945527
53	0x3eba20c6	0.3635313
54	0x3e96cff3	0.29455528
55	0xbc3b20ae	-0.011421366
56	0xbc2b9e36	-0.010474732
57	0xbc99b516	-0.018763106
58	0x3e341955	0.17587788
59	0xbe122564	-0.14272076
60	0xbdbf9f61	-0.09356571
61	0xbd8290da	-0.063752845
62	0x3ca4f334	0.0201355
63	0x3f2c5f97	0.6733336
64	0x3af9b4f5	0.0019051122
65	0xbe1b4b88	-0.15165532
66	0x3a5215b2	0.0008014097
67	0x3f4c60fc	0.79835486
68	0x3a62e606	0.0008655492
69	0xbc7131cf	-0.014721348
70	0x3bebe8ec	0.0071993973
71	0x3dae4376	0.08508961
72	0x38f48621	0.0001165981
73	0xbcfabcfb	-0.030607691
74	0x3b5001e6	0.0031739413
75	0x3b9d8f43	0.004808338
76	0x3d8fad11	0.07015432
77	0xbc8835f9	-0.016627299
78	0x3be1e5ca	0.006893848
79	0xbcc1b569	-0.023646073
80	0x3c67fffa	0.014160151
81	0x3f8274bf	1.0191878
82	0xbc4364b5	-0.011925866
83	0x3e3db6bf	0.18526743
84	0xbd26a826	-0.040687703
85	0x3e1e011c	0.1543011
86	0xbc838ace	-0.016057398
87	0xbc51ebf0	-0.0128126
88	0xbd116231	-0.035494033
89	0x3c3aca68	0.0114007965
90	0xbd125413	-0.03572471
91	0xbc92fee0	-0.0179438
92	0x3b81b7d7	0.003958683
93	0x3e09a778	0.1344279
94	0x3bef4ffd	0.0073032365
95	0x3bc5f623	0.0060413047
96	0xbc300f12	-0.010745781
97	0xbdbf89a7	-0.09352427
98	0xbb5a00ac	-0.003326456
99	0x3fd43009	1.6577159
100	0x3b5aa921	0.003336497
101	0x3da416c1	0.080121525
102	0xbb4ff0ac	-0.0031729145
103	0xbcf4836e	-0.029847827
104	0x3b8dc7b0	0.004326783
105	0x3d533aef	0.051569875
106	0x3c29a22c	0.010353606
107	0xbc5089a7	-0.012728131
108	0xbc84446d	-0.01614591
109	0x3f17849c	0.5918672
110	0x3d93498d	0.07191763
111	0x3d8c669d	0.068555094
112	0x3d4d4e46	0.050123475
113	0xbd1d2a1e	-0.038370244
114	0xbc6ca127	-0.014442719
115	0xbcf91f24	-0.030410357
116	0xbc146a7e	-0.009058593
117	0xbf575fc6	-0.84130514
118	0xbd0dfc37	-0.03466436
119	0x3d1682c2	0.036745794
120	0xbc203b7f	-0.00977981
121	0xbc8bb224	-0.017052718
122	0xbc9fb805	-0.019496927
123	0x3df6d697	0.120526485
124	0xbcc27596	-0.02373771
125	0x3d887457	0.06662815
126	0xbc80bd2a	-0.0157152
127	0x3eb18776	0.3467366
128	0x3d89b03e	0.06723069
129	0xbe29f52d	-0.16597433
130	0xbba44e5b	-0.0050142235
131	0xbdd5310d	-0.10409746
132	0xbc8a8de9	-0.016913371
133	0xbc996fa7	-0.018729998
134	0xbc454bc6	-0.012041992
135	0xbc86f221	-0.016472878
136	0x3c438912	0.011934536
137	0xbba9df97	-0.0051841247
138	0x3c47dfdb	0.012199367
139	0xbd0724f3	-0.032994222
140	0xbe55dba3	-0.20884566
141	0xbab32cbe	-0.001366995
142	0xbbb44f50	-0.005502619
143	0xbce0497e	-0.027378794
144	0xbcbdd183	-0.023171192
145	0x3e2237eb	0.15841644
146	0x3c42f8bd	0.011900124
147	0xbe6c3abf	-0.23069285
148	0xbc05c2e1	-0.0081641385
149	0x3e149c19	0.14512672
150	0x3ca7ec7e	0.02049851
151	0x3d46b002	0.048507698
152	0x3e008f8f	0.12554763
153	0xbdb35a82	-0.08757497
154	0xbd3f80ba	-0.046753623
155	0xbd157050	-0.036484063
156	0x3c8df15d	0.017327005
157	0x3e635000	0.22198486
158	0x3ce4b72e	0.027919378
159	0xbd3664ff	-0.04452991
160	0xbc4c65dd	-0.012475458
161	0xbddfa89b	-0.10920831
162	0xbd44188d	-0.047874976
163	0xbe8548df	-0.2603216
164	0x3c915209	0.017739313
165	0xbdb9750b	-0.09055527
166	0x3c3b7fc4	0.011444036
167	0xbc4cf237	-0.01250892
168	0xbb941658	-0.004519265
169	0x3db707b9	0.0893702
170	0x3cc4b69a	0.024012852
171	0xbbb6f0cb	-0.005582904
172	0x3ca87224	0.020562239
173	0x3df9d3a5	0.12198571
174	0x3cae9eb5	0.021315912
175	0x3d1683be	0.036746733
176	0x3f23283c	0.6373327
177	0x3eb9abf4	0.36264002
178	0xbd675072	-0.056473203
179	0xbcc11ce8	-0.023573354
180	0x3c8314bd	0.0160011
181	0xbe714010	-0.23559594
182	0xbd016cae	-0.031597786
183	0xbd544d99	-0.051831815
184	0x3c82dd58	0.015974686
185	0xbc9cbf5f	-0.019134222
186	0xbe698009	-0.22802748
187	0x3e918037	0.28418133
188	0x3d899fb9	0.06719918
189	0x3db3ebf1	0.087852366
190	0x39d94846	0.00041443313
191	0x391d521a	0.00015003272
192	0xbdb87aee	-0.09007822
193	0xbeae96c3	-0.34099397
194	0x3d116540	0.03549695
195	0x3f535bf5	0.8256219
196	0xbb08fd3b	-0.002090289
197	0x3d6508c9	0.05591658
198	0x3cc92daa	0.024557907
199	0xbcfe19ad	-0.031018103
200	0x3b4c08b2	0.0031133112
201	0xbba0d127	-0.0049077454
202	0x3b1dcd15	0.0024078537
203	0x3d280dbb	0.04102872
204	0x3d13dc0c	0.036098525
205	0x3d31ea8b	0.04343657
206	0x3bdcf730	0.0067433342
207	0x3c50eb50	0.012751415
208	0x3a99f9e5	0.0011747448
209	0xbde451e8	-0.11148435
210	0x3c5c8daa	0.01346151
211	0x3f8dc2d8	1.1075087
212	0xbc849e49	-0.016188757
213	0x3bbf4a71	0.0058377315
214	0x3c385434	0.011250544
215	0x3dad8cbf	0.08474111
216	0xbcd04509	-0.025423544
217	0x3d3bf7d8	0.04589066
218	0x3e0608ae	0.13089249
219	0x3b25f580	0.0025323331
220	0xbcc37afd	-0.023862356
221	0xbe93add9	-0.28843573
222	0xbcb298c9	-0.02180137
223	0xbd13442f	-0.035953697
224	0x3d8df137	0.06930774
225	0x3c21ae8f	0.009868278
226	0x3c16f06e	0.009212596
227	0x3f42ce04	0.76095605
228	0xba49ed93	-0.0007702943
229	0xbc252bc2	-0.010081233
230	0xbbb66131	-0.0055657853
231	0x3bfd259c	0.0077254307
232	0xba5d0db0	-0.00084325206
233	0x3c8b94de	0.017038759
234	0x369f6fa2	4.751565e-06
235	0x3afc3096	0.0019240554
236	0x3aac68e4	0.0013153818
237	0xbf2a263a	-0.6646458
238	0x3d9dd803	0.077072166
239	0x3bce5ddc	0.00629781
240	0xbdead725	-0.11466817
241	0xbd1ea8f8	-0.03873536
242	0x3d883a97	0.066518
243	0xbd84b194	-0.06479183
244	0x3c212898	0.009836338
245	0x3f8e32eb	1.1109289
246	0x3e917e59	0.28416708
247	0x3ce89bbd	0.028394574
248	0xb9eeefda	-0.000455736
249	0x3c86d6b0	0.016459793
250	0xbc55f690	-0.013059273
251	0x3dc6269c	0.09675333
252	0x3d824cd0	0.06362307
253	0x3d309758	0.043113083
254	0x3afe2b8f	0.0019391644
255	0xbe184702	-0.14870837

encoder.0.bias f4 [128]
0	0x3caad87d	0.020855183
1	0x3e5ab154	0.21356708
2	0x3e83ab9b	0.25716862
3	0xbd3ab4f5	-0.04558273
4	0x3e4096a1	0.1880746
5	0x3e4cd0da	0.20001546
6	0x3ead6dd2	0.3387285
7	0x3ddc8d88	0.107691824
8	0x3e1d14b1	0.15339924
9	0xbd1b7e62	-0.037962325
10	0x3dbf4b88	0.09340578
11	0xbdb34b3a	-0.08754583
12	0x3d7ad285	0.061235923
13	0x3cdf9b23	0.027295655
14	0x3bc17753	0.005904117
15	0x3e116296	0.14197764
16	0x3e4c358b	0.199423
17	0xbda7fc84	-0.082024604
18	0x3e29ca90	0.16581178
19	0x3d1935c4	0.03740479
20	0x3d79da5f	0.06099927
21	0x3d3da28c	0.046297595
22	0x3e3e4091	0.18579318
23	0x3d2ab663	0.041677844
24	0x3e63b8bd	0.22238441
25	0x3e753727	0.2394682
26	0x3d993fed	0.07482896
27	0x3ecb4787	0.3970301
28	0x3caa3147	0.02077545
29	0xbc2f6b82	-0.010706784
30	0x3dcd45ec	0.10023102
31	0xbc42a5a4	-0.011880312
32	0x3d83a2f8	0.06427568
33	0x3de9b9c5	0.11412386
34	0x3d97efa8	0.07418758
35	0x3d36208a	0.044464625
36	0x3dc10941	0.09425593
37	0x3d91e4e5	0.07123736
38	0x3da1c07b	0.07898041
39	0x3de5444c	0.11194667
40	0x3e99519b	0.29945073
41	0x3e918adf	0.28426263
42	0x3e44370d	0.19161625
43	0x3dd86fc1	0.1056819
44	0x3daa7af0	0.0832423
45	0x3e2723cd	0.1632225
46	0xbba6957a	-0.005083737
47	0xbd643f78	-0.05572459
48	0xbd972d5d	-0.07381699
49	0xbc2434e2	-0.010022374
50	0x3d9f4795	0.07777325
51	0x3ea59746	0.32341975
52	0x3eaaf19f	0.33387467
53	0x3dd1aaa8	0.10237628
54	0x3e870bdf	0.26376244
55	0x3d9d98ce	0.07695161
56	0x3dc5c153	0.09656014
57	0x3e85b3bc	0.2611369
58	0x3da143ea	0.07874282
59	0xbcaf4263	-0.02139396
60	0x3f0bd135	0.546161
61	0x3e815c41	0.25265697
62	0x3dfb6096	0.12274282
63	0x3eceb527	0.40372583
64	0x3edd8ae8	0.4327004
65	0x3ea3ca8d	0.3199047
66	0xbae23b3f	-0.0017260088
67	0x3da46fbf	0.080291264
68	0xbc8dc46a	-0.017305572
69	0x3e460b19	0.19340171
70	0x3dac5444	0.0841451
71	0xbe406f96	-0.18792567
72	0x3dd546f1	0.104139216
73	0x3d8778db	0.06614848
74	0x3ca57076	0.020195227
75	0x3cd6be23	0.026213711
76	0x3e96758b	0.29386553
77	0x3e0a2c7b	0.1349353
78	0x3e960c3c	0.2930621
79	0x3e88bb15	0.26705232
80	0x3ddd84c4	0.10816339
81	0xbd0ed71c	-0.034873113
82	0xbc107049	-0.008815833
83	0x3e36fa5d	0.17868944
84	0xbcc167c4	-0.02360905
85	0x3e1124ce	0.14174196
86	0xbb7fd876	-0.0039038933
87	0x3ca595e2	0.020213071
88	0x3eb6ca88	0.35701394
89	0x3dbc85fc	0.09205243
90	0x3e496e58	0.19670999
91	0x3ec93685	0.39299408
92	0x3db2b4b2	0.08725871
93	0xbda37fa6	-0.079833314
94	0x3da90995	0.08253781
95	0x3c9bfac7	0.019040478
96	0x3dc9a164	0.09845236
97	0x3d54e9ee	0.051980905
98	0x3ef5bb69	0.47994545
99	0x3e479764	0.19491345
100	0xbdb8d703	-0.09025385
101	0x3e0273da	0.12739506
102	0x3d46f282	0.048571117
103	0x3e878e65	0.26475826
104	0x3dfb78c4	0.122788936
105	0x3e34b7d7	0.17648254
106	0x3c69dfea	0.014274577
107	0x3e018e4e	0.12651941
108	0x3cf19d5c	0.02949398
109	0x3dbcfd68	0.09228021
110	0x3d189501	0.037251476
111	0x3cefa5d1	0.029253872
112	0x3e891cac	0.26779687
113	0x3d7879c5	0.060663003
114	0x3e96d690	0.29460573
115	0x3e45529e	0.19269797
116	0x3df56db9	0.119838186
117	0x3c9a828d	0.01886108
118	0x3de2af75	0.11068622
119	0x3b3d1518	0.0028851684
120	0x3dc539c4	0.096301585
121	0x3c12681d	0.008935955
122	0x3e67abd7	0.22624145
123	0x3e4c6072	0.19958666
124	0x3d459990	0.04824215
125	0x3e2b83cc	0.16749495
126	0x3e2d69ec	0.16934937
127	0x3e878d96	0.2647521

encoder.2.weight f4 [128]
0	0x3f5d02e1	0.8633252
1	0x3f7552e0	0.9582958
2	0x3f1e1346	0.6174816
3	0x3f6ea55f	0.93221086
4	0x3f45f47d	0.77326185
5	0x3ef6a9c2	0.4817639
6	0x3f45ba90	0.77237797
7	0x3f4743ef	0.77838033
8	0x3f3b648e	0.7320031
9	0x3f632456	0.8872732
10	0x3f3065ac	0.6890514
11	0x3f621e09	0.8832708
12	0x3f6728d8	0.902967
13	0x3f4fdd39	0.81196934
14	0x3f315d17	0.6928267
15	0x3f6809a6	0.9063972
16	0x3f3c7c84	0.73627496
17	0x3f77e501	0.9683381
18	0x3f1dc2de	0.6162547
19	0x3f61fb30	0.88273907
20	0x3f2b4701	0.6690522
21	0x3f61b362	0.8816434
22	0x3f2effd4	0.6835911
23	0x3f43efad	0.7653759
24	0x3f1e498b	0.6183097
25	0x3f4a97ac	0.7913768
26	0x3f3cd62b	0.73764294
27	0x3f6136bd	0.8797415
28	0x3f362ea7	0.71164936
29	0x3f695dd4	0.91158795
30	0x3f685da5	0.9076789
31	0x3f65dd48	0.89790773
32	0x3f2b753f	0.6697578
33	0x3f14db7a	0.58147395
34	0x3f67917b	0.9045636
35	0x3f3eabbe	0.7448081
36	0x3f1ab957	0.60439056
37	0x3f40f64b	0.75375813
38	0x3f023ea0	0.5087681
39	0x3f4eede6	0.80831754
40	0x3f63f4c8	0.8904538
41	0x3f291b43	0.66057223
42	0x3f3eff63	0.7460844
43	0x3f62bddc	0.8857095
44	0x3f3ae3b1	0.7300368
45	0x3f2db636	0.67856157
46	0x3f2bf1cb	0.6716582
47	0x3f5640f3	0.83692855
48	0x3f47bcd5	0.7802251
49	0x3f6c0d8b	0.92208165
50	0x3f5a8584	0.8535998
51	0x3f4944fa	0.78620875
52	0x3f19c592	0.60067093
53	0x3f2b7ef6	0.669906
54	0x3f102402	0.56304944
55	0x3f400ac9	0.75016457
56	0x3f3ae5d7	0.7300696
57	0x3f228b65	0.6349395
58	0x3f4ff24a	0.8122908
59	0x3f459b01	0.7718964
60	0x3f825f56	1.0185344
61	0x3f1fbd03	0.62397784
62	0x3f2f6449	0.685124
63	0x3f5cacbd	0.8620108
64	0x3f3a23b1	0.7271071
65	0x3f35ca82	0.7101213
66	0x3f6c79d4	0.92373395
67	0x3f491714	0.7855084
68	0x3f584dbe	0.84493625
69	0x3f1fa197	0.6235594
70	0x3f3ec4d2	0.74519074
71	0x3f7147b5	0.9425004
72	0x3f29c7a7	0.6632027
73	0x3f335488	0.7005086
74	0x3f55daf6	0.8353723
75	0x3f4ab87b	0.79187745
76	0x3f158278	0.58402205
77	0x3f714a87	0.94254345
78	0x3f36feeb	0.71482724
79	0x3f309ef7	0.6899256
80	0x3f6bd80c	0.92126536
81	0x3f71c121	0.94435316
82	0x3f7ea5a5	0.99471503
83	0x3f08def7	0.5346522
84	0x3f68e49e	0.9097384
85	0x3f66c312	0.90141404
86	0x3f686605	0.9078067
87	0x3f56eec6	0.8395809
88	0x3f44746a	0.76740134
89	0x3f613ca8	0.8798318
90	0x3f3a87ce	0.7286347
91	0x3f3eaf10	0.74485874
92	0x3f151336	0.5823244
93	0x3f765e5a	0.9623772
94	0x3f334f82	0.70043194
95	0x3f71798e	0.943261
96	0x3efdf0d8	0.49597812
97	0x3f805afe	1.0027769
98	0x3f705578	0.93880415
99	0x3f1862c2	0.5952569
100	0x3f724cbd	0.94648343
101	0x3f21e152	0.63234437
102	0x3f7685eb	0.9629809
103	0x3f1feba7	0.6246895
104	0x3f2c14c3	0.6721918
105	0x3f291cdc	0.6605966
106	0x3f3be619	0.73397976
107	0x3f50c7d7	0.8155493
108	0x3f7fd11a	0.9992844
109	0x3f679db5	0.90475017
110	0x3f74b899	0.95594174
111	0x3f684cbe	0.907421
112	0x3f56ab9f	0.83855623
113	0x3f718a34	0.94351506
114	0x3f3d337c	0.73906684
115	0x3ee8fd50	0.45505762
116	0x3f2c0af5	0.6720422
117	0x3f36589c	0.7122896
118	0x3f64e78e	0.89415824
119	0x3f62ade0	0.8854656
120	0x3f5d0be8	0.8634629
121	0x3f60b772	0.87779915
122	0x3ebdcbfa	0.37069684
123	0x3f446101	0.76710516
124	0x3f5f8dff	0.87326044
125	0x3f43c0ae	0.7646588
126	0x3f5a0a45	0.8517192
127	0x3f5632f2	0.83671486

encoder.2.bias f4 [128]
0	0x3f5bc505	0.858475
1	0x3f49b41f	0.7879047
2	0x3f6b1313	0.9182598
3	0x3f18012a	0.59376776
4	0x3f94ed69	1.1634952
5	0x3e920fc0	0.2852764
6	0x3e9cbfbf	0.3061504
7	0x3f094609	0.5362249
8	0x3f3cc1eb	0.73733395
9	0x3f863957	1.0486249
10	0x3f35263b	0.7076146
11	0x3ec4e312	0.3845449
12	0x3fa6e352	1.3038123
13	0xbdc3a5b4	-0.0955309
14	0xbeec560e	-0.46159405
15	0x3f68b5dd	0.909025
16	0x3e70030d	0.23438664
17	0xbecceaaa	-0.40022784
18	0x3eea2f8a	0.45739394
19	0x3f1ac59b	0.6045777
20	0x3f4f651a	0.81013644
21	0x3d77fa7f	0.060541626
22	0x3ebb40a6	0.3657276
23	0xbf8076fa	-1.0036309
24	0x3ec59e00	0.38597107
25	0xbe7cdea3	-0.24694304
26	0xbe6a0c5d	-0.22856279
27	0x3f07762d	0.52914697
28	0xbe9f3bbc	-0.3110026
29	0x3e10e5db	0.14150183
30	0x3f17ee5d	0.5934809
31	0x3db1350c	0.08652696
32	0x3eccbc77	0.39987537
33	0xbd0d3eb3	-0.034483623
34	0x3e106168	0.14099658
35	0x3eea03c3	0.45705995
36	0xbd8b272c	-0.06794581
37	0xbebc92a9	-0.36830643
38	0xbcc0937f	-0.023507832
39	0x3ea02c0a	0.312836
40	0x3f7eabda	0.99480975
41	0x3e82f52f	0.25577685
42	0x3f114ba7	0.5675606
43	0xbd121512	-0.035664625
44	0x3ed023b4	0.4065224
45	0x3e562246	0.20911512
46	0x3f96b42a	1.1773732
47	0xbea01fbf	-0.3127422
48	0x3f23ee5e	0.64035594
49	0x3cf923b0	0.030412525
50	0xbf1229c3	-0.57094973
51	0x3f43a1f4	0.76418996
52	0xbf3bef6f	-0.7341222
53	0x3e9f526c	0.3111757
54	0x3e44f23a	0.19233027
55	0xbf4d931d	-0.803026
56	0xbf99f645	-1.202828
57	0x3fd3e698	1.6554747
58	0xbe3409da	-0.17581883
59	0x3dd6c1be	0.10486172
60	0x3efc2bbe	0.49252123
61	0x3e9ee096	0.3103072
62	0x3f19a95f	0.60024065
63	0x3f485ed8	0.7826972
64	0x3f394f51	0.7238665
65	0x3f025636	0.509128
66	0x3f391b8a	0.72307646
67	0xbdbc0d0d	-0.09182177
68	0x3f262b8b	0.6491019
69	0x3efa58aa	0.4889577
70	0xbed6e81e	-0.41973966
71	0x3b12f446	0.002242343
72	0x3eab6d3d	0.3348178
73	0xbeb98da6	-0.36240882
74	0x3f3406c3	0.7032282
75	0xbf39d86b	-0.7259585
76	0x3ebe6ca1	0.37192252
77	0x3f01cfa9	0.5070749
78	0xbd7e57dc	-0.062095508
79	0x3ea75c6a	0.32687694
80	0x3dcfd4b5	0.101479925
81	0xbec11027	-0.37707636
82	0xbee16c47	-0.44027922
83	0xbdbb591e	-0.09147857
84	0xbe4c0b4b	-0.19926183
85	0xbdb9a638	-0.09064907
86	0x3f0a7e94	0.5409939
87	0xbf5b36ec	-0.8563068
88	0xba9785eb	-0.0011560296
89	0xbdda4e4f	-0.106594674
90	0x3ee5645f	0.4480314
91	0x3fa06cda	1.2533219
92	0xbe0515cd	-0.12996598
93	0xbe206003	-0.15661626
94	0x3f4fb164	0.8113005
95	0x3f819c61	1.0125848
96	0xbe2f2d42	-0.17107108
97	0xbcde6fdd	-0.02715295
98	0x3f5686c5	0.8379939
99	0x3f4b3711	0.793809
100	0xbe5fce75	-0.21856101
101	0xbf36570c	-0.71226573
102	0x3e42217d	0.18958087
103	0x3ebc63b3	0.36794814
104	0xbe941ad6	-0.28926724
105	0x3ccff46e	0.025385108
106	0x3fa3818e	1.2773912
107	0x3f5cbc2e	0.8622464
108	0xbe53315a	-0.20624295
109	0x3e7f0a14	0.24906188
110	0x3e4f6f2f	0.20257257
111	0x3d7d043c	0.061771616
112	0x3f6b2b83	0.9186327
113	0xbd33c19a	-0.043885805
114	0x3f678e0d	0.9045113
115	0x3f7572c7	0.9587826
116	0x3f64f2f6	0.8943323
117	0xbd97ac90	-0.074059606
118	0xbd8a834c	-0.06763324
119	0x3f322c0e	0.6959847
120	0x3de33074	0.11093226
121	0x3d957254	0.07297197
122	0x3f445d9e	0.7670535
123	0xbd3306a3	-0.0437075
124	0x3e38f36a	0.18061605
125	0xbe0b6653	-0.13613252
126	0x3f036079	0.5131908
127	0x3b0bdd94	0.0021341788

encoder.2.running_mean f4 [128]
0	0x3f9f8c5d	1.246471
1	0x3fa5bc33	1.2948059
2	0x3fcd7ee6	1.6054351
3	0x3f9dc092	1.2324393
4	0x3fe14ddb	1.7601885
5	0x3f9af05a	1.21046
6	0x3f991948	1.196084
7	0x3fcc2fb0	1.5952053
8	0x3f849ada	1.0359757
9	0x40086a15	2.1314747
10	0x3fda50de	1.7055929
11	0x3f8536ef	1.0407389
12	0x3fc1eebc	1.5150981
13	0x3fdf5d5a	1.7450364
14	0x3f8b6b99	1.0892211
15	0x40092c19	2.1433165
16	0x3fcc0e8a	1.5941937
17	0x40094421	2.1447833
18	0x3fb015e0	1.3756676
19	0x3f99d0bf	1.2016829
20	0x3fbf61fb	1.4951776
21	0x400a70a4	2.163125
22	0x3f7b6a59	0.9820915
23	0x3fd53280	1.6656036
24	0x3f87a2fc	1.0596614
25	0x3fa0c11f	1.2558936
26	0x3fc37d39	1.527259
27	0x3ff4ca81	1.9124299
28	0x3fc03d7a	1.5018761
29	0x3fb97e1d	1.4491612
30	0x3fbdcc5c	1.482799
31	0x3fe9d7d0	1.8268986
32	0x3febef4a	1.84324
33	0x3fa9096f	1.3206004
34	0x3ffaff23	1.9609112
35	0x3fb2df90	1.3974476
36	0x3fafaeb5	1.3725191
37	0x3ffa542c	1.9556937
38	0x3fc22652	1.5167944
39	0x3fb8553f	1.4401015
40	0x3fe1b287	1.7632607
41	0x3fa54baf	1.2913722
42	0x3fd049f6	1.6272571
43	0x4005d634	2.091199
44	0x3fdbc945	1.7170798
45	0x3fc28058	1.5195417
46	0x3ff898cd	1.9421631
47	0x3f8c8472	1.0977919
48	0x3fb1b1c2	1.3882372
49	0x3fd60ec7	1.672326
50	0x3fd77bda	1.6834671
51	0x40047930	2.0698967
52	0x3fd3f768	1.6559877
53	0x3f8f0ee0	1.1176414
54	0x3f8ffdec	1.1249366
55	0x3fd7e6bb	1.6867288
56	0x3ff3931f	1.9029273
57	0x3fce9e27	1.6142014
58	0x3f9307d0	1.1486759
59	0x3fa4c9d0	1.2874088
60	0x4007bf28	2.1210423
61	0x3fb66dce	1.425226
62	0x3fb7e91d	1.4368016
63	0x3fe3c2a0	1.779377
64	0x3f97ecd8	1.1869154
65	0x3f94c802	1.1623538
66	0x3fb36378	1.401473
67	0x3fed4a25	1.8538252
68	0x3fc27283	1.5191196
69	0x3fd13224	1.6343427
70	0x3fea1e84	1.8290563
71	0x3f8785a4	1.0587659
72	0x3fbc35d6	1.470393
73	0x3fc35b0b	1.5262159
74	0x400cf96f	2.2027242
75	0x3faf9d62	1.3719904
76	0x3fc6196f	1.5476512
77	0x3fa5eda6	1.296315
78	0x3f87b6e0	1.0602684
79	0x3f86b7f6	1.052489
80	0x3fb09273	1.3794693
81	0x3fba7eae	1.456991
82	0x3ffd9f76	1.9814289
83	0x3fa9aed1	1.3256475
84	0x40019df7	2.0252664
85	0x3f9dfebf	1.2343367
86	0x400573f0	2.0852013
87	0x3fe09aac	1.7547202
88	0x3ffb8a29	1.9651538
89	0x3f9b0338	1.2110357
90	0x3fa39c4e	1.2782075
91	0x3fd639ee	1.6736429
92	0x3fc45fdf	1.5341758
93	0x3fa9157d	1.3209683
94	0x3f749718	0.9554305
95	0x3ff5f853	1.9216408
96	0x3fa842cc	1.3145385
97	0x3ff45acb	1.9090208
98	0x400ca118	2.1973324
99	0x3f8eba14	1.1150537
100	0x3f930f24	1.1488996
101	0x3f624564	0.8838713
102	0x3fbc0d5e	1.4691579
103	0x3f9c09d6	1.2190502
104	0x3fabc233	1.341864
105	0x3f992896	1.1965511
106	0x3fb23064	1.3921018
107	0x3ff8d6dc	1.944057
108	0x3ffa3eb8	1.955039
109	0x400514fe	2.0794063
110	0x3fc14c56	1.5101421
111	0x3fa1d06b	1.2641729
112	0x3f9805ac	1.1876731
113	0x3fda5b4a	1.7059109
114	0x3f8a3a5c	1.079906
115	0x3fb78ce9	1.4339877
116	0x3ffbac47	1.966195
117	0x3fc2fcb8	1.5233374
118	0x3fe0eb57	1.757182
119	0x3f9eef1f	1.2416724
120	0x3ffcdf80	1.9755707
121	0x4018c64a	2.3871026
122	0x3fafb51c	1.3727145
123	0x3fff9c78	1.9969625
124	0x401b8f51	2.4306223
125	0x3fc18e41	1.5121537
126	0x3ff5f35a	1.921489
127	0x3fc224b0	1.5167446

encoder.2.running_var f4 [128]
0	0x4058c207	3.3868425
1	0x40684b86	3.6296096
2	0x40b283be	5.578582
3	0x40656abf	3.5846403
4	0x40c4f8d9	6.155377
5	0x403ac6ef	2.918392
6	0x40682437	3.6272104
7	0x40af2d67	5.4742923
8	0x404a778c	3.1635466
9	0x411cf9e9	9.811013
10	0x40c78de1	6.236069
11	0x40239b41	2.556351
12	0x40a13d86	5.03876
13	0x40bf9719	5.9871945
14	0x401d446d	2.4573014
15	0x41207e65	10.030858
16	0x40bee993	5.9660125
17	0x4123218a	10.195688
18	0x4082564f	4.0730357
19	0x4041191e	3.017158
20	0x4092aeb1	4.5838246
21	0x41207349	10.028146
22	0x4026197b	2.5953052
23	0x40b9a8b3	5.801843
24	0x40257afa	2.585631
25	0x40707ec4	3.7577372
26	0x409c2170	4.8790817
27	0x4104a502	8.290285
28	0x409a7070	4.8262253
29	0x4092f231	4.5920644
30	0x409738d1	4.7256856
31	0x40efaed3	7.490091
32	0x40e7666a	7.2312517
33	0x40841050	4.1269913
34	0x4106738a	8.403208
35	0x40820171	4.062676
36	0x408564c5	4.168551
37	0x41060756	8.376791
38	0x4099e0ba	4.8086824
39	0x408c1a91	4.378243
40	0x40a2a4d7	5.082622
41	0x40545f7d	3.3183281
42	0x40b80d7a	5.751645
43	0x4113d1b2	9.238695
44	0x40c77966	6.233569
45	0x40a6dd73	5.2145324
46	0x41026ec7	8.152045
47	0x402d69f2	2.7095914
48	0x4085fc93	4.187082
49	0x40bbb5fd	5.8659654
50	0x40d49334	6.642969
51	0x410c4dfe	8.769041
52	0x40aebe96	5.460765
53	0x402fe065	2.748071
54	0x40403131	3.0030024
55	0x40c7e8d1	6.24717
56	0x4100fbd7	8.061484
57	0x40a68860	5.2041473
58	0x40367888	2.8511066
59	0x407336a5	3.8002102
60	0x41231e5a	10.19491
61	0x407cffec	3.9531202
62	0x408bf000	4.373047
63	0x40edad3b	7.4273963
64	0x4057c607	3.3714616
65	0x4059ce06	3.4031997
66	0x408fe882	4.4971323
67	0x40e7bbab	7.2416587
68	0x409c150b	4.8775687
69	0x40ad18b3	5.409265
70	0x40e738a3	7.2256637
71	0x401e8910	2.4771156
72	0x408e1096	4.4395247
73	0x409d6869	4.9189954
74	0x412750d5	10.457234
75	0x40802530	4.0045395
76	0x408afb81	4.343201
77	0x406e5ca0	3.7244034
78	0x4036f632	2.8587766
79	0x402cd4ab	2.7004802
80	0x406bedc7	3.6863878
81	0x408e1ef3	4.441278
82	0x41063c84	8.389774
83	0x406bf617	3.6868951
84	0x410b231c	8.696072
85	0x403d65ab	2.9593303
86	0x411607a5	9.376866
87	0x40d60f5b	6.6893744
88	0x410035fb	8.013179
89	0x40447afb	3.0700061
90	0x40834b10	4.102913
91	0x40ca4cf7	6.321895
92	0x40962e3f	4.6931453
93	0x407480bb	3.820357
94	0x3ff25fc7	1.8935479
95	0x40f99f31	7.8006825
96	0x40662223	3.5958335
97	0x40fb207f	7.847717
98	0x412cff0a	10.812265
99	0x402abf7f	2.667938
100	0x4032caa5	2.7936184
101	0x400b28f2	2.174374
102	0x408808d3	4.251077
103	0x40577a6e	3.3668475
104	0x4081ffa3	4.0624557
105	0x404e2e61	3.2215807
106	0x40856a6d	4.1692414
107	0x40fb7831	7.858422
108	0x41046ae9	8.276101
109	0x4112dc5a	9.178797
110	0x4098d978	4.7765465
111	0x4056c6c9	3.355883
112	0x406d83af	3.7111623
113	0x40cce9db	6.403547
114	0x4041c810	3.0278358
115	0x40825417	4.072765
116	0x410554f9	8.333245
117	0x40a09ab6	5.0188856
118	0x40ddc306	6.9300566
119	0x405def06	3.4677138
120	0x410072f5	8.028066
121	0x41400bec	12.002911
122	0x407021f2	3.7520719
123	0x41023be1	8.139619
124	0x414d3ff0	12.82811
125	0x409de9fd	4.934813
126	0x40f84aa1	7.75911
127	0x40b82a5f	5.7551723

encoder.3.weight f4 [128, 128]
0	0xbd490fc3	-0.049087297
1	0x3d927f2e	0.07153164
2	0xbd8013e3	-0.06253793
3	0xbcded32c	-0.027200304
4	0xbce84d24	-0.028357096
5	0xbbb3f9b6	-0.0054924143
6	0x3ce1464d	0.027499342
7	0x3d02df9e	0.03195154
8	0xbdb7a30d	-0.08966646
9	0xbe642839	-0.22280969
10	0xbe06551f	-0.13118409
11	0xbde2ac11	-0.11067975
12	0xbd967a8b	-0.07347592
13	0x3da0e703	0.07856562
14	0xbbc32b87	-0.0059561166
15	0xbd08c180	-0.03338766
16	0xbe3f280b	-0.18667619
17	0xbbc1c5a6	-0.005913454
18	0x3d1d495f	0.03840005
19	0xbb79b6a1	-0.003810324
20	0x3d6e68c1	0.05820537
21	0xbde5c5a6	-0.11219339
22	0x3de25186	0.110507056
23	0x3cc4ac99	0.024008082
24	0x3d0f3742	0.034964807
25	0x3ede4bf9	0.43417338
26	0xbd9b1a4d	-0.07573376
27	0x3dfcb8e0	0.123399496
28	0xbd61adba	-0.05509732
29	0x3c73a3ea	0.014870623
30	0xbdf573e1	-0.11984993
31	0xbd6b6671	-0.057470743
32	0xbe3a32b7	-0.18183409
33	0x3deb4cdb	0.114892684
34	0x3cce7436	0.025201898
35	0xbd962398	-0.07331008
36	0x3c569009	0.013095864
37	0xbe158d03	-0.14604573
38	0x3d8ea1b0	0.06964433
39	0x3d398caa	0.045300163
40	0xbc8e61b2	-0.01738057
41	0x3bb78d58	0.0056015663
42	0xbcd7a307	-0.026322855
43	0x3d73ed57	0.059552517
44	0x3e1daf2c	0.15398854
45	0xbc6b6e55	-0.014369567
46	0x3d055d5e	0.032559745
47	0xbda2e031	-0.07952917
48	0xbd09c944	-0.033639207
49	0x3dd3e5aa	0.10346539
50	0x3de617d4	0.112350136
51	0xbdae3db1	-0.085078605
52	0x3d5a5825	0.053306717
53	0x3dae78d1	0.08519138
54	0xbd074668	-0.03302613
55	0xbde2bbcb	-0.11070975
56	0x3c057309	0.008145102
57	0xbdb10af6	-0.08644669
58	0x3d5786e1	0.052618865
59	0x3dd9510f	0.10611164
60	0x3db8bfaa	0.09020932
61	0xbd7f0dd2	-0.06226904
62	0xbd087dcb	-0.03332309
63	0xbdcf30c3	-0.101167224
64	0x3d160f31	0.03663558
65	0x3dc53a5b	0.09630271
66	0xbd4ada2a	-0.049524464
67	0xbdf9e385	-0.12201599
68	0x3e2cc16d	0.16870661
69	0xbd9a7683	-0.075421356
70	0x3db0d1a9	0.086337395
71	0x3d03e04e	0.032196335
72	0xbd7f731e	-0.062365644
73	0x3dfb29ba	0.12263818
74	0x3e8c4bbc	0.2740153
75	0x3d8fa0c8	0.070130885
76	0x3deea482	0.11652471
77	0x3d958308	0.07300383
78	0xbd89d34e	-0.06729756
79	0xbc7df285	-0.015499716
80	0x3e031111	0.12799479
81	0xbc099499	-0.008397245
82	0x3d00b7c7	0.031425264
83	0xbcabe2cb	-0.020982167
84	0x3d5b7ab7	0.053583827
85	0x3cc85234	0.02445326
86	0x3d8248bd	0.0636153
87	0x3e114be9	0.14189114
88	0x3cbe1ecd	0.023208046
89	0x3de68832	0.11256446
90	0xbd502318	-0.050814718
91	0x3ed7e67c	0.42168033
92	0x3e000bfc	0.12504572
93	0x3c569277	0.013096443
94	0xbda81232	-0.082065955
95	0xbdbae4a0	-0.09125638
96	0xbdc4c5d5	-0.09608046
97	0x3dccaebe	0.09994267
98	0xbd5e5f75	-0.054290254
99	0x3ce5fb45	0.028073916
100	0xbd6dbca6	-0.058041237
101	0x3d38d1da	0.045122005
102	0xbd852187	-0.065005355
103	0x3e0edcfe	0.1395149
104	0x3dc789bb	0.09743067
105	0x3deb7469	0.11496813
106	0xbd07d0a6	-0.033157967
107	0xbcd6fe45	-0.026244292
108	0x3e2600fe	0.16211316
109	0xbc67aaac	-0.014139812
110	0x3d7e50b8	0.0620887
111	0x3d9bd0df	0.076081984
112	0xbcf22f19	-0.029563474
113	0xbdaf77c4	-0.08567765
114	0xbd03c658	-0.032171577
115	0xbbdca267	-0.006733227
116	0x3d69169a	0.05690632
117	0x3bf0dafb	0.0073503233
118	0x3d861ff6	0.06549065
119	0x3c3266f6	0.010888806
120	0x3d8b11b0	0.06790483
121	0x3d51177a	0.05104778
122	0x3e023868	0.1271683
123	0x3d4d65c1	0.05014587
124	0x3b096019	0.002096182
125	0xbcac6c19	-0.021047639
126	0x3dcab6e2	0.098981634
127	0xbd14b030	-0.036300838
128	0xbb900c8a	-0.004396026
129	0x3c50f280	0.012753129
130	0x3d8b8cd5	0.06813971
131	0x3dd58d1f	0.10427307
132	0xbcc1c952	-0.023655567
133	0xbd892905	-0.06697277
134	0xbcd3e87a	-0.02586769
135	0x3e0d3203	0.13788609
136	0x3e02d351	0.12775923
137	0x3d5a0da2	0.053235658
138	0x3de9e0db	0.11419841
139	0xbcfc12a0	-0.0307706
140	0x3d83ac12	0.06429304
141	0x3dbfe985	0.09370712
142	0x3d786191	0.06063992
143	0xbdf3b0fc	-0.118989915
144	0xbda8695f	-0.08223223
145	0x3e31baa0	0.17356348
146	0xbcfc374e	-0.03078809
147	0x3dcb1774	0.09916583
148	0x3c05d1c5	0.008167689
149	0xbdf1644a	-0.11786707
150	0x3c81151f	0.015757142
151	0xbe0d1b0e	-0.13779852
152	0xbd68d230	-0.056841075
153	0x3df7227e	0.12067126
154	0xbdfb076f	-0.12257277
155	0x3d821ebf	0.063535206
156	0x3d844ac5	0.06459574
157	0x3ce213f2	0.027597401
158	0xbd184505	-0.037175197
159	0xbd5359d3	-0.051599335
160	0x3e828c1e	0.25497526
161	0xbd4a8919	-0.049447153
162	0x3e5a7b15	0.21336015
163	0x3dafd3c4	0.08585313
164	0xbd215ee1	-0.039397124
165	0xbcdb0778	-0.02673696
166	0x3d5f0e91	0.05445725
167	0xbd2d07a1	-0.042243604
168	0x3e35d510	0.17757058
169	0x3d65e831	0.056129638
170	0x3da495ee	0.08036409
171	0x3e304e28	0.17217314
172	0x3e13a84c	0.14419669
173	0x3dd2b71f	0.10288834
174	0x3d15ae21	0.036543015
175	0xbce74ab2	-0.02823386
176	0x3e546eb6	0.20745358
177	0xbd0d3069	-0.034469996
178	0xbe1c54fb	-0.15266792
179	0x3dc395a6	0.095500275
180	0xbe715605	-0.2356797
181	0xbd4a6da1	-0.049420957
182	0xbaa9ad64	-0.0012945351
183	0xbda38af8	-0.079854906
184	0xbdc9631a	-0.09833355
185	0x3da1e291	0.07904542
186	0x3e15622b	0.1458823
187	0xbcbace9a	-0.022803593
188	0x3d4c6e44	0.049909845
189	0xbd29164c	-0.04128103
190	0xbc4afb35	-0.012388994
191	0x3e09687c	0.13418764
192	0xbc3b4231	-0.0114293555
193	0x3e018942	0.12650016
194	0x3e0d3b20	0.13792086
195	0x3d2061c4	0.039155737
196	0x3dc7ce20	0.09756112
197	0x3cbab6cf	0.022792248
198	0x3cc8b053	0.02449814
199	0x3c8486dd	0.01617759
200	0x3cbf3f6f	0.023345677
201	0xbb8536e8	-0.004065383
202	0x3e4c3ac6	0.19944295
203	0xbe475a6c	-0.19468087
204	0x3d61f49b	0.055164915
205	0x3e8f9d96	0.28049916
206	0xbe3628f1	-0.17789055
207	0x3e30415c	0.17212433
208	0xbe04145e	-0.12898394
209	0xbd972eb3	-0.07381954
210	0x3d60c072	0.05487103
211	0xbd17d09f	-0.03706419
212	0xbe729017	-0.23687778
213	0xbbd65c82	-0.0065417895
214	0x3c11f205	0.0089078
215	0xbe371a89	-0.17881216
216	0xbc5cfa1b	-0.013487364
217	0x3daca438	0.0842976
218	0x3dd26fac	0.10275206
219	0x3d9ad269	0.07559664
220	0xbe147a35	-0.14499743
221	0xbe0ab299	-0.13544692
222	0x3dd3f0ad	0.1034864
223	0xbe3e7cd1	-0.18602301
224	0x3d77ad53	0.06046803
225	0xbe3fa26d	-0.18714304
226	0x3d8917da	0.066940024
227	0x3d156f64	0.036483184
228	0xbe928b24	-0.2862178
229	0xbdffdada	-0.124929145
230	0xbe2720f1	-0.1632116
231	0xbda8d1c4	-0.082431346
232	0xbde4e4cb	-0.11176451
233	0x3d9a9a99	0.075490184
234	0x3e00a5d6	0.12563261
235	0x3e841ca1	0.25803092
236	0x3e1673ba	0.14692584
237	0x3d8b776d	0.06809888
238	0xbd7cbfac	-0.06170623
239	0xbd485644	-0.048910394
240	0x3e600eb0	0.21880603
241	0x3ddf483e	0.10902451
242	0xbcb059ca	-0.02152719
243	0x3e49a3ba	0.19691363
244	0x3e00d80b	0.12582414
245	0x3d340c44	0.04395701
246	0x3e5db647	0.21651565
247	0x3cc61887	0.024181617
248	0x3e311d98	0.17296445
249	0xbcd19e9e	-0.02558833
250	0x3da63433	0.08115425
251	0x3c143527	0.009045876
252	0xbbc53747	-0.0060185525
253	0xbd1ebfb2	-0.038757034
254	0x3db11435	0.08646432
255	0x3e93f528	0.28897977

encoder.3.bias f4 [128]
0	0x3e07de7c	0.13268465
1	0x3e90bd4a	0.28269416
2	0x3e9e5a74	0.30928385
3	0x3ebe6914	0.37189543
4	0x3efa7413	0.48916683
5	0x3e92b599	0.28654173
6	0x3e7f5a44	0.24936777
7	0x3e47308f	0.19452117
8	0x3e515a19	0.20444526
9	0x3e9a9b10	0.30196428
10	0x3ea8df64	0.32982934
11	0x3e80d02b	0.2515882
12	0x3e4f269f	0.20229577
13	0x3e8be854	0.2732569
14	0x3ea187ab	0.3154882
15	0x3e85df53	0.26146945
16	0x3ee26790	0.44219637
17	0x3ec5e428	0.38650632
18	0x3e2f7210	0.17133355
19	0x3ee704a3	0.45120725
20	0x3e7c3db0	0.24632907
21	0x3e808d89	0.25107983
22	0x3e27c4d2	0.16383675
23	0x3e3fdf7e	0.18737599
24	0x3eb1cf2c	0.34728372
25	0x3e897e49	0.2685416
26	0x3e7f6780	0.24941826
27	0x3e83825f	0.25685403
28	0x3eaf1361	0.34194472
29	0x3e6545e0	0.22389936
30	0x3e619dee	0.22032902
31	0x3ea025b2	0.3127876
32	0x3e784057	0.24243294
33	0x3e1eac67	0.15495454
34	0x3ea3ea80	0.32014847
35	0x3e7cf7d0	0.24703908
36	0x3e4753da	0.1946558
37	0x3e86610e	0.26245922
38	0x3e83e129	0.2575772
39	0x3e78427b	0.2424411
40	0x3e89524f	0.2682061
41	0x3e820ba4	0.25399506
42	0x3e956357	0.29177353
43	0x3d8a7873	0.06761255
44	0x3e96f4e8	0.29483724
45	0x3e5b8ba3	0.21439986
46	0x3e58a602	0.21157077
47	0x3e93ccfc	0.28867328
48	0x3e7c6cd2	0.24650887
49	0x3e4c284b	0.19937246
50	0x3e407881	0.18795969
51	0x3e503bb6	0.20335278
52	0x3eac8793	0.33697185
53	0x3e34c4e5	0.17653234
54	0x3eae65c6	0.34062022
55	0x3eb46dd0	0.3524003
56	0x3e273522	0.16328862
57	0x3e73d4f8	0.2381171
58	0x3e9b3e1f	0.30320832
59	0x3e71c16c	0.23608941
60	0x3ec726b0	0.38896704
61	0x3ea8eb18	0.32991862
62	0x3e84aa46	0.25911158
63	0x3e7dba9c	0.24778217
64	0x3e84268d	0.25810662
65	0x3e923481	0.28555682
66	0x3e3394b3	0.17537193
67	0x3e891687	0.26775
68	0x3e919ba1	0.28439048
69	0x3e9ad917	0.3024375
70	0x3df81e89	0.12115199
71	0x3e447de2	0.19188645
72	0x3e76b49c	0.24092335
73	0x3e866f29	0.26256683
74	0x3df5a15b	0.11993667
75	0x3e9631b9	0.2933481
76	0x3e5c83e4	0.21534687
77	0x3e647a57	0.22312294
78	0x3e87a346	0.26491755
79	0x3e679520	0.2261548
80	0x3e6f3b88	0.23362553
81	0x3e83015a	0.2558697
82	0x3e9915b8	0.29899383
83	0x3e55f16a	0.20892873
84	0x3eaec39a	0.34133607
85	0x3e0c88c1	0.13724042
86	0x3e9a325a	0.3011654
87	0x3e241df8	0.16027057
88	0x3e9d02cd	0.306662
89	0x3e363b93	0.17796163
90	0x3ea0dad7	0.31416962
91	0x3e12368c	0.1427862
92	0x3e7827b9	0.24233903
93	0x3e600ca5	0.21879824
94	0x3e8a39fa	0.26997358
95	0x3e1144c0	0.14186382
96	0x3e9c0573	0.30472907
97	0x3e9089ea	0.2823022
98	0x3e66364c	0.2248165
99	0x3e7f51e9	0.2493359
100	0x3e7250a6	0.23663577
101	0x3e989d43	0.2980748
102	0x3e8ced55	0.2752482
103	0x3e666271	0.2249849
104	0x3e9c2899	0.30499724
105	0x3e97da1b	0.2965859
106	0x3f0fd426	0.5618309
107	0x3e62c090	0.2214377
108	0x3ec52fd6	0.38513058
109	0x3e37868a	0.17922416
110	0x3e571634	0.21004564
111	0x3eac8ac0	0.33699608
112	0x3e2c1861	0.16806175
113	0x3e6bd291	0.23029543
114	0x3e879a28	0.264848
115	0x3df46ba8	0.11934596
116	0x3e56919d	0.20953985
117	0x3e35d273	0.17756061
118	0x3e99198d	0.29902306
119	0x3e5d5fb9	0.21618547
120	0x3e8bafa4	0.2728244
121	0x3da3bcbf	0.07994985
122	0x3e8727ed	0.26397648
123	0x3e06c763	0.13161997
124	0x3e3d2902	0.18472674
125	0x3e32713c	0.17426008
126	0x3e809ce6	0.25119704
127	0x3eccda3a	0.40010244

encoder.5.weight f4 [128]
0	0x3f0b4e4c	0.54416347
1	0x3f60aef9	0.8776699
2	0x3f772ad3	0.9654972
3	0x3f79bc2a	0.9755274
4	0x3f615cbf	0.88032144
5	0x3f4a3485	0.7898639
6	0x3f570f85	0.84008056
7	0x3f1d0dd3	0.6134922
8	0x3f2da10f	0.6782388
9	0x3f770c70	0.96503353
10	0x3f825776	1.0182941
11	0x3f5b4031	0.85644823
12	0x3f5199ed	0.818755
13	0x3f57d381	0.84307104
14	0x3f5603fc	0.8359983
15	0x3f59c079	0.85059315
16	0x3f6b9912	0.9203044
17	0x3f76c8ff	0.96400446
18	0x3f13b166	0.57692564
19	0x3f77ac41	0.96747214
20	0x3f651d26	0.894976
21	0x3f3c4aa7	0.7355141
22	0x3f21f777	0.63268226
23	0x3f360330	0.71098614
24	0x3f66485a	0.8995415
25	0x3f496ed3	0.7868473
26	0x3f30175b	0.6878564
27	0x3f78f996	0.9725584
28	0x3f6df01a	0.9294449
29	0x3f436009	0.76318413
30	0x3f4a6a59	0.79068524
31	0x3f659118	0.8967452
32	0x3f3a35fe	0.72738636
33	0x3f12f4ad	0.57404596
34	0x3f31c578	0.6944194
35	0x3f47f089	0.781014
36	0x3f2922a1	0.66068465
37	0x3f52d859	0.8236137
38	0x3f562347	0.8364758
39	0x3f43de94	0.765115
40	0x3f3fd1cb	0.74929494
41	0x3f459095	0.7717374
42	0x3f36b489	0.71369225
43	0x3f51e526	0.8199028
44	0x3f6e24d2	0.93024933
45	0x3f3dc83d	0.74133664
46	0x3f37a2ae	0.71732605
47	0x3f598ea7	0.84983295
48	0x3f5f7dc7	0.87301296
49	0x3f5cf8d7	0.863172
50	0x3f18a225	0.5962241
51	0x3f4c7191	0.7986079
52	0x3f35861d	0.70907766
53	0x3f355a2b	0.7084071
54	0x3f76da0a	0.9642645
55	0x3f61cc5e	0.88202465
56	0x3f2de674	0.6792977
57	0x3f7256b6	0.9466356
58	0x3f5728af	0.84046453
59	0x3f0e84e0	0.556715
60	0x3f822d49	1.017007
61	0x3f63e8ec	0.89027286
62	0x3f4918f1	0.7855368
63	0x3f4a4796	0.7901548
64	0x3f54c9a7	0.831202
65	0x3f8209df	1.0159262
66	0x3f170826	0.5899681
67	0x3f57569c	0.8411653
68	0x3f5b7188	0.8572011
69	0x3f482c9b	0.7819306
70	0x3f0db825	0.5535911
71	0x3f4b13e9	0.79327255
72	0x3f4a6a42	0.79068387
73	0x3f3be2b1	0.7339278
74	0x3f223575	0.6336282
75	0x3f52bc42	0.8231851
76	0x3f2a8f98	0.66625357
77	0x3f43b535	0.76448375
78	0x3f57d5dc	0.843107
79	0x3f2846ed	0.65733224
80	0x3f1f7914	0.62294126
81	0x3f468558	0.77547216
82	0x3f545b4f	0.82951826
83	0x3f47e688	0.7808614
84	0x3f648be2	0.89275944
85	0x3f1c2af2	0.6100303
86	0x3f4f7249	0.8103376
87	0x3f0653c4	0.52471566
88	0x3f6ffb0d	0.9374245
89	0x3f3f7881	0.7479325
90	0x3f543562	0.82893956
91	0x3f018f21	0.5060902
92	0x3f5c585b	0.8607232
93	0x3f1a6ea4	0.60325074
94	0x3f486195	0.782739
95	0x3f3ea149	0.7446485
96	0x3f5e5d96	0.8686155
97	0x3f5af017	0.855226
98	0x3f604ebb	0.87620133
99	0x3f50ffb2	0.8164016
100	0x3f53bfbe	0.8271445
101	0x3f41fb95	0.7577451
102	0x3f47760a	0.7791449
103	0x3f765dd3	0.96236914
104	0x3f65a057	0.89697784
105	0x3f62957a	0.88509333
106	0x3f8fd10d	1.1235672
107	0x3f483d62	0.7821866
108	0x3f82b793	1.0212272
109	0x3f312a63	0.692053
110	0x3f2a55ef	0.66537374
111	0x3f9ec695	1.2404352
112	0x3f2a27f4	0.66467214
113	0x3f293e93	0.66111106
114	0x3f42294c	0.75844264
115	0x3f1cb502	0.61213696
116	0x3f1917a9	0.5980173
117	0x3f43386c	0.7625797
118	0x3f61984d	0.8812302
119	0x3f41e9d0	0.75747395
120	0x3f48a0da	0.7837044
121	0x3f0c8772	0.54894173
122	0x3f68be9c	0.90915847
123	0x3f3788d7	0.71693176
124	0x3f5c59be	0.86074436
125	0x3f235f46	0.6381725
126	0x3f52a4dd	0.8228281
127	0x3f7ac4e7	0.979567

encoder.5.bias f4 [128]
0	0x3e6679c6	0.2250739
1	0x3e2608cc	0.16214293
2	0xbf8a025d	-1.0781971
3	0x3e32984b	0.17440908
4	0x3fbbb4bf	1.4664534
5	0x3f28ee69	0.65988785
6	0x3f1daf92	0.61596024
7	0xbea0643e	-0.3132648
8	0xbe649b67	-0.22324906
9	0x3e3bd398	0.18342435
10	0x3e879d88	0.26487374
11	0x3f5234ab	0.82111615
12	0x3ebe3839	0.3715227
13	0x3f2f4058	0.68457556
14	0x3f57fcc5	0.8437007
15	0x3cbbaee8	0.02291055
16	0x3f14aacd	0.5807312
17	0x3f5b5afc	0.85685706
18	0xbdd2ad93	-0.10287013
19	0x3e9f6c8b	0.311375
20	0xbeb0631c	-0.34450614
21	0xbe03590f	-0.12826942
22	0x3c8cf935	0.017208675
23	0xbeae4c6b	-0.34042677
24	0x3e5c999e	0.21542975
25	0x3efcdd17	0.49387428
26	0x3cbd29c2	0.0230912
27	0x3ee7e784	0.4529382
28	0x3c692745	0.014230554
29	0x3ee84940	0.45368385
30	0xbe70c7d9	-0.23513736
31	0x3dd9b8e0	0.10630965
32	0x3c1080ec	0.0088198
33	0xbf2b87f5	-0.6700433
34	0x3eb38635	0.3506333
35	0xbf5de96e	-0.8668431
36	0x3f15d862	0.585333
37	0x3df39404	0.11893466
38	0xbee3cddf	-0.44493005
39	0x3f1d410d	0.61427385
40	0x3e3f252f	0.18666528
41	0x3f562e58	0.83664465
42	0x3e9ce803	0.3064576
43	0xbe48b54c	-0.1960041
44	0xbe3328d0	-0.17496037
45	0xbfe97595	-1.8239008
46	0x3f0fc9af	0.5616712
47	0xbe735716	-0.2376369
48	0xbf4026a0	-0.7505894
49	0xbe40fde2	-0.18846849
50	0x3e9d49ce	0.3072037
51	0x3e944df8	0.28965735
52	0x3f3de8a4	0.74183106
53	0xbe047524	-0.1293531
54	0xbdc16bfc	-0.094444245
55	0x3f004867	0.5011048
56	0x3d68b976	0.056817494
57	0xbf3b8ad1	-0.7325869
58	0x3d973020	0.07382226
59	0x3f39c905	0.72572356
60	0xbf505266	-0.8137573
61	0xbf7133f1	-0.9421988
62	0x3de33c85	0.110955276
63	0xbf4043f5	-0.75103694
64	0x3f0c602c	0.54834247
65	0xbd7c9a61	-0.061670665
66	0x3db4c662	0.08826901
67	0x3f01d401	0.5071412
68	0xbf067272	-0.5251838
69	0x3f4a1bac	0.78948474
70	0xbf41a428	-0.7564111
71	0xbdb9d25d	-0.09073327
72	0x3ebac4a3	0.36478147
73	0xbeca3f42	-0.39501387
74	0xbe707c9f	-0.23485039
75	0x3e2b7103	0.1674233
76	0x3f207626	0.6268028
77	0xbf4f5e26	-0.81003034
78	0x3d6f8be6	0.058483027
79	0xbe23c75c	-0.15994018
80	0xbc6ebcf6	-0.014571419
81	0xbf356fd3	-0.70873755
82	0x3ee87b10	0.4540639
83	0x3e8ba1da	0.2727192
84	0x3e316df4	0.173271
85	0xbeb35089	-0.3502238
86	0x3f63585d	0.88806707
87	0xbf299001	-0.6623536
88	0xbf2ffd1b	-0.68745583
89	0x3f2e5d9e	0.681116
90	0x3e859cd6	0.2609622
91	0xbea6af66	-0.32555693
92	0xbf8a775f	-1.0817679
93	0x3e21b6f7	0.15792452
94	0x3f2197b3	0.631221
95	0xbe2e31bd	-0.17011161
96	0xbe831c7b	-0.25607666
97	0x3e5841fe	0.21118924
98	0x3e91137a	0.28335172
99	0x3def73d2	0.11692013
100	0x3f14815a	0.58009875
101	0x3f290097	0.66016525
102	0x3d601aa1	0.054712895
103	0xbf2c0ce0	-0.67207146
104	0xbd0d31aa	-0.03447119
105	0x3ec0aa57	0.3762996
106	0xbc9c3f27	-0.019073082
107	0xbfb9479a	-1.4474976
108	0x3cec4eea	0.028846223
109	0xbf95b8f0	-1.1697063
110	0x3e276f26	0.16350994
111	0x3d9d358a	0.076762274
112	0xbf8dde6d	-1.1083504
113	0xbf301645	-0.6878398
114	0xbecc6f18	-0.39928508
115	0x3d996a3e	0.07490967
116	0x3ecf8e2f	0.40538165
117	0x3e1ce315	0.15321
118	0x3e749cf7	0.23888002
119	0xbed4392c	-0.4144987
120	0x3e9719cc	0.2951187
121	0xbf65e1ae	-0.89797485
122	0x3f0b4b7d	0.5441206
123	0xbf52506d	-0.8215397
124	0xbfa3c946	-1.2795799
125	0x3e4493f5	0.19197066
126	0x3e1027a1	0.14077617
127	0x3ed670d9	0.4188297

encoder.5.running_mean f4 [128]
0	0x3f07b024	0.53003144
1	0x40868897	4.2041736
2	0x40a5f987	5.18671
3	0x4095cb53	4.68107
4	0x40a5b023	5.177751
5	0x40576e04	3.3660898
6	0x4074a9b7	3.8228586
7	0x40098948	2.149004
8	0x4031ff52	2.7812085
9	0x40877003	4.2324233
10	0x40b73881	5.7256474
11	0x4090f88c	4.53034
12	0x405f5b80	3.4899597
13	0x40696baf	3.6471975
14	0x4078810f	3.882877
15	0x40863e31	4.1950917
16	0x40a5f765	5.1864495
17	0x40901ba6	4.503375
18	0x3f93cde0	1.1547203
19	0x409ba6ad	4.864096
20	0x4082d6aa	4.088704
21	0x404dd64b	3.2162044
22	0x3fe1afaa	1.7631733
23	0x404e15ee	3.2200885
24	0x408ab25a	4.3342714
25	0x4075f755	3.843221
26	0x402514ae	2.5793872
27	0x408d277a	4.411069
28	0x40994271	4.7893605
29	0x405b51c6	3.426866
30	0x4075745a	3.8352265
31	0x40820a1a	4.063733
32	0x404f9d45	3.243974
33	0x3fe3848b	1.7774824
34	0x4046aa78	3.1041546
35	0x40832092	4.097726
36	0x4022dd90	2.544773
37	0x40616f17	3.5224054
38	0x40901ba2	4.503373
39	0x406e9f5d	3.7284768
40	0x4050b482	3.2610173
41	0x4054af8c	3.3232145
42	0x40618de6	3.5242858
43	0x3f0373af	0.51348394
44	0x409adcc3	4.8394485
45	0x408aff60	4.3436737
46	0x406742c1	3.6134493
47	0x4077f04f	3.8740423
48	0x4090fea1	4.5310826
49	0x4064ec50	3.5769234
50	0x3fa9cf1b	1.3266329
51	0x401278a8	2.2886143
52	0x407ca565	3.947595
53	0x3fb6499d	1.4241215
54	0x4099d638	4.8073997
55	0x4085d9f2	4.1828547
56	0x4037966a	2.8685555
57	0x4098a468	4.770069
58	0x4080ff99	4.031201
59	0x3fea9ae4	1.8328519
60	0x40a9b9fb	5.3039527
61	0x4089b392	4.30317
62	0x406a00d0	3.6562996
63	0x4086f6d7	4.217632
64	0x405bc3ae	3.4338183
65	0x40a46019	5.1367307
66	0x3ff3634b	1.9014677
67	0x407ddcfa	3.9666123
68	0x40824db0	4.0719833
69	0x405bee67	3.436426
70	0x3fae4138	1.3613653
71	0x40513207	3.2686784
72	0x40397200	2.897583
73	0x40618c7f	3.5242002
74	0x3f9b83b2	1.2149565
75	0x405e53d9	3.4738677
76	0x3f5a5a06	0.85293615
77	0x4058bf99	3.3866942
78	0x4087d93b	4.2452674
79	0x40459cc6	3.0876937
80	0x3fa886c4	1.3166127
81	0x406e4969	3.7232306
82	0x407d6ad9	3.9596465
83	0x4063c1c0	3.5587006
84	0x409de73d	4.9344773
85	0x3f816b4d	1.0110871
86	0x405e33c2	3.471909
87	0x3fe743cc	1.8067565
88	0x4088fa81	4.280579
89	0x4047f45b	3.1242893
90	0x408d3b54	4.413492
91	0x3fc0470c	1.5021682
92	0x4092c727	4.5868106
93	0x3f4c846f	0.7988958
94	0x405c12c5	3.4386456
95	0x3efd66e6	0.49492568
96	0x4085b9d9	4.1789365
97	0x4083bd98	4.116894
98	0x4079e2f1	3.9044764
99	0x40636de6	3.5535827
100	0x40652daf	3.5809133
101	0x40544e65	3.3172848
102	0x406a5898	3.6616573
103	0x40943540	4.6315002
104	0x4081bbfc	4.0541973
105	0x4094a517	4.6451526
106	0x40be8ad5	5.9544473
107	0x4078fb03	3.8903205
108	0x40bdbf89	5.9296308
109	0x407b0fd6	3.9228415
110	0x403091dc	2.7589025
111	0x40c5080b	6.157232
112	0x40358a60	2.8365707
113	0x405f04ca	3.4846673
114	0x404cf524	3.2024622
115	0x3f9479c6	1.1599662
116	0x3ff73594	1.9313226
117	0x4035a804	2.8383799
118	0x408e64d9	4.4498105
119	0x40629113	3.5401046
120	0x40490e78	3.141508
121	0x3fa144e5	1.259915
122	0x40842d8e	4.130561
123	0x3f9a822a	1.2070973
124	0x408c8ad8	4.3919487
125	0x400548ae	2.082561
126	0x405fbb48	3.4958057
127	0x40b42a44	5.6301594

encoder.5.running_var f4 [128]
0	0x3f74217a	0.9536358
1	0x4017ad50	2.3699532
2	0x403dc417	2.9650934
3	0x40203fec	2.5039015
4	0x405262f1	3.287289
5	0x400fead7	2.2487085
6	0x4003a53d	2.0569603
7	0x3fcd17fe	1.6022947
8	0x3fcaa5b9	1.5831825
9	0x4016f4a5	2.358682
10	0x407e8c6a	3.9773202
11	0x403dec43	2.9675453
12	0x40288298	2.6329708
13	0x4008cbc7	2.1374376
14	0x4020b8ff	2.5112913
15	0x400e13d0	2.2199593
16	0x40473169	3.1123908
17	0x403f5ca3	2.990029
18	0x3f8a7492	1.0816824
19	0x402e7fb5	2.7265446
20	0x40073c1f	2.1130445
21	0x3fd0cad6	1.6311901
22	0x3fc6e1bc	1.5537639
23	0x3fddf78b	1.7341169
24	0x402428da	2.5649934
25	0x400f1a82	2.235993
26	0x3fcd27f0	1.6027813
27	0x40201f9b	2.501929
28	0x403c91b1	2.9463923
29	0x4009188f	2.142124
30	0x4013cd85	2.309419
31	0x400fa410	2.2443886
32	0x3ff6cf00	1.9281921
33	0x3fc450bb	1.5337137
34	0x3fda4781	1.7053071
35	0x401e3efe	2.4725947
36	0x3fcccbf5	1.5999743
37	0x4022eaf8	2.5455914
38	0x4020085b	2.50051
39	0x4005d54a	2.0911431
40	0x3fe56198	1.7920408
41	0x4009c500	2.152649
42	0x3ff60cb6	1.9222629
43	0x3ef8a939	0.48566607
44	0x402aed7c	2.670745
45	0x40298abf	2.6490934
46	0x40034a8d	2.0514252
47	0x3ff72483	1.9308017
48	0x400df654	2.2181597
49	0x3ff193fc	1.8873286
50	0x3fc367db	1.5266069
51	0x401bb8c9	2.4331534
52	0x40004dc0	2.0047455
53	0x3fbeb30a	1.4898388
54	0x4049da45	3.153947
55	0x401f3bd2	2.4880261
56	0x3fb338da	1.4001725
57	0x403878ac	2.8823652
58	0x40229052	2.5400586
59	0x3fcf7ab8	1.6209326
60	0x404279a1	3.0386736
61	0x40397473	2.8977325
62	0x40095e4c	2.1463804
63	0x4007e901	2.1235964
64	0x400009d4	2.0005999
65	0x405bef8a	3.4364953
66	0x3fb07e15	1.3788477
67	0x4015bdd8	2.3397121
68	0x402d5eb7	2.708906
69	0x3feed591	1.8658925
70	0x3fe51422	1.7896769
71	0x3fd54e1e	1.6664464
72	0x4000415b	2.003989
73	0x4003e0d7	2.0605981
74	0x3fe8de9f	1.8192939
75	0x4018c0f2	2.3867764
76	0x3faa5616	1.3307521
77	0x3fc3f5ee	1.5309427
78	0x4007133c	2.110549
79	0x3fc97947	1.5740136
80	0x3fafffbf	1.3749923
81	0x400273f6	2.0383277
82	0x400913be	2.14183
83	0x3ffe4fa0	1.986805
84	0x403870df	2.881889
85	0x3fabbda3	1.3417248
86	0x3ff0ca9e	1.8811834
87	0x40046b1f	2.0690382
88	0x40169899	2.3530638
89	0x3ffa4527	1.9552354
90	0x401b1cdf	2.4236372
91	0x3fdcfbd0	1.7264347
92	0x40441539	3.0637953
93	0x3f92e430	1.1475887
94	0x400c8a0b	2.1959255
95	0x3f32a58c	0.69783854
96	0x4011e953	2.279866
97	0x402a4747	2.6606004
98	0x40077cd1	2.1169932
99	0x3ff1e427	1.8897752
100	0x401b16b4	2.4232607
101	0x3fe8f345	1.819924
102	0x40041d49	2.0642874
103	0x40104192	2.254002
104	0x40101040	2.2509918
105	0x401aafe3	2.4169853
106	0x406bd839	3.6850722
107	0x400facc5	2.24492
108	0x405d9c2f	3.4626577
109	0x400321fa	2.0489488
110	0x3fc78e04	1.5590215
111	0x408cc588	4.3991127
112	0x3fdff5f8	1.7496939
113	0x3fdf68df	1.7453879
114	0x3ff73df3	1.931578
115	0x3fc623e3	1.5479702
116	0x3fcb58b7	1.5886449
117	0x3ffb96ea	1.965543
118	0x400c7f50	2.1952705
119	0x4011b007	2.2763689
120	0x3fbdd8eb	1.4831823
121	0x3ff0c8be	1.8811262
122	0x400a9374	2.1652498
123	0x3fe76db2	1.8080351
124	0x401b2cfc	2.4246206
125	0x3fcb206b	1.5869268
126	0x40051d65	2.079919
127	0x402d2436	2.7053351
