models/y02vae_D16_layers(128, 128, 128, 128)__banana_dim16_b0.02_sigma5.0.pt (torch, 486930 bytes, 54 tensors)

encoder.0.weight f4 [128, 16]
00000000: dcfe 413e 6c48 08be 9ffe a23c fe63 77bc
00000010: 7b22 8cbe 288a b03d 3945 32be 9e90 d03d
00000020: 7333 3a3e d653 49be 57e6 2f3e 9735 77be
00000030: f8d4 24be 9391 08be 343c f1be dbc3 063e
00000040: 5178 ae3d c0ef 18be abca cc3e 1015 da3d
00000050: 79d3 88be 008c 3a3e 0fcc f0bc bd7a 2ebc
00000060: 8cc6 773e 0fae f1bd 8168 bf3d 25cf 843e
00000070: 4bf1 443b 6ebf 26be d7e3 c8bc 8373 003e
00000080: f363 febe dd1d 9dbe ed89 053e 0ba8 88bc
00000090: a799 0c3d 19e5 1abe 5c63 61be ddc2 3c3d
000000a0: 3fa5 863e 325a 22bf a830 823d 7442 193e
000000b0: 2898 21be 5cd7 183d 6898 c9bd 1ed8 d1bc
000000c0: 4283 35bd e6cb 00be e0d1 603e 15d2 583e
000000d0: f309 47be 3a43 18bd 657a ff3d ebb9 e93c
000000e0: 3b0d bebe 4f5c b1be 5653 653e f554 7abe
000000f0: a0ff 4a3e 96fd 4fbc 1fca 0ebe add5 2ebd
00000100: f55f c83d 016c cc3e 2e5c 61be dc48 83bb
00000110: ace0 693c e1dc b63d e069 a2be d4a6 403e
00000120: 3259 0cbe aac2 edbe 59aa 41be cc42 84be
00000130: 0e2c 47bd 4412 803d 0efd 673e 22c9 c3bc
00000140: bb2c 2c3e f75e 62bd 5aa1 44be 080e 373e
00000150: a1a8 243e d289 8abc 0af7 233e 3f30 093c
00000160: 2d0f bf3e 7a14 d5be 020d c13d 50c0 c93e
00000170: 9c9c 5bbe 2571 db3c 789e 193c 4970 a6bd
00000180: cbc9 5c3d b8cf a2be 7534 8fbe d08b ddbd
00000190: d224 923e 46ed 783d cc65 2d3d 726f 613d
000001a0: d5e6 5cbe 7c81 983d fe88 2cbe b81f c13d
000001b0: dd49 e23e 8f07 3a3e 6e71 53bd eec3 c93c
000001c0: e377 143e 10e9 2b3e ae01 1fbd 378a 05bc
000001d0: 450c a13d 25d7 7d3d 00f8 c63d 0ee4 27bd
000001e0: e3fb 353e ae32 4dbf e6e6 42bd a8e2 ccbd
000001f0: d739 e13c 9c3b e2bd 3fcb d23e 30ec a1bd
00000200: 460e 90bb 49b1 56be e36e db3d ec05 f4bd
00000210: 6cb1 f83d 47ea 0a3d e232 723e 1c8d 363e
00000220: afb0 063e a7b2 3b3e 7216 773d 0bb5 123f
00000230: ff0b 89be baca 143e 3602 38bd 3e97 fcbd
00000240: 0ff9 703e 3fd1 debd a6ec 393e a706 aebd
00000250: 0ca4 633e 406a 4d3d 8309 13bd ec37 72bd
00000260: 6123 31bb e36e d3be 333a e6bd 00b1 54bc
00000270: 1a41 95be f4eb 6f3d a62a 11be 2185 953d
00000280: 362a 10bd b9b8 8f3d 187a d63c c21e 48bd
00000290: 84bd 57be 1f42 2d3d a008 f63d e623 b2bc
000002a0: 3153 cfbe 2681 0abf 9d6e 873c d629 e63d
000002b0: ff39 40bd fc4e fd3c 1f2b 31be 64c8 723e
000002c0: f08e 8abe 31f2 a0bd 7351 14bd 0aa4 03bd
000002d0: 46dc 233d 592e ca3c 0cd3 edbe 4cd9 d93d
000002e0: 4d25 953e 9ef9 01bf 8c7f 043e 9184 eabd
000002f0: 41c5 793e dcac 1cbd acf5 14be 15f2 ffbd
00000300: a9a6 233e 2680 063f b327 b7be 1122 22be
00000310: bb34 1bbd a517 e7bd 89e0 b5bd e93b 91bb
00000320: e8a1 babe c8cd 9fbe fbf8 03ba 6aeb 2e3f
00000330: ceb9 5abe b6ca b23c 5c9f 4a3b 2071 7e3d
00000340: 0f07 6c3e a299 003c 7a43 eb3e 6511 543d
00000350: 0fe9 79bd b1b5 2fbd 4d04 223e 77d1 113d
00000360: 247e e43d ea71 0dbf 06db b8bd 7942 e6be
00000370: a0e6 843e 8de9 893c 1100 b43d 3295 8ebb
00000380: 7475 78bd dee8 743e f345 953e ea44 f5bc
00000390: 4149 93be ca3f 8abc 6a1f acbc 5249 66bd
000003a0: e80b 383e 2be7 0abe 2e1c 413e 3687 a0bd
000003b0: 5a95 f4be 601d a63e 639f 5a3d 5708 9abd
000003c0: 806e 86be 019c 51be 340e a13b cb6d ed3c
000003d0: c290 463d 9156 9fbc 8453 9dba 6cd0 17be
000003e0: 4a86 1e3e bc8b 253e 4a59 f6bc 8e1e 9b3e
000003f0: 1338 09bc 52a8 8b3b cac3 d3be 7159 8c3e
0.18944877 -0.13308877 0.019896803 -0.015099524 -0.27370057 0.08620101 -0.17409219 0.101838335
0.18183689 -0.19660887 0.17177711 -0.24141537 -0.16096866 -0.13336782 -0.47116244 0.1316065
0.08519042 -0.14935207 0.39998373 0.106485486 -0.2672384 0.18217468 -0.029394178 -0.01064938
0.24196833 -0.11800777 0.093461044 0.2593929 0.0030051048 -0.16283962 -0.024522705 0.12544064
-0.4968563 -0.30686846 0.13040896 -0.016681692 0.03432622 -0.15126456 -0.22010559 0.046084274
0.26297948 -0.6341888 0.06356937 0.14966756 -0.15780699 0.037314758 -0.09843522 -0.025615748
-0.04431463 -0.12577781 0.21955061 0.2117389 -0.19437389 -0.037173487 0.12474517 0.028531035
-0.3711947 -0.34640738 0.22395071 -0.24446471 0.19824076 -0.012694737 -0.1394429 -0.042684246
0.09783927 0.3992615 -0.2200782 -0.0040064882 0.014274757 0.08928848 -0.317214 0.1881364
-0.137059 -0.4643758 -0.18912639 -0.25832212 -0.048626 0.06253484 0.22655126 -0.023899619
0.16813938 -0.055266347 -0.19202176 0.17876446 0.16079952 -0.016911421 0.16012207 0.008373319
0.37316266 -0.41617185 0.09426309 0.39404535 -0.2144646 0.02678735 0.009376161 -0.081268854
0.053903382 -0.31799102 -0.2796971 -0.10817683 0.28543717 0.060773157 0.04233341 0.055037923
-0.2157243 0.07446572 -0.16849133 0.09429878 0.44196978 0.18166946 -0.051621847 0.02462956
0.14498858 0.16788125 -0.03881996 -0.008150629 0.07863668 0.061972756 0.09715271 -0.040988974
0.17771868 -0.80155456 -0.047583483 -0.10004169 0.0274934 -0.11046526 0.4117069 -0.07906377
-0.004396233 -0.20966066 0.10714509 -0.11915192 0.121432155 0.03391483 0.23652223 0.17827266
0.13153337 0.18329869 0.06032414 0.573075 -0.26766965 0.14530459 -0.044923984 -0.12333535
0.23532508 -0.10879754 0.1815668 -0.084973626 0.22230548 0.050150156 -0.035897743 -0.059135363
-0.0027029144 -0.41295537 -0.11241569 -0.012981653 -0.2915123 0.05857463 -0.14176425 0.07300783
-0.035196505 0.07017655 0.026181266 -0.048857458 -0.21068388 0.042299386 0.12013364 -0.021745633
-0.40493158 -0.54103315 0.016532237 0.11238448 -0.04693031 0.030921452 -0.17301606 0.23709255
-0.27062178 -0.07858694 -0.03621049 -0.03213886 0.04000499 0.024680303 -0.46450078 0.10637149
0.2913002 -0.5077151 0.1293928 -0.11451066 0.24391653 -0.03825079 -0.14546841 -0.12497345
0.15981545 0.5253929 -0.35772476 -0.15833308 -0.037892085 -0.11283807 -0.08880717 -0.0044321907
-0.3645165 -0.31211686 -0.00050343544 0.68327963 -0.21359941 0.021825176 0.003091774 0.062119603
0.23049568 0.007849129 0.45949918 0.0517744 -0.061013278 -0.042897884 0.15821953 0.035600152
0.11156872 -0.55251944 -0.090261504 -0.4497259 0.25957203 0.016834999 0.08789075 -0.0043512816
-0.060658887 0.23916957 0.2915493 -0.029940087 -0.28766826 -0.01687612 -0.021011073 -0.056222267
0.17973292 -0.13564746 0.18858406 -0.078382894 -0.47770196 0.32444286 0.05337466 -0.07521122
-0.2625618 -0.20469667 0.004915023 0.028983017 0.048477896 -0.019450458 -0.0012003039 -0.148256
0.15480915 0.16166586 -0.030071873 0.3029675 -0.008375186 0.0042620087 -0.41360313 0.27411988

encoder.0.bias f4 [128]
00000000: 06f1 f03d e63f 9b3d 81a3 bb3d ce76 983d
00000010: aa0c 4a3e 83b3 273e fb98 df3d d103 b03d
00000020: fa64 2c3e 0bbb b63d dfad 213e 0a8f fd3d
00000030: 1909 5d3d 5923 bd3d 2e06 833d b04d 233e
00000040: 434c 063d 2447 943d 4865 3d3e 83c3 9b3d
00000050: f199 2c3e 4ba4 ec3d eaa5 7e3e 6dc4 153e
00000060: 89e8 2ebc 1f8f 153e 16d5 333e 44b6 e23d
00000070: 92a3 503d eef3 ea3d c20d 1b3e 7366 473d
00000080: f36a 923d dc39 633e 89e7 983d d740 4b3e
00000090: 314d a03d 0d3e a13e ea96 143e 506e 753e
000000a0: 7d61 433e 3a20 2e3c 4b95 0f3d b509 d73d
000000b0: ba15 5c3e b98b 393e 2f78 8d3d c654 633e
000000c0: d431 943d 8bfb 153e a47c 123d 0231 3d3e
000000d0: 98f5 f83d f367 1a3e 4ea8 083e 0783 163e
000000e0: f00a c93d a296 5b3e 7d84 2b3e 56db 2d3e
000000f0: fce9 823e 3ee5 243e 4d3f cc3d 6492 583d
00000100: 9bfe 3c3e 52e8 fa3c 2553 663e 57f5 bd3d
00000110: c3b4 eb3c 0f88 3ebd 258a 0a3e 691d 253e
00000120: ff71 cf3d 77b4 7d3e 50da 493e efb6 5c3e
00000130: c6fd 5a3e d205 283e c040 803e 44c5 ed3d
00000140: b2f2 ab3d 7ce9 2a3e 3840 cb3d b808 2a3e
00000150: 0647 163d d51e 813e f1d6 cc3b 7a8a 053e
00000160: 839a 023e 7675 063e c209 093e b10e bc3e
00000170: 3462 2b3e 0c7b 2b3e 7335 4a3e 3e4f df3d
00000180: d680 123e ba46 ce3c ee2f 563d 7d90 9d3d
00000190: 7d91 173e 6751 cb3d fb4b af3e daa3 033e
000001a0: e156 f73d 084c 543e 2d0f debc a4d0 093e
000001b0: 6c12 163e 4bcf 063e 7bf2 0d3e a42e a83d
000001c0: 1499 083d ee3e 233e 180b 733e 0e7b f93d
000001d0: 4dbd 303e 1828 cd3d 477a 4b3e 270e d13d
000001e0: fcdb 583c 3c0c bf3d 6431 f33d 542f 083e
000001f0: d311 253e 9900 ea3d cc9b 193e b84f 823d
0.117647216 0.07580547 0.09162045 0.07444535 0.19731393 0.16377072 0.109178506 0.08594478
0.16835395 0.08922394 0.15788983 0.12380798 0.053963754 0.09235258 0.06397663 0.15947604
0.032787573 0.072401315 0.18495667 0.0760565 0.16855599 0.11554774 0.24867979 0.14625712
-0.010675558 0.14605378 0.17561755 0.11069921 0.050937243 0.11472307 0.15141967 0.048681688
0.07149305 0.2219004 0.07466037 0.19848953 0.07827223 0.31492653 0.14510694 0.23967862
0.19080158 0.010627801 0.035054486 0.10499898 0.21492663 0.18119706 0.06907689 0.22200307
0.072360665 0.14646737 0.035763398 0.18475726 0.12156218 0.15078716 0.13345453 0.1469842
0.09816539 0.2144418 0.16749759 0.16978201 0.2556914 0.16103074 0.09973011 0.052873984
0.184565 0.030628357 0.22492655 0.092753105 0.028772717 -0.046516474 0.1352926 0.161245
0.10129165 0.24775873 0.19712186 0.21554159 0.2138587 0.1640847 0.250494 0.11609891
0.083959 0.1669063 0.09924358 0.16604888 0.036688827 0.25218835 0.006251209 0.13041106
0.12754254 0.13130745 0.13382629 0.3672996 0.1673668 0.16746157 0.19746952 0.10903786
0.1430696 0.02518021 0.052291803 0.076935746 0.14801593 0.09927636 0.34237656 0.12855473
0.12077118 0.20732129 -0.027106846 0.13458496 0.14655465 0.13165013 0.1386203 0.08212021
0.03334911 0.15941975 0.237347 0.12181674 0.17259713 0.10017413 0.19870864 0.102077775
0.013236042 0.093285054 0.11874655 0.13299304 0.1612008 0.11425895 0.15000838 0.063628614

encoder.2.weight f4 [128]
00000000: e6c4 8a3f c251 643f 9157 783f ce81 6a3f
00000010: 28ca 503f fa14 773f 8c54 863f 5652 753f
00000020: 61f3 633f 5537 5f3f 26f5 493f acbd 873f
00000030: 5259 833f 2a3f 743f 752c 8a3f 3fdd 7b3f
00000040: 6382 8e3f 4739 8a3f 6831 873f 033f 723f
00000050: 0512 5f3f 7998 6c3f 8e90 543f 12e5 7d3f
00000060: 090d 783f 10af 7a3f 9ef9 713f 8f1d 643f
00000070: 6273 7d3f a156 773f bba8 673f a9e3 873f
00000080: 335a 803f 1439 673f d3b6 5e3f 9415 803f
00000090: dd27 773f 6792 773f 18e3 6c3f b8b9 653f
000000a0: 4df4 653f cf4e 713f d9d1 893f 321f 753f
000000b0: 2f30 603f df2c 5b3f 427f 8e3f 4b25 723f
000000c0: 578a 7a3f 6204 733f 4f3b 893f 832e 683f
000000d0: 38d4 613f 1a3a 643f aa81 863f c795 4f3f
000000e0: cf3f 613f 91d2 783f 6a6f 553f c7b0 573f
000000f0: 92e7 763f 711a 5d3f 24c7 843f b6c3 803f
00000100: 1ab4 683f 4ea6 8a3f 344b 4e3f 806e 8b3f
00000110: e016 933f 5569 863f fec6 6e3f 4550 533f
00000120: aefb 813f 874a 683f b696 5d3f 5b17 5c3f
00000130: ed65 723f 83e8 6a3f 47e6 683f f64b 563f
00000140: 834f 5f3f aa36 6e3f 9e2d 863f 9ff1 6f3f
00000150: 6e01 663f 74b8 673f 4566 753f dd85 863f
00000160: fa35 873f 1647 673f bb97 633f e811 603f
00000170: c734 543f a936 693f cbfe 653f dce8 8b3f
00000180: d0e6 523f 2890 853f a033 913f 6032 883f
00000190: d4bb 7f3f 8515 7e3f 0039 4c3f ba25 583f
000001a0: 23b5 613f 7187 623f 2f39 8f3f d0b3 8d3f
000001b0: 812b 853f f861 6e3f 302a 423f 6768 603f
000001c0: cc3f 873f 60ce 593f 85ec 753f 907b 983f
000001d0: 76f3 473f 07e5 873f fa84 673f 4d9d 563f
000001e0: a022 7c3f a829 693f edd4 5e3f 5d28 543f
000001f0: b97e 603f e877 813f 5273 693f bbb5 533f
1.0841339 0.8918725 0.97008616 0.91604316 0.81558466 0.9651638 1.0494552 0.9582876
0.8904324 0.87193805 0.7888969 1.0604758 1.0261633 0.9540888 1.0794817 0.9838447
1.1133541 1.079873 1.0561953 0.946274 0.8713687 0.92420155 0.8303307 0.9917766
0.9689489 0.97923374 0.9452151 0.891076 0.99004185 0.9661656 0.9049184 1.0616351
1.0027527 0.9032147 0.8699772 1.0006585 0.965452 0.9670777 0.9253402 0.8973651
0.898259 0.9426088 1.0767165 0.95750725 0.8757352 0.8561534 1.1132586 0.94588155
0.9786734 0.9492856 1.0721225 0.9069597 0.88214445 0.89151156 1.050832 0.8108792
0.8798799 0.971963 0.8337313 0.84254116 0.964471 0.8636847 1.0373273 1.0059726
0.90899813 1.0832002 0.805835 1.0893097 1.1491356 1.0500895 0.9327239 0.82544357
1.0154932 0.9073872 0.8655809 0.8597314 0.94686776 0.91761035 0.90976375 0.8370966
0.872307 0.9305216 1.0482671 0.9372806 0.8984593 0.9051583 0.95859176 1.0509602
1.0563347 0.90342844 0.889034 0.8752732 0.8289303 0.9109903 0.8984191 1.0930438
0.8238344 1.0434618 1.134388 1.0640373 0.9989598 0.99251586 0.79774475 0.84432566
0.8816702 0.8848792 1.1189326 1.10705 1.0403901 0.9311824 0.75845623 0.87659305
1.0566344 0.8508053 0.96064025 1.1912708 0.78105867 1.0616769 0.9043728 0.8383377
0.98490334 0.9107919 0.8704365 0.8287409 0.87693363 1.0114717 0.9119159 0.82699174

encoder.2.bias f4 [128]
00000000: 42f3 833e cf8a 5abe 8ad8 d43e c3ce d23e
00000010: 6878 253f 4c22 08be bdd0 0b3e d6c3 453e
00000020: af0e 873e 64c2 293d b915 8c3c 98b4 79be
00000030: 5696 dabd 7c72 0ebf 2169 2abe e7b4 313d
00000040: 2116 38be 2052 8f3d 198d 743e a31f 3f3d
00000050: 677b a83e e2c9 943e d38e d1bd b46b 45bd
00000060: a2fc 2e3e 0691 253e da12 ed3d ad98 5dbe
00000070: 0a3c 51bd 4051 d23e e1c3 233e c4dc 353e
00000080: 176e bebb 3a05 1e3e a3d1 303d 70f8 4bbe
00000090: 0ac1 33be b315 5d3e 7163 cb3d 29c9 9cbe
000000a0: 5c3c b5bc 0a13 c13e 5634 d83d 3488 d33e
000000b0: 17f0 8a38 70e4 4a3e bd60 5b3e 02aa 8d3d
000000c0: 131e 843d a4eb 4cbe 105c cc3d c966 9ebd
000000d0: 1167 3fbd 83bc adbd 5913 a03e d4ba 4ebd
000000e0: fc6d cb3e e5ae 593e c73a 8a3e be5a 7c3e
000000f0: e6f0 bb3e ba22 743e 5c19 d23d 6a44 283e
00000100: 81c5 6ebe d2ce 593d 747b 043e 06f3 69be
00000110: efc8 2bbe b729 ddbd 9f0d 173e e947 b33d
00000120: 35a1 503e 2355 a13e 5b84 973e 2aa1 3bbe
00000130: 7101 9a3b 2bff b6bd a0e6 1dbe 4a2e a33e
00000140: 1336 5e3d 537b 81be f510 113e 9adb 803e
00000150: b51c 61bc e6e2 ef3e e180 25be cb68 3ab9
00000160: 8882 303f a484 15be ace1 9c3e cdcd 383b
00000170: 9040 c53e edc0 54be 7e45 943e aeaa 77bc
00000180: 71a2 443e 75a7 afbe 39e8 bebc afcf c8bd
00000190: 2e0b 8f3e 2b92 70be 5019 54bc e720 e43e
000001a0: 2d7d 9fbd d243 5e3e 14d1 27be ce43 133e
000001b0: 4fab 253e be82 01be a83c 0a3f 752f 33be
000001c0: d019 673e 5887 e33c f5ea 2b3b 52c3 203e
000001d0: 1ace 4c3e faf7 a73e 7a13 babd efbb 85be
000001e0: b2b5 65be 1aa5 01be 882d be3e f460 c63e
000001f0: 9024 cb3d 5716 693d 2ca0 383d 727c 003f
0.25771528 -0.21342014 0.41571456 0.41173372 0.6463685 -0.13294333 0.13653846 0.19312987
0.2637839 0.04144515 0.017100202 -0.24385297 -0.106732056 -0.5564344 -0.16641666 0.043385413
-0.17977192 0.06998086 0.2388195 0.04666103 0.3290665 0.29060274 -0.1023232 -0.048198417
0.1708856 0.16168603 0.11575861 -0.21640272 -0.05108265 0.41077614 0.1599269 0.17759997
-0.0058114636 0.15431681 0.043168675 -0.1991899 -0.17554107 0.21590309 0.09931076 -0.30622223
-0.022123508 0.37709838 0.10556857 0.41314852 6.625073e-05 0.19813704 0.21423621 0.06917192
0.06451049 -0.20011765 0.09978497 -0.077344485 -0.04672915 -0.084832214 0.3126476 -0.050471142
0.3973235 0.21258123 0.2699797 0.2464399 0.36707228 0.23841372 0.10258743 0.16432348
-0.2331753 0.053175755 0.12937719 -0.22846612 -0.16775869 -0.10798972 0.1475129 0.0875395
0.20373996 0.31510267 0.29593167 -0.18323198 0.004699879 -0.08935388 -0.15420008 0.31871253
0.054250788 -0.252894 0.14166625 0.25167543 -0.013739754 0.46852797 -0.16162445 -0.0001777738
0.68949175 -0.1460138 0.30640924 0.0028198839 0.3852582 -0.2077672 0.28959268 -0.015116377
0.19202591 -0.34307447 -0.023304092 -0.098052375 0.27938217 -0.23493259 -0.012945488 0.44556352
-0.07787547 0.21705559 -0.1638835 0.14381334 0.1617863 -0.1264753 0.53998804 -0.17498572
0.2256844 0.027774498 0.0026232575 0.15699509 0.20000497 0.3280638 -0.09085746 -0.26119944
-0.22432593 -0.12660637 0.37144113 0.38745844 0.09919083 0.05690607 0.045074627 0.5018989

encoder.2.running_mean f4 [128]
00000000: dac3 b33f de0e 933f 1ac6 b23f a40e 9d3f
00000010: 50c6 973f 90b3 9c3f 736b b33f c172 8c3f
00000020: 6972 793f 4d2f 8a3f 9f3d 903f d88b bd3f
00000030: f3d0 a33f 96da a93f c375 b53f e2ba 903f
00000040: f2dd a93f 1161 a73f a2c4 963f 4684 a53f
00000050: 8e6e 423f 9e9d a33f f34d 763f b75e a43f
00000060: f0ba 883f 9349 8e3f 0e5a a03f 746f 5b3f
00000070: 2900 933f 9c56 a13f 2c61 9b3f e8c4 9e3f
00000080: cd5f 913f 1601 8d3f 9295 973f 2e7f 963f
00000090: 6ebc a73f f597 763f 71e8 933f ea86 953f
000000a0: 084b 973f a477 a23f a06b b23f 02d2 8f3f
000000b0: e44b 9f3f 7ae4 8d3f 6e98 b03f 8329 7a3f
000000c0: 747e ac3f c8a5 a13f 9330 a63f 5cb8 8c3f
000000d0: 781a 973f 5e6e 943f bde4 873f 29a1 823f
000000e0: 40b9 933f 05fb a03f 923d 933f 76dc 913f
000000f0: 5921 633f 911b 9f3f 06ee 9e3f d92c 8d3f
00000100: df0e 803f 6769 9d3f 4960 a23f 50fc bd3f
00000110: b578 c23f 6454 a33f f4cd ab3f d1bf 923f
00000120: ad93 8f3f 0c43 913f f6e4 ae3f f8ff 993f
00000130: 7f14 863f 7cb9 8b3f 1891 913f 55a1 713f
00000140: 214f 843f b0a9 913f e5b1 993f acbd 903f
00000150: 675f 8a3f 7192 af3f b18d 9c3f a28d 9f3f
00000160: 1a47 aa3f 51aa 833f 904a 7e3f 27bc 933f
00000170: 785c 943f 32e5 7e3f a964 8d3f 5b4e 9c3f
00000180: d04a 5f3f 020f 8f3f 228e a43f fac7 b23f
00000190: 74f6 963f d19b af3f cbdf 823f 06d3 9e3f
000001a0: fa0f 813f c723 8a3f 5160 b63f 86de 993f
000001b0: abc6 a93f 08a7 1e3f 8df6 6a3f 827a 413f
000001c0: d915 9b3f d877 953f dafc 8c3f 696e c53f
000001d0: 9cc4 443f 489e b23f b0ae a93f 50f2 6e3f
000001e0: 6a98 9f3f 1482 623f bd17 4c3f c46e 783f
000001f0: d108 903f 7e44 9a3f 4458 6c3f fe0f 933f
1.4044144 1.1488912 1.3966706 1.2270093 1.1857395 1.2242298 1.4017166 1.097252
0.974402 1.0795685 1.1268805 1.4808302 1.2798141 1.3269832 1.4176563 1.1307032
1.3270857 1.3076497 1.1778758 1.2930992 0.75949943 1.2782476 0.9621269 1.2841405
1.0682049 1.1116203 1.2527483 0.8571694 1.1484424 1.2604556 1.213903 1.2403841
1.1357361 1.1015956 1.184252 1.1757562 1.3104379 0.9632562 1.155531 1.1681798
1.1819773 1.2692761 1.3939095 1.1235964 1.2445035 1.108535 1.3796518 0.9771959
1.347609 1.2628717 1.2983574 1.0993762 1.1804953 1.1596181 1.061668 1.0205432
1.1540909 1.2576605 1.1503165 1.1395404 0.8872276 1.2430288 1.2416389 1.1029311
1.0004538 1.2297791 1.2685634 1.4842625 1.5193087 1.2760129 1.3422227 1.1464788
1.1216942 1.1348586 1.3663623 1.203124 1.0475005 1.091598 1.1372404 0.943868
1.0336648 1.137991 1.2007414 1.1307883 1.0810364 1.3716565 1.2230741 1.2465098
1.3302948 1.0286351 0.99332523 1.1541795 1.1590719 0.99568474 1.1046344 1.2211412
0.8722353 1.1176455 1.2855875 1.3967278 1.1793962 1.3719426 1.0224546 1.2408149
1.0083001 1.0792168 1.4248143 1.2021034 1.3263754 0.6197362 0.91782457 0.7557756
1.2116042 1.1677198 1.1014664 1.542432 0.768625 1.3954554 1.3256435 0.9333849
1.2468388 0.88479733 0.7972372 0.97044015 1.125269 1.2052152 0.9232218 1.1489255

encoder.2.running_var f4 [128]
00000000: 9ed1 8140 4512 3340 f02f 6940 053a 3d40
00000010: f9fb 2e40 f46f 3940 4910 8340 d5cf 1840
00000020: d40f 0140 80e0 1740 ffcc 0f40 8f7d 8940
00000030: e0b1 5340 16f6 6740 f186 8e40 8dc7 2d40
00000040: b8d4 6e40 f501 5440 e18d 3d40 270e 6740
00000050: 2e37 b93f d354 6540 8bbd d93f 6997 5340
00000060: 9e21 2140 3ec8 2d40 3456 5440 7661 ec3f
00000070: 8db6 3d40 7ed7 5740 ac25 3d40 96c3 5a40
00000080: 487e 3140 32c6 1b40 4736 3840 227c 2e40
00000090: c942 5c40 7d40 ff3f 63f0 2e40 5a8a 2a40
000000a0: 55a3 3740 26f2 4140 fde1 8440 9186 3340
000000b0: d0d9 4140 ebbb 1b40 bc09 7240 81a9 fd3f
000000c0: 0058 7740 66f4 5140 dd21 7040 6136 1b40
000000d0: 7d35 3c40 8d88 3440 1fe5 2d40 af9a 0840
000000e0: b533 3a40 9ac2 4840 05f5 2140 fde5 1840
000000f0: 0d32 eb3f 873e 4e40 9778 4f40 eb2c 3940
00000100: 18c2 0840 2a43 5240 9683 4340 a2cd 9840
00000110: 3ee8 9940 b81b 6540 7ec3 6540 cbab 2040
00000120: 3ae5 3940 4c2a 2a40 baf6 5340 8e7e 2440
00000130: 57bd 0e40 b9d0 2140 2b45 1740 8236 fb3f
00000140: 612f 1340 f725 2140 3060 3840 3adf 3140
00000150: 520c 2840 d316 6840 3b0f 5340 df8e 4b40
00000160: cb63 6c40 9709 1240 81ba 0340 c357 0e40
00000170: f867 3540 8691 0840 70fe 2140 2a88 5e40
00000180: fd41 d33f 0bae 2c40 b9fa 7240 9f8d 8140
00000190: 4179 5340 3316 7d40 6960 0440 ddcc 4740
000001a0: 29e4 0c40 067e 1a40 fc5f 9340 9a6d 6040
000001b0: 6969 6340 6fd1 833f 2e90 ee3f 219e bb3f
000001c0: 815f 4f40 3def 2240 0414 2740 20f1 a440
000001d0: 8a54 a63f e295 8740 1763 5240 ae8d e33f
000001e0: b812 6040 546c 0240 adb8 c13f fe97 f43f
000001f0: ced1 2a40 b64b 4840 cce8 f33f d58e 2640
4.056838 2.79799 3.6435509 2.9566662 2.7341292 2.897458 4.095738 2.387685
2.016591 2.3730774 2.246887 4.296577 3.3077316 3.624395 4.4539723 2.7153046
3.7317333 3.3126194 2.9617846 3.6102388 1.4469965 3.5833023 1.7010969 3.3061163
2.5176768 2.7153468 3.3177614 1.8467243 2.964267 3.3725276 2.9554243 3.4181876
2.7733326 2.433972 2.8783128 2.7263265 3.4415762 1.9941555 2.733422 2.6646943
2.869344 3.0304046 4.1525865 2.8050883 3.0289192 2.4333446 3.7818441 1.9817353
3.864746 3.280542 3.7520669 2.425194 2.9407647 2.8208344 2.7171094 2.1344411
2.909406 3.1368775 2.5305798 2.3890374 1.8374649 3.2225664 3.2417352 2.8933666
2.1368465 3.2853494 3.0549064 4.7751017 4.8096 3.5798168 3.590057 2.5104854
2.9046159 2.6588316 3.311934 2.5702243 2.2303064 2.5283644 2.3635967 1.962601
2.2997668 2.5179422 2.8808708 2.7792497 2.625752 3.626393 3.2978046 3.1805952
3.6935909 2.2818353 2.0582583 2.2241066 2.8344707 2.133882 2.5311546 3.4770608
1.6504513 2.6981227 3.796553 4.0485377 3.3042758 3.95448 2.0683844 3.1218789
2.2014258 2.4139419 4.605467 3.5066895 3.5533087 1.0298289 1.863775 1.4657632
3.240204 2.545852 2.6105967 5.154434 1.2994549 4.2370462 3.287298 1.7777612
3.5011425 2.0378618 1.5134484 1.9108884 2.6690555 3.129621 1.9055419 2.6024678

encoder.3.weight f4 [128, 128]
00000000: 51b4 863c 59b2 ffbc fb6a 3dbd 51b7 10b9
00000010: 9b0b 53bc caf2 36be fed7 62bd 9c62 aebd
00000020: b68d 9b3c 8bf8 c1bc 62ca 05bd c28c b23c
00000030: f2d6 b83c e417 09be 280f 383d d251 103e
00000040: 94e6 abbd 29ef 95bd f853 393e 8493 db3d
00000050: 5c00 133d 6420 603d b96c f43c 7a1a 8c3c
00000060: 0c55 a7bd 2402 6a3e 3df8 09bd 2f45 3e3d
00000070: cc29 cfbb ffa5 c23d 1885 c4bd f93d e03d
00000080: 7d17 473c 91e1 613e 1d10 6b3c 1f31 05bd
00000090: 9f47 1e3e 36b5 123e 7deb dd3c 5a66 133c
000000a0: 1038 203c 4bfd 04be c6a6 bfbc 8d20 013d
000000b0: 91fa f3bc 9b55 03bd 97d4 673e c5e2 be3d
000000c0: 7f00 8e3d 1b18 7cbc b5ea 123e 9c4f dbbd
000000d0: cc16 2ebd 7930 98bd 0751 ff3d f989 20bd
000000e0: 75a2 c73c 48ac 7c3c c13e 10be a624 7cbd
000000f0: e386 9ebd 626d 903c ceb9 163d 048d 99bd
00000100: 32fa d6bd d870 cbbd 6fca c5bd 4d49 4dbd
00000110: 3374 dcbd efa5 cebd 5480 1dbd e0a3 59bd
00000120: 169f 853e c9f7 313d b888 e03c d03c d1bd
00000130: fe22 f6bd 3940 35bd 2cf2 30bc 2fb5 033e
00000140: 36af b83c 202c fa3d 286b db3d f283 f43d
00000150: f12a 113e df43 bebd 4e8a d03d 6f09 ec3c
00000160: 4b99 253d baba 9abd 0d5c b3bb f37d 3ebd
00000170: fa39 5ebd 8a65 d53c 0043 0ebd c247 813e
00000180: 701f 2bbe 5ae5 a93d 718c 43be f216 07be
00000190: 5af9 133e fdca 13be e2fc f1bd b00c 983c
000001a0: 395a ef3c c5be 003e 7d88 f8bd bf44 64bd
000001b0: aa79 03be a151 c8bc 536c 193d cd77 3f3d
000001c0: 9edc f93d 2c32 eabd 9950 f13c c6a3 513e
000001d0: 0358 58bd 5e11 263e 3490 4cbd 9d92 0fbe
000001e0: 25cb a7bd c722 5dbe 391d 0a3e 8474 e63d
000001f0: 3aca cabd 7b1e 683d fcd6 f33d 01c2 7e3d
00000200: 5e4c 863d 4d72 2cbd a19c e13d 23e9 f53d
00000210: 453e 97bd 7117 81bd 6092 b43d a8a9 f53c
00000220: e8d8 0ebb ac29 903d c6ad 313e 2bcb 31bd
00000230: aa1f f13d 5963 173c 6c1e 85bc c398 2e3d
00000240: 1b4b 2b3e eea1 653e bafe 9e3d 98d7 22bd
00000250: b0da 243d 5e7e ac3d 275e 61bd 3a07 3f3d
00000260: a8fe d03b 6635 9e3c cab6 c93c a3f4 2abd
00000270: 05f4 fbbc 8659 1b3d 937e 723d 7350 cfbd
00000280: f2d2 63bc c380 a23d 1825 623e 7a43 ecbd
00000290: 1681 adbd 499a 98bd 6708 0d3e 48f0 13be
000002a0: acf5 863d fd80 74bd 8a14 25bd e368 25bd
000002b0: 413e 433e 6cc8 483c b0d3 aebd a485 97bc
000002c0: 01b4 9739 a3e7 fb3c 0228 353d 7a67 213d
000002d0: 4b0e 3abd fb66 92bd f9e2 0cbd cf15 a5bd
000002e0: 4c81 f23d 8a0b 3c3d 7703 693e 1188 e53c
000002f0: 475e 9b3d 83bc 16be 383d 253d 115c a0bd
00000300: 5363 193e ff30 8a3c 98cc d3bd f868 f5bc
00000310: 2473 fdbd 7d29 edbd c44d 843e 7384 4d3e
00000320: fde1 083d 1e54 dfbb 40d5 cbbc 62b1 76bd
00000330: a154 473e 19fd 7ebc 9daa 253e ba14 dbbc
00000340: 982b 6e3d 5eb3 db3c cb81 973d b1b2 b63d
00000350: 1ad5 0b3c 8738 1a3e 1d21 05be 4f94 9e3d
00000360: f846 453e f39e 5c3d bbca 5c3d 95c6 41bd
00000370: 25bd 503d 6e58 c7bd 8535 26be 5057 f5bd
00000380: d95a 013d f588 50be 00a4 163e e893 363e
00000390: 0773 f83c afde 463d 8bcc d6bd 694f 063e
000003a0: a9d9 6b3b 45b2 473d a2bd 0abe 4633 373d
000003b0: a234 9bbd c869 1fbe b847 c53d b7db 10bd
000003c0: 6ea7 39bd ffcd efbd 5c46 32bd 7370 4f3d
000003d0: 8b24 2c3d 1be5 9fbd 0c0f 953c da58 1cbd
000003e0: 63fd 823d b11f c7bd c5de cbbd 2842 dd3d
000003f0: c7bc 7ebd 1fa5 0cbe ec35 4a3c 6e22 0b3d
0.016443403 -0.031212972 -0.046244603 -0.00013801201 -0.012881185 -0.17866054 -0.055381767 -0.08514902
0.018988471 -0.023678085 -0.03266371 0.021795634 0.022563431 -0.1338802 0.04493633 0.14093712
-0.08393589 -0.07321007 0.18098438 0.10721496 0.035889015 0.05471839 0.029837 0.017102469
-0.08170518 0.22852379 -0.033684004 0.046452697 -0.0063221212 0.095043175 -0.09595698 0.1094932
0.012151596 0.22058703 0.014347103 -0.03251755 0.15457009 0.14326939 0.027089829 0.0089965705
0.009778991 -0.12987249 -0.023394953 0.031525183 -0.029782565 -0.03206406 0.2263969 0.093205966
0.06933688 -0.015386607 0.14347346 -0.10708544 -0.04250221 -0.074311204 0.124666266 -0.03919408
0.024369458 0.015421934 -0.14086439 -0.06155839 -0.07740571 0.017630283 0.03679829 -0.074976
-0.1049694 -0.099336326 -0.09657752 -0.050118733 -0.10764351 -0.10090243 -0.03845246 -0.0531348
0.26097935 0.043449197 0.027408943 -0.10216677 -0.12018393 -0.0442507 -0.010799926 0.12862085
0.022544485 0.122154474 0.10713798 0.11939229 0.14176537 -0.09290289 0.101826295 0.028813092
0.040429395 -0.075551465 -0.00547362 -0.046506833 -0.05425451 0.026049394 -0.034731865 0.2525006
-0.16711211 0.082956985 -0.19096543 -0.13192347 0.14450589 -0.14432903 -0.11815812 0.018560737
0.029217826 0.12572773 -0.12135408 -0.055729624 -0.1283938 -0.024452986 0.03745682 0.04674511
0.122002825 -0.11435351 0.029457377 0.20472631 -0.05281831 0.16217563 -0.04994221 -0.14020772
-0.081930436 -0.21595298 0.1348771 0.11252692 -0.09901853 0.056669693 0.119062394 0.062196735
0.06557535 -0.042101193 0.11016203 0.12007358 -0.07384924 -0.06303299 0.08816981 0.029988125
-0.0021796767 0.07039198 0.17351446 -0.043406647 0.117736176 0.009239995 -0.016249858 0.042626154
0.16727869 0.22425053 0.07763429 -0.039756387 0.04024762 0.0842254 -0.05502143 0.04663775
0.0063780136 0.019312572 0.024623293 -0.04173721 -0.030756006 0.037927173 0.05920274 -0.10122766
-0.013905274 0.079347156 0.22084463 -0.11536308 -0.08471887 -0.074513026 0.13772736 -0.14447129
0.06589827 -0.059693325 -0.04030279 -0.04038323 0.19066717 0.012254816 -0.0853647 -0.018496342
0.00028935078 0.030750101 0.044227608 0.039405324 -0.045423787 -0.07148548 -0.034396145 -0.080608
0.11841068 0.045909442 0.22755228 0.028018983 0.07586341 -0.14720349 0.040341586 -0.0783006
0.14979295 0.016869066 -0.103417575 -0.02995728 -0.12375477 -0.11580179 0.2584058 0.20070057
0.033418644 -0.0068154475 -0.024881959 -0.06022776 0.19465877 -0.015563273 0.16178365 -0.026743282
0.058147043 0.026818927 0.07397803 0.089208014 0.008534694 0.15060626 -0.13000913 0.07743131
0.19265354 0.053862523 0.053904276 -0.047308523 0.050961632 -0.097336635 -0.16231354 -0.11979544
0.03158078 -0.20364745 0.14710999 0.1782986 0.030328287 0.04855221 -0.10488232 0.1311623
0.003598789 0.048753995 -0.13548902 0.044726633 -0.07578398 -0.15567696 0.0963282 -0.035365786
-0.04532569 -0.117092125 -0.04352413 0.05064435 0.042027038 -0.0780737 0.018195651 -0.038170673
0.06395986 -0.097228415 -0.09954599 0.10803634 -0.06219175 -0.13734864 0.012341958 0.03396838

encoder.3.bias f4 [128]
00000000: 540a a83e a018 963e 9c2a c73d 4d90 803e
00000010: bf68 7d3e d006 263e 5e69 343e 9bae 363e
00000020: 9021 513e 466c 813e 82ec 923e e22f 443e
00000030: a540 433e f1db 793e 4ab4 843e a298 743e
00000040: 3484 113e a9de 1d3e 2028 813e df52 383e
00000050: 8bd8 343e 02d6 aa3e 4627 613e 946d 323e
00000060: e409 313e cd3e c93e 667b 483e 73d6 1c3e
00000070: d08a 6d3e f3cf 403e baab 533e 4ea9 873e
00000080: 5ce2 7c3e a521 5e3e eb73 e13d b89b 283e
00000090: 558a 363e 4007 0f3e 3477 783e fc4f 833e
000000a0: 00f2 263e a9d1 cb3e fa98 e83d 1f59 203e
000000b0: 7d05 2f3e ba32 773e 9d2d f83d 2a50 503e
000000c0: a316 f43d d1dd 5d3e d52b 843e c40c 533e
000000d0: 19a5 0e3e 8668 f53d 9b37 3e3e 7502 663e
000000e0: 7a4a 113e 95ea 4f3e 05a4 4a3e c33a 793e
000000f0: 00eb 843e a0c9 4f3e 79cc 443e daa5 553e
00000100: c051 0e3e 151f 6c3e e660 953d 905e 3b3e
00000110: ebfd 373e 1f97 103e a243 543e 4dd4 8a3e
00000120: a378 003e 6eed 223e 0ded 763e 5708 663e
00000130: fff0 6c3e 75eb 723e 25f3 063e f825 fe3d
00000140: 8682 053e ce29 503e a0bf 5c3e f7fd 273e
00000150: 300c 793e c27b 873e 1d22 543e 3865 c03d
00000160: e47a e23d 96ad 213e d88c 5e3e c877 823e
00000170: a5ef 223e 52ca 0b3e 56fb 383e 8cd9 a23e
00000180: 4074 173e a4b7 793e c6b5 2f3e 30ff 463e
00000190: 7fe5 1a3e b8bf 4e3e fb26 a13e b69c 723e
000001a0: b2ac 623e 4896 9f3e 3146 a83e 5cde 823e
000001b0: f41f 933e 1d32 723e 8d42 033e 44c6 4d3e
000001c0: dec0 033e 8f21 513e 89b7 383e 515e 833e
000001d0: ebd9 aa3e 8718 313e c5d5 313e ee06 593d
000001e0: b68e 2a3e 21bb ae3e 2a12 383e 55a8 4c3e
000001f0: e5a9 823e 9914 383e dc0b a63e 0e2c 0a3e
0.3282038 0.29315662 0.09724924 0.25110093 0.24746989 0.16213536 0.1761832 0.17840044
0.2042296 0.2527792 0.28696066 0.19158891 0.19067629 0.24400307 0.259188 0.2388635
0.14210588 0.1541697 0.25225925 0.18000363 0.1766073 0.333664 0.21987638 0.17424613
0.17288929 0.39305726 0.19578323 0.15316181 0.23197484 0.18829326 0.20670977 0.26496357
0.24695724 0.21692522 0.11008438 0.16465652 0.17826207 0.1396761 0.24264222 0.2564696
0.16303253 0.39808396 0.11357303 0.15658997 0.17091937 0.24140444 0.12118075 0.2034308
0.1191838 0.21666647 0.2581469 0.20610338 0.13930167 0.11982827 0.185759 0.22461875
0.14188567 0.2030433 0.19789131 0.24338822 0.2596054 0.20291758 0.19218625 0.20864049
0.13898373 0.23058732 0.072938725 0.18297791 0.17967956 0.14120148 0.20728925 0.27115098
0.1254602 0.15910885 0.24113865 0.22464119 0.23138808 0.23722632 0.1317869 0.12409586
0.13038072 0.20328447 0.21557474 0.16405474 0.24321055 0.26461607 0.20716138 0.09394306
0.11058596 0.15788874 0.21733415 0.2548201 0.1591173 0.13651398 0.18064627 0.318066
0.1479044 0.2438646 0.17159185 0.19433284 0.15126608 0.20190322 0.31475052 0.23692593
0.2213619 0.31169343 0.32866052 0.25560272 0.28735316 0.23651929 0.12818356 0.20095164
0.12866542 0.20422958 0.18038763 0.25657895 0.33369383 0.17294513 0.17366703 0.052985124
0.16656002 0.34127143 0.17975679 0.19986089 0.25520244 0.17976607 0.32430923 0.13493368

encoder.5.weight f4 [128]
00000000: c0a4 773f a524 823f 5469 643f 85d4 8c3f
00000010: 1947 713f 6f38 813f 0814 6f3f 0467 723f
00000020: b81a 6b3f ab43 793f e312 773f a190 673f
00000030: c56d 623f a4c2 6f3f 2129 903f 09bf 843f
00000040: 5385 853f 21a7 683f de0a 4a3f b885 893f
00000050: 8779 803f a0e5 6a3f 1cae 713f f5bc 693f
00000060: e999 843f 25f3 653f 4350 873f cf77 5b3f
00000070: 0999 723f 7020 6e3f 69bd 803f 88bb 743f
00000080: ec9e 563f ea35 7d3f ab2a 593f 36e8 5e3f
00000090: 77e5 793f 141c 663f 2d0a 7d3f 7dd0 863f
000000a0: ca74 633f 50ab 6c3f e3c6 7d3f 4176 6c3f
000000b0: 0217 713f fa34 7e3f 1952 783f 430b 553f
000000c0: d9ad 713f e18d 6d3f aac5 6c3f 5fe1 723f
000000d0: 00c1 893f 30b0 623f d57d 783f 08ba 6e3f
000000e0: 012e 803f 047a 833f 7ef7 6e3f a09a 453f
000000f0: c225 8a3f 4128 613f 7bf0 5e3f d0dc 833f
00000100: b294 6e3f 2fba 7f3f 78b7 7a3f fdfe 6b3f
00000110: cc7d 693f 2450 633f d9da 733f 8090 773f
00000120: 8c64 673f 1459 893f 6941 863f 8f9c 6a3f
00000130: 5a9f 743f 64c0 703f e87c 6e3f c77a 6a3f
00000140: 22a2 7e3f 6431 6d3f 005b 713f 3c1b 5f3f
00000150: 2f32 773f 5362 793f 1349 7e3f e090 813f
00000160: 9e0c 7e3f 7a78 5a3f 2694 6d3f 439d 7a3f
00000170: 91f6 823f 53c8 643f d631 683f 25ef 833f
00000180: 7451 6b3f 4277 693f 3a86 713f 94ff 633f
00000190: 7034 703f 26bd 6e3f 5b2d 693f d988 713f
000001a0: f628 833f 2972 6d3f b92b 7c3f aa07 813f
000001b0: 9ff0 613f c76b 6c3f b4f4 763f 77a2 613f
000001c0: b08a 683f 5aa0 5b3f b089 803f 6724 813f
000001d0: d4ff 763f 0924 693f ba1e 6d3f e09b 873f
000001e0: 6bf3 893f 2a57 733f 9ccd 733f d291 763f
000001f0: 99b8 683f 8046 6f3f d964 923f aa2b 873f
0.96735764 1.0167433 0.8922322 1.1002356 0.9424911 1.0095347 0.9338994 0.9468844
0.91837645 0.9736888 0.96513194 0.9045506 0.88448745 0.93656373 1.1262552 1.0370799
1.0431312 0.9088002 0.7892283 1.0743933 1.0037087 0.9175663 0.94406295 0.9130395
1.035947 0.89824134 1.0571369 0.8572969 0.94764763 0.93018246 1.0057803 0.9559865
0.83836246 0.9891039 0.8483073 0.87073076 0.9761576 0.89886594 0.9884365 1.0532376
0.8885008 0.924489 0.991316 0.9236794 0.9417573 0.99299586 0.9700027 0.8322031
0.94405895 0.92794615 0.9248911 0.9487514 1.0762024 0.8855009 0.97067004 0.9325261
1.0014039 1.0271611 0.93346393 0.77189064 1.0792773 0.8795205 0.87085694 1.0301762
0.9319564 0.9989347 0.979362 0.92185956 0.91207576 0.8879416 0.9525581 0.96704865
0.903878 1.073031 1.0488712 0.9164514 0.9555565 0.94043565 0.9315934 0.91593593
0.99466145 0.9265349 0.9427948 0.8715093 0.9656095 0.97415656 0.9933025 1.0122337
0.99238 0.8534008 0.9280418 0.9789621 1.0231496 0.8936817 0.90701044 1.0307356
0.9192116 0.911976 0.9434544 0.89061856 0.93830013 0.9325737 0.9108483 0.9434944
1.0246875 0.9275232 0.98504215 1.0080464 0.88257784 0.92351955 0.9646714 0.88138527
0.9083662 0.8579155 1.0042019 1.0089234 0.9648411 0.9107061 0.9262501 1.0594444
1.077741 0.95054877 0.9523561 0.96316254 0.90906674 0.9346695 1.1437026 1.05602

encoder.5.bias f4 [128]
00000000: 9340 46be 2283 be3d 6057 40bf 4e30 583e
00000010: 4180 673d 3e5f b03d 23a1 8fbd 76c7 1e3e
00000020: ce5e ed3e 83be 2d3e 75ae 18bd 1c57 47be
00000030: a647 5e3e ac43 af3e 1633 0f3c 44a4 2d3e
00000040: f35b 1ebd b94f c9be c5bf 523f 028b ed3c
00000050: b8a2 8d3e 598f 8d3e e8fd a53d bf0c ab3e
00000060: 30ac 133e b5e2 563e 601c 653e 5ea2 53be
00000070: 38c3 9e3e 8155 823e 5fcc f6bd 94b2 bd3d
00000080: 8307 033f 675a a83e d2af b4bc ffab c1bd
00000090: 7751 c03c 2026 b33e df8b 103e 5000 75bd
000000a0: 0458 693e f7c5 ed3e c4ce b53d 8b0a 3dbd
000000b0: 5066 53be 8de7 77be 4920 e6bc 2e3f b33e
000000c0: df65 21be 689c 8b3c 4d13 8b3e 6a09 113f
000000d0: d224 233e 3477 803d 7d91 f7bd cd88 293e
000000e0: 4175 f0bd 457e e43d 01be 6abe edbf e03e
000000f0: 0a42 14bd 209b 66be 6602 0ebe 9f80 0abe
00000100: d8d0 033d 493a 80bc 80b9 7bbe dae5 85be
00000110: 4230 943e b680 b73e c014 be3d 756c 7fbc
00000120: 0d75 0ebe 1de9 54be 3bfd 203e ab93 423e
00000130: bb9e 163e f717 ef3d 47e5 213e 0d1c 85be
00000140: 11ae 6ebe 9746 aa3e 7b96 d0bc 609d b9bd
00000150: 5a8e c13e 3c90 933e fcfb cf3e 9612 2fbe
00000160: b6b6 a8bd 5f14 cc3e 87fe ffbc 51cd 6a3d
00000170: aaf8 1bbe 5c6c cebc f425 13bc 6661 c13e
00000180: bfd1 45be 1e23 533e 21b7 fe3d 3d88 53bc
00000190: e498 013e 9220 fe3d 51d5 093d 57aa 863d
000001a0: bfaa 153e dcc7 f03e f8c5 5c3e c71f ab3d
000001b0: b590 533e 97b6 f7bc 2a30 bd3d cc6a 613c
000001c0: 3798 7c3d 4883 2a3e 8cec 48be 1f88 a03e
000001d0: 553a 1ebd 034f 043e 9b81 453e ea55 cabd
000001e0: cb5b c1bd 0028 533d e1f9 253e fc8b 7dbe
000001f0: 7e74 9a3e 76d3 4fbd 466b 0e3e a19f a8bc
-0.1936057 0.09302355 -0.75133324 0.21112177 0.056518797 0.08611916 -0.07013156 0.15505776
0.46361393 0.16967206 -0.03727575 -0.19466823 0.21707019 0.34231317 0.008740207 0.16957194
-0.03866191 -0.39318636 0.8232387 0.028996948 0.27663207 0.27648428 0.081050694 0.33408162
0.14421153 0.2098492 0.22374105 -0.20667407 0.31008315 0.2545586 -0.120506994 0.09262577
0.51183337 0.32881472 -0.022056494 -0.09456634 0.023476345 0.34990025 0.14115857 -0.05981475
0.22787482 0.46440098 0.08877328 -0.046152633 -0.20644498 -0.24209423 -0.028091567 0.3500914
-0.15761517 0.017042354 0.27163163 0.5665499 0.15932015 0.06272736 -0.120882966 0.16556092
-0.117411144 0.111568965 -0.22924043 0.43896428 -0.036195792 -0.22520113 -0.13868102 -0.13525628
0.03218159 -0.015652793 -0.24582481 -0.26151925 0.28943068 0.35840386 0.092813015 -0.015589823
-0.13911839 -0.2079205 0.157216 0.19001643 0.14708988 0.11674493 0.15810119 -0.25997964
-0.23308589 0.3325698 -0.02546238 -0.0906322 0.37803918 0.2882098 0.40621936 -0.17096934
-0.08237974 0.39859292 -0.031249298 0.05732471 -0.15231577 -0.025198154 -0.008981217 0.37769622
-0.19318293 0.20618865 0.12437273 -0.0129109 0.1265598 0.12408556 0.0336507 0.065754585
0.14615916 0.4702748 0.21559894 0.083556704 0.2066067 -0.030238433 0.09237702 0.0137583725
0.0616686 0.16651642 -0.19621485 0.31353852 -0.03862985 0.12920766 0.19287722 -0.09879668
-0.09441336 0.05155182 0.16208602 -0.24760431 0.30167 -0.050738774 0.13908109 -0.02058393

encoder.5.running_mean f4 [128]
00000000: 9db5 a73f ba24 b53f 4453 a43f e681 9a3f
00000010: dfd4 8b3f 561a 9b3f b475 9c3f 2a7f 533f
00000020: 2e0b 823f 8d4a 933f 9175 cf3f 0eb8 ac3f
00000030: 64ca 433f 3d66 8c3f 080a d73f cfa3 c23f
00000040: c917 833f 0e66 883f b751 8d3f 0ffc 943f
00000050: 4816 9b3f 2d84 a73f c172 8d3f 04a0 933f
00000060: fcae a23f a02f 843f 30ac 853f 632f 813f
00000070: 1fcc 913f 2e5c 753f e854 903f be0a bb3f
00000080: e32c 8f3f 4e06 b33f 79ba 373f 6267 a93f
00000090: 209b a33f 9409 793f af92 ae3f 3ea2 973f
000000a0: 31d3 713f 4897 a83f 501e 8a3f 8046 813f
000000b0: 6ed9 903f 4195 8f3f e533 5e3f 5b99 713f
000000c0: 34bc 833f 1b47 703f 4247 713f b18e 933f
000000d0: 4c37 8a3f 406a 7c3f c754 c03f b708 6d3f
000000e0: 6f6e ad3f 8125 9b3f df7b 9e3f 600f 853f
000000f0: 3694 b63f b7b6 863f 613a 983f c2f5 b53f
00000100: 136b 843f 2afd bb3f 0369 863f a0d9 893f
00000110: 8858 883f 7cfa 773f 96a9 973f 50a9 8f3f
00000120: 0513 763f 0024 8e3f 47c4 cf3f c0c7 863f
00000130: ca42 a93f 7cc5 8c3f bd8d 8a3f 6ab0 9c3f
00000140: 54d8 c03f 6293 783f 6df1 703f ce4d 503f
00000150: 3ae2 8c3f 3e4b 963f b932 993f 8f92 973f
00000160: 6699 933f a5a8 653f 316b 953f 640c b83f
00000170: da6c 873f 6e18 813f 0795 993f 649b 9a3f
00000180: f167 6d3f 07ae 843f cc60 793f 2b3f 793f
00000190: 5356 823f fdf2 6a3f f718 9b3f df30 9d3f
000001a0: 040b 923f e691 863f 22a4 b73f 41cb 903f
000001b0: 6639 8e3f a9e7 9f3f 0ec2 823f efd9 713f
000001c0: 9e6f 453f 41de 8e3f 12ba 8c3f f0a4 9a3f
000001d0: 2e50 ba3f 5175 693f fa33 8a3f d1c3 7a3f
000001e0: e8da ab3f 87e7 893f d0d4 9f3f 1989 993f
000001f0: 45ec 833f c9b9 8f3f 3974 c83f 10c4 883f
1.3102299 1.4151833 1.2837911 1.2070892 1.0924338 1.2117412 1.222342 0.8261591
1.0159662 1.1507126 1.6207753 1.3493669 0.764807 1.0968701 1.6799936 1.520624
1.0241634 1.0656145 1.1040562 1.1639422 1.2116175 1.3087212 1.1050645 1.1533208
1.2709651 1.0327034 1.0443172 1.0092586 1.1390418 0.9584378 1.1275911 1.4612653
1.1185573 1.3986299 0.7176891 1.3234675 1.2781715 0.9728024 1.3638514 1.1846387
0.9446288 1.3171167 1.0790501 1.009964 1.1316354 1.1217424 0.86797935 0.94374627
1.029181 0.938585 0.94249356 1.1527921 1.0798125 0.98599625 1.5025872 0.9259142
1.3549327 1.212082 1.2381552 1.0395317 1.426398 1.052451 1.1892816 1.4215624
1.0345176 1.4686635 1.0500797 1.0769539 1.0652018 0.96866584 1.1848629 1.1223545
0.9612277 1.1104736 1.6231774 1.0529709 1.3223507 1.0997767 1.0824505 1.2241337
1.5066018 0.9709989 0.94118387 0.8136872 1.1006539 1.1741712 1.1968604 1.1841601
1.1531188 0.89710456 1.1673337 1.4378781 1.0580094 1.008558 1.1998605 1.2078671
0.92736727 1.0365609 0.97413325 0.9736201 1.0182594 0.9177702 1.2116994 1.2280539
1.1409612 1.0513275 1.4346964 1.1312028 1.1111267 1.2492572 1.0215471 0.94473165
0.7712344 1.1161577 1.0994284 1.2081585 1.4555719 0.91194636 1.0797112 0.9795504
1.342618 1.0773782 1.248682 1.1994964 1.0306479 1.1228572 1.5660468 1.0684834

encoder.5.running_var f4 [128]
00000000: ad9d 0040 8144 2740 4fa9 2740 51f1 3d40
00000010: dc95 fc3f efcf 0b40 f16f 0b40 8f60 b23f
00000020: 04dd f83f 4182 0740 da2f 3440 0ce5 2940
00000030: 4ddf a03f c254 1540 9b02 4b40 1017 3540
00000040: e8dc 0540 9f48 1540 7f00 0640 41e7 3640
00000050: e835 2640 8460 0e40 bb4c ed3f b08f 1240
00000060: facc 2540 83b3 db3f 5d4e 0c40 853c c33f
00000070: 4653 0d40 7d03 f83f 938d 1740 d15c 2d40
00000080: a9fa d53f b4b8 4540 5c2b a73f 854d 0c40
00000090: 4fb9 0940 b184 dc3f da52 4340 d2f5 1d40
000000a0: 6d99 c73f f9f7 2540 ec05 1440 6a1f be3f
000000b0: 07c7 0a40 8555 2b40 d85f ef3f b3f0 ab3f
000000c0: 5e86 e03f 64c7 e03f fa8c e53f c414 2d40
000000d0: 3cf9 1d40 b983 bf3f 539e 2840 5d5b e33f
000000e0: 3b15 2e40 7233 2c40 bbc1 1f40 e73c bf3f
000000f0: a2db 3040 afe0 fd3f 35b1 d83f 31a5 3640
00000100: 7a4b f03f 4184 2840 a8e5 1640 9bae 1240
00000110: 0d3f f03f 4b38 da3f 1672 0440 1d15 0340
00000120: 631e e53f 907e 3440 d9f0 4d40 2bc9 e13f
00000130: 0b5c 0c40 e921 0740 c008 f93f 6c5c 2440
00000140: 847e 3c40 a456 0440 8666 c83f 84d0 c33f
00000150: 3cac 0440 44dc 0f40 8090 2840 342f 2d40
00000160: a579 2340 fcc2 e73f 8dbd f83f c3c8 1340
00000170: 088b 1c40 7587 ee3f c804 1040 ce14 1740
00000180: f827 e73f b1ff dd3f 1cf9 fa3f 1f34 0040
00000190: 6a0a 1740 bd3e ca3f 9071 f33f b869 0d40
000001a0: ed02 1e40 bcb4 f83f 7fe7 2a40 e40c 0340
000001b0: 86de d63f bf00 1040 5bdf 0c40 1df9 fb3f
000001c0: bff2 ab3f 13c8 0f40 a911 1f40 b00e 2640
000001d0: 28d4 1140 bea3 b63f 35e2 0640 8d84 1d40
000001e0: 7ab7 3b40 f009 d33f 45c5 2340 45fc 0940
000001f0: 2ba7 ec3f 0262 e73f af26 6140 1ad6 1440
2.0096238 2.6135561 2.6197088 2.9678538 1.9733233 2.1845663 2.1787074 1.3935717
1.9442449 2.117325 2.8154206 2.654605 1.2568146 2.3332982 3.172034 2.8295326
2.091608 2.3325574 2.0937803 2.8578646 2.5970402 2.2246408 1.8539041 2.29002
2.5906358 1.7164158 2.192283 1.5252844 2.2082076 1.9376065 2.368016 2.70879
1.671712 3.0893984 1.3060107 2.1922314 2.1519353 1.7227994 3.0519319 2.4681287
1.5593697 2.59326 2.3128614 1.4853337 2.1683977 2.6770947 1.8701124 1.343283
1.7541006 1.7560849 1.7933648 2.7043924 2.468337 1.4962074 2.6346633 1.7762257
2.7200458 2.69064 2.4961994 1.4940461 2.7634053 1.9834193 1.6929079 2.8538325
1.8773034 2.6330721 2.357767 2.291907 1.8769242 1.7048429 2.0694633 2.0481637
1.7899898 2.8202248 3.2178252 1.7639517 2.1931179 2.1114447 1.9455795 2.568141
2.945222 2.0677881 1.5656288 1.5298009 2.0730124 2.247819 2.6338196 2.706006
2.5542996 1.810638 1.9432846 2.3091285 2.4459858 1.8635088 2.2502918 2.3606448
1.8059072 1.7343656 1.9607272 2.0031812 2.3600106 1.5800396 1.9019032 2.2095776
2.4689286 1.9430156 2.6703794 2.0476618 1.6786659 2.2500455 2.2011325 1.9685398
1.3433455 2.2465866 2.485453 2.5946465 2.278574 1.426872 2.1075566 2.4612153
2.9330735 1.6487408 2.5589154 2.1560223 1.8488516 1.8076785 3.517986 2.3255677

encoder.6.weight f4 [128, 128]
00000000: 145f 073e 3cf7 01be 82a8 43be e3f4 40bd
00000010: 300d 9b3d 5d10 25bd fabb 39b8 6942 043e
00000020: e840 ae3b 5165 6c3d c56c 84bc c848 153d
00000030: 16f5 533d cb8d 3f3e bc46 32bb cd88 8e3d
00000040: 65a1 bf3d 2d28 843e 7aa7 973d e1bc ce3d
00000050: 5ceb 413d 7f43 8b3d d77b 263e 1b74 5f3e
00000060: 45b4 6bbd fa01 63bd 408c 36bc 8ebc b03c
00000070: 0447 1dbe 8ce1 b03c 061c 0fbe 5263 0bbe
00000080: 250c 083e 72c2 a73c 50e0 233e 5d9c 85bd
00000090: 10d7 68bc b359 c2bc ad01 9ebd 1b47 6abb
000000a0: 75a2 a53d 44aa 02bd cc91 cf3c ef0b d03d
000000b0: 71c4 ebbd 1eb2 78bd 56a9 fe3d 7b24 113d
000000c0: 2bfa 78bd 88bf 94bd 7c0b d13b 4b67 94bc
000000d0: 5bf6 3bbc 4815 493c 807d 18be 670b 09bd
000000e0: c728 18bd 1c1a b43c 8699 1f3c 5508 38bd
000000f0: bcf7 37bd 69aa c03d 2738 12be c754 8bbd
00000100: 79bc 50bd 636a 09bd 2dbe 3a3e f019 c53c
00000110: 7d35 893d 3655 a03d e6dd 313d 041b 8cbd
00000120: f3c7 203c 44ca 10be c0f9 53bd 6c20 843d
00000130: 8f7a 3d3d 3d38 2bbd 1bf3 cb3d b0fe 8cbd
00000140: b2b7 cabd 74d2 f9bd 074d 583d 6265 29bd
00000150: e2e5 e93d 57eb 4e3e 3a3a a03b fd19 3f3d
00000160: d56a f13d 61e8 a4bd 9abd f23c 40c9 8abd
00000170: 425f f9bd 1aba 3fbd f35c 1ebd 3058 483e
00000180: 6b6c 373d a0df 85bd 4bde 7cbd af4b e93d
00000190: f9b0 023d b6a8 f93d c9a7 8b3c 97b7 d0bc
000001a0: f478 45bb 3544 2fbe 5f86 95bd 0040 c03d
000001b0: 8c64 ff3d 764b 0cbe 003f 5b3e ddd5 d4bc
000001c0: 5d27 923d 53b2 243e 900d 343e a5f6 edbd
000001d0: 56a6 f7bd 04ff 5d3d a0ca b1bd fcf2 8fbc
000001e0: e5bf 913d af84 733d 84f7 0b3e df6d 06be
000001f0: eb8a 383e 19c6 8ebd 22b0 fabd d689 993d
00000200: 1eb6 e93a ea27 1c3e b190 713c 6734 703d
00000210: 91bd 14bc 07e8 b63d 8ce8 e7bd 7fba 67bd
00000220: fcf0 dc3c cdd7 ed3c 5c71 e73c 3bec 423c
00000230: 88d9 55bd f2cf f53d d779 f03d e700 6d3e
00000240: 6d48 b2bd 1d65 e03d 5df1 b23d 0364 64bd
00000250: d864 5b3e 8560 e53d 6e3f ccbd a7dd 38bc
00000260: 1734 2b3e 5357 ee3c 1dd2 783e 489d 923d
00000270: 6789 b63d d605 b3bd 0359 343e 463b bdbd
00000280: 710a 0b3c e744 173e 0e63 aebd f331 4fbc
00000290: 8e46 2d3a ccbe 8e3b 6777 573e 222b f53d
000002a0: 4c02 9b3d b1c6 2fbd d380 2fbd 91bb 00be
000002b0: 8695 543d 192b c1bd e436 cc3b 657d b1bd
000002c0: b72c 7dbe b683 253e 97ac 66bd 986a 3b3d
000002d0: cd7b 7bbd 6ac8 e7bb b030 cbbd c3fd 32bd
000002e0: 0e49 13bd edbd 0abe f260 783d d459 703d
000002f0: aa82 cebd 2895 84bd 2750 f4bd b648 ffbd
00000300: 6184 313d 922b d0bc 0c7b 1cbd 19aa 6fbc
00000310: d59d f03c 23e4 a2bd 71bc bcbd aeba 4fbc
00000320: 8546 debb c719 153e 90cc 293d afc4 873d
00000330: 3b6e b7bd be9b abbd d66e 263d 7ce3 cb3d
00000340: 3d11 723d 6f66 953c 91c9 ccbd f5a5 ddbd
00000350: 1917 70bd d74e 333c 554d b03d a754 1dbd
00000360: c8ae fe3d ab72 17bc c739 90bc 1f47 bcbd
00000370: 1cb4 08be ab6d 5b3e aa6c 3a3e ea51 0dbd
00000380: 89f9 0f3d 3b25 033e fac8 e63d e712 67bd
00000390: 33eb a5bd 9a40 75bd 4a0b 29be 3d97 923d
000003a0: 76d4 95bd 3673 173d ac4b 7eba ef9b 36be
000003b0: a4c4 b5bd 88f5 873d e818 92bb 00e5 993d
000003c0: bbae bebc c19d 333e db6d 2d3e c77a a4bd
000003d0: f712 763d 25ea 06be 3766 65bd 22c0 2abd
000003e0: 07b7 17be 4e9f 5d3e 232c c43d a4f8 893d
000003f0: c1a5 82bb d4a0 ee3d 8167 37bd 10ba a93c
0.13219863 -0.12691969 -0.1910725 -0.047108542 0.07570875 -0.04029881 -4.4282504e-05 0.12915958
0.005317796 0.05771381 -0.016165147 0.036446363 0.051747404 0.18706433 -0.0027202806 0.069596864
0.093569554 0.25811902 0.074049905 0.100946195 0.047343597 0.06799983 0.16258179 0.21821634
-0.057544965 -0.055421807 -0.011141837 0.021574285 -0.15359122 0.021591924 -0.13975534 -0.13612106
0.13285883 0.020478461 0.16003537 -0.065239646 -0.014211431 -0.023724413 -0.077151634 -0.0035747949
0.08087627 -0.03190066 0.025338076 0.10158526 -0.115120776 -0.06071674 0.12434642 0.03543518
-0.060785454 -0.07263094 0.006379543 -0.01811566 -0.01147231 0.01227314 -0.14891624 -0.03345814
-0.037148263 0.021985106 0.009741193 -0.04492982 -0.044913992 0.09407503 -0.14279233 -0.06803279
-0.05096099 -0.033548724 0.18236609 0.02406022 0.06699655 0.07828753 0.04342451 -0.0684109
0.009813297 -0.14139658 -0.051751852 0.064514965 0.04625946 -0.04180168 0.09958478 -0.06884515
-0.09898318 -0.12198344 0.052807834 -0.04135645 0.114208 0.20206963 0.0048897536 0.046655644
0.11787955 -0.08052135 0.029631425 -0.06776667 -0.12176372 -0.04680834 -0.038662862 0.19564891
0.04478113 -0.06536794 -0.061735433 0.113913886 0.031907056 0.12190382 0.01704778 -0.025478167
-0.0030131908 -0.17115863 -0.0730102 0.09387207 0.1247035 -0.13700661 0.21410751 -0.025980884
0.07136414 0.1608365 0.17583299 -0.11619309 -0.12092273 0.05419828 -0.08681226 -0.017571919
0.07116679 0.05945271 0.13668638 -0.1312785 0.18021743 -0.06971378 -0.12240626 0.07496993
0.0017830764 0.15249601 0.01474397 0.058643725 -0.009078399 0.089309745 -0.11323652 -0.05657434
0.026970379 0.029033566 0.028252296 0.011897142 -0.052209407 0.12002553 0.11741989 0.23144875
-0.0870522 0.10956786 0.08737443 -0.05575944 0.21425188 0.1120005 -0.09973036 -0.011283315
0.1671909 0.029094374 0.24298902 0.07158905 0.08912926 -0.087413475 0.1761208 -0.09239821
0.008486376 0.14772378 -0.08514987 -0.012646186 0.000660994 0.004356241 0.21041642 0.119711176
0.075687975 -0.042914096 -0.042847466 -0.12571551 0.05190041 -0.09432048 0.0062321294 -0.08666495
-0.24724089 0.16163525 -0.05631694 0.045755953 -0.061397363 -0.0070734518 -0.09921396 -0.043699037
-0.035958342 -0.13549013 0.06063933 0.058679417 -0.10083516 -0.06473762 -0.1192935 -0.124650404
0.043339137 -0.025411401 -0.038203284 -0.014627957 0.029372135 -0.0795367 -0.0921563 -0.012678785
-0.006783309 0.14560615 0.04145485 0.06629311 -0.08956572 -0.08379315 0.040633045 0.099554986
0.05909847 0.01823732 -0.09999383 -0.108226694 -0.058615778 0.01094409 0.086085 -0.03841081
0.12435681 -0.009243648 -0.017605675 -0.09193253 -0.13349956 0.21428554 0.18205515 -0.034501947
0.035150085 0.12807171 0.11268802 -0.05641451 -0.08101501 -0.059876062 -0.16508213 0.07157753
-0.07315914 0.036975108 -0.0009700607 -0.17832921 -0.08875397 0.06638628 -0.0044585355 0.075143814
-0.023276677 0.17540647 0.16936438 -0.080312304 0.06007668 -0.13175257 -0.056005683 -0.04168714
-0.14815913 0.21642801 0.09578731 0.067368776 -0.0039870446 0.11651769 -0.044776443 0.020718604
