models/y02vae_D64_layers(128, 128)__banana_dim64_b0.02_sigma5.0.pt (torch, 352054 bytes, 30 tensors)

encoder.0.weight f4 [128, 64]
00000000: 25d8 7ebc 9dd3 39bf c452 113a 95de 13be
00000010: d5e1 aeb9 cec1 8cbe cba6 a8bb 5949 373c
00000020: 9f14 513d 47bb 57be 628d 793d 8249 a5bd
00000030: 9c82 39bd 1a87 923c 38e9 e83b 1c84 4bb9
00000040: feb2 253d 096e 833d 1a3d 9b3b 093c aebe
00000050: e2ad d23c bda3 24bc 5a9f 29bd c963 343e
00000060: f269 bb3a d9ba a5be 31e2 7aba 2098 ee3d
00000070: e653 dc3a 2f19 c33b 251d ccbc 741a 443e
00000080: 3ef1 63b9 fb0e ffbb 2a03 283b 7d00 9bbd
00000090: eb04 f3bc 01c9 813e 3ec0 2a3b b349 8b3c
000000a0: 5400 a23c ccb7 0a3c 9650 11bd 6dc8 003f
000000b0: 8f3e bfbd 293a c6bd 5608 63bd 6d59 233e
000000c0: 9343 18bb e308 1c3f 851d e73b dd48 9abb
000000d0: cc3e 543a 16cf a6bd 1682 a6bd 2102 1b3e
000000e0: 78df 60bb c78f 1e3d 92e5 96bb 4aa8 47bb
000000f0: a420 8fba a0c8 5cbe 007b b63d 04cd 91be
00000100: 9cea 8ebc f1c3 873e 3dd6 cabb d5a7 0ebd
00000110: 6fb8 5539 124b 673d a730 52bb e773 79bd
00000120: 42a7 e5bb 931c 9a3e d9ab 1dbd 9e4b 04be
00000130: 92fb 49bd 0618 2ebd bcee 8d3d a772 223b
00000140: 6952 273d 8446 133d cfdf 003c 6c18 1f3d
00000150: 6f6f ad3d 772a fe3b 5e11 cb3b f181 8dbc
00000160: 90e4 8b3a 47dc 13bc fe72 b3b9 1d04 613e
00000170: 7190 5439 3392 f5b9 f175 0f3c dc6d 0abf
00000180: 786a aeba 4757 2f3d b6b1 963b 541d 76bd
00000190: 6a21 093d 8396 ab3d 7b2a 52bb 3345 863b
000001a0: 9899 18bd 11ce 523e e10c 07bd 8478 39be
000001b0: 9142 a03d be0d d4be 5b8e aebd f173 283d
000001c0: 872b 2fbb 33b8 fe3d d7be c239 2554 ad3e
000001d0: 50d9 35ba 7336 02bf c935 93bb 606b 333f
000001e0: 86f2 d4bb 3bba 2abd 42c6 03b9 e43f 6dbe
000001f0: 2e75 cbbd ff7f 8d3e 157a 543d 9e85 60be
00000200: 908e d3bc 4e9d 023d f4dd 50bb 9d08 18be
00000210: ed84 edba 8f3e afbb 3634 2c3b 3d0b a1bd
00000220: 726d 293d f573 e8be 3719 aabd 8a6d 69be
00000230: cb28 a63c 12b9 cdbe 1a45 ed3c 87ed 64bc
00000240: 75e7 72bd 0b2f fabb 2331 b03a 8ee0 ca3e
00000250: 6a8a dd3c 827f a53d d177 ea3a 746f b53d
00000260: 53aa f4ba 2db3 b1be e2dc 96bb 53ce a4be
00000270: 9ea7 363b c5be 98bb 92a2 3bbd 6006 e2be
00000280: 56fc b9bb d9cc 373d 5c8e 063b 5c8b af3c
00000290: 290c a23d 39d5 0b3e 16f6 4139 6434 8b3c
000002a0: f049 35be 494f dabe 4b8c b73c 1d0f bf3e
000002b0: 6a8f 89bd 70db 25be dc7c 1b3d 57fd 653e
000002c0: 6741 0439 9150 b13b 5564 11b9 7ef6 e63e
000002d0: 15af a43b 7ed4 333e c9ce 61bc 519a bdbd
000002e0: dd36 813a 09dc 8f3d 26de 91ba 39fa 08bd
000002f0: b8df 333d 08fa 93bd 5c6d a3bc dcae 453e
00000300: 62ad cb3c ff28 a3bd d9a0 5dba e19a 9b3e
00000310: 4f14 923b 63fc 013f c705 95bb 4b02 b43d
00000320: ae83 993d 68c8 983e 3600 efbd 819f b7be
00000330: 43f8 92bd 3448 81bd 218f ffbd db8b 203b
00000340: fc0e 17be 7f38 49bd 84e9 debb de1d 07bf
00000350: 5559 12bd 101e 21bd d99e 3e3e 2232 7c3d
00000360: 7701 d6bb 7b56 9d3e 02ce 5538 ce57 063d
00000370: 33b9 9eb5 d676 dc3c d4bb 083d 1f19 52bd
00000380: d5d4 23bb 41e8 09bd 798a b13b ab41 c3bc
00000390: 328a 713d 223a cf3e 9a21 86ba 7fb0 d33c
000003a0: d6ea b83b 20e4 ff3d c97a b4bc 116a 853e
000003b0: 5479 763d 99d0 93bd 1721 ba3d 63dd dabe
000003c0: 1b5a ecbb fc26 0e3e f3b8 99bb 9962 073e
000003d0: c350 783a f40b 273e af2e 0abd 60c9 47bd
000003e0: 759d a83b 7604 c83c e5a1 ceba 47f6 963e
000003f0: cead eebb ed2f 1b3d 79ad 07bd f6ec 9b3c
-0.015554463 -0.7258852 0.0005543644 -0.14440377 -0.00033356124 -0.2749161 -0.0051468364 0.011186921
0.051045056 -0.21067534 0.06092585 -0.08070661 -0.045290574 0.017886687 0.00710788 -0.00019408803
0.040453903 0.06417472 0.0047375085 -0.34030178 0.02571768 -0.010048804 -0.041411735 0.1761619
0.0014298542 -0.32369116 -0.00095704483 0.11650109 0.0016809672 0.00595393 -0.024916241 0.19150716
-0.00021738277 -0.0077837682 0.0025636652 -0.075684525 -0.029665431 0.25348666 0.0026054527 0.017002916
0.019775547 0.008466672 -0.035477243 0.50305825 -0.09338104 -0.09679062 -0.05542787 0.15952082
-0.0023233637 0.6095106 0.0070530795 -0.004708393 0.00080965157 -0.08144967 -0.08130281 0.15137531
-0.0034312885 0.038711336 -0.0046050036 -0.0030465298 -0.0010919762 -0.21560907 0.08910179 -0.28476727
-0.017445855 0.2651668 -0.00619009 -0.034828026 0.0002038197 0.056468077 -0.0032072456 -0.06090155
-0.007008464 0.30099925 -0.038493965 -0.1291947 -0.04931218 -0.04250338 0.069303006 0.0024787576
0.040850077 0.03595592 0.00786586 0.03884165 0.0846852 0.007756527 0.0061971387 -0.017273875
0.0010672975 -0.009024686 -0.00034227216 0.21974225 0.00020271704 -0.00046838968 0.008756147 -0.5407388
-0.0013306877 0.042807844 0.0045988215 -0.060086563 0.03347913 0.08378317 -0.0032068777 0.0040976047
-0.037255853 0.2058642 -0.032971267 -0.1811238 0.078251965 -0.41416734 -0.08523246 0.041126195
-0.0026728825 0.12437477 0.0003714475 0.3385326 -0.0006936984 -0.5086433 -0.0044924957 0.70085716
-0.0064986376 -0.04168151 -0.0001256699 -0.23168904 -0.099344596 0.27636716 0.05187424 -0.21925971
-0.025824815 0.0318883 -0.0031870576 -0.14847036 -0.001812128 -0.0053480337 0.0026276237 -0.07863472
0.04136414 -0.45400968 -0.083055906 -0.22795692 0.020283123 -0.4018026 0.028963614 -0.013972647
-0.059302766 -0.0076350025 0.0013442378 0.39624447 0.02704354 0.08080961 0.0017888491 0.088591486
-0.0018666483 -0.34707013 -0.004603968 -0.32188663 0.0027870904 -0.0046614134 -0.045809336 -0.4414549
-0.0056758327 0.044873092 0.002053163 0.021428756 0.079124756 0.13655557 0.00018497588 0.016992755
-0.17703986 -0.42638615 0.022405764 0.37316218 -0.06716807 -0.1619699 0.037960872 0.22459923
0.00012612865 0.0054112156 -0.00013865654 0.45109934 0.005025754 0.17561528 -0.013782212 -0.09257949
0.000985827 0.0702439 -0.0011128827 -0.033441756 0.043914527 -0.07225424 -0.019949608 0.19304985
0.024862949 -0.07966804 -0.0008454449 0.303916 0.0044579874 0.50775737 -0.004547808 0.087895
0.07495819 0.29840398 -0.11669962 -0.3586388 -0.071762584 -0.063126 -0.124784715 0.0024497423
-0.1475181 -0.049126144 -0.0068027396 -0.5277995 -0.035729725 -0.03933531 0.18615283 0.061571248
-0.0065309363 0.30730042 5.0975017e-05 0.03279858 -1.1825817e-06 0.026912134 0.03338225 -0.05129349
-0.0024998684 -0.03366876 0.0054181186 -0.023835024 0.058969684 0.4047404 -0.0010233403 0.025840996
0.005643229 0.12494683 -0.022031205 0.26057485 0.0601743 -0.07217521 0.09088343 -0.4274703
-0.00721289 0.13882059 -0.004691237 0.13221206 0.00094724837 0.16313154 -0.033735927 -0.04877603
0.0051457235 0.02441619 -0.0015764801 0.2948477 -0.0072839027 0.037887502 -0.03312442 0.01903389

encoder.0.bias f4 [128]
00000000: da8a b83b 5388 0f3c 446d 21bd 195f 893c
00000010: 370b 843d 4108 303c b4a2 1f3e d9a7 e93c
00000020: 9c80 4f3c 8e07 5d3c 4833 823c 3937 453d
00000030: 3363 df3d 240b b73d c0c7 13bc 592b b23c
00000040: 4b9e ee3d cab9 e0bc cdb8 523d 4058 f03c
00000050: 4d46 60bd 084f 9bbb 74e9 a23d b904 a5bb
00000060: 7250 63bd 7789 20bd 6285 823e 08c6 013d
00000070: 2545 78bd f5ff b139 5974 d33c b058 1d3d
00000080: bbff 1a3d 8e67 d93c 2bb4 0c3e 00a5 4c3d
00000090: fb19 ba3e 2981 203d 5dc2 8c3d 4662 373c
000000a0: 7459 22ba 6ab5 09be 0d79 7c3c 47d7 413e
000000b0: 83d1 c8bd eba9 193d 184b b1bd 7805 05bd
000000c0: d36a ccbd 6dde c83f 91b5 193d 163c a6bb
000000d0: 2359 9d3d a1cb b1bc f200 823d a17d 213c
000000e0: 3974 57bc 1070 c73c 44a0 95bd c1b4 5a3e
000000f0: ac55 4b3d 02b7 34bd f680 3f3e 5fc8 233d
00000100: 2b49 4e3e b0c0 863e 6e65 443d 659f 8b3d
00000110: 98d2 b93c 6aa8 943e 44b7 963d 09aa 1c3d
00000120: 55db e73b 7385 963c d3b9 963e f9a3 16be
00000130: 69ef d53c 6dc7 53bd b8e6 693d 1d2f 333e
00000140: 19fc e63c 361c 0f40 664d 7e3d 576f 00bc
00000150: 760e 013a b138 8b3d 71e3 d83c f561 0e3d
00000160: 6b65 ac3c bc7e bbbd da4b 1a3d eccb 14bd
00000170: af7b 90bc 9e29 073d abf2 b13c 432f 253e
00000180: d72a 073d b823 b53c 3580 473e dc93 4a3d
00000190: 6596 a63d 5248 463d 4961 ee3c 6261 e33d
000001a0: 9f75 e33c 790a ed3c f3e0 5fba 5c66 213d
000001b0: d019 2d3e 6b5d 1c3e 5fdf b13d 1f34 1b3e
000001c0: c20e a6bb 1848 55bb 8e41 20bc 6f16 04bc
000001d0: ad69 4dbd 0596 063d e45c af3d 8df4 983c
000001e0: c6f7 5d3e 4aa0 b73c e5ff d63c 162d 8bbc
000001f0: 76e6 d6bd c7ce b03d f16e 0f3e a6a2 8b3d
0.005631787 0.00876053 -0.039410844 0.016768979 0.064474516 0.010744155 0.1558941 0.028522419
0.01266494 0.013490571 0.015893593 0.048148368 0.109075926 0.08937672 -0.009019792 0.021749185
0.11651286 -0.027432341 0.05144577 0.029338956 -0.054754544 -0.004739646 0.07954684 -0.0050359634
-0.05549664 -0.039193597 0.25492388 0.031682998 -0.060612816 0.00033950774 0.025812315 0.038414657
0.03784154 0.026538637 0.13740604 0.049962044 0.36347947 0.039185677 0.06873009 0.011192864
-0.0006193139 -0.1344811 0.01540972 0.18929778 -0.09805586 0.037515562 -0.08656901 -0.03247592
-0.099813126 1.5692879 0.03752667 -0.005073081 0.07683017 -0.021703543 0.063478366 0.009856612
-0.013150268 0.024345428 -0.07305959 0.21358015 0.04964225 -0.044119842 0.18701538 0.03998601
0.20145099 0.26318884 0.047948293 0.068175115 0.022683427 0.2903474 0.07359174 0.038248096
0.007075707 0.01837418 0.29438648 -0.14710988 0.026115136 -0.05170386 0.057104796 0.17498441
0.028196381 2.2360969 0.06208553 -0.0078390455 0.00049231143 0.067979224 0.02647564 0.034761388
0.021044454 -0.09155032 0.037669994 -0.036327288 -0.017637102 0.032998674 0.021722158 0.1613131
0.03299984 0.022111759 0.19482501 0.049457416 0.08134154 0.048408814 0.029099124 0.11102559
0.027766047 0.028935658 -0.0008540295 0.039404258 0.16904378 0.15270011 0.08685183 0.15156601
-0.0050676772 -0.0032544192 -0.009781254 -0.008061989 -0.05014961 0.032857914 0.08562639 0.018671298
0.2167655 0.022415299 0.026245067 -0.016989272 -0.10493176 0.0863319 0.14007165 0.06818132

encoder.2.weight f4 [128]
00000000: 882d 7b3f 030a 753f b3a1 643f 9414 6e3f
00000010: 67f3 5e3f 9373 4a3f 770d a03e d7ff 5a3f
00000020: 80ad 533f 074e 5c3f f227 6a3f 44af 543f
00000030: 98b4 2d3f 9c6d 7a3f 2718 673f 783a 603f
00000040: 8ab7 373f e73e 623f b329 613f 5b79 773f
00000050: 1d62 713f c4bd 503f 2326 3c3f 96a5 613f
00000060: 7e6c 713f d2d9 1a3f 72fe af3e 8666 463f
00000070: a730 1e3f f7af 553f 72c5 473f 6d0c 0b3f
00000080: 6298 6d3f 6d9e 5e3f eaeb 723f 209d 5d3f
00000090: a4e8 8d3e 5f70 633f 09b9 753f bad8 733f
000000a0: e332 3b3f 27d2 3a3f 7014 563f bc46 ba3e
000000b0: a3ef 433f 5cfe 643f 6bfb 553f 0623 773f
000000c0: fd41 633f 3082 5c3f 116b 753f f98c 783f
000000d0: 3f8d 4d3f fe0d 6b3f b182 193f 59c5 583f
000000e0: 292b 733f 07ff 4e3f ccde 743f dc22 db3e
000000f0: e1c6 783f 7096 423f fa75 1f3f 9b03 653f
00000100: 6771 a23e 404c bc3e 60ea 5d3f fe73 253f
00000110: 6242 5f3f e0b5 e63d 54b9 e33e b515 423f
00000120: 1cdb 643f d8a0 463f e897 a53e 512c 093f
00000130: 5524 6b3f 6646 5b3f b34b 5b3f f8dd 833e
00000140: b2ee 613f 9025 7b3f 8e44 2a3f 17a3 5b3f
00000150: 14d3 653f b254 3f3f 1dbc 713f f04b 613f
00000160: 0429 663f b522 533f 1cd3 463f 2866 5b3f
00000170: 7037 533f 54d2 4a3f f19c 4e3f d4db 4c3f
00000180: 7830 4f3f 24db 523f 41db 613e 4097 523f
00000190: 4d12 673f b150 3e3f 5947 503f c03b b23e
000001a0: 1a31 583f 1d51 723f 33dd 5a3f 89cd 4d3f
000001b0: afe9 c63e 1989 a43e bcd9 1f3f ae5d 313f
000001c0: c43b 643f 052c 613f 4017 6c3f b828 533f
000001d0: ad8a 2e3f 4167 4b3f 12cc 6d3f ea33 4d3f
000001e0: 9a18 dc3e b67f 0d3f 56a6 293f 1a36 613f
000001f0: 30e7 623f e3bb 523f 6f3b 5c3f 6ab6 613f
0.9811635 0.957184 0.89309233 0.9300015 0.8709015 0.790826 0.31260273 0.8554663
0.82686615 0.8605656 0.914672 0.83079934 0.6785369 0.978235 0.9027123 0.87589216
0.71764433 0.8837723 0.8795425 0.9666955 0.94290334 0.8153956 0.7349569 0.8814329
0.9430617 0.6048862 0.34373814 0.7750019 0.6179299 0.83471626 0.7803565 0.54315835
0.9281064 0.8696049 0.94891226 0.8656788 0.27716553 0.8884334 0.95985466 0.95252573
0.7312452 0.7297692 0.83624935 0.3638209 0.7653753 0.8945062 0.8358676 0.96537817
0.88772565 0.8613615 0.95866495 0.9709011 0.8029365 0.91818225 0.59965044 0.8467613
0.9498773 0.8085789 0.9565246 0.42800033 0.97178465 0.760108 0.6228939 0.89458627
0.31727144 0.36776924 0.8668575 0.64630115 0.8721067 0.11265159 0.44477332 0.7581437
0.89396834 0.7758918 0.32342458 0.53583246 0.91852313 0.85654294 0.8566238 0.25755286
0.88254845 0.9810419 0.66510856 0.8579573 0.89775205 0.7473861 0.94427663 0.88006496
0.89906335 0.82474834 0.7766588 0.85702753 0.82506466 0.79227185 0.80708224 0.8002293
0.8093333 0.8236563 0.22056295 0.8226204 0.902623 0.74341875 0.8135887 0.3481121
0.84449923 0.9465502 0.85493773 0.80391747 0.3885016 0.32135847 0.6244161 0.6928357
0.89153695 0.87957793 0.92222977 0.82484007 0.6818035 0.7945443 0.9288951 0.8015734
0.4298752 0.55272996 0.66269433 0.8797318 0.88634014 0.8231794 0.8602819 0.88168967

encoder.2.bias f4 [128]
00000000: f2ef e73e 00b6 19be 7045 563d b694 cbbd
00000010: 7ee9 af3e 9785 213e 3358 c43e a5fe c03c
00000020: 8652 d83e 752c ac3f 355c 793e 7b16 ecbe
00000030: 8e8c 4ebe 985f 533e ef3a 663e 1f72 e2be
00000040: 5e03 083f 3bb6 26be 819b b73e ce2e 1bbb
00000050: 4fd2 90be 9d4a 2dbf e7db ca3e 8351 0e3e
00000060: b2b1 f93e 8ac8 c93f cf3a ad3e c9de 7bbf
00000070: 9a7d d13c debf 793e daf8 81bf c49c d0be
00000080: 1c08 75be 6d3d 473e 004a 263d b84f 7b3e
00000090: 8035 23bf 5aa3 283c e93b 023e b396 b63e
000000a0: c3eb 3fbf c19d 113f 0d59 4bbe f8dd 7a3f
000000b0: 2dde 1a3f fe53 383f a6dd 05bf b25d 81bd
000000c0: 3dc0 8f3e 36f1 18bf 8c0a 253f 16bd 51bd
000000d0: 9164 8e3f 9acb 6c3d 365b 10bd 3129 7ebc
000000e0: 9aa8 74bd e1a8 12bf a9f4 9abd 39e5 9e3e
000000f0: 3b9e 273e a2a5 ee3e ed52 95bc 15f5 4abe
00000100: 2cd9 eabd 7dd0 763d 7ae7 80be fa7b 283f
00000110: 5a5d 0d3f 1472 893f f571 d0be 56fd 8d3c
00000120: 11df 42bf 99a8 3ebf ae93 163e 2d6c 16bf
00000130: 5fa0 633f e9fa b63e 42b3 3a3f 7ff7 6f3f
00000140: b805 8c3f 311d 843d b8b8 3abf 1390 ff3e
00000150: 6dbc fe3e 1d6f 443e 0f0e 2fbe 6962 8abe
00000160: 7a6c 18be 8a1b 4e3f c3a6 ea3e 4af3 e3be
00000170: 08c1 803e ba20 293f c7b5 2f3e 410b 71be
00000180: daeb 193e 5417 2a3e 9541 953f aa68 a23f
00000190: 72db 023f 7c55 823f 3c39 983e 8f8f 873f
000001a0: f787 223f 3cad eb3e 656b dc3e 800f 3a3f
000001b0: 4c16 8f3d 5ab4 55bf 1276 28bf 8dbd 5cbe
000001c0: d334 763f edbb 993c cd2a 85bc 8adf 613f
000001d0: dd9b f8be d731 8c3f eb1c 203f e496 873f
000001e0: 9738 9d3e 8ca5 e8bd 28c9 01c0 2fc8 76be
000001f0: a499 2c3f f1fc c5be 5252 9a3e 75bc 6bbc
0.4530025 -0.15010834 0.052312315 -0.09940474 0.34357828 0.15773617 0.3834854 0.023558924
0.4225046 1.3451067 0.2435158 -0.461109 -0.20170805 0.20641935 0.22483419 -0.44227692
0.5313014 -0.16280453 0.35860828 -0.002367902 -0.28285453 -0.67691976 0.39620897 0.13898282
0.48768383 1.5764325 0.3383393 -0.9838682 0.025572587 0.24389598 -1.0154068 -0.40744603
-0.23928875 0.19457026 0.040597916 0.24542129 -0.6375351 0.010292852 0.12718166 0.3566185
-0.7496912 0.5688134 -0.19858189 0.9799495 0.60495263 0.7200316 -0.52291334 -0.06316699
0.28076354 -0.5974306 0.6446922 -0.051205717 1.112444 0.057811357 -0.035243236 -0.0155127505
-0.059731103 -0.5728894 -0.075661965 0.31034258 0.16368954 0.46610743 -0.018228019 -0.19820054
-0.114672035 0.060257424 -0.25176603 0.65814173 0.5522057 1.0737939 -0.40711942 0.017332714
-0.7612162 -0.7447601 0.14704773 -0.58758813 0.8891658 0.35738304 0.72929776 0.93737024
1.0939245 0.0645088 -0.7293811 0.49914607 0.49753132 0.19183011 -0.17095207 -0.27028206
-0.1488513 0.8051077 0.45830354 -0.44521552 0.2514727 0.6606556 0.17159186 -0.2353945
0.15031376 0.16610461 1.1660639 1.2688191 0.51116097 1.0182338 0.29731166 1.0590686
0.63488716 0.46030605 0.43050686 0.726799 0.06986675 -0.8347832 -0.6580516 -0.21556683
0.96174353 0.018766368 -0.01625576 0.8823172 -0.48556414 1.095271 0.62544125 1.0592923
0.30707237 -0.113597006 -2.0279026 -0.24099801 0.67421937 -0.3866954 0.3014093 -0.014388193

encoder.2.running_mean f4 [128]
00000000: aada 483f 5ea2 4a3f 2f41 4b3f 5453 6f3f
00000010: 7eea 5e3f 71ee 3d3f 17f6 ac3f 24a2 6d3f
00000020: 4bfb 723f 5a97 8c3f e559 b53f de52 8f3f
00000030: cd22 be3f 27dd 573f bc39 713f 8197 be3f
00000040: 6bdc c33f 5f7e a43f 163d 9d3f bf8f 4f3f
00000050: b566 4e3f 324b 993f 67f8 4b3f 8c8c 8c3f
00000060: f5a6 3f3f 4632 9a3f 4d07 773f f1f6 a13f
00000070: b7a2 623f cc98 b83f 3385 993f 906c 9e3f
00000080: 9642 af3f 00c1 403f c8e6 5b3f f08d b93f
00000090: d62c 1e3f 2eb1 343f 9752 9e3f 20c5 af3f
000000a0: 1885 833f 5dab 313f 3f3d 303f c83c 4b3f
000000b0: 88f9 193f 8e61 763f d271 4b3f c4bb 933f
000000c0: 780b c63f d443 c93f a69a 5f3f fb62 803f
000000d0: 9e0e 3e3f 4659 ca3f ed83 773f 9a60 933f
000000e0: 9aff 6b3f f4b8 383f 744d 613f ba1d 983f
000000f0: 7c49 793f 99cd 973f 217d 943f a781 c53f
00000100: e6c2 a73f a06d b93f 9e36 3f3f 22e3 783f
00000110: 3025 6d3f c4b9 5f3f 9372 c03f 2abb 253f
00000120: a4bb 593f 7f86 643f 4dd1 813f 1568 803f
00000130: db86 4f3f 1f88 303f 4e1a 3f3f 866b c93f
00000140: c2e9 5e3f e03e 0f40 e984 9f3f b62a b73f
00000150: 56b6 363f f3ac 9e3f 5615 6a3f 6362 b33f
00000160: ae33 a83f 454d 823f 1e74 243f 7213 4a3f
00000170: b078 333f 3c85 7c3f b0bf a83f f6bc 3d3f
00000180: 9788 7a3f 3a56 313f e184 a13f a818 943f
00000190: 941a 5c3f b148 8e3f 2756 3e3f 3bdf a03f
000001a0: 316f 953f 0ab8 7f3f b35c a93f 91c9 723f
000001b0: 2eeb 883f c6a0 573f c7ed 4b3f bc80 583f
000001c0: a68d b03f 9aed 363f 4c53 5b3f f835 2f3f
000001d0: 0491 833f 3811 7c3f c9e6 513f 1caa 933f
000001e0: 4714 963f 7007 9d3f eadf 8b3f 154b 913f
000001f0: 43c4 323f 08c8 8f3f a67b 6e3f e085 3f3f
0.78458655 0.79154 0.7939634 0.93486524 0.87076557 0.7419196 1.3512601 0.9282553
0.9491469 1.0983689 1.4168059 1.1197164 1.485437 0.84321827 0.9422872 1.4889985
1.5301641 1.2851065 1.2284267 0.81078714 0.8062547 1.1976073 0.79675907 1.0980392
0.7486413 1.2046592 0.96495515 1.2653486 0.88529533 1.442163 1.1993774 1.2376881
1.3692195 0.75294495 0.8589902 1.4496441 0.61787164 0.70582855 1.2368954 1.3732033
1.0274992 0.69402105 0.68843454 0.7938962 0.6014638 0.96242607 0.7947055 1.1541677
1.547225 1.5723825 0.8734535 1.0030206 0.74241054 1.5808494 0.9668568 1.1513855
0.9218689 0.72157216 0.8800881 1.1884072 0.97377753 1.1859618 1.1600686 1.5430192
1.3106353 1.448658 0.74692714 0.9722158 0.9263487 0.8739283 1.5034965 0.64738715
0.8505194 0.89267725 1.0141999 1.0031763 0.8106515 0.68957704 0.7464951 1.5735939
0.87075436 2.2382126 1.2462436 1.4309909 0.7137197 1.239653 0.91438806 1.40144
1.3140771 1.0179831 0.6423968 0.7893592 0.7010603 0.986408 1.3183498 0.74116457
0.9786467 0.69272196 1.2618676 1.1570024 0.85978055 1.1115934 0.7435021 1.2568125
1.1674558 0.99890196 1.3231415 0.94838816 1.0696771 0.84229696 0.79659694 0.84571433
1.3793228 0.714563 0.85673976 0.68441725 1.027863 0.98463774 0.81992775 1.1536288
1.1724938 1.2267895 1.0927708 1.1351038 0.6983072 1.123292 0.9315742 0.7481365

encoder.2.running_var f4 [128]
00000000: 5d8f a73f b24c ad3f d687 ab3f 5c37 e83f
00000010: 452d ca3f e64a 9b3f eccd 6d40 ec82 e53f
00000020: 7481 f03f 5e5c 2c40 af60 8740 87ed 2e40
00000030: 83d2 9440 3617 be3f 1d4d f13f decd 9640
00000040: 38f6 9d40 3d0c 6e40 3764 5440 9ec3 b23f
00000050: e97c b93f 0ace 3c40 8e17 a13f 362e 1f40
00000060: 0d4e a83f 48f0 5240 5965 e73f d6d5 5d40
00000070: 2e9e e13f c324 9340 b8f1 4540 4a6b 4940
00000080: fdaf 8340 2349 9b3f cd65 b73f 05da 8640
00000090: 24c1 043f 0e19 853f e75f 5640 92de 7040
000000a0: c711 0e40 6be9 963f 8228 813f abd3 903f
000000b0: f1cd 5a3f 1c55 fa3f bfd7 bd3f 9604 3240
000000c0: 720b a140 7478 a73e 000e d43f 2b2b 1040
000000d0: 1a5e 993f 6fca aa40 62e3 fc3f 04a3 3240
000000e0: d482 e63f cc7d 8c3f bf85 e93f bcac 3440
000000f0: 0872 0440 b93e 4440 f9cc 2a40 2025 a140
00000100: 0fe9 5e40 582b 8240 da9f 953f 27af f43f
00000110: e06a f13f f721 aa3f 0d9a 9140 0dee 5a3f
00000120: e22b bc3f 1b87 d13f a5a9 f73f 43fd 1140
00000130: dd3c b23f c114 8a3f 5373 943f e76f b040
00000140: 46a9 d33f 7028 7c3f 33e7 5440 dfcf 9140
00000150: 1df2 893f a35e 4c40 4427 e83f fc95 8440
00000160: 8df3 5e40 6619 1340 42b5 643f bcdb af3f
00000170: 2a5b 833f f844 0840 0faa 6140 120d 853f
00000180: 334b f63f 5016 853f a357 4840 3103 3540
00000190: f772 cd3f f681 2740 ad5e 943f ac30 5240
000001a0: eb6b 3740 2aae 0240 66c3 6f40 b2b3 fc3f
000001b0: 5453 0a40 c05b b13f a46f 9f3f 5f58 a83f
000001c0: 982a 8340 b61b 8f3f bff9 c93f 5ea3 813f
000001d0: 3450 1240 0d3c 0740 3e0a a83f 8d5d 3240
000001e0: 6eb1 3040 d9ba 4c40 6ceb 1940 76ba 3440
000001f0: 8c29 943f b753 2a40 2074 d43f 021b 933f
1.3090626 1.353903 1.3400829 1.8141894 1.5795065 1.2132232 3.7156935 1.7930579
1.8789506 2.6931376 4.230552 2.7332475 4.650697 1.4850833 1.8851658 4.7126303
4.936306 3.719497 3.3186166 1.3965948 1.4491245 2.9500756 1.2585313 2.4871955
1.3148819 3.2959156 1.8077804 3.4661765 1.7626398 4.5982375 3.0928783 3.1471734
4.115233 1.2131695 1.4327942 4.2141137 0.5185721 1.0398271 3.3496034 3.7635846
2.219835 1.1789984 1.0090487 1.1314596 0.8547049 1.9557223 1.4831465 2.78153
5.032647 0.32709086 1.6566772 2.2526348 1.1981843 5.337211 1.9756892 2.7911997
1.8008676 1.097589 1.8243941 2.8230429 2.06946 3.0663283 2.6687605 5.035782
3.4829748 4.067791 1.1689408 1.9115952 1.8860741 1.3291615 4.550055 0.85519487
1.4700892 1.6369356 1.9348646 2.2810829 1.3924824 1.0787584 1.1597694 5.51366
1.6536033 0.984992 3.3266113 4.556625 1.0777012 3.1932762 1.8136983 4.1433086
3.4836152 2.2984252 0.8933908 1.3738933 1.0262196 2.1292095 3.5260046 1.0394614
1.9241699 1.0397434 3.130349 2.8283198 1.605071 2.6173072 1.1591393 3.2842207
2.8659618 2.0418801 3.7463012 1.9742339 2.161336 1.3856125 1.2455945 1.3151969
4.0989494 1.1180332 1.5779341 1.0127981 2.2861452 2.1130402 1.3128126 2.78696
2.7608294 3.1989043 2.404994 2.8238807 1.1575179 2.6613595 1.6597939 1.1492617

encoder.3.weight f4 [128, 128]
00000000: 7dc0 183e 427b a2bd ce7c f73d 40d8 36bb
00000010: d063 463e f9ea 193d e9a8 aabd 837e e4bc
00000020: d7e1 c6bd 7916 cc3b 1eeb 84bd 2f21 233d
00000030: da3e 333d a818 2dbe 21b5 ec3c eb64 a83c
00000040: 6c86 2c3e ebbf 2d3e 0965 983e 1d2f fbbd
00000050: 8bef 3c3e ad82 58be e625 65bd e917 323b
00000060: bb11 c2bc b543 d23d da27 d43c acdf 0fbe
00000070: 0fc8 f7ba d874 cb3b 8667 5cbd ef46 2ebe
00000080: 2bc0 e1b9 24c4 ed3c f4b0 16bd 1e73 23bd
00000090: 54f2 d1ba 9698 4dbc 51b7 b53c 737e ad3b
000000a0: 3e42 55be e9ba f8bd 3a02 f5bd af69 b03d
000000b0: 9dcb 643e cdda 823d 563d 77bd 4448 73bd
000000c0: 6fd3 babd 26ef 6ebc 8b4f 45bd 2bae fc3d
000000d0: 04f5 6b3d 0e60 e9bd 0210 41bd 83cc abbc
000000e0: a9b5 fe3a fd5a abbd eb0f 253a 12f0 98bd
000000f0: 4361 343c 80b3 d13d cd31 063e d713 393d
00000100: 52a3 bfbc 9403 e23d db22 29bd 7382 883d
00000110: 3a64 33bd e22b 0c3e 23e3 9a3d 5f4f d8bd
00000120: e250 733d 704d f83c 8c0d 1f3d d058 1fbe
00000130: d405 663e 6f2c 2c3d 360a 223e bd20 c63d
00000140: 1728 313d 80bb 6c3d d533 903d cabf 7c3d
00000150: 6194 e13d d6f7 4b3b bc84 56bc 774e b1bd
00000160: bbe1 97bd af51 883d 5f0a 103e 80c8 02be
00000170: 465d ee3b 1018 bbbd 8529 95bd 6ea8 06bd
00000180: 918e 5b3d cf38 0e3e 7b9a dc3d c1f6 18bd
00000190: 6c5c 3ebe 1f5c 873e 11cb 97bc 69d3 3b3e
000001a0: 1b21 043e bbff 91bd 0257 a03d c47f a8bc
000001b0: 8eb4 613c 534e ccbd 243e 803d 1650 0f3e
000001c0: 670a 1d3c 870e ebbc 1d6a 993d d89d f6bc
000001d0: 271e 0abd d0ef f93d 1702 0d3c 412c e23d
000001e0: 8838 123d 5220 873d 79aa c1bd 466d 273e
000001f0: d4da e63d d6ad 8ebd d814 303d 7e41 5ebd
00000200: 2206 653e 4c80 8bbd 6e71 ccbd 3cfc 80bd
00000210: f601 6b3d e308 073d ce73 33bd e358 7dbe
00000220: 0742 b53d a7fd a73d 6f80 3bbc a4a7 323e
00000230: 6d98 4cbd bc2b 1d3d 6c66 bebd c3f7 1f3e
00000240: e2c8 dabc b704 043d 7f08 a73d fc27 37be
00000250: 7e96 933d c2ca 85bc ed56 0c3e cb3e 1dbe
00000260: efab 2dbe fe51 493e 77a3 0ebb 5514 26be
00000270: 4f00 c4bd 9b7f b13d 9a88 6abe 9c97 08bd
00000280: 954e b13c 22fc 533c d404 d0bd ecd5 a9bd
00000290: 0bf8 f9bd e12e ce3d 8347 94bd e226 23bd
000002a0: 6f74 d13d 50c3 243e b0dc e53d 096a 4b3b
000002b0: 5fb1 133e 1b24 de3d 2095 343d 4152 bebb
000002c0: 9250 b53d d575 f5bd 259b 343e bd10 41bd
000002d0: f266 923d fcfa 6fbd ae14 893c 05aa 383e
000002e0: 93af 803e ded3 0fbd cf83 61bd df3b 2bbc
000002f0: 5064 1fbe d3a9 1d3e e9fe 9d3b 3c95 9d3c
00000300: 78ff 983d 41ec 0f3d 0563 503c 1a65 213e
00000310: 1c9d 673e 4a68 0e3e 6fad 8abd 783f e3bc
00000320: 4761 a0bd 9dd1 0c3e 7f3f c03d e230 bcbc
00000330: f964 a43e e9cf 9c3d dba8 423d 619e afbb
00000340: 3e84 123e dc41 923c 91d3 773c a12a 593d
00000350: 97cd 223c e1b1 aabd 2b74 583d a5ab ddbd
00000360: d273 17be 54d4 923d 2994 023e 7376 84bd
00000370: 6885 de3d a247 e33d 9e8e 9d3d f307 80bd
00000380: 4ce3 b5bd 7df8 b6bc 5249 1a3e 545a aa3d
00000390: d2b8 cc3d df18 7d3c 7fa9 cabb 3401 06bd
000003a0: 7d49 663d 0c92 7fbd 2e68 0a3e bbe4 f3bd
000003b0: fe5d 38bc fd28 fbbb ef99 433d 68cc 9abd
000003c0: a466 243e a1ba 043e 2017 3dbe 7bd5 98bd
000003d0: b287 c9bc 0b7f 883d 972e 9a3e f051 303e
000003e0: d072 a63d 2727 c1bd 1634 7bbe 0ddf 64bd
000003f0: 3a0f 2e3e bb80 553c 5717 dcbd 7f58 fabc
0.14917178 -0.07933666 0.120843515 -0.002789989 0.19374013 0.037577603 -0.08332998 -0.027892357
-0.09711044 0.006228265 -0.064901575 0.03982657 0.04376111 -0.16903937 0.028894963 0.020555934
0.16848153 0.16967742 0.29764584 -0.122648455 0.18450753 -0.21143599 -0.055944346 0.0027174896
-0.023690095 0.1026682 0.025897909 -0.14050168 -0.0018904227 0.006208997 -0.053809665 -0.17019247
-0.0004305852 0.029024191 -0.03678985 -0.039904706 -0.0016017654 -0.012548586 0.022182139 0.005294615
-0.2082605 -0.12145025 -0.11963315 0.086139075 0.22343297 0.06389389 -0.06036123 -0.05939509
-0.09122359 -0.014583385 -0.04817156 0.123379074 0.057606712 -0.11395274 -0.047134407 -0.020971542
0.0019432801 -0.08366964 0.00062966225 -0.07467665 0.011009517 0.10239315 0.13104935 0.045184936
-0.023393307 0.11035839 -0.041293006 0.06665506 -0.043796755 0.13688615 0.07562854 -0.10562014
0.059403308 0.030310363 0.03883128 -0.15561223 0.22463161 0.042034563 0.15824208 0.09674213
0.043251123 0.057796 0.07041136 0.06170634 0.11014629 0.0031123064 -0.01309317 -0.08657544
-0.074161015 0.06656205 0.14066456 -0.12771797 0.0072743027 -0.09135449 -0.0728331 -0.03287547
0.05360276 0.13888858 0.10771652 -0.037344698 -0.18589944 0.2643747 -0.018529447 0.18342365
0.12903254 -0.07128855 0.078290954 -0.020568736 0.013775958 -0.09975877 0.062618524 0.13995394
0.009585 -0.02869345 0.074909426 -0.030104563 -0.03372016 0.12203944 0.008606455 0.11043597
0.035698444 0.065979615 -0.09456343 0.16350278 0.11272207 -0.0696675 0.04298863 -0.054261677
0.2236562 -0.0681158 -0.099825725 -0.0629811 0.057374917 0.03296746 -0.04381161 -0.24740939
0.08850484 0.08202677 -0.011444195 0.17446762 -0.049950052 0.038371786 -0.09296879 0.15621857
-0.026707117 0.03223106 0.081559174 -0.17886347 0.072064385 -0.016332034 0.13705035 -0.15355985
-0.16960119 0.19660184 -0.0021764913 -0.16218694 -0.09570371 0.08666917 -0.22903672 -0.03334771
0.021643916 0.012938531 -0.10157171 -0.082927555 -0.122055136 0.10067535 -0.07240202 -0.039832003
0.10227286 0.16090131 0.112237334 0.0031038544 0.1442313 0.1084673 0.04408753 -0.0058081453
0.08853258 -0.11985365 0.17637308 -0.047135103 0.071485415 -0.058588967 0.016733494 0.18033607
0.25133952 -0.03511416 -0.055057343 -0.010451286 -0.1556561 0.15396814 0.0048216474 0.0192362
0.07470602 0.03513742 0.012718921 0.15761223 0.22618526 0.1390697 -0.06771361 -0.027740225
-0.07831054 0.13751836 0.09387111 -0.022972528 0.32108286 0.07656843 0.047524314 -0.0053594564
0.14308259 0.01785367 0.015126125 0.05301917 0.009936712 -0.08334709 0.05284516 -0.10823754
-0.14790276 0.071694046 0.12751831 -0.06467905 0.10865289 0.11097647 0.07693218 -0.06251516
-0.08881244 -0.022335285 0.15067032 0.0831801 0.09996189 0.015447824 -0.0061847563 -0.03271599
0.056222428 -0.06239514 0.13516304 -0.11908861 -0.011252878 -0.0076647983 0.047754224 -0.07558519
0.1605478 0.12961818 -0.18465853 -0.07462593 -0.024600837 0.066648565 0.3011367 0.17218757
0.081273675 -0.09431296 -0.24531588 -0.05587678 0.16997996 0.01303118 -0.10746639 -0.030559776

encoder.3.bias f4 [128]
00000000: 8d2d 8d3e 495a 833e aa4b 893e d570 8a3e
00000010: a4a7 9c3e 60ab 7e3e 051e 6b3e 6baa 813e
00000020: b80f cb3e 815e 9c3e 8fe4 873e 9f02 923e
00000030: 3506 963e adc1 9b3e 6b6f 933e db34 9c3e
00000040: 0993 843e d136 853e a2aa 6f3e 47c2 8a3e
00000050: 32f7 833e 8dcc 823e 3921 683e 422c b93e
00000060: eacf b93e 9b5e 843e 0fba 943e 3d4b 673e
00000070: 38fe 843e 6be0 453e d8b7 6b3e b618 963e
00000080: b95f be3e 22a1 a83e c0a2 573e e120 903e
00000090: fb58 9d3e 18a9 8a3e 39ce c53e 6161 733e
000000a0: 5b4b 8c3e b7a6 513e ff21 263e 12a7 a83e
000000b0: fce9 903e ae5d 5d3e d414 913e 89a4 cf3e
000000c0: b7cc 653e 5cf2 823e 6a80 963e b639 9c3e
000000d0: a329 913e 95dc c43e 7eb2 a73e f78e ac3e
000000e0: a76d c43e cfce aa3e bc8d 923e 6b69 983e
000000f0: 23ab 883e 6ec2 8a3e 41c9 6f3e 4b8a 853e
00000100: 642e 973e 44d5 903e 1fb7 823e 5e91 363e
00000110: e839 9b3e 18c0 a13e 3533 b63e 61b9 763e
00000120: 5818 813e ec75 903e be68 9a3e ed88 c53e
00000130: 1d90 793e 26a1 553e a63e ab3e c2c6 533e
00000140: 0c0f 9b3e a8f2 b43e eb4d 773e 113a 9d3e
00000150: aef7 973e 384d b33e 5375 8b3e 82dd 783e
00000160: a10c 9c3e 8b04 883e 01ca 823e 050b 993e
00000170: b5be 8b3e 3ae4 7f3e 5764 5d3e 1759 5e3e
00000180: ff6d 733e cc92 b13e 4928 483e 7cda 7f3e
00000190: 2528 883e bb3a 483e b019 b63e 55a2 2e3e
000001a0: e8fb a83e 2262 883e 7064 9b3e dc59 753e
000001b0: a18b 983e 30f0 873e 402b 913e 1ec9 713e
000001c0: df37 893e 8240 613e 85e8 943e 564c 8c3e
000001d0: a172 843e 971f 8c3e 125b 8c3e 348e 8b3e
000001e0: 19d5 a93e 8a40 833e 5a1a 553e 55b3 873e
000001f0: 6985 9c3e d3c7 4d3e 453d 9f3e 44cb 783e
0.27573815 0.2565482 0.2681554 0.2703921 0.3059665 0.24870062 0.2296067 0.2532533
0.3966043 0.3054085 0.26541564 0.28517625 0.2930161 0.304212 0.28795943 0.30509076
0.2589343 0.26018384 0.23404935 0.27101347 0.25774533 0.25546685 0.22668923 0.3616658
0.36291438 0.25853428 0.290482 0.22587295 0.25975204 0.1932389 0.2301935 0.29315728
0.37182406 0.32935435 0.21058178 0.28150085 0.3073195 0.27082133 0.38633898 0.23767616
0.27401242 0.20473753 0.16223906 0.32939965 0.28303516 0.21617767 0.28336203 0.40555218
0.22441374 0.2557553 0.29394847 0.3051278 0.2835208 0.3844954 0.32753366 0.33702824
0.38364908 0.33360907 0.2862376 0.29767928 0.26693067 0.27101463 0.23416616 0.26082072
0.2952758 0.2828771 0.25530335 0.1782889 0.30317616 0.31591868 0.35585943 0.24094154
0.25213885 0.28214967 0.30158037 0.3858103 0.24371381 0.20862255 0.33446234 0.20681289
0.30284917 0.35341382 0.24150817 0.30708364 0.29681152 0.3501985 0.2723795 0.24303249
0.30478385 0.26565966 0.25544742 0.2989122 0.27293935 0.24989405 0.21620308 0.21713673
0.23772429 0.3468231 0.19546618 0.24985689 0.26593128 0.19553654 0.35566473 0.17054112
0.3300469 0.2663737 0.30350065 0.2396006 0.29794028 0.26550436 0.2835331 0.23611876
0.2680044 0.21997264 0.29083648 0.2740199 0.25868705 0.2736785 0.2741323 0.2725693
0.33170393 0.25635177 0.20810834 0.26504007 0.30570534 0.20095758 0.31101432 0.2429629

encoder.5.weight f4 [128]
00000000: 8342 e13e c5e4 d33e a44c da3e a133 d73e
00000010: cbfc d93e f102 c23e 61a3 db3e fb7f ed3e
00000020: 1534 fe3e 9ba0 e53e 3085 d73e ac26 cf3e
00000030: 1567 c63e 642b a73e efa4 db3e 43c4 d73e
00000040: 6781 d83e 1ba0 d33e 59ad b03e be75 bd3e
00000050: dcc4 033f ab9c d33e 98d8 d03e 60ab d93e
00000060: 5042 c43e 30b9 e23e 94e2 e63e 8a8c dc3e
00000070: 8498 b53e 90c1 af3e dc83 c63e 8c6a ae3e
00000080: 275b ea3e e048 c13e df37 cb3e 298e e93e
00000090: 9787 ee3e 1432 da3e 5c7b c83e 0c94 b73e
000000a0: b2a6 df3e 3c1f f33e e1d8 a13e d6e3 dd3e
000000b0: a22e fe3e 0364 cc3e 5330 003f dbb9 c23e
000000c0: 1e1e d03e 9b02 a63e f738 ed3e ed53 953e
000000d0: e58a ca3e d027 ec3e 052b a23e a6a2 d53e
000000e0: f8b9 be3e 9df3 c73e 06ea c33e 378e cb3e
000000f0: 944a cf3e ec11 d33e e300 c3bc 63c5 e03e
00000100: 32b4 d33e e424 ad3e 9ac3 cf3e afa5 9d3e
00000110: be34 cb3e fe57 9c3e 3fbe ef3e f7d5 e53e
00000120: 74dc c63e d71a d93e ce1f e03e 11f4 f53e
00000130: b5e2 c03e e0a2 e63e 20b8 c53e dceb d83e
00000140: 5038 ca3e 501e c63e 8b4e df3e b777 b03e
00000150: 669d d83e e666 d03e ed78 c33e 1d1b d03e
00000160: bf3b ef3e ba65 ed3e b07e ae3e 2eb6 cd3e
00000170: d93e d93e 0aa5 d73e ea88 f03e 4d31 de3e
00000180: 7b8f df3e f864 c73e 15d4 a33c c580 d43e
00000190: 3892 b83e 24a6 ec3e d86c e03e e27b df3e
000001a0: f937 bb3e cdaa d73e c7fb cb3e d731 d23e
000001b0: 5862 cc3e e27b cc3e 666c f53e 5971 d13e
000001c0: 3fdd dd3e 5ea6 cb3e 28d8 f13e b314 e83e
000001d0: 1036 c63e 863f cd3e 7b4c de3e 0935 f43e
000001e0: 9158 0b3f 3fe8 7e3e ab1d d23e e5ca de3e
000001f0: f800 e43e 801e 3a3e 2af0 f23e bcfe ea3e
0.43996057 0.41385475 0.42636597 0.42031577 0.42575678 0.3789287 0.42898086 0.46386704
0.4964911 0.44849095 0.42093801 0.40459192 0.3875052 0.32650292 0.42899272 0.42141923
0.42286226 0.41333088 0.34507254 0.37003893 0.5147226 0.41330466 0.40790248 0.4251356
0.38331842 0.44281912 0.4509474 0.43075973 0.35467923 0.34327364 0.38772476 0.34065664
0.4577267 0.37750912 0.39691064 0.45616272 0.46587822 0.42616332 0.39156616 0.35855138
0.43681866 0.47484767 0.31610778 0.43337888 0.49644953 0.39920053 0.50073737 0.3803242
0.40647978 0.32423863 0.46332523 0.29165593 0.39559093 0.46124125 0.31673446 0.41725653
0.37251258 0.3905305 0.38264483 0.3975694 0.40486586 0.4122461 -0.023804134 0.43900594
0.41348416 0.33817208 0.4057892 0.3079047 0.39688677 0.30535883 0.46824834 0.44889805
0.38840067 0.4240329 0.43774265 0.4803777 0.37672964 0.4504614 0.3861704 0.42367446
0.39496088 0.38695002 0.4361461 0.34466335 0.42307585 0.40703505 0.38178197 0.40645686
0.4672527 0.46366674 0.3408103 0.40178055 0.4243076 0.42118102 0.46979457 0.4339699
0.43664154 0.3894422 0.01999859 0.41504493 0.36049056 0.46220505 0.4383304 0.43649203
0.3656614 0.42122498 0.39840528 0.4105365 0.3991878 0.39938265 0.47934264 0.4090679
0.4333286 0.39775366 0.47235227 0.45328292 0.3871312 0.40087527 0.43417725 0.47696713
0.54432017 0.24893282 0.4103826 0.4351417 0.4453199 0.18175697 0.47448856 0.45897472

encoder.5.bias f4 [128]
00000000: 1467 953d c76f 1f3e 1d8e e63d 2703 e73d
00000010: f786 0e3e 9770 83bb d2a6 07be 25a3 103e
00000020: eef5 2d3e 12fc 493e daa5 093e e5b2 79be
00000030: 1d84 bf3e 972d e93e 7329 0f3e 4acb 0a3f
00000040: 8b13 b63e 897f bd3c 0a6a 3e3a 6ff0 383e
00000050: a7c7 e13e a16d 633e 0e90 cebc 6d57 6e3c
00000060: e0c7 183f c936 903e e11c 52bd 5785 c43d
00000070: 7f3d 9f3c 1349 a7bd 260e 403e a1d6 49ba
00000080: 8eaf 923e 2290 9a3e e34f e4bd 35a9 753e
00000090: d8fb 6bbc 353b 713e 7137 b23e a3d5 173e
000000a0: 39c4 3d3e 5f82 01be 65d5 c43c 7f51 df3e
000000b0: 4ba5 c53c f25b c33e 0691 253e eee7 263d
000000c0: 8639 833e 101e 073f 0610 d73d 1a03 133f
000000d0: 11e9 a73e c581 f73e edfb 313f 1ae2 ef3d
000000e0: 8d60 723e bea1 d4bd 6e61 023f 8bf1 7e3e
000000f0: 42a6 c73d 876a 4c3e 3f95 173f 8174 613d
00000100: 7d69 bf3e 9804 5f3d 39a0 823e e543 94be
00000110: b039 a33e 4f7d 453f a3a9 093f ef23 873c
00000120: d781 e73d 55ac 583e 263e d43d 4a5f d63e
00000130: ae83 2f3e 640a 91bb b54c d13e 3d0f 23be
00000140: 2bff 9e3e 3107 ec3e 36f2 af3b c286 d33d
00000150: 41a3 043e caf3 f43d 5a39 3f3e b1ac 8e3e
00000160: 0030 253e 5e02 febc 4152 8f3e f6f3 c53e
00000170: f835 863d a5fd cd3d 6247 083d 9a58 01be
00000180: 3470 053e ac07 013f 48a9 3b3f b1a2 8fbd
00000190: 8814 8dbe cb62 0c3e 70de 803b e337 1fbd
000001a0: 1f03 923e b11d df3e d42f ef3e caab 16be
000001b0: a7c8 bd3e e755 be3d ee65 563e d4bf 06be
000001c0: 641f 22be 5c83 833e 7291 613e 9969 263e
000001d0: 3c3e 7abe fb07 04be 216b 023d 799d 1dbe
000001e0: 5b79 863e fad3 e03e b0ac 103e 472e 733e
000001f0: 085e e53d 229b cf3e 293b 983e 4ef5 8d3e
0.07295051 0.15569983 0.11257575 0.11279898 0.13918673 -0.0040112245 -0.1324723 0.14124735
0.16988346 0.19725063 0.13442174 -0.24384649 0.37405482 0.45542595 0.13980655 0.54216444
0.35561785 0.023132103 0.0007263726 0.18060468 0.44097635 0.22209789 -0.025215175 0.014547211
0.59679985 0.28166798 -0.051297072 0.09595745 0.019438503 -0.08168235 0.18755397 -0.00076995237
0.28649563 0.3018809 -0.1114805 0.23990329 -0.014403306 0.23557742 0.34807923 0.1482759
0.18531884 -0.12647389 0.024027536 0.43616864 0.02412667 0.38156086 0.16168603 0.04074853
0.25629824 0.52780247 0.10501103 0.5742661 0.32795003 0.48341194 0.69525033 0.11713047
0.23669644 -0.103824124 0.50929916 0.24896829 0.09748508 0.19962512 0.59212106 0.055042747
0.3738517 0.05444774 0.25512865 -0.2895805 0.3187995 0.7714433 0.5377447 0.016496627
0.11304062 0.2115949 0.103634164 0.41869575 0.17140076 -0.0044262875 0.40878835 -0.15923782
0.31054053 0.46099237 0.00536945 0.103284374 0.12952901 0.119605616 0.18674222 0.27866128
0.16131592 -0.031006988 0.27992442 0.3866269 0.065532625 0.100581445 0.0332712 -0.12631455
0.13031083 0.5040233 0.7330518 -0.07013453 -0.27554727 0.13709562 0.0039327666 -0.038871657
0.28518006 0.4357734 0.46716177 -0.1471397 0.37067148 0.09293728 0.2093732 -0.13159114
-0.15832287 0.25686157 0.22028139 0.1625122 -0.24437803 -0.1289367 0.031840447 -0.15392102
0.26264462 0.43911725 0.14128375 0.23748122 0.11199576 0.40548044 0.29732636 0.27726215

encoder.5.running_mean f4 [128]
00000000: 7d47 5640 4efe 8540 c66c 8440 607c 5d40
00000010: ec05 6340 c7a4 6b40 76b0 7c40 f444 7c40
00000020: fda8 8d40 c692 8a40 9a5f 8640 baf4 8040
00000030: 86dc 8640 9acc 5940 6232 5740 d9e6 8840
00000040: 6ff3 8340 ee14 7340 2baf 7e40 1b36 5e40
00000050: fcc0 9d40 9801 5a40 9881 8e40 16ce 7e40
00000060: ac1c 8040 0698 6d40 96b3 7340 c956 5b40
00000070: 9631 4440 7adc 5840 b29a 9240 5216 8040
00000080: 44a7 7a40 fc0f 6a40 d5c0 5840 9457 8b40
00000090: 80fc 9140 0f85 4940 14f1 7240 ad55 6a40
000000a0: b012 7740 a2d0 5c40 8a01 3440 840d 8640
000000b0: 0861 7840 cc06 6b40 ff3d 8140 0461 7a40
000000c0: f597 6840 dd2f 6b40 68fb 7440 1bd9 7440
000000d0: 1131 8340 d4f2 7240 9e55 6540 a2fd 6b40
000000e0: 6e44 8740 2463 6140 7046 6c40 db98 7f40
000000f0: 41c9 7640 518f 4240 0e35 ac3f bf9b 5e40
00000100: 7ad4 6840 b801 7a40 6e20 5840 29f4 5340
00000110: 68b2 7140 907d 7740 5eea 7640 43fa 7040
00000120: 1185 9140 999e 7e40 dc12 5140 346e 8d40
00000130: 6feb 6340 2516 8240 f04e 8040 5e9f 6440
00000140: 0c5e 6e40 119f 8340 f9e2 7d40 4ac8 5040
00000150: cbd8 6640 bfe3 6840 84e1 8240 e52f 8240
00000160: d8fc 8c40 c6ca 7d40 1769 8340 55a9 7f40
00000170: b470 6b40 a528 4840 7581 6740 cba0 6f40
00000180: b310 7e40 933a 8840 0631 c63f d8c8 5c40
00000190: 4a6a 8f40 cd0e 7340 d397 6a40 c8f7 6440
000001a0: f606 6840 eb2e 7b40 e3ca 7440 d874 7940
000001b0: 1e40 7340 f9a2 7540 d8e2 5c40 17fe 6c40
000001c0: d7ca 8040 87d0 7440 9cf3 8840 7566 8240
000001d0: fc2e 9140 2a03 8640 31cd 5b40 01cf 8540
000001e0: 3a18 6940 2686 5b40 5ad0 8a40 bbdd 6740
000001f0: ed15 5240 30e5 fb3f e27e 8240 1c54 7540
3.3481133 4.187293 4.138278 3.4607162 3.5472364 3.6819322 3.9482703 3.9417086
4.4268785 4.3304167 4.19917 4.029874 4.2144194 3.403113 3.3624501 4.2781796
4.123466 3.7981524 3.9794414 3.4720523 4.9298077 3.4063473 4.4533195 3.9813285
4.0035 3.7124038 3.807836 3.427172 3.0655265 3.3884568 4.5813837 4.0027246
3.916459 3.6572256 3.3867695 4.3544407 4.5620728 3.1487463 3.7959642 3.6614792
3.8605156 3.450234 2.812594 4.18915 3.8809223 3.6722898 4.038818 3.9121714
3.6342747 3.6747963 3.8278446 3.825751 4.0997396 3.796071 3.5833507 3.6873555
4.227103 3.521676 3.6917992 3.9937046 3.8560336 3.0399973 1.3453691 3.478256
3.6379685 3.906355 3.3769794 3.3117774 3.776514 3.8670387 3.8580546 3.7652748
4.5474935 3.97843 3.266776 4.4197025 3.5612447 4.065203 4.009636 3.572227
3.7244902 4.1131673 3.9669783 3.2622247 3.606982 3.6389005 4.090029 4.0683465
4.4058647 3.9655013 4.1065784 3.9947102 3.6787539 3.1274807 3.6172764 3.744189
3.9697692 4.25715 1.5483711 3.4497585 4.4817247 3.7977784 3.6655166 3.5776234
3.6254249 3.9247386 3.8248832 3.8977566 3.8007884 3.838072 3.4513454 3.7030084
4.0247607 3.8252275 4.2797375 4.075007 4.5369854 4.187886 3.434399 4.181519
3.6421037 3.4300628 4.3379335 3.6229084 3.2825882 1.9679317 4.0779886 3.8332586

encoder.5.running_var f4 [128]
00000000: 9a0a b13f d981 d73f 88b7 0440 68df bf3f
00000010: a716 9f3f 1207 bb3f a0d5 c83f 7271 c33f
00000020: d931 d13f a790 f93f 99c8 c03f f445 da3f
00000030: 8931 cb3f bc92 973f 5f98 a93f 4f77 ae3f
00000040: a2d0 c03f e1f2 b83f dccf a83f d1c1 ba3f
00000050: 1845 0440 0e12 c33f ae12 b63f 9f5d c83f
00000060: aa3f c23f e897 b23f a8f7 c63f 1530 c33f
00000070: 2d2c 903f 7c57 a73f 327a c73f 0b3b c63f
00000080: 5c58 be3f 2218 b33f 753f a73f 52a5 ed3f
00000090: 3bab 0040 02b5 9e3f 8d82 ae3f f290 c73f
000000a0: 528a e43f d1c4 963f 37b0 943f e4e5 cf3f
000000b0: 7f3b ba3f 0efa a83f 1e0e db3f d7c3 e43f
000000c0: 6d5b ac3f bb60 b23f b34b bf3f 136d 913f
000000d0: 9dc4 aa3f 0e20 ce3f d803 a23f 8897 bf3f
000000e0: ea20 c83f 724d ac3f d686 af3f 10d9 c23f
000000f0: b2f1 bb3f 75a7 803f 1120 ba3f f64a b03f
00000100: 651d 8d3f 78e3 a13f 1a8d a93f a329 a63f
00000110: eef1 b73f af35 ad3f c355 c33f 201c bb3f
00000120: d9c9 f43f 1417 b43f ce26 b13f da25 d23f
00000130: 963d c03f 7148 cf3f 39f7 c13f 1d81 c83f
00000140: 5806 ad3f ae6e c63f 5f53 e73f d174 8f3f
00000150: 4fa7 9d3f bed1 b83f 7b88 d33f 5709 b63f
00000160: de87 fb3f 1488 e13f 5ab9 bd3f dfdf ad3f
00000170: 1d9b ab3f e077 8f3f 9dd5 b03f e570 cf3f
00000180: f27c d23f fdc6 af3f f292 963f d848 b13f
00000190: b07b 0040 958d de3f 20da c53f 9368 bc3f
000001a0: a543 c93f aee4 d83f 2079 9f3f 13cf e43f
000001b0: 000a ba3f 4fe6 ab3f 7371 ae3f cb89 c53f
000001c0: b90a f63f 7fb7 bf3f d95a e73f 3c37 c53f
000001d0: 2c47 e23f 5cbb f53f 3914 a13f ca31 0940
000001e0: 35a9 9f3f a885 8b3f 5766 b43f b7b3 a13f
000001f0: fdf4 8b3f d411 7b3f 3127 b93f 63c5 c93f
1.383136 1.6836501 2.0737019 1.4990053 1.2428788 1.4611533 1.5690193 1.5268996
1.6343337 1.9497269 1.5061218 1.7052598 1.5874492 1.1841655 1.3249625 1.363016
1.506367 1.4449121 1.3188434 1.4590398 2.0667171 1.5239885 1.422445 1.5653571
1.5175679 1.3952608 1.5544329 1.5249048 1.1263481 1.3073573 1.5584166 1.5486768
1.4870715 1.399174 1.306624 1.8566077 2.010451 1.2398989 1.3633591 1.5591109
1.7854712 1.1778814 1.1616277 1.6242032 1.4549407 1.3201311 1.7113683 1.7872266
1.3465401 1.393577 1.4944977 1.1361412 1.3341252 1.6103532 1.2657423 1.4968119
1.5635045 1.3461134 1.3713024 1.5222492 1.4683135 1.0051104 1.4541036 1.3772876
1.1024595 1.2647543 1.3246186 1.2981457 1.4370706 1.3532008 1.5260547 1.4617958
1.9124099 1.4069543 1.3839967 1.6417801 1.5018795 1.6193982 1.5153571 1.5664402
1.3517561 1.5502527 1.8072318 1.1207525 1.2316684 1.4439008 1.6526026 1.42216
1.9650838 1.7619653 1.482219 1.3583945 1.3406712 1.1208458 1.381519 1.6206328
1.644438 1.3732601 1.1763594 1.3850355 2.0075493 1.7386957 1.5457191 1.4719414
1.5723768 1.6944788 1.245884 1.7875694 1.4534302 1.342966 1.3628372 1.5432676
1.9222022 1.4977874 1.80746 1.5407481 1.767797 1.9197803 1.2584296 2.143664
1.2473513 1.0900164 1.4093732 1.263297 1.093414 0.9807408 1.4465085 1.5763363

encoder.6.weight f4 [128, 128]
00000000: 00c7 13be 102b 77bd 8d26 283d 417e 663e
00000010: 1451 943d 7c76 e0bd ec40 693d da0d cbbd
00000020: c965 9e3d 8b2f 023e 9b97 49bd 9701 533e
00000030: 363b f4bd f2ea 813d 5f41 133d 509d 1abe
00000040: 843f a2bd 34a2 62bd 02ca 22bd 5b45 3f3e
00000050: ca05 96bc c69d 3b3d 8d9f 45bd 35d2 c33c
00000060: 1062 f0bd ad8a 803e b9d3 9e3d 062a 493e
00000070: abfa 93bd 8a7d b7bb e669 bcbd 18a9 58be
00000080: d85a edbd ba5c 8dbd 4476 233d 02f8 7bbd
00000090: 457f 41be 0fbf 173e c90c 21bd 26ba aa3d
000000a0: e2ed 113d b4bc 433d c21a 4fbd 350f a03e
000000b0: c43e bebd ccb3 fa3c f9f1 b73c ced9 c33d
000000c0: 414d 0dbe 03fb e83c f443 4ebe 63b9 713d
000000d0: 4608 083e ae8a f93d 3944 473d c37d fd3d
000000e0: c1be 1cbe 2483 b2bd 8214 973d b678 7cbd
000000f0: c75f 8ebe 7e06 24be 4d37 4e3c d39b df3d
00000100: 7e19 033e a313 253d 6d6e 2cbe 9291 8cbd
00000110: f4df 40bd 537b ba3d cc7c 083e dac7 423e
00000120: 86c0 1f3d a6cc ca3d cfb1 6f3d faef 4a3e
00000130: 2678 fb3d 8788 8e3e 1dae d23d e843 1fbe
00000140: dd7f debd cb88 2cbb 1680 59bd 949b b9bd
00000150: bb0b 9ebd 15bc 273d 7a2e 98bb 8b7d d1bd
00000160: 5fec a9bc a514 853d 527d d1bd adc2 6bbd
00000170: 0db9 f6bd 09f4 733d 8a7d 3b3d bb70 053e
00000180: ee8a a93d 123e 4ebe 0397 fd3c da89 033d
00000190: f434 d8bd f7cf 7d3d 358c 8dbe e986 833c
000001a0: f6f0 fcbd 58da e63d 3268 283e e8a9 2c3e
000001b0: a4bd 02be db60 403b 83ba aabd b8ef 17bd
000001c0: a024 183e f671 473e 1517 1dbe 44bf 77be
000001d0: 2e13 e33d 7eeb 86be 1343 b63d 10ac 323e
000001e0: 96d4 60bd 567e b9bd 82f9 e3bd 3c5d 30be
000001f0: 9c39 d03c b5bc e93c 39ec 18be 2043 6ebb
00000200: 468a 023d 695c 993d 7144 6d3c 580b 9e3d
00000210: dfef 583c a6f4 0b3b 16cc 2f3b 038e 9f3d
00000220: 6720 07bd ded9 02be 9cd7 8d3d e2bb a23c
00000230: fc14 94bd 4a90 263c 0b4d b93d c318 debd
00000240: 2374 24be 0304 5bbd 52e8 1b3d daf3 0bbd
00000250: db01 55bd 409d 09be 9b74 d6bc 3e3e e13c
00000260: 68a3 683c d208 0abd 0810 f43a 41f8 c0bb
00000270: dc34 c2bd a819 093d bd22 46bd a4b6 163d
00000280: 375f 913d 1a7d a23d 7cf8 ba3b 54da 913b
00000290: 6377 65bd 4986 4ebd 3f06 063d 749c b43c
000002a0: faca 06bd c0fe 9e3c a48a 97bd dc8c 2abd
000002b0: 8f77 00bd c35e 093d 44fd c3bc a71f bb3d
000002c0: 4565 553d abb7 6cbc 898e 113e 0734 d03d
000002d0: e01b 9e3d 2989 4cbd d531 fd3c 2243 1ebd
000002e0: 2cda e93d 3b5f 413d 8930 8cbd a71d 463d
000002f0: f0ac 1abd c334 9ebd 6b56 c9bd d3b0 e23c
00000300: 6f28 02bd f4c7 a03c 6543 233d fa93 863b
00000310: be5d 203d 5025 a43d 8951 263d 38aa 63bd
00000320: fb94 713c 4a64 d33d 5faf 8e3d 9d38 10bd
00000330: 105f 8a3d f5f4 ae3c 3b04 18bd f9ca 7f3c
00000340: f52b 6e3d 060e 91bd f830 55bd 3a6b ba3d
00000350: 3729 f4bd 9c91 afbd 96bd 463d a9d2 5fbb
00000360: 3ea6 e73d 2968 42bd 4ad2 69bd 0bda 4c3d
00000370: 1870 71bb c71a 15bd 1701 e03c f256 00bc
00000380: 6f31 07bd 54ee e9bc 22d1 8abd 6198 043d
00000390: 2863 7ebd b21e abbb 1574 e43b 5d66 73bc
000003a0: ef58 0f3d f583 063c 59b0 4ebc b2e9 9abb
000003b0: db5e c23c 86da 70bd 5288 febc 2cac fc3c
000003c0: d7a2 5fbc 66eb b03c 3c94 8b3d db2b 33be
000003d0: 7d14 f73b 6b61 aebd aa58 053d 674e 50bd
000003e0: 9b51 ec3d 0240 f1bd 8d72 e53d 32e0 f03c
000003f0: 926a 0a3d f09e efbb 0cd6 ba3c d867 5dbd
-0.14431381 -0.060343802 0.04105239 0.225091 0.07242027 -0.10960099 0.05694668 -0.09914751
0.07734258 0.12713449 -0.049216848 0.20606075 -0.11925356 0.063436404 0.035951015 -0.15099072
-0.07922271 -0.05533047 -0.03974343 0.18678801 -0.018313307 0.04580476 -0.048247863 0.023903945
-0.11737454 0.251058 0.07755227 0.19644937 -0.072255455 -0.005599682 -0.09199886 -0.21158254
-0.11589593 -0.06902452 0.03990771 -0.061515816 -0.18896206 0.14818977 -0.039318834 0.08336286
0.035627253 0.047787383 -0.050562628 0.31261602 -0.09289315 0.030603312 0.022454249 0.09563027
-0.13799001 0.028440004 -0.2014311 0.05901469 0.13284406 0.12184654 0.048649047 0.12377503
-0.15307142 -0.08716419 0.073769584 -0.061638556 -0.27807447 -0.16018102 0.012586427 0.10918393
0.12802693 0.04030193 -0.16838999 -0.06863703 -0.04708858 0.091055535 0.13328856 0.1902155
0.039001964 0.09902315 0.05851918 0.19818106 0.12278776 0.27838537 0.10287116 -0.15553248
-0.10864232 -0.0026326652 -0.053100668 -0.09062877 -0.07717081 0.040950853 -0.0046442123 -0.102290235
-0.020742593 0.06498078 -0.10228981 -0.057558704 -0.120470144 0.059558902 0.04577402 0.13031285
0.08278452 -0.20140865 0.030955797 0.032113887 -0.10556975 0.06196591 -0.27646032 0.016055541
-0.12350647 0.112721145 0.16445997 0.16861689 -0.12767655 0.0029354605 -0.083363555 -0.037093848
0.14857721 0.19477066 -0.15340836 -0.24194056 0.110876426 -0.2635154 0.08899512 0.17448449
-0.054890238 -0.090573 -0.11131574 -0.17223066 0.025418095 0.028532365 -0.14933862 -0.0036355928
0.03187015 0.07488329 0.01448165 0.077170074 0.0132407835 0.0021355539 0.0026824526 0.077907585
-0.032989886 -0.12778422 0.0692589 0.01986498 -0.07230565 0.010166237 0.09047898 -0.10844567
-0.16059928 -0.053470623 0.038063355 -0.0341681 -0.052003723 -0.13438892 -0.026178649 0.0274955
0.014199115 -0.033699818 0.00186205 -0.005888969 -0.094827384 0.033471733 -0.048372973 0.036795273
0.07098239 0.079340175 0.005705891 0.0044510756 -0.05602206 -0.050421033 0.0327208 0.022047259
-0.032908417 0.019408584 -0.073994905 -0.04163824 -0.03136402 0.033537637 -0.023924477 0.091368966
0.05209853 -0.014448087 0.14214529 0.101661734 0.077201605 -0.049935494 0.03090755 -0.03863824
0.11418566 0.04720996 -0.06845195 0.048368122 -0.037762582 -0.07724907 -0.09830936 0.027672207
-0.03177684 0.019626595 0.039859194 0.0041069956 0.0391519 0.08014929 0.0406051 -0.055582255
0.014744992 0.10321863 0.06967043 -0.03521024 0.06756413 0.021357039 -0.03711341 0.015612357
0.05814739 -0.07082753 -0.052048653 0.09102483 -0.119219236 -0.08572695 0.048520647 -0.0034152663
0.11311005 -0.047462616 -0.057085313 0.05001263 -0.0036840495 -0.03640249 0.02734427 -0.007833229
-0.033006128 -0.028556027 -0.0677817 0.032371882 -0.06210628 -0.005222165 0.006971846 -0.014855948
0.034996923 0.008210172 -0.012615287 -0.0047275657 0.023726871 -0.05880215 -0.031070862 0.030843817
-0.013649664 0.021596622 0.06815383 -0.17497198 0.007540284 -0.08514675 0.03255526 -0.05085602
0.115390025 -0.11779787 0.112034895 0.02940378 0.03379304 -0.007312648 0.022807144 -0.05405411
