models/y02vae_D64_layers(128, 128, 128, 128)__banana_dim64_b0.02_sigma5.0.pt (torch, 635538 bytes, 54 tensors)

encoder.0.weight f4 [128, 64]
00000000: 745f c63d d4ce 1f3c 3c37 2abb 9649 63bd
00000010: daa9 0f3c 6abd 673d 2f7d e3bb 20ae 2e3d
00000020: 5c14 81bd d823 0dbd 2305 823b d298 923c
00000030: 9499 95bb 49cc 0c3f 4c08 cdbd 963e 19be
00000040: a721 363b 66d5 943c 1a5b e53a fef8 25bd
00000050: 6191 adbc d65a 3f3d 4b8e 30bb 60fc dabc
00000060: cf85 41be 9c26 42bd cd0f 0c3d 2ea2 163e
00000070: e95b 92bc 66ef cdbb 9046 723c a2be fdbc
00000080: c22f 3e3c ac6b 4b3c 5654 163a c34a 86bf
00000090: c9f4 33bc 7a34 69bd 02bb d1bb b508 233e
000000a0: 1e7f 86bb e01a 44bd d722 303c 4738 d73d
000000b0: fa9e 14bc 073e 1bbd 689f 663b deee 28bd
000000c0: 3c25 713a c0a3 a8bd bec8 edbb c1c3 a63d
000000d0: d32c 0d3b 5a73 bdbc 96d9 8a3c 982a febc
000000e0: 8d74 f73b b603 f43d 7aab 69be 9fb4 0cbd
000000f0: 1f6c 70be c923 6a3c af7f 8fbb 4ef9 053c
00000100: 0714 bf3d e405 cfbd ac73 dcbc 8b63 f4bd
00000110: 83e7 a3bb f596 2b3c 0bd7 76bd aece 473e
00000120: 6491 823e 049f 03bc 5921 31bd 638e 8fbd
00000130: 4293 333c 109f 043e 6c57 7d3d ce0c ebbd
00000140: 5154 fdbc 5cd7 08bd 92f9 093d 3332 75bd
00000150: 100e 143d e88f 773e 9bf3 02bc dc08 3dbc
00000160: e67d 0e3f e968 9e3e fd7d 1fbc 4541 aa3d
00000170: 15aa 8bbc 528e ba3d d9cf 2c3c 9d94 8ebd
00000180: 686d 873c d029 02be 35ac b6b7 1d58 fe3c
00000190: 328c 403e 360f eb3d 069f d0bc e634 7fbd
000001a0: eb61 6b3d 7196 b83c 0417 403c 3421 78bd
000001b0: 5714 eaba 477f a2bc 9947 223d 4707 c93d
000001c0: 266f d2bc 0c39 82bd 4b4b 543d 8ffa ccbc
000001d0: 1b9c 43bd 2131 443d b404 e8bc f023 8b3e
000001e0: 23f7 72bc db2d b2bc 1213 96be c6d0 7e3e
000001f0: 887c 89bc 3e62 30be 9335 e6bc e2a0 73bd
00000200: 23df 6abe d1dd aabd e644 e9bc 7a6e a93c
00000210: eb0e 24bc 6116 dd3d 146d 62bc 5bcd b43c
00000220: 8e52 e1bd 12fe 4c3e f739 683c 6a8b 8e3d
00000230: 2578 f7b8 2010 583d 52ac c93e 0d58 e0bc
00000240: 25ee 5abc 53bf bd3d 6385 79bc c4e8 86bd
00000250: 103d 8d3c 2608 743e 383c 87bc 8f39 abbb
00000260: 1a3e 1c3e 0f91 833d 3f85 b7bb caea 223d
00000270: e31d 623c c515 36bd 9580 94bb 9f40 ac3d
00000280: 3bb8 2bbb 4c44 c3bd 2c43 9ebc 7da6 253e
00000290: d109 e0be e1a3 a73e 219e cfbc 8c3a ee3d
000002a0: 9f6d e73b c95f 26be 7ab4 293d 7f3b fe3d
000002b0: 820d 123c 26f9 73bd 7523 4abc 550d 0bbe
000002c0: 1747 cdbc 3a88 bc3d 4718 61bc f002 363e
000002d0: 85bc 95bc 3273 17bc e92d a73c 9de2 35bd
000002e0: 04fa 60bc 5f2b 833d 539f f53d cd2a 16be
000002f0: 4eb4 5fbe ba82 f13d 5847 643c bc9b bdbd
00000300: 05bd 003e 4411 4bbd d7f5 b0bc 9b75 b93b
00000310: b1e1 123c 86eb 3f3c 0d06 88bc e4ff 5b3f
00000320: efc8 b53d 2700 69bd 5da2 1cbc 9546 26bd
00000330: c736 d0bc ea5d 5dbf bdc5 9dbe 9ffb 79bd
00000340: b6b0 a93b 66dd 833c d014 8cbc 624c 653d
00000350: b7c9 afbc 9272 9f3e 1282 3abc 9367 f3bc
00000360: 2f13 6e3d 7ee7 673a 23cc 963d 0e42 183e
00000370: e9ab c8bb 6d34 b53c e903 e9bb c171 99bc
00000380: 7ff6 5cbb 8139 91bd 7135 8fba 92e3 443f
00000390: 54f1 273c 5ad9 913b 979d 8c3c b1ad a83e
000003a0: 5ced 86ba b7d5 8abd 2833 373c 4259 2e3e
000003b0: 2197 523b b531 82bd 115e b73b da50 4cbd
000003c0: 3948 8fbc b0d1 60bd c5ae 393c 86ec a13d
000003d0: 2fd7 7dbc 59b6 00bd eace a2bc b22f 1abc
000003e0: 14cb 103c 5651 5e3e def6 d7bd f968 86bd
000003f0: d9cd fd3e e843 363e 3b8c 5f3c 16a8 6038
0.09686175 0.0097539015 -0.0025972864 -0.0554901 0.008768523 0.056577124 -0.0069424133 0.042646527
-0.06302711 -0.03445801 0.0039678975 0.017895136 -0.004565427 0.54999214 -0.10011348 -0.14965281
0.0027791054 0.018168163 0.0017498464 -0.04052066 -0.021187486 0.046717487 -0.0026940282 -0.02673167
-0.188987 -0.047400102 0.034194756 0.14710304 -0.017866092 -0.006284642 0.014787331 -0.03097469
0.011608066 0.012415808 0.0005734613 -1.0491565 -0.010983654 -0.05693481 -0.006400467 0.1592129
-0.004104509 -0.047877192 0.010750494 0.10508781 -0.009071106 -0.03790095 0.0035190228 -0.041243427
0.0009198969 -0.08234358 -0.0072565963 0.08142806 0.002154161 -0.023126293 0.016949456 -0.03102617
0.0075517357 0.1191477 -0.2281932 -0.03435194 -0.23478745 0.014290758 -0.0043792347 0.008177115
0.09329992 -0.101085454 -0.026910625 -0.11933049 -0.0050019636 0.010473003 -0.060263675 0.19512436
0.2550155 -0.008033518 -0.043244693 -0.0700958 0.010960402 0.12951303 0.06185095 -0.11477052
-0.030923994 -0.033408508 0.033685274 -0.059862327 0.036146224 0.2417599 -0.00799265 -0.011537757
0.55660856 0.30939415 -0.009734628 0.083132304 -0.017048875 0.09109177 0.010547602 -0.069619395
0.016531661 -0.12711263 -2.177628e-05 0.031047875 0.1880348 0.11477511 -0.025466453 -0.062306307
0.05746643 0.022532674 0.011724237 -0.06057854 -0.0017858845 -0.019836081 0.039619062 0.09815841
-0.025687765 -0.06358537 0.051829617 -0.02502182 -0.047756296 0.047898415 -0.028322555 0.27175856
-0.01482943 -0.021750381 -0.29311424 0.24884328 -0.016783014 -0.17224976 -0.028101718 -0.0594796
-0.22936682 -0.08343089 -0.028475236 0.020682562 -0.010013322 0.10795284 -0.013819952 0.022070577
-0.11002074 0.20018795 0.014173976 0.06960185 -0.000118002565 0.052749753 0.39389282 -0.027385736
-0.013362442 0.09265008 -0.015229556 -0.06587365 0.017241031 0.23831233 -0.016508207 -0.0052253674
0.15258065 0.06424152 -0.005600601 0.039774694 0.013801071 -0.044454355 -0.0045319297 0.08410763
-0.002620234 -0.09534511 -0.01931914 0.16176791 -0.4375749 0.32742217 -0.025343956 0.11632261
0.0070626284 -0.16247477 0.04143188 0.12413692 0.008914353 -0.05956378 -0.012337555 -0.13579305
-0.025058312 0.09205671 -0.013738698 0.17774558 -0.01827837 -0.009243773 0.020407634 -0.04440557
-0.013731483 0.06404757 0.11993279 -0.14664765 -0.21846125 0.11792512 0.013933025 -0.092582196
0.12572105 -0.049577013 -0.0216016 0.0056597716 0.008964942 0.011713868 -0.016604448 0.85937333
0.08876216 -0.05688491 -0.009560195 -0.040594656 -0.025416745 -0.86471426 -0.30814925 -0.06103098
0.0051785363 0.016096782 -0.017099768 0.055981047 -0.02145849 0.31142098 -0.01138355 -0.029712474
0.058123764 0.00088464457 0.07363155 0.14868948 -0.006124009 0.022119725 -0.007111062 -0.018731
-0.003371626 -0.07091046 -0.0010925961 0.76909745 0.010250408 0.004450959 0.017164988 0.32945016
-0.0010294127 -0.06779044 0.01118163 0.17026237 0.0032133537 -0.06357137 0.0055959304 -0.049881794
-0.017490493 -0.054887474 0.011333172 0.079064414 -0.015493198 -0.0314239 -0.019874055 -0.0094107855
0.00883748 0.21710715 -0.10545133 -0.06562991 0.49571112 0.17799342 0.013644273 5.3562304e-05

encoder.0.bias f4 [128]
00000000: 4025 c83e 0773 b73d 6874 e03d 69ac ce3d
00000010: b627 6a3e 7e9f fb3d 5973 333e a948 f93d
00000020: 367b 3f3e 11ba 103e d3ba 773e 9938 213d
00000030: 9938 7b3e 04a2 7e3e 0b27 513e b146 bd3d
00000040: 4ea7 293e 7a11 9d3e 14b9 623e 094a 8d3d
00000050: 77ba 453d 303b 813e f74e 993e 1beb d53d
00000060: 4da3 9d3d 919c 273e bfb8 f63d 3947 783e
00000070: b230 053e 3fea 893e bd37 2f3e 5c0b fa3d
00000080: ddf9 903d 8c7f bc3c 18e7 943e de37 c83c
00000090: a2ee 223e 12a4 123e 3152 903e e158 ca3d
000000a0: 103f 9e3d 8926 643e 9568 083e 9828 c93d
000000b0: f468 5a3e 96f5 3d3e 03a3 943e 4129 a43d
000000c0: 4a90 483e d261 953d 4cc3 bc3d a791 b7bc
000000d0: 1da6 4a3e 1c14 e43e 1b04 df3d 6c54 843d
000000e0: c0c7 e13d 3f85 103e b7ae ab3e 8d95 9f3e
000000f0: 45a4 993e 549c e23d e0c2 853e 5689 ab3d
00000100: 4880 d5bb 8bf1 f03d 0a52 153e 3d60 8a3e
00000110: 9c59 383e b4b4 743d b2de 163e 9e90 e53d
00000120: 3eaa 8c3e 3d34 5b3e 1895 973d 6382 933d
00000130: 538f f63d 1daf d03d 3b60 d63d a081 2e3e
00000140: 691f e43d 8459 073e fe98 1b3e fbaf af3d
00000150: a336 d53d 0689 8d3e 12c6 c03d 24b1 373e
00000160: c630 1d3e 707f b93d ada2 a73d 6f15 4e3e
00000170: 64b7 713e d484 3a3e 15c7 b33e 9e51 fb3c
00000180: 8bec 0c3e b069 0d3d 50e5 193e 457d 023e
00000190: 67f1 813c 400d 393d 038b 833e f70b 783e
000001a0: 5e7d 0e3d 50f5 093e ec8f 6d3e a799 0f3e
000001b0: dd36 793e 440b ce3d 1a73 4a3e d900 ad3e
000001c0: 4426 c63d 3d61 7e3e a532 443e dd9e 6e3e
000001d0: 245b 433d 8c75 ca3d 075d ff3d a171 393e
000001e0: b273 733e 42ff af3d dcd9 3e3e 5a2f 9b3d
000001f0: f9e9 4e3e a137 2f3e f19d 723e 5de0 773e
0.3909092 0.089574866 0.10959703 0.100914784 0.22866711 0.1228628 0.1752447 0.12172062
0.18699345 0.14133479 0.24192362 0.039360616 0.24533309 0.24866492 0.2042505 0.09241999
0.16567728 0.30677396 0.22140914 0.06898887 0.04827353 0.2524047 0.29943058 0.104452334
0.07697163 0.16368319 0.12046956 0.2424592 0.13006857 0.26936528 0.17111106 0.12209198
0.07078908 0.023010038 0.2908256 0.024440702 0.15911344 0.143204 0.28187707 0.098802336
0.07726872 0.22280325 0.13321145 0.09822196 0.21329099 0.18550715 0.29030618 0.08015681
0.19586292 0.07294048 0.092169374 -0.02240832 0.1978993 0.44546592 0.10889455 0.06461415
0.110244274 0.1411333 0.33531734 0.31168786 0.3000814 0.110649735 0.2612524 0.08375804
-0.0065155365 0.11764821 0.14582077 0.2702655 0.18002933 0.059742644 0.14733389 0.11209224
0.27473634 0.21406646 0.07401484 0.07202604 0.12039056 0.1018965 0.10467573 0.17041636
0.111388035 0.13217741 0.1519508 0.085784875 0.10410812 0.27643603 0.09412779 0.17938668
0.15350637 0.0905751 0.08185325 0.20125364 0.23605114 0.18214732 0.35112825 0.030678567
0.13762109 0.03452462 0.15028882 0.12743099 0.01586218 0.04517865 0.25691995 0.24223314
0.03478753 0.13472486 0.23199433 0.14023457 0.24337335 0.100607425 0.1977047 0.3378971
0.09675267 0.24841781 0.19159944 0.23302789 0.04769434 0.098857015 0.124689154 0.18109752
0.23774603 0.085936084 0.18637794 0.07577391 0.20206441 0.17111064 0.23693062 0.24206682

encoder.2.weight f4 [128]
00000000: a773 5a3f 632d 333f ccaa 583f 6c1b 8a3f
00000010: be2b 443f 24fd 1a3f 084a 7d3f 3dcc 5b3f
00000020: e70d 703f 2faf 383f d38f 803f 2c76 873f
00000030: 1ded 4f3f fb9d 753f 8738 3e3f ac36 7b3f
00000040: a668 583f 6b0a 653f 9a8d 613f 1756 903f
00000050: 96aa 8a3f 782d 7b3f abbb 713f 4676 9c3f
00000060: 599b 623f 5d81 8d3f d963 273f 3290 893f
00000070: 341d 673f 9e3c 753f b4b1 463f 845b 603f
00000080: 8535 863f 45ae 843f aff0 423f 01a8 8f3f
00000090: 04d6 673f 133b 7b3f 0607 663f c084 7c3f
000000a0: a783 043f 7530 6f3f 19b1 7d3f 8c03 8d3f
000000b0: 700f 4d3f ca48 3e3f 3518 7a3f d855 823f
000000c0: 6c64 5f3f 21d1 853f a606 8c3f 28ca 553f
000000d0: e6eb 5a3f 43e1 5d3f b06d 703f ea06 863f
000000e0: d865 553f bf66 5d3f 0cc6 603f a233 753f
000000f0: 3eb4 753f dae5 8d3f 1864 273f 4a46 4f3f
00000100: f8af 803f b98a 463f 2eb1 7f3f 8968 743f
00000110: ba89 5e3f aa04 893f 91d2 593f 75db 1b3f
00000120: 7ad0 423f 8cd1 403f e089 703f d529 723f
00000130: bb0a 7e3f 27da 443f f47a 5a3f c835 163f
00000140: 6323 883f 8d67 3c3f 7cea 7e3f d356 523f
00000150: 9ea0 5f3f b09b 563f b420 193f 6cc5 3c3f
00000160: ca64 7f3f acfa 963f 2279 853f e4a2 8b3f
00000170: 411f 313f 3b56 063f deef 413f dc0c 443f
00000180: 227c 423f 0d94 8e3f 7447 5e3f 23c4 733f
00000190: c2d7 943f 67a7 6f3f 0545 6f3f b625 673f
000001a0: 151b 713f 9f42 863f a81a 4f3f bc7b 623f
000001b0: 1079 573f 740c 2e3f a6f8 843f c23d 783f
000001c0: 967c 663f 6eb4 713f fa76 813f ddae 533f
000001d0: 6386 963f bb60 903f 3791 883f f0c6 4a3f
000001e0: f0ed 693f 4c83 403f c9ce 763f 3705 233f
000001f0: 60ee 4f3f 7447 8c3f b980 753f bf87 6b3f
0.8533272 0.6999113 0.84635615 1.0789618 0.76629245 0.6054251 0.9894109 0.8585852
0.93771213 0.7214231 1.0043892 1.0582938 0.8122118 0.95944184 0.74305004 0.981303
0.8453468 0.8946902 0.8810669 1.1276273 1.0833309 0.98116255 0.94426984 1.2223594
0.8851829 1.1055104 0.6538673 1.074713 0.90278935 0.9579562 0.77614903 0.8763964
1.0485083 1.0365683 0.76148504 1.1223146 0.90560937 0.98137015 0.89854467 0.9864006
0.51763386 0.93433315 0.99098355 1.1016707 0.8010168 0.7432982 0.97693187 1.0182447
0.87262607 1.0454446 1.0939529 0.8351159 0.855162 0.8667185 0.9391737 1.047086
0.83358526 0.86484903 0.87802196 0.9578191 0.9597815 1.108577 0.65387106 0.8096663
1.0053701 0.77555424 0.9987973 0.9547201 0.86928904 1.0704548 0.85086924 0.6088174
0.7609936 0.75319743 0.9396038 0.9459508 0.99235123 0.76895374 0.8534386 0.58675814
1.0635799 0.73595506 0.99576545 0.82163733 0.8735446 0.8383131 0.59815526 0.7373874
0.99763167 1.1795249 1.0427592 1.0909085 0.69188315 0.5247533 0.75756633 0.7658212
0.7597066 1.1138932 0.8682778 0.95221156 1.1628344 0.9361481 0.9346469 0.9029192
0.9418195 1.0489081 0.8090005 0.88470054 0.841691 0.6798775 1.0388381 0.96969235
0.90033853 0.9441594 1.0114434 0.82688695 1.1759762 1.127952 1.0669316 0.79209805
0.9137869 0.75200343 0.9640928 0.6367983 0.81223106 1.0959306 0.9589954 0.9200401

encoder.2.bias f4 [128]
00000000: 5819 8b3d f968 a13e 0b6c f8bc a990 9a3e
00000010: 0eaa 563f 5b92 223f 008b a2bd 56fd 933e
00000020: faca 0f3e f748 283e 722a 073f 3f97 433e
00000030: 42f7 d63e b647 fb3c 2a89 a73d 1565 84bc
00000040: 8bcd a73c 75d2 6a3d 4c94 483e a003 db3e
00000050: cf93 38bc 0b3d 093f aea0 bdbe 31a8 023e
00000060: c0fb 643e 589f d0bd 3695 eb3d e0af b13c
00000070: db8c 0fbd 66cf 9a3e 08ce 423f 8b22 4a3e
00000080: 3aa2 8d3e f44b f13e fe2a 483e 0f1b 633e
00000090: b8cd d3be e328 0ebf 8a00 86be afa0 71be
000000a0: 6ef7 0f3f d843 cfbd a292 b13e f905 acbd
000000b0: a0dd 983e 8b50 2e3f acc0 263d a1df 26bf
000000c0: a4f4 c03d ac60 dbbe 39df 853e 694b bd3d
000000d0: d0d4 bdbd 6099 1f3f 2004 b3be 1477 2d3e
000000e0: c720 a8be 1645 cabd e38b 0d3f 8f56 a73e
000000f0: 45b3 a4bd 5569 00be b01b ccbd 9138 31be
00000100: 0a42 d13d e776 a7bd bf49 34be befb bdbe
00000110: 31a7 ac3e 878c 17bd 3657 8b3d 55c0 193d
00000120: 9d33 58bd 6d6e 273f 499b 25be 8ad5 743e
00000130: 0755 e13d c293 c3bd d981 2b3d 8189 0c3f
00000140: 2330 323f 0eb7 7d3e 316f a03e bfac 5d3e
00000150: c8e5 7f3e 6c98 143f 36dd 5e3c 35a7 0dbf
00000160: b855 6e3e de89 69be 8ed5 ecbe 51e6 ca3e
00000170: 844d e63e d353 4c3f 9da3 2b3e a049 a23e
00000180: bf0a fcbd 554a d33e c4e9 053e e995 d83e
00000190: e53b b03e ae7a f53d 0bf9 a03d 2ce2 93bd
000001a0: 0388 b03e 4f63 ec3e fe0d 6f3f 013c 223e
000001b0: 828f b1be 0d16 993e ea09 673f 5e08 033f
000001c0: 8bf2 c43d a4eb e33d f689 c23e 77d4 f43d
000001d0: 4479 373e c371 933e 41a6 b83e 697f 6abe
000001e0: 9657 093e d8e0 fa3e c119 c73e 0b32 56bd
000001f0: 9b7f 853e 3d23 debe 8d7d 963e bbb5 903e
0.06791943 0.315254 -0.030324956 0.30188492 0.8385323 0.6350457 -0.079366684 0.28904217
0.14042273 0.16434084 0.5279914 0.19100665 0.41985518 0.030673843 0.08180459 -0.01616148
0.020483753 0.057329614 0.19587821 0.42776203 -0.011265709 0.5360877 -0.3703665 0.12759472
0.2236166 -0.101866424 0.11503069 0.021690309 -0.03504644 0.30236357 0.7609563 0.1973974
0.27662832 0.4712826 0.1954765 0.22178291 -0.41367888 -0.5553114 -0.26172286 -0.23596452
0.5623692 -0.10120362 0.34682184 -0.08399577 0.29856586 0.6809165 0.04071109 -0.6518498
0.094216615 -0.42847192 0.26146868 0.09242899 -0.092691064 0.62343407 -0.34964085 0.16939956
-0.32837507 -0.09876458 0.55291575 0.32683226 -0.080420054 -0.12540181 -0.099662185 -0.17306735
0.10217674 -0.08176976 -0.17606257 -0.37106127 0.33721307 -0.03699925 0.068037435 0.037536938
-0.052783597 0.6540287 -0.16172518 0.23909584 0.11002546 -0.09549667 0.04187188 0.54897314
0.696047 0.24776861 0.31334832 0.21647929 0.24989998 0.5804508 0.0136025455 -0.5533326
0.23274887 -0.22806498 -0.4625668 0.39628842 0.44981015 0.79815406 0.16761632 0.31696796
-0.12306737 0.41267648 0.13077456 0.42301872 0.34420696 0.1198629 0.07860001 -0.07220873
0.3447877 0.46169516 0.93380725 0.15843202 -0.346798 0.29899636 0.902495 0.5118464
0.09616574 0.11128929 0.3799588 0.11954587 0.17917353 0.2879773 0.36064342 -0.22900166
0.13412318 0.48999667 0.38886836 -0.05229382 0.26073918 -0.4338626 0.29392663 0.2826365

encoder.2.running_mean f4 [128]
00000000: 8793 9c3f e1a5 c83f 4f1c c23f e012 c43f
00000010: 5070 d13f b9c0 ad3f 24a1 b83f 00fd da3f
00000020: 6e3f eb3f 16ab 8c3f 0e25 df3f 9709 c93f
00000030: 1314 c53f 4400 fe3f 1df5 a33f 6dfa ae3f
00000040: c923 d63f 0bb1 b83f 3710 c83f 2a83 b03f
00000050: e46e ad3f ba83 b23f 9793 f23f f48b 2440
00000060: f387 9d3f b353 ce3f f65e aa3f 44fe e63f
00000070: 3694 b03f 0d38 e83f 179f d63f f4e7 db3f
00000080: 126b ad3f 541d 973f cd2c a83f 7eee 933f
00000090: ee77 c63f e152 0940 fe4d 9d3f ccbd d53f
000000a0: bd2c 943f 9eee df3f 543c fb3f d59b d43f
000000b0: 2eb2 cc3f 0241 c63f d363 bc3f 2c3c fb3f
000000c0: d982 9f3f 242e 9b3f a12a c53f 701e de3f
000000d0: dad7 b63f 09a1 ca3f 3fe2 e73f d0d4 8f3f
000000e0: 9eac cb3f dd26 ed3f ff05 e33f a1b7 d83f
000000f0: f245 c73f 5a97 dc3f b2c9 cb3f 6ca8 a83f
00000100: 6221 be3f efb4 c73f 2102 e33f 5550 eb3f
00000110: 68b2 b83f b9da bc3f 25eb ca3f bb80 9b3f
00000120: 316c b03f 2bb2 a03f f37f ca3f 4d8b d83f
00000130: 4475 a63f 7f65 8d3f 73cd ce3f 763d aa3f
00000140: 6ce3 0040 216e 9b3f 0bd7 d33f 5823 dd3f
00000150: 42f9 8f3f 1e55 b93f 0834 ad3f fcff 9b3f
00000160: 6a84 0840 ce76 1240 5d1c be3f 1e2e 0540
00000170: 99c7 913f 3037 d63f 3758 5b3f 7401 d33f
00000180: b049 a73f 5a33 c63f 635b a93f c805 b33f
00000190: 3292 a83f 55dc f33f 8c45 b63f 2830 da3f
000001a0: 784a a23f 3d69 d53f 0ebc d83f f53c ee3f
000001b0: eb5b c63f ea3f 793f 5cb9 0340 643b c93f
000001c0: 5873 b83f 1f9c ed3f dbab f43f 5c72 e53f
000001d0: 248f 0f40 cd8f d43f caf3 ce3f 31d3 e73f
000001e0: 7877 a63f f3c6 dd3f e06c ba3f 8721 ab3f
000001f0: 9a4a ef3f 83ed cd3f 06f3 f73f 84f3 e23f
1.2232522 1.5675622 1.5164889 1.531826 1.63624 1.3574439 1.4424176 1.710846
1.8378732 1.0989711 1.7433183 1.5706052 1.5396751 1.9843831 1.2809178 1.3670174
1.6729671 1.4429029 1.5629948 1.3790028 1.3549466 1.394645 1.8951291 2.571042
1.2307113 1.6119293 1.331023 1.8046346 1.379523 1.8142105 1.67673 1.7180161
1.35483 1.1805825 1.3138672 1.1557157 1.550535 2.1456835 1.2289426 1.6698546
1.1576153 1.7494695 1.9627786 1.6610056 1.5991876 1.5488589 1.4717964 1.9627738
1.2461807 1.2123456 1.5403634 1.7353039 1.4284623 1.5830394 1.811592 1.123682
1.5912054 1.8527485 1.7736205 1.6931039 1.5568221 1.7233689 1.5920928 1.3176398
1.4853938 1.5602092 1.7735025 1.838389 1.4429445 1.4754249 1.585301 1.214866
1.3783017 1.2554373 1.5820297 1.6917511 1.3004537 1.1046599 1.6156448 1.3300006
2.0138807 1.2142984 1.6550001 1.7276411 1.1247942 1.4479101 1.3531504 1.2187495
2.133082 2.2885013 1.4852406 2.0809398 1.1389037 1.6735592 0.8568148 1.6484818
1.3069363 1.5484421 1.3231014 1.3986139 1.3169615 1.9051615 1.4239974 1.7045946
1.2678976 1.6672741 1.693239 1.8612353 1.5496801 0.9736315 2.0581884 1.572125
1.44102 1.8563269 1.9114946 1.7925525 2.2431116 1.6606385 1.6168149 1.8111326
1.3005209 1.732634 1.4564476 1.3369607 1.8694642 1.6088108 1.937104 1.7730565

encoder.2.running_var f4 [128]
00000000: 80b0 2640 b2c2 ad40 2a0a 9f40 01ea 9e40
00000010: db89 ac40 ca56 7840 1dd8 8b40 891c d640
00000020: a594 e940 e192 2240 847e dc40 ef93 ab40
00000030: 26b9 9d40 df09 fd40 f45b 5b40 b728 7b40
00000040: 6a66 c840 281d 9340 cbb0 9e40 493b 7a40
00000050: 3cd5 7e40 1e7f 7740 d538 e840 01f6 5e41
00000060: dcb8 7140 e530 a740 a9f8 6e40 aa4f d240
00000070: 68b2 7740 7a9e da40 d5fc c240 1c8c c640
00000080: c6f4 6f40 fbf1 3c40 0461 5640 fe48 2b40
00000090: 9f2b a040 a30d 1a41 aabe 3940 d6c8 b440
000000a0: c378 3240 42af cc40 dd95 0041 f246 bd40
000000b0: 975b a740 d1ad aa40 01ec 9840 c202 0241
000000c0: 0c23 5240 0c4e 4b40 b846 9f40 ae0d d740
000000d0: b5ca 8740 47a2 a140 db3e dd40 13ea 3740
000000e0: 88a9 ad40 1f90 e540 8038 d040 6fbf b340
000000f0: bf3c a840 d64c c440 d0b0 b440 e789 7640
00000100: fb62 9940 4039 a340 5bae d040 7ee0 d840
00000110: 6def 8640 4568 9240 447e ad40 102a 3f40
00000120: 081b 7240 1451 5240 c6d5 a840 74f1 c040
00000130: 87ef 5840 1510 2640 3684 ae40 5d80 6940
00000140: 6e79 0841 00c7 3840 9a19 cb40 a1fd cc40
00000150: 9176 2f40 50cf 8a40 80dd 7040 4ec9 3c40
00000160: db70 1541 7e90 3241 d153 9140 abb7 1641
00000170: a3b4 2240 b71b ca40 5ef5 a73f 4f44 b940
00000180: dc66 6140 4159 a440 8793 7540 5068 8340
00000190: 82ae 7740 5d42 f840 656d 8840 fb4d c240
000001a0: 8baf 5d40 88d8 b240 5360 bc40 c8e1 e440
000001b0: 7255 9940 7db9 f83f e5ad 1041 b894 9a40
000001c0: 5fb5 8540 18ff e440 9d34 f240 0062 ce40
000001d0: b9de 2941 1b4d b640 2fcf af40 c27d db40
000001e0: 7bea 8740 b77e c940 9e91 9f40 a7b7 7240
000001f0: 57a8 eb40 2363 ab40 a305 f540 2519 c740
2.6045227 5.4300165 4.9699907 4.966065 5.391828 3.8802972 4.370131 6.6909833
7.299395 2.5402148 6.890444 5.3618083 4.928851 7.907455 3.4274874 3.92436
6.2625017 4.597309 4.959081 3.9098685 3.9817648 3.8671336 7.2569375 13.93506
3.776908 5.2247186 3.733927 6.5722246 3.870264 6.8318453 6.0933633 6.204603
3.7493148 2.9522693 3.3496714 2.67633 5.005325 9.628329 2.9022622 5.649516
2.7886207 6.396394 8.036588 5.9149103 5.2299304 5.333718 4.778809 8.125673
3.283389 3.1766386 4.9773827 6.72042 4.2434945 5.0510592 6.913923 2.8736618
5.4269447 7.173843 6.506897 5.6171184 5.2574153 6.1343794 5.6465836 3.852167
4.7933326 5.1007385 6.5212836 6.777404 4.216727 4.575228 5.4216633 2.9869423
3.7828999 3.2861986 5.2760954 6.0294743 3.3896196 2.5947316 5.453639 3.6484597
8.529646 2.887146 6.346875 6.4059606 2.7416117 4.3378067 3.7635193 2.9497867
9.340053 11.160276 4.5414815 9.419841 2.5422752 6.315883 1.3121755 5.7895885
3.521903 5.1358953 3.8371294 4.1064835 3.870026 7.758101 4.263354 6.072019
3.4638393 5.588932 5.8867583 7.152561 4.7916803 1.9431607 9.042455 4.830654
4.17839 7.1561394 7.5689225 6.449463 10.616876 5.6969123 5.494041 6.8591013
4.247373 6.296718 4.9865255 3.7924592 7.3642993 5.3558517 7.656938 6.2218194

encoder.3.weight f4 [128, 128]
00000000: a92e 3ebc 35c5 2bbd e4d7 7a3c 6844 31bd
00000010: 3cad 893d beef f73b 4fce 843d 50e5 acbd
00000020: 73ac f1bd a1a4 afbc 5f0d 9bbd 8016 8c3d
00000030: bf91 603d 2f51 f63c fa7f 21bc 9172 29be
00000040: c3ad 823e 7ba1 2bbd da1e 7c3d 003a 3abe
00000050: ecac debd f7c2 773d 9dab 3ebe a1c9 063e
00000060: bc73 00bc 4b7a a03c 8bf9 3bbd 93c9 2dbd
00000070: 9cd5 0dbe 9ec6 7abc 5ecb 1b3e 9938 28bd
00000080: 7607 083e 3f4a 383e dd30 b73d b78f 1b3e
00000090: 5830 6fbd 3ec8 62bd 65e6 52bd 8ed7 453d
000000a0: cfe9 803d 3887 8cbd c9ad 0b3e 49eb f3bd
000000b0: bf10 2abe 9691 3c3d 9da5 0a3e 7fce 08be
000000c0: 3b6e 403d 435d 0bbe 5985 0a3e a345 29bd
000000d0: 0f95 5c3c 1f33 293e 16cd 393e 4c7a 08be
000000e0: 90b0 ffbd 5328 85bd 4e39 9a3c f49e 923e
000000f0: 73fe 8d3d f3d0 e73d 2891 e0ba 1f74 02be
00000100: b668 21bb 833f 873c d62f a83d f31a 503e
00000110: 31b0 e03d 8947 37bd a87f 8ebd 07b9 093d
00000120: d26b 083e 4d39 dbbd f480 f1bd 46a1 63bd
00000130: 98f7 e4bd db9f 873c c55d 323d cc07 7dbd
00000140: ec39 163e d773 4fbd 4dbe 3f3d 4857 dcbc
00000150: 7c4c c23c 1e6d 92bd 317f e43a 0d49 ebbc
00000160: abe4 1ebe c7d3 0ebd 9bbd 53bd 2ed5 5d3c
00000170: daed f3bc 030e 12bd 4855 cf3c b5ee a3bc
00000180: c789 80bd 21dc 10be dda6 a13d 7643 cabd
00000190: 132c 443e 6305 c8bd 8eed 88bc 2ce3 a53c
000001a0: 224b aebd f7aa 883e e838 5a3c 873e 45bd
000001b0: 5526 0e3e b08c 91bc 5bf3 cc3d a19e 6b3e
000001c0: cb80 803e 3028 a2bd 2890 173e 578c 5b3c
000001d0: afc0 1dbd 1787 353e fe54 11be 56da 42be
000001e0: 0ac6 f63c cece 96bc 7403 0b3d 1a57 163d
000001f0: eeea 6a3d 3494 1e3d e675 9d3d 1d17 0f3e
00000200: 81bb 78b8 9876 033e a1dd 803b 5399 343e
00000210: 6ce6 163e 1789 eabc 35de fd3d df3e ee3d
00000220: 2d4b 70bd 908f 0c3d 3ad9 20bc 716e a8bd
00000230: 4caf 1bbd 2e07 99bd d39a aebd 8367 a83d
00000240: ccb1 87bd 5cbc 7dbb 54c0 bc3d d0a4 42be
00000250: f4e2 31be f426 1f3e df48 0fbc 658c cbba
00000260: 14e7 243c 2d1d 2cbd e831 75b9 bb63 3ebe
00000270: 36a0 8fbd 8e33 b63d 3fd3 053e 78a3 393d
00000280: da34 ad3e 90a8 6e3d bfcc 2c3e 02c5 23bd
00000290: cad7 42be 51f1 4cbd 1591 b43d 1600 9fbc
000002a0: 77d5 603d b18d 5c3c 9e51 83bc 7937 29bd
000002b0: 0b92 0c3e 1a57 c2ba 4dd1 17bd 926d 02be
000002c0: 508c 073c 5198 2fbd a71b 1e3e ac1b e43d
000002d0: 8ae0 10bd 62fd 843c 0f45 963d 6657 e53d
000002e0: f520 be3c f383 0ebc b4ae ff3d 861c 943e
000002f0: 2701 29bd 002d 32be 4f50 7b3d 41ec 97bd
00000300: 5a19 403b c6a7 b43d ba40 53bc 44ed 60bb
00000310: 44b3 ab3c 2aa2 94bd 61f5 af3d 61f0 103d
00000320: 5872 22be c627 4c3d 4f26 39be 2809 04bd
00000330: 595f f7bd 934c 89bd fd74 8f3c d922 7b3d
00000340: 52ff bd3d 1ded b23d 7361 563d 19f9 fa3d
00000350: b9f6 063e 3b86 943d 7240 643d 7320 2ebd
00000360: 6ebd 05be 21fa 7a3e 63fa cebd 9fa5 053d
00000370: b44a 533c 5461 b13d 933e b23d 4edc e13d
00000380: 3b6e febc a368 06bd 902b 1f3e 0fdf c4bc
00000390: 1fc5 ab3e c0a3 88bd 2b1d 723d 98c6 143e
000003a0: 48df 903d ecd3 6c3e c3a7 c83c 8916 dcbc
000003b0: 1234 d1bb f60c 513e 25e3 9dbb 62f1 153c
000003c0: 05cc 5abd 8e7f 913d eb97 79bc ffe4 b93d
000003d0: 7c49 7dbd 4a53 ecbc a583 9dbd cc7f 5cbb
000003e0: 3868 893d e3fc ed3d 9480 a23d e44e 423d
000003f0: 1155 cebd 2a30 053e 20f4 713d c345 d33d
-0.011607804 -0.04193612 0.015310261 -0.043278128 0.06722495 0.0075664213 0.06484663 -0.084421754
-0.1180047 -0.021440806 -0.0757091 0.06840229 0.054826494 0.030068008 -0.009857172 -0.1654761
0.25523195 -0.041902047 0.06155286 -0.18186188 -0.10872826 0.060488667 -0.18620153 0.13162853
-0.007840093 0.019589564 -0.04589228 -0.042428564 -0.13851017 -0.015306143 0.15214297 -0.0410696
0.13284096 0.17997073 0.08944867 0.15191542 -0.058395714 -0.055366747 -0.051489253 0.048301272
0.062945955 -0.068617284 0.13640513 -0.119101115 -0.1660795 0.04603728 0.13539739 -0.13360022
0.046980124 -0.13609795 0.1352743 -0.041326176 0.013463273 0.16523407 0.1814464 -0.13327903
-0.124848485 -0.06501832 0.018826153 0.28636897 0.06933298 0.11319151 -0.0017133104 -0.12739609
-0.0024629063 0.016509777 0.08212249 0.2032278 0.10971106 -0.044745956 -0.06957942 0.03362372
0.1332238 -0.10704289 -0.11792174 -0.055573724 -0.11180037 0.016555717 0.043546457 -0.061775014
0.14670533 -0.050647583 0.046812344 -0.026897088 0.023718111 -0.07149719 0.0017432926 -0.028721357
-0.15516917 -0.034869935 -0.051694494 0.0135395955 -0.029776502 -0.035657894 0.02530922 -0.020011285
-0.06276279 -0.14146473 0.07893155 -0.098761484 0.19157438 -0.097666524 -0.016714837 0.020249926
-0.08510424 0.26692936 0.013319232 -0.048155334 0.1388181 -0.01776728 0.10007354 0.23009731
0.2509826 -0.079178214 0.14801085 0.013400159 -0.038513836 0.17727314 -0.14192578 -0.19028601
0.03012373 -0.018409159 0.03393884 0.03670416 0.057352953 0.038715556 0.07688503 0.13973661
-5.9302434e-05 0.12838209 0.00393267 0.17636614 0.14736336 -0.028629823 0.12395898 0.116330855
-0.058665443 0.0343166 -0.009817416 -0.0822419 -0.038008973 -0.074720725 -0.08525624 0.08222868
-0.06625709 -0.0038717007 0.09216371 -0.19008183 -0.17371732 0.15542203 -0.008745401 -0.0015529512
0.010064859 -0.04202001 -0.00023383612 -0.18592732 -0.0701298 0.08896552 0.13068865 0.04532191
0.33829385 0.058266222 0.1687498 -0.039982803 -0.1902763 -0.050034825 0.08816735 -0.01940922
0.054891076 0.013461516 -0.016030129 -0.04131267 0.13727586 -0.0014826984 -0.03706484 -0.1273711
0.008273199 -0.04286987 0.15440236 0.111380905 -0.035370387 0.016234104 0.07337391 0.111983106
0.023209075 -0.008698451 0.12484494 0.28928012 -0.041260865 -0.17399979 0.061355885 -0.07418109
0.0029311986 0.08821063 -0.01289385 -0.0034321109 0.020959504 -0.07257493 0.08591724 0.035385493
-0.15863931 0.04984262 -0.1808102 -0.032235295 -0.12078733 -0.067040585 0.017511839 0.06131253
0.09277214 0.08736632 0.05233903 0.12254543 0.13180055 0.07252165 0.055725522 -0.042511415
-0.13060543 0.24509479 -0.10106351 0.03262865 0.012896229 0.08661142 0.08703341 0.11028348
-0.031058421 -0.032814633 0.15543962 -0.024032144 0.3354883 -0.06671858 0.059109848 0.14528883
0.070738375 0.23127717 0.024494058 -0.026866214 -0.006384381 0.204151 -0.0048183375 0.009151788
-0.053417224 0.07104407 -0.015233974 0.09076881 -0.06183766 -0.02884831 -0.07691125 -0.0033645509
0.06709331 0.116205 0.079346806 0.047438517 -0.10074819 0.13006654 0.059070706 0.1031604

encoder.3.bias f4 [128]
00000000: 8db0 173e ae32 933e 05ac 603e 9783 483e
00000010: c8ed 093e 061f 243e e728 023e 6148 1f3e
00000020: 4d37 693e 3a71 553e a2b4 983d d129 093e
00000030: 0ad6 743e f844 763e 2573 083e 4f57 3a3e
00000040: 8fe4 8c3e 61a5 203e 0982 0a3e 9cd4 0c3e
00000050: a6d6 423e 8bfc 583e b93f 733e 7d7c 283e
00000060: ce5c 3c3e 5a2d 8a3e 0c93 143e 17ec 4c3e
00000070: fc9a 543e 8664 5d3e 5dee 813e a91d 8b3e
00000080: 3ecf 383e 9696 543e 5811 aa3e 57f2 753e
00000090: 646b 8e3d b1f0 493e 554f 473e 0515 fb3d
000000a0: f9f6 693e 1486 613e db30 a43e cc79 573e
000000b0: db16 073e 412c 403e b5d3 4a3e 63be 983d
000000c0: 5ce3 363e 6ac2 673e 036b 653e f61d 223e
000000d0: cfd6 133e ceb8 8d3e 3c17 823e e468 883e
000000e0: f37e 5d3e db6d b23e 5bcb 023e 1da6 6f3e
000000f0: 2852 423e e50c 443e ed77 013e e91c 2b3e
00000100: 7a01 2e3e cdaf 443e 8593 413e ec79 2c3e
00000110: 25b4 613e 9dab 8d3e 8386 963e ad30 bb3e
00000120: cdbc 3c3e 7872 7e3e e460 2f3e 618f 2e3e
00000130: e48b 7b3e 4261 3c3e b8f2 3a3e 710f 3c3e
00000140: 6e4a 6d3e 406d 7f3e f841 853e d39e 803e
00000150: 2870 7c3d b13b ec3d f47c 5f3e dec8 1f3e
00000160: 4d89 073e d6dd 553e ea7d 353e d48f ab3e
00000170: 4369 693e d9eb 333e 578f 923e e15a ae3e
00000180: 20f4 543e 80ef 213e 3be8 f03d d5aa 2a3e
00000190: f680 143e 97d9 223e 9d14 333f 20d9 263e
000001a0: 495e 793e 00fc bc3d b30f 8b3e 3ccc 803e
000001b0: 1f93 113e c5eb 233e e0ab 773e 69f0 1c3e
000001c0: 017d 2f3e 910c 873e 6a40 6d3d 2d4a 533e
000001d0: d908 683e 0f31 7c3e 8a90 e83d 2205 803e
000001e0: 15c2 963e c02f 443e e90e c43d 6f90 433e
000001f0: 2b36 823e 4496 4a3e 1e69 fa3d 3291 513f
0.14813443 0.28749603 0.2194062 0.19581448 0.13469613 0.1602746 0.12710916 0.15554954
0.22775002 0.20843974 0.07456328 0.13394858 0.23909774 0.24049747 0.13325174 0.18197368
0.27518126 0.15688087 0.13526167 0.13752979 0.19027194 0.21190087 0.23754777 0.16453739
0.18394777 0.26987725 0.14509219 0.20011936 0.20762247 0.21620378 0.2537717 0.27171066
0.18047807 0.20760569 0.33216357 0.24018227 0.06954077 0.19720723 0.19463857 0.122598685
0.22848119 0.22023803 0.32068524 0.21042556 0.13192312 0.18766882 0.19807322 0.074581884
0.17860168 0.22632757 0.22404103 0.15831742 0.14437412 0.27680057 0.2540835 0.26642525
0.21630459 0.34849438 0.12772886 0.23403211 0.18976653 0.19145544 0.12643404 0.16710247
0.16992751 0.19207688 0.1890393 0.16843385 0.22041376 0.27669993 0.293995 0.36560574
0.18431397 0.24848354 0.17126805 0.17046882 0.24565083 0.18396476 0.18256652 0.18365265
0.23172924 0.2494402 0.26026893 0.25121173 0.061630398 0.11534823 0.2182501 0.15603969
0.1323597 0.20885405 0.17723814 0.3350817 0.2279406 0.17570437 0.28624985 0.3405371
0.20796251 0.15814018 0.117630444 0.1666673 0.1450232 0.15903316 0.6995333 0.16293764
0.24352373 0.09227753 0.27160415 0.25155818 0.14216278 0.16007908 0.24186659 0.15326084
0.17137529 0.26376775 0.05792276 0.20633765 0.22659625 0.2462809 0.11355694 0.25003916
0.29444948 0.1915884 0.095731564 0.19098066 0.25431952 0.19783884 0.12227081 0.81862175

encoder.5.weight f4 [128]
00000000: 8911 7d3f 281a 833f 1493 573f f728 603f
00000010: fa76 883f 793d 643f d900 623f 0663 7d3f
00000020: b05f 613f 9269 623f 76bd 753f f95e 693f
00000030: 30b5 843f b0bd 553f c0c3 6d3f 06b8 683f
00000040: 7dd5 6c3f 1b0b 5a3f a0f7 623f 4ed6 633f
00000050: 6ed3 793f 1dc5 423f a788 623f 1d07 613f
00000060: 1c37 753f 5e22 673f 25c2 5f3f 8a3e 7b3f
00000070: 8914 713f c01d 803f 39d2 6a3f 79a4 733f
00000080: d5f2 683f 85d3 6f3f b3c7 803f cdc1 613f
00000090: ceb5 883f 0056 7b3f 1340 863f dbad 5c3f
000000a0: 95db 713f 3962 793f 0c20 883f a63f 783f
000000b0: 8463 863f ea1b 4f3f 8a81 7b3f 51a8 733f
000000c0: 505f 653f d197 753f fe7e 5e3f 3016 5f3f
000000d0: d94a 693f 6a31 4c3f 1e06 733f 4103 743f
000000e0: 6162 763f ec4b 753f fd40 5d3f 2782 673f
000000f0: affe 783f c7e8 7d3f 3428 6f3f 8f2e 7d3f
00000100: bb7a 6f3f 2a77 563f f18a 813f 031e 7c3f
00000110: d5c2 633f 0895 6b3f 04a0 7a3f 2500 8f3f
00000120: 2f67 643f 5685 653f 8f5b 5a3f 905f 413f
00000130: ad21 813f 3f45 5e3f 9f10 373f 0537 6d3f
00000140: b421 723f 1b5c 833f 93c9 803f 161e 713f
00000150: 1417 643f 1dd1 7d3f c4f4 683f 69ac 743f
00000160: f7f9 6c3f 743e 853f 84b1 583f 9e20 763f
00000170: fc1f 783f 7a9a 743f d1fa 903f 3ab1 803f
00000180: 115b 853f 9b03 6c3f ad10 643f 0137 773f
00000190: 736e 6e3f 61c9 7b3f e0bc a53f 0b9a 733f
000001a0: 60a5 5e3f 561e 733f 9b7b 6f3f 852a 803f
000001b0: cd24 563f a64e 513f b3e8 6c3f 0436 713f
000001c0: 450d 5f3f 185e 5f3f 75ef 543f c972 613f
000001d0: 40e9 723f 3480 783f bd87 833f 4164 663f
000001e0: 6d65 913f 9908 743f c0f3 6b3f 7936 603f
000001f0: 2f1e 833f 692c 623f df4f 583f fe05 cc3f
0.9885488 1.0242357 0.842088 0.8756251 1.0661309 0.891563 0.88282543 0.9897922
0.8803663 0.8844234 0.9599222 0.9116054 1.0367794 0.83492565 0.92876816 0.909058
0.9251326 0.85173196 0.88659096 0.8899888 0.9758824 0.7608202 0.88489765 0.8790148
0.95787215 0.90286815 0.87405616 0.981423 0.9417196 1.0009079 0.91727024 0.9517284
0.9099553 0.9368213 1.0060943 0.8818634 1.0680482 0.981781 1.0488304 0.8620278
0.9447568 0.974155 1.063478 0.9697212 1.049912 0.8090197 0.98244536 0.95178705
0.8959856 0.9593478 0.86912525 0.8714323 0.91129833 0.797629 0.9493121 0.95317465
0.96243864 0.9581897 0.8642729 0.9043297 0.97263616 0.99183315 0.9342072 0.9889917
0.93546647 0.8377558 1.0120527 0.98483294 0.88969165 0.9202428 0.97900414 1.1171919
0.89219946 0.8965658 0.8529596 0.7553644 1.0088402 0.8682441 0.71509737 0.9266208
0.94582677 1.0262483 1.0061516 0.9418653 0.89097714 0.99147207 0.9099848 0.9557558
0.92568916 1.0409684 0.8464587 0.9614352 0.96923804 0.9554821 1.1326543 1.0054085
1.0418416 0.92193 0.89087945 0.96568304 0.9313728 0.98354155 1.2948265 0.95156926
0.8697109 0.94968164 0.9354798 1.0012976 0.83649904 0.81760633 0.9254257 0.94223046
0.8712962 0.8725295 0.8317788 0.88065773 0.9488716 0.9707062 1.0275799 0.89996725
1.1359078 0.9532562 0.9216881 0.8758312 1.0243586 0.88349015 0.84496874 1.5939329

encoder.5.bias f4 [128]
00000000: 79e5 2e3e 52b3 213e 7ea1 bf3c 6807 35bd
00000010: 8f6a 7e3e ed94 733e 3500 00bf 1441 19be
00000020: 4090 343e d913 71bd 1fa4 4cbe f5db 453e
00000030: cdba 27bd de1b 043d 5d5c ec3c 6993 d83c
00000040: 216c 773d ab8e 0a3f cb2d 21be e73e 96bc
00000050: 15a6 243d c426 013f 5055 353f 93c5 9e3e
00000060: f8a7 e6bd 9e45 823e b702 41be a16c 83be
00000070: 6eee 4c3e ec33 37be 33d2 21be cd3b 273f
00000080: caec 903e 2598 533e 3e20 5e3d 21cb bebd
00000090: 1221 8fbe b002 7e3d 198a 813d b3fa 133e
000000a0: 725a fc3e 5e2f 9d3d 00d5 a53e 3140 88be
000000b0: d81f 8cbe 6c64 79bd 4779 733d 731b 23bf
000000c0: 98cc 123e 0afc 043e 2904 1d3f c263 803e
000000d0: 62e6 c3be 36b7 d33e eaa9 1f3e e6c9 c83e
000000e0: 4ea0 883e 88ae 843e dd8a c4be 71e7 123d
000000f0: 1655 253f 2da9 60be 3719 d8bd 7eda 6cbe
00000100: c199 863d 9636 6b3e dfff d3bd 53e0 343d
00000110: f61e 3a3e 2c27 a23e e5da e13e 1db7 82be
00000120: f629 dc3e 9b03 803e 929e 223e ef5e 423e
00000130: 557b 0dbe 6009 cabc 9e04 fe3e 1a1a 0e3c
00000140: 3a3a 0e3f 2ed7 003e 50b3 f83d 8bd4 993e
00000150: e112 103d d4cb 953d edfb f5bd c3af 6fbd
00000160: c4f0 ac3d c38d 973e 48d4 0fbf 4d05 a83e
00000170: 5f21 3abd f6ed 703e 585b 1bbf bec9 0b3f
00000180: 308c 263e 3a2b 8b3d eede d4be 3a61 fabd
00000190: a510 f43d 0f34 523e ffc2 8f3e 1d93 1fbe
000001a0: 274c 803e 94dd 953d 5065 20bd bd2f c43d
000001b0: 7191 0dbe 9aef 073d 2093 2fbe 396d 39be
000001c0: 378a a83c 368b 563e 3d64 78be 52cf 0abe
000001d0: 5ce0 a43e 5ccb cc3d 5591 99be 95ca e93d
000001e0: c808 f23d 9732 963e 472c 5bbc 1281 26be
000001f0: ff49 6a3e b56a 94be 98a5 483e c720 b2bc
0.17079724 0.15791062 0.023392435 -0.044196516 0.24845336 0.2378728 -0.50000316 -0.14966232
0.17633152 -0.05885682 -0.19984482 0.19322188 -0.04094963 0.03225314 0.028852636 0.026437478
0.060405854 0.54123944 -0.15740125 -0.018340541 0.04019745 0.50449777 0.708333 0.31010112
-0.11262506 0.2544374 -0.18848692 -0.25668815 0.20012829 -0.178909 -0.15802841 0.65325624
0.28305656 0.20663507 0.054229967 -0.093160875 -0.27954918 0.06201428 0.06325168 0.14451103
0.49287754 0.0767505 0.3238907 -0.26611474 -0.27368045 -0.060886785 0.05944183 -0.6371376
0.14335859 0.1298677 0.6133447 0.2507611 -0.38261706 0.41350716 0.15592161 0.39216536
0.26684803 0.25914407 -0.38387194 0.03586525 0.64582956 -0.21939535 -0.10551684 -0.23130223
0.06572295 0.22970042 -0.10351538 0.044159245 0.18175873 0.3167051 0.44112316 -0.2553033
0.43000764 0.2500275 0.15880802 0.18981527 -0.13816579 -0.024662673 0.49612898 0.008673215
0.55557597 0.12582085 0.12143576 0.3004497 0.035174254 0.07314268 -0.12010942 -0.05851723
0.0844436 0.29600343 -0.5618329 0.32816544 -0.04544198 0.23528275 -0.60686255 0.5460471
0.16264415 0.06795354 -0.41576332 -0.12225576 0.11917237 0.20527671 0.28078458 -0.15583463
0.250581 0.07317653 -0.03915912 0.09579418 -0.13825013 0.033187486 -0.17145967 -0.18108071
0.020573718 0.20951542 -0.24256988 -0.13555649 0.32202423 0.09999725 -0.29993692 0.114155926
0.11818081 0.29335472 -0.013377256 -0.16260174 0.2287979 -0.2898766 0.19594419 -0.021744145

encoder.5.running_mean f4 [128]
00000000: 79fb be3f e5a2 0440 039b 933f d870 c53f
00000010: 08c9 9d3f c5f0 893f 851d 9c3f 0217 893f
00000020: 51a2 8e3f 04dc b13f 437d 9d3f d32c 8b3f
00000030: a62c d63f 5be6 4e3f b66e 8e3f e02b 803f
00000040: 4569 b43f b299 8f3f 7024 bc3f f6e8 c83f
00000050: 06b6 9a3f 56e6 3e3f fc9f a53f d90f 9c3f
00000060: 2aef bd3f dfdf 9d3f d68e b93f 7ba2 c23f
00000070: ae47 dd3f 12c9 e43f 46d1 e73f 786e ac3f
00000080: c1af a23f 82f4 993f 65fa 0940 a886 c03f
00000090: 4b4b 8a3f b75a cc3f df94 9d3f 1999 623f
000000a0: a202 9a3f 5e7f 9a3f e75c ff3f 78a3 993f
000000b0: b3b8 d33f 8562 c43f 802b a33f 58ad b63f
000000c0: 9034 a93f f845 993f b022 5d3f 4591 833f
000000d0: 7f63 c03f 3c4e a13f d47d ae3f 29cc ad3f
000000e0: 7e01 a23f 9d26 ef3f b79a a33f 149c a13f
000000f0: 84c1 8e3f ec29 bf3f 18fe d83f 15ce bb3f
00000100: 1e5a b33f aa8e 9c3f b927 ac3f 58f5 9d3f
00000110: f9ac 933f 3f7a af3f e0dc b43f 7fc2 4c40
00000120: 02e2 7f3f 7b9e 9f3f 2b22 ba3f 6784 773f
00000130: ef20 cd3f 58eb 843f 7cc8 6b3f 62e7 9e3f
00000140: 29cd a83f 8075 ac3f 693c c83f 9841 8e3f
00000150: 3a58 9d3f a654 9d3f ac9b 0040 26b9 8a3f
00000160: 3c81 913f bd44 893f ddbc b33f 0a8d 2140
00000170: 6291 a73f 8fec 9a3f 6858 4f40 e6dc d23f
00000180: 5e97 c83f 9698 d43f 8a0e e13f 0a9b cc3f
00000190: affd 8e3f ed52 7d3f 6469 8b40 7e0a 843f
000001a0: 2fd2 bc3f 7a10 863f ae15 793f 22f2 c93f
000001b0: f6d1 923f 6ad1 943f 69f4 c73f bcfb 953f
000001c0: 7c2e 8b3f 4e63 a63f 6fe3 913f 3cbc a03f
000001d0: 0d43 9b3f cb6d bd3f 0f54 883f 7d81 a73f
000001e0: 540c ee3f 522f ca3f 2533 4d3f 2842 8c3f
000001f0: 9ef6 8e3f 253b ac3f 660a 883f 1e76 d040
1.4920493 2.0724423 1.1531681 1.5425062 1.2326975 1.0776602 1.2196509 1.0710146
1.1143285 1.3895268 1.2303852 1.0873054 1.6732376 0.80820245 1.1127536 1.001339
1.4094626 1.1218779 1.469862 1.5696094 1.2086799 0.74570215 1.2939448 1.2192336
1.4838612 1.2333945 1.4496715 1.5205835 1.72875 1.7873862 1.811074 1.3471212
1.2709886 1.2027743 2.1559079 1.5041094 1.0804228 1.5965184 1.2311057 0.8851486
1.2032053 1.2070119 1.9950227 1.2003012 1.6540741 1.5342566 1.274765 1.427165
1.3219166 1.1974478 0.86381054 1.0278708 1.5030364 1.2602 1.363215 1.357793
1.2656705 1.8683659 1.278159 1.2625756 1.1152806 1.4934669 1.6952543 1.4672266
1.4011877 1.2231038 1.3449622 1.2340498 1.1537162 1.3709182 1.4129906 3.199371
0.99954236 1.2470239 1.4541677 0.96686405 1.6025676 1.0384321 0.9210279 1.2414362
1.318761 1.3473358 1.5643436 1.1113768 1.229255 1.2291458 2.0095015 1.0837753
1.1367564 1.0724102 1.4042011 2.5242333 1.3091242 1.2103442 3.239771 1.6473663
1.5671194 1.6609066 1.7582562 1.5984814 1.1171168 0.9895466 4.356615 1.0315702
1.4751643 1.0473778 0.97298706 1.5777018 1.1470325 1.1626408 1.5621463 1.1717448
1.0873561 1.2999055 1.1397532 1.2557445 1.2129837 1.4799131 1.0650653 1.3086392
1.8597512 1.5795691 0.80156165 1.0957689 1.1169012 1.345555 1.0628173 6.5144186

encoder.5.running_var f4 [128]
00000000: eb93 1c40 eeff 1240 9b56 dc3f 11b8 3240
00000010: 70ff 2e40 32b9 dd3f 0803 cf3f cffc 1540
00000020: 351b f03f daa3 0040 243e 2540 aeea 1840
00000030: ad94 2b40 ff33 b73f 35d6 c13f 3ac4 c03f
00000040: 1e4a 0a40 a313 1d40 2676 2d40 ee40 2940
00000050: f7e9 0240 c6a7 893f cbd7 3540 9115 0240
00000060: 573c 0c40 1e95 2a40 bf7c 2a40 5ab1 4640
00000070: e0e8 4440 9d78 0940 1ab6 a33f 8c25 2540
00000080: 6635 1d40 3801 0740 b279 5540 6729 0940
00000090: f6ce 1f40 e6b2 0d40 d335 2f40 3519 c53f
000000a0: 908c e93f 4632 0240 e4cb 1d40 af03 0d40
000000b0: 715b 5e40 1eb1 e23f 640a 1c40 2a65 4a40
000000c0: 3440 2b40 50c2 f03f c67a e93f 0166 db3f
000000d0: f5a0 4840 7834 ee3f 0907 3e40 5e9d 4940
000000e0: 69f7 3640 1d84 ee3f 26c4 0440 56cc 1e40
000000f0: 41d8 2540 0640 2a40 1115 3740 dd6b 3040
00000100: 4380 1a40 d1ce e53f 593b 1740 489f 4140
00000110: eb0a c93f 1c07 2240 c815 2d40 0a4b 0340
00000120: ccf6 f03f 4059 0840 c136 0a40 03f1 b43f
00000130: 058f 1340 25c3 e13f 08fe be3f 47c5 4340
00000140: 5271 0a40 ca9b 1440 89ef 1e40 8ae3 1940
00000150: 1042 0140 8e96 2640 417b 0140 9c8b 1440
00000160: 1b10 da3f 06c5 1840 2ac6 3740 48f0 bb3f
00000170: 96da 2340 ddf1 fc3f e1ef e93f c25b 4740
00000180: 3779 2b40 2a8d b33f adce 2140 dccf 4240
00000190: 60f3 1240 0e7c 0940 100b 4a40 8914 1d40
000001a0: bad5 1e40 2a28 0e40 4301 b03f 0cde 3e40
000001b0: dd4c e23f 98a0 f63f e25d 2040 42c2 1340
000001c0: ce44 fd3f a1fb 0640 9b9d fa3f 50c2 0240
000001d0: 4b96 d03f 18f3 3e40 8e46 1f40 245d b13f
000001e0: e2bf fc3f a26c 5740 a9a0 cd3f 2225 d63f
000001f0: b193 ee3f 1c0e da3f 3447 c63f ea1e 8d40
2.4465282 2.2968707 1.721393 2.7924845 2.7343407 1.7322142 1.61728 2.3435552
1.8758303 2.0100007 2.5819178 2.3893237 2.6809494 1.4312743 1.5143496 1.5059884
2.1607738 2.4543235 2.7103362 2.644588 2.04553 1.0754325 2.841296 2.0325663
2.1911829 2.6653514 2.663864 3.1045747 3.0767136 2.1479867 1.2789948 2.5804167
2.4563842 2.1094494 3.3355527 2.143152 2.497007 2.214044 2.7376602 1.5398318
1.8246021 2.0343184 2.4655695 2.2033498 3.4743311 1.7710302 2.4381342 3.1624246
2.6757936 1.88093 1.8240592 1.7140504 3.134824 1.8609762 2.9691794 3.15023
2.8588507 1.8634068 2.074472 2.4812217 2.591324 2.6601577 2.8606608 2.7565835
2.4140785 1.795374 2.3629973 3.0253468 1.5706457 2.531684 2.7044544 2.051455
1.8825316 2.1304474 2.159592 1.4136051 2.3056042 1.7637678 1.4921274 3.0589159
2.1631665 2.3220086 2.48337 2.404513 2.0196571 2.6029391 2.0231478 2.321021
1.7036165 2.3870254 2.87147 1.4682703 2.5602164 1.9761311 1.827633 3.1149755
2.6792734 1.4027455 2.5282395 3.0439367 2.2961044 2.1481967 3.1569252 2.4543784
2.4817948 2.2212014 1.3750385 2.9823027 1.7679707 1.9267759 2.5057302 2.3087316
1.9786623 2.1091082 1.9579347 2.04311 1.6295866 2.9835873 2.4886813 1.3856549
1.9746058 3.3660054 1.6064655 1.6730082 1.8638822 1.7035556 1.549048 4.4100237

encoder.6.weight f4 [128, 128]
00000000: 3fea 5d3b 86a4 62bc 5267 9d3a cedc 8ebd
00000010: b0b1 e8bc 7ac7 e63d 0ce6 a2bd a8c4 8fbd
00000020: f141 6cbd c148 343e 313e 9abd f842 873e
00000030: 87c4 503e 3094 01be b2a9 e8bc 2a4a 93bd
00000040: 9dd5 383e fb74 1fbe 53d7 b2bd 7d45 96bd
00000050: dd9a 98bc 13ee 043e 5d67 a93d c5f9 52bd
00000060: b18b a03c 6c83 b0bd a143 0b3e 15f8 3a3c
00000070: 9c99 983d 438b 3b3e da3c 90bd dd68 4cbd
00000080: f6b3 093e f5ad 6ebd 9034 0bbd 3e8f 453e
00000090: 9a1a 75be c49f d4bc 598b 7a3d 2962 ae3b
000000a0: eaf5 3c3e c967 96bd 0249 34be 5fa4 a0bd
000000b0: c3fa ecbb ddd9 65bd 4f73 373d f74a 18bd
000000c0: 6df9 a43c 0dfd bfbd 41a3 843d 5c24 80bd
000000d0: bdb1 353c 9013 87bd 5c7f 473d 277a 61bd
000000e0: 3f62 8bbd 9da6 d9bd d362 6bbd 5745 ad3d
000000f0: 86d3 b93d 265e 833c 66a4 c0bd 51f3 16be
00000100: 7747 973c 6595 923d e375 a8bd 5827 2f3e
00000110: 32e7 2cbc 84f6 c5bd 623d 5bbc 5f01 84bd
00000120: 58ba 453e b4cb 713d 70d2 0d3d 54b0 b23d
00000130: a2d4 a83d 2a88 8cbd 172e ae3d f8ea 703d
00000140: 3767 2bbe 4eb2 83bd 0f5c 7fbd 710a 31bc
00000150: 145c 16bd bcdf f1b9 874f 493d 59ec cdbd
00000160: d064 1a3e 4765 f23d 55c2 e83d f235 213d
00000170: 289d 6abd fa70 bfbd 83ff 4cbd 4746 a1bd
00000180: c1ac 02bd 19eb b23c 879f 9cbd 8a6e 9fbc
00000190: 6fd5 b13e b9f1 0abd be51 06be f83e a43d
000001a0: 4c4b 08be 52e4 a7bc 513d 1ebe 068d ebbd
000001b0: e9e0 a737 e11f 10be 67c3 0c3d 2a1c 003e
000001c0: c7db 013a 8a76 cc3a 1108 3abd b2ea 273e
000001d0: b41c 49bc 1d1f 0c3c aa73 293d ab21 9bbc
000001e0: ee66 9e3c 27d2 013d 3798 1abc 7192 f9ba
000001f0: a804 583d ff2d 61bd 2e61 12bd a0fc ec3c
00000200: 7330 5abd 449d 94bd 612e f43d 0c8f 323c
00000210: 6c50 4f39 e52c dbbc f082 7b3d c1c9 dfbd
00000220: e848 bebd 5acd 133e a400 ac3d b786 19bd
00000230: c3b5 613e d893 b83d 29b4 553e a4af 653e
00000240: 8196 1cbe 293d 273c 2978 e5bb e340 56bd
00000250: 067f ae3c 7081 49bd c42e b6bc 1b6a 983d
00000260: acd3 ffbd 602b 1abd 49c7 063c d667 743d
00000270: 3aa6 a53b 62f6 b03d 50a8 1e3e 12be 2c3e
00000280: 71fb 643d f9a4 183d 8152 b2bd bb48 013e
00000290: 3c77 d93d 6c14 9dbd e258 11be ec8b cdbd
000002a0: 0ef2 623e 5f48 c6bc c618 92bc 5da5 cdbd
000002b0: 64ed 2f3d 3283 d7bd dc9a f4bc 2fe8 383c
000002c0: 8a65 863d cac0 9f3c 9614 ae3c 4533 8b3d
000002d0: 27c5 a3bd 9702 843d d1cd a13d b4b6 7cbc
000002e0: 6634 22bd 9a92 adbd ca8f cb3d 6e87 d5bc
000002f0: e19b 00be 0c83 d2bc e3b7 40bd 3eb4 9d3d
00000300: 6c49 2dbe 2377 773c 8412 4f3e d052 8fbd
00000310: e394 8dbd d7a4 063e 1dad 2dbd 2837 03be
00000320: 119c 8b3d 3c77 ac3d 1f9d d5bd d3d1 4a3d
00000330: afd4 0cbe 1b3e ccbd 39cc 4bbc bcb9 2ebd
00000340: f26a a9bc 2a0a b73d 60b4 b7bc 6078 d93d
00000350: 2c80 16be e067 20be def5 10bd 153a 3cbe
00000360: 174a 893d a301 32bd 277b 0b3e 9c41 83bd
00000370: 869b 1fbe fac2 0c3d c6ab 22be f466 aebc
00000380: f418 8abd 9957 1ebd 2990 16be eeb9 33bd
00000390: 4502 d6bd f726 2bbd 86a9 183d 60c2 b6bd
000003a0: 3118 3f3d bdba 323e 826e 05be 3bdc fcbc
000003b0: 4399 3dbc 1a23 9bbd deac 7ebd 3b8b b6bb
000003c0: 79c9 0fbe d66d e73d 244f a9bd 7621 cbbd
000003d0: 4c82 0f3e 29e7 ac3d afa9 48bd a0a2 983d
000003e0: 9298 8c3d 4344 bfbd 901a a4bc 86cd a43d
000003f0: c2ad 0cbe 3cdb 80bd aa21 ed3c 2fc2 7c3e
0.0033861545 -0.013833171 0.0012008941 -0.06975709 -0.02840504 0.11268516 -0.07954034 -0.07019931
-0.057680074 0.17605878 -0.07531393 0.2641828 0.20387469 -0.12654185 -0.02840123 -0.0719188
0.18050237 -0.15571968 -0.08732476 -0.073374726 -0.018628532 0.12981443 0.08271668 -0.05150773
0.01959786 -0.08618817 0.13600017 0.011411686 0.07451174 0.18314843 -0.070428565 -0.049904693
0.13447556 -0.058271367 -0.033985674 0.19292924 -0.23935929 -0.025955088 0.06116805 0.00532176
0.18453184 -0.07344014 -0.17605975 -0.07843851 -0.0072320416 -0.056115974 0.0447877 -0.037180867
0.020138467 -0.093744375 0.06476451 -0.06256935 0.011089739 -0.06595528 0.048705444 -0.055048134
-0.06805848 -0.10627482 -0.057467293 0.08460491 0.09073548 0.016036104 -0.094063565 -0.14741255
0.018466694 0.07157401 -0.0822561 0.17104852 -0.010553168 -0.0966616 -0.013381334 -0.06445574
0.19309366 0.059032157 0.034624517 0.08725038 0.082436815 -0.06861909 0.08504885 0.058817834
-0.16738592 -0.06430493 -0.062343653 -0.010805712 -0.036708906 -0.00046133797 0.04914811 -0.10054845
0.1507752 0.11835723 0.11365191 0.039358087 -0.057278782 -0.093477204 -0.050048362 -0.078747325
-0.031903032 0.021840619 -0.07647615 -0.019461889 0.3473315 -0.03392193 -0.1311712 0.08019823
-0.13309973 -0.020494614 -0.15453078 -0.115015075 2.0012683e-05 -0.14074661 0.034366038 0.12510744
0.0004953709 0.0015599292 -0.04541785 0.16398123 -0.01227491 0.00855234 0.04137007 -0.018936953
0.01933619 0.031694558 -0.009435705 -0.0019040835 0.052738816 -0.054975506 -0.03573721 0.028929055
-0.05326886 -0.072565585 0.119229086 0.010898363 0.00019771018 -0.026754806 0.06140417 -0.109271534
-0.092912495 0.14433804 0.0839856 -0.03748199 0.22041993 0.09012574 0.20869507 0.22430283
-0.15291788 0.010207453 -0.0070028496 -0.052307975 0.021300804 -0.049195707 -0.022239096 0.07442113
-0.12491545 -0.037639022 0.008226224 0.05966934 0.005055216 0.08640744 0.15493894 0.16869381
0.055903856 0.037266705 -0.087071426 0.126254 0.10618445 -0.07669911 -0.14194062 -0.100364536
0.22162649 -0.024204431 -0.017834079 -0.10041306 0.042951003 -0.105230704 -0.029858999 0.011285826
0.06562336 0.019501109 0.02125005 0.06796888 -0.07996588 0.064458065 0.079005845 -0.015424419
-0.039600752 -0.08475228 0.09939535 -0.026065554 -0.12559463 -0.025697254 -0.047050368 0.07700394
-0.1692254 0.015104088 0.20221907 -0.06998217 -0.069131635 0.13148819 -0.04240142 -0.12814009
0.06816877 0.0842118 -0.10430359 0.04951651 -0.13753007 -0.09972783 -0.012438827 -0.0426576
-0.020680878 0.089374855 -0.022424877 0.10618663 -0.14697331 -0.15664625 -0.035390727 -0.18381532
0.06703585 -0.043458592 0.13621198 -0.06408998 -0.15586671 0.03436563 -0.15885839 -0.021289326
-0.06743041 -0.03865776 -0.1470343 -0.04387849 -0.10449652 -0.041785207 0.037271045 -0.08923793
0.04665393 0.17454048 -0.13030437 -0.030866733 -0.011572185 -0.075750545 -0.062176578 -0.005570797
-0.140417 0.113002464 -0.08267048 -0.099184915 0.14014548 0.08442528 -0.048989948 0.07452893
0.06865038 -0.09339192 -0.020032197 0.08047013 -0.13738158 -0.06291816 0.028946716 0.2468345
